Config/results/PPO_10/PlatformerBehavior/PlatformerBehavior-14999968.onnx (onnx, 721835 bytes, 13 tensors)

action_model._continuous_distribution.log_sigma f4 [1, 4]
000000 4b 64 52 be a1 f1 39 bf 59 ea c5 be 64 3b 92 3e
       -0.20546071 -0.7263432 -0.38655356 0.28560936

action_model._continuous_distribution.mu.bias f4 [4]
000000 6a 61 b9 3c 21 ea 55 3d c8 01 4b bd 54 81 f3 bc
       0.022629458 0.052225236 -0.049562246 -0.029724754

action_model._continuous_distribution.mu.weight f4 [4, 256]
000000 a7 db 47 3d 77 e0 3c bd 00 15 bc 3b db db 2b bd
       0.04879346 -0.046112504 0.005739808 -0.041957717
000010 6c 42 73 bc be a8 c6 3c 96 f8 85 bc 89 90 93 bc
       -0.014847379 0.024250384 -0.016353887 -0.018013256
000020 1f 93 d5 3c 4e 83 b3 3c b4 fe 8d 3c 3a da 89 3c
       0.02607113 0.021913197 0.017333366 0.016827691
000030 e1 76 bf 3c 1e 37 f9 bc bf 97 61 bc b1 b2 ac bc
       0.023372116 -0.03042179 -0.013769089 -0.0210813
000040 98 1a 99 3c 55 de 59 3c 27 86 52 bc 56 a0 77 bb
       0.018689439 0.013297637 -0.012849367 -0.0037784777
000050 ab 7c bf 3b 37 1c 16 3d fa ee a4 3b 3c ab 43 3d
       0.005843719 0.036648 0.005033371 0.047770724
000060 17 8f 10 bd e1 d0 24 3c 88 bf 92 3c da e2 d5 bc
       -0.03529271 0.010059566 0.017913595 -0.026109148
000070 6e bb a5 bc 67 98 91 3c 9c 52 06 bd 39 9d 8e 39
       -0.020230975 0.017772866 -0.032793626 0.0002720149
000080 ba d3 0d bd bf 7a 06 bd 18 93 37 3d 00 ab 9a bc
       -0.034625746 -0.032831904 0.044818014 -0.018880367
000090 ec ba 02 3d 7b 03 aa 3c e5 e3 54 3c 86 68 46 bc
       0.031916544 0.020753613 0.012993787 -0.012109881
0000a0 96 e2 6e bd b1 72 77 bc 94 53 4a 3c 62 72 2f 3c
       -0.058321558 -0.015103028 0.012349028 0.010708423
0000b0 15 3d 3d 3c 51 2f 20 3c 0d 62 05 bd b8 23 7c bc
       0.011550208 0.009776906 -0.03256421 -0.015389375
0000c0 f6 d2 97 bc ed ab c3 bc c2 22 00 3b eb 16 1b bc
       -0.018533211 -0.023885692 0.0019551967 -0.009465913
0000d0 7a c7 7e bc 1c 79 17 3c 9f 38 4c bd 07 34 4d bc
       -0.015550489 0.009245183 -0.049858686 -0.012524611
0000e0 3c 99 d2 bc 63 79 d1 bb 31 00 b3 bc 5e f1 8b bd
       -0.025707833 -0.0063926443 -0.021850677 -0.068331465
0000f0 58 0b f9 bc bd c2 9e bd f1 b7 9b 3a e4 54 43 bd
       -0.030400917 -0.07751987 0.001188038 -0.04768838
000100 5d 88 7b 3c 90 f0 e9 bc aa e1 22 3b d4 0b 8c bc
       0.015352336 -0.028557092 0.0024853745 -0.017095484
000110 ed 23 2c 3d 3a 97 51 bc 55 77 86 bb 36 aa cc 3c
       0.04202645 -0.012792403 -0.004103581 0.024983507
000120 b7 d9 47 bd 52 c6 ac bd b9 e3 20 bd 53 04 fd 3c
       -0.048791613 -0.08436264 -0.039279673 0.030885851
000130 a8 c6 43 bd 8c 71 3d 3c 18 ca bb 3c 99 28 b9 bc
       -0.047796875 0.011562716 0.022923514 -0.022602366
000140 da ba 0e 3d 1d 8a 84 bc b3 0f 20 3d 29 8e 26 3d
       0.034846164 -0.016179139 0.039077472 0.04066292
000150 72 06 2f bd 48 be 65 bc f4 b5 42 bd 4b bd 86 3b
       -0.042730756 -0.014022417 -0.047536805 0.004111921
000160 e9 17 c9 bc db d3 d2 3c db d8 d3 3c 6b eb ac 3a
       -0.024547534 0.025735786 0.02586024 0.0013192719
000170 50 31 2c 3d 53 68 f8 bc f2 6a a6 bb cb 93 34 bd
       0.042039216 -0.030323183 -0.005078667 -0.04408626
000180 5b 7f 44 bc c4 e1 95 bd 6f 00 88 3d 24 eb b4 3c
       -0.011993255 -0.07318452 0.06640708 0.02208478
000190 9b a7 99 bd 86 e6 08 3d 50 03 50 bd f6 69 4e 3a
       -0.07502671 0.03342297 -0.05078441 0.0007874066
0001a0 75 0f 19 3d 6b 57 03 bd ed 60 5d bd 17 3b 87 3d
       0.037368257 -0.03206579 -0.054047514 0.06603067
0001b0 04 52 8e bd 1a 0e 9c bb 83 e4 fd ba a4 eb ff bc
       -0.06949237 -0.004762423 -0.001937047 -0.031240292
0001c0 7e 11 8f bc 85 fd 74 bd 2f 9d 4b 3d fd 9f 27 3d
       -0.017464396 -0.059812088 0.04971045 0.04092406
0001d0 73 98 b8 3b 36 09 28 3c ce 76 0d 3b b6 cb 48 bc
       0.0056334077 0.010256102 0.0021585706 -0.0122556
0001e0 d1 28 34 3d e1 cf d4 3a 77 38 67 bc de 30 2f 3c
       0.043984238 0.0016236269 -0.014112583 0.010692803
0001f0 d1 7f 37 3d 9a e4 de 39 0f 49 38 bd b5 08 8a 3b
       0.04479963 0.0004251346 -0.04499155 0.0042124637
000200 e3 1d ee bc 6c 20 49 3d 97 e7 1e 3c 24 15 3d 3d
       -0.029066985 0.049103186 0.00969877 0.04616274
000210 d3 f1 26 3d 84 b3 e0 3c 36 05 ac bc 54 85 70 3d
       0.040757965 0.02742935 -0.020998579 0.0587209
000220 b6 7d 0d bc b9 1b 4e bd cf a0 2f bd e7 ea 19 bd
       -0.008635929 -0.050319407 -0.04287797 -0.037577536
000230 63 fb 67 3c 03 63 a5 3c 66 3d ca 3c 88 82 09 3c
       0.014159056 0.020188814 0.02468748 0.0083929375
000240 46 00 7e 3b 79 2a 19 3d 34 cd 11 bd 0c ca ab 3b
       0.0038757487 0.03739402 -0.035596088 0.0052425917
000250 1d 46 90 3c 07 40 30 3c b1 0b de bc 67 5c bc 3b
       0.017611558 0.010757453 -0.027105184 0.00574832
000260 96 0f db bc 2d 73 f8 3c e1 e9 9b 3b 96 4d 34 bd
       -0.02674083 0.030328358 0.004758105 -0.044019304
000270 d8 a7 be bc 3a 5d 40 bc 50 6e b9 3b a0 d4 ce bc
       -0.023273394 -0.011740977 0.005658902 -0.025247872
000280 aa 6b 2c 3d e6 4f 90 3d 46 6d 05 bd 8e e9 50 bd
       0.042094864 0.070464894 -0.032574914 -0.051003985
000290 bd 2c e8 3c fb 16 8d ba 5c 36 ec 3c 4e a3 7d bd
       0.028341645 -0.0010764295 0.028834514 -0.061923318
0002a0 aa c0 43 3d 64 1f 87 bc 55 9a 43 3c 34 8d 42 ba
       0.04779116 -0.01649446 0.011938651 -0.00074215536
0002b0 74 6b 29 3d ff cb b0 bc 68 62 20 bc 7e 94 4a bd
       0.04136224 -0.021581648 -0.009789087 -0.04945802
0002c0 00 ca 20 bc 2d a4 ba bc d1 d0 3f bc ee 8b 0e bc
       -0.009813786 -0.022783363 -0.011707501 -0.008700354
0002d0 34 88 8d bc 13 42 ef 3c 46 19 21 bd 82 dc 0c bc
       -0.01727686 0.029206311 -0.039330743 -0.008597495
0002e0 0e 44 d6 ba a5 47 3d bd 57 ad 0c bd bc dc 25 bd
       -0.0016347186 -0.046210904 -0.034344997 -0.04049371
0002f0 fe 93 87 bd 4c 07 83 bd aa da 24 3c e5 7a 28 bd
       -0.06620024 -0.06397876 0.010061899 -0.041132826
000300 a3 65 a8 38 8f b4 be 37 ee a6 99 3c 0b 7c 5d 3c
       8.0297956e-05 2.2733844e-05 0.018756356 0.013518344
000310 09 bd 06 3d f6 50 74 bc 30 c5 aa bb 11 98 17 bd
       0.03289512 -0.014911881 -0.005211495 -0.037010256
000320 2e df 87 bc 63 12 b4 bb 7b 2f 09 3d b3 80 89 3c
       -0.016585913 -0.005495356 0.033492547 0.016785001
000330 88 f0 85 3c 9a c1 99 bb 3a 59 d9 bc 75 72 10 3c
       0.016350046 -0.0046922686 -0.026531804 0.008816351
000340 ed 70 45 bc a3 20 05 bd bf 28 69 bc d7 5c 41 bb
       -0.012050849 -0.032501828 -0.014230906 -0.00295048
000350 f9 68 d8 bc e1 6e 2b 3b 9c 65 8e bd 08 38 a4 bc
       -0.026417242 0.0026158618 -0.06952974 -0.020046249
000360 5b 62 f8 3c 57 71 7c bc b1 8b 8d bc 93 39 f7 3c
       0.030320337 -0.015407882 -0.017278524 0.03017882
000370 c0 ae 20 bd 03 69 56 3d 94 a5 a6 bd fb 11 51 bc
       -0.039229155 0.05234624 -0.0813705 -0.0127606345
000380 ec 87 b6 3c 8b 91 c8 3c aa ae 33 bc f7 23 bf 3c
       0.02228161 0.024483463 -0.010966936 0.023332579
000390 53 c5 9b bd ea a8 0e 3d 52 c9 22 bd 31 1d af 3c
       -0.07605996 0.034829058 -0.039742775 0.021376224
0003a0 8f 2d 80 bb 6d 5c 0b bd dd 8b 15 3d c9 0f 8a 3c
       -0.003911681 -0.03402369 0.036510337 0.01685323
0003b0 8f db 4f bb d8 7d b2 bc 08 9d 9b bd 9f 09 6c bd
       -0.003171656 -0.021788523 -0.07598311 -0.057626363
0003c0 8c 82 c5 3b c6 f5 e9 bc 2a c7 5e bd 21 cc df 3c
       0.0060275253 -0.028559577 -0.054389156 0.027319016
0003d0 99 ee 90 3d 6e ea 2d bb 86 19 9b 3d fa 5c da 3c
       0.07076759 -0.0026537436 0.075732276 0.026655663
0003e0 b0 2d 9a bc 60 91 06 3c 89 56 97 3d f6 d0 61 bd
       -0.018820614 0.008213371 0.07389552 -0.05513092
0003f0 38 f4 bf 3c 9a 8c e9 3c 25 66 49 3b 01 fa 32 bc
       0.023431882 0.028509427 0.003073105 -0.010923863

network_body.linear_encoder.seq_layers.0.bias f4 [256]
000000 d2 c9 38 3d cf 3c 96 bc 41 43 04 bd 5a 61 b3 3b
       0.045114346 -0.018339543 -0.0322907 0.0054742517
000010 ab e7 4b bd 87 fe b2 3c 29 e7 4a bd d1 9a 83 3b
       -0.049781483 0.021849884 -0.049536858 0.0040162583
000020 58 37 14 bd 29 96 3e 3b 4f 2b b5 3a 8b 90 19 bd
       -0.036185592 0.0029081202 0.0013822111 -0.037491363
000030 3f be 09 3c 49 d6 9a bb 71 73 cb 3c 06 00 58 3d
       0.008407175 -0.004725252 0.02483532 0.052734397
000040 6f 30 11 bc c1 61 27 3d 13 6a 2c bb 06 0b 52 3d
       -0.008861645 0.04086471 -0.0026308342 0.051280044
000050 95 be 37 bb 82 3a 62 3d 5e fc a3 bc 7e 2c a8 3b
       -0.002803718 0.05523158 -0.020017799 0.005132257
000060 5a 0a b1 bc 54 fa d0 bb 28 4c 41 3c 87 5a 53 bc
       -0.021611381 -0.0063774977 0.011797942 -0.012900001
000070 34 2f 17 bc 7c 7c 09 bd c3 1d 44 bd 93 fc 29 3d
       -0.009227563 -0.033565983 -0.047879945 0.04150064
000080 98 28 16 3d 98 ce 0e 3d a7 5d 00 bd e3 9b 16 bd
       0.036659807 0.034864992 -0.031339314 -0.03676976
000090 6e da 04 bd 19 64 c1 bc 5b b6 3d bd f5 e7 c0 3c
       -0.032434873 -0.0236073 -0.046316486 0.023548106
0000a0 bf 92 f5 bc e9 19 91 bc 27 c6 1f 3d f9 ae 89 3d
       -0.0299772 -0.01771255 0.039007332 0.067228265
0000b0 8e e5 60 bc 40 26 aa bb 57 8a 08 3c 38 ab cd bc
       -0.013726605 -0.005192548 0.008333764 -0.025106058
0000c0 d2 74 2a bd 99 56 5b 3d 43 a5 c0 3c ef 5b 63 bc
       -0.041615315 0.053549383 0.023516303 -0.013876899
0000d0 1f 86 03 3d 51 4f fb 3c 87 2a 3e 3d 4d 3c 14 bc
       0.03211033 0.03067747 0.046427276 -0.00904758
0000e0 7f 6a 06 3c ee 1d fc bb 7d fb f5 bc 6f 50 e5 3c
       0.008204102 -0.0076939976 -0.030027146 0.027992455
0000f0 eb 9d f7 bb 1d f6 e8 bb c0 12 85 bd e1 ec ac bb
       -0.007556667 -0.007109417 -0.06497717 -0.0052772616
000100 c4 05 62 3c 8d c2 6e 3c d3 5a de bc 80 89 81 3d
       0.01379532 0.014572752 -0.027142918 0.06325054
000110 55 48 8c bd 15 4f 31 3c b0 34 f1 bc 09 a6 07 bd
       -0.06849734 0.010822077 -0.029444069 -0.033117328
000120 8c d0 c4 b9 59 fe 87 3c e1 27 bb 3d fe 3d a7 3b
       -0.00037539413 0.016600775 0.09138466 0.0051038256
000130 ca c5 cf 3c 26 86 74 ba d1 94 f0 bc b4 8c ea bc
       0.025362868 -0.0009327851 -0.029367836 -0.028631546
000140 fd 1b 4e bd 25 75 77 ba 1a 07 6f bd aa e7 c5 bc
       -0.05031966 -0.0009439758 -0.058356382 -0.024158318
000150 c1 08 09 3d 47 13 a0 3b b8 59 36 3c 85 1a b8 bb
       0.033455614 0.0048851105 0.011129789 -0.0056183957
000160 86 69 d3 3c df b9 5a bd 98 30 d0 bc ad 1d 36 3d
       0.025807153 -0.053399917 -0.025413796 0.044461895
000170 09 b5 2f bd e0 26 3c 3d 8a 0f 93 3c e9 24 f7 bb
       -0.042897258 0.04593551 0.017951746 -0.007542242
000180 51 18 1f 3c 6b da d8 bb 37 ce cb b9 7e a6 76 bc
       0.009710387 -0.0066178343 -0.0003887282 -0.015054343
000190 5e a4 54 bc f2 65 b7 3c 12 22 9d bb 45 60 81 3c
       -0.012978641 0.022387479 -0.0047953213 0.015792975
0001a0 30 7d 56 bb b1 0c 05 3d 95 8c 3b bc 3d f0 8e 3a
       -0.0032728426 0.032482807 -0.011447092 0.0010905337
0001b0 bf fc 85 bc 21 3e 30 bd b4 30 e8 3c 2a bd 73 bc
       -0.01635587 -0.043028 0.028343536 -0.014876643
0001c0 5e ba 85 bc 36 61 04 bb 06 0d dc bc c1 01 96 3d
       -0.016324218 -0.0020199544 -0.026861679 0.07324553
0001d0 94 b4 83 3d b7 f1 44 3c 07 7c 10 3d b1 65 57 3c
       0.06430927 0.01202052 0.03527453 0.013146804
0001e0 f2 a1 3c bd ee 9e 7e bd 68 9b 82 bb e6 24 37 3d
       -0.04605288 -0.062163286 -0.003985811 0.044712923
0001f0 ce 4c 46 3d 0b b9 93 3c df 90 16 bd 5a be 0c 3d
       0.04841309 0.018032571 -0.036759254 0.03436122
000200 e6 d2 0f bd 5d bc 04 3d 9b 81 22 bd ca d2 4f bb
       -0.035113238 0.0324062 -0.039674383 -0.0031711333
000210 f2 24 78 3b 14 a5 93 3c b8 42 4d 3c fe 31 a1 3c
       0.0037863818 0.018023051 0.012528114 0.019677158
000220 be f9 f6 3b 0b d1 ec bc de d9 81 3b 62 a3 b3 3c
       0.007537096 -0.028908273 0.0039627394 0.021928493
000230 12 a1 99 3a 25 32 72 bc 91 82 52 bc f2 a6 3a bc
       0.0011720976 -0.014782463 -0.012848512 -0.011392342
000240 d4 d9 aa bc 61 2a ba bb 19 f2 ae bc d0 70 54 bc
       -0.020855822 -0.0056813215 -0.021355676 -0.01296635
000250 7e ca 2f 3d a9 1c 35 bc 1e 6a 2e bd 72 56 39 3d
       0.04291772 -0.011054196 -0.04258167 0.045248456
000260 d5 01 7c bd 08 bd 61 3d 02 20 2d bd 0f e3 f6 3c
       -0.061525185 0.055111915 -0.042266853 0.030137567
000270 bd b9 89 bc 1b 45 7a bb b6 e2 f6 3c 07 21 69 3c
       -0.0168122 -0.0038188163 0.030137401 0.014229066
000280 b8 35 04 bc 60 a6 88 3c 54 a0 dc bc c6 a9 ac bc
       -0.008069448 0.016680896 -0.02693192 -0.021077048
000290 77 e1 86 bd 03 53 eb bb 84 80 2d 3d 43 d6 f6 bb
       -0.06585973 -0.0071815266 0.04235889 -0.007532866
0002a0 30 0b ed 3b 3d f0 c2 3c a6 23 3c 3c fc b7 91 3b
       0.0072339997 0.023796195 0.011483109 0.0044469815
0002b0 33 0c 9a 3c 4a 28 21 3d c4 78 46 3d e0 65 1c bd
       0.018804645 0.039345063 0.048455015 -0.038183093
0002c0 7e 39 d3 3c 85 23 1b 3d d2 3d 0a 3d 01 30 d7 3c
       0.02578425 0.03787567 0.033750363 0.026268007
0002d0 84 96 2c bd c3 10 18 3d 8d f9 3c 3d 98 b4 85 bb
       -0.04213573 0.03712536 0.046136428 -0.0040803663
0002e0 71 67 1f 3d 39 1f 40 bb 27 8f 13 bc 6c 0b 56 3d
       0.03891701 -0.0029315485 -0.009006298 0.052256986
0002f0 7e 71 b5 bc 0f 41 43 bd b5 6d d9 3c db c2 90 3c
       -0.022148844 -0.047669467 0.02654157 0.01767104
000300 87 3d c4 bc 4e 68 18 bc fb 1a bb 3c f1 0d 94 bc
       -0.02395512 -0.009302212 0.022840014 -0.018073054
000310 db d4 4e bd 05 f0 08 bd 42 3e 7c 3d e8 d7 89 3d
       -0.050495964 -0.033432025 0.06158281 0.06730634
000320 c5 6b 2f 3d 85 17 8b bc bc 26 03 3c 93 95 52 bc
       0.042827386 -0.016978988 0.00800484 -0.012853044
000330 2a b4 d3 bc 47 2e 35 bc 7e ef 14 bc fd 5c 27 bd
       -0.025842745 -0.011058397 -0.0090903025 -0.040860165
000340 ef de 04 bd 4e 8f 3d bd 38 f5 46 bd 4d a3 69 bb
       -0.03243917 -0.046279244 -0.048573703 -0.0035650313
000350 4e 5a 06 3b 2f e9 b7 3c cf 86 ce bb c0 4e 1b bd
       0.0020500603 0.022450058 -0.0063026915 -0.0379169
000360 0e bf 07 3d de f5 9b 3b 29 5a 0f 3b a9 4f f5 3c
       0.03314119 0.0047595343 0.0021873808 0.029945211
000370 c4 d4 cc 3c fe c8 e2 3c 80 0f 2f 3d d4 f8 bd 3c
       0.025003798 0.027683731 0.04273939 0.02318994
000380 10 14 f1 3b 4c 0b c3 bc dc e8 7c ba bc 07 e6 bb
       0.007357128 -0.023809098 -0.0009647736 -0.007019965
000390 3d 70 c2 bc 1f 52 a1 bb 09 de 8f 3c 5d b5 3c bc
       -0.02373516 -0.0049231197 0.01756193 -0.01151785
0003a0 74 99 24 bd 02 8b 8a 3c 8b df ff bc 7c a9 65 bc
       -0.040185407 0.016911987 -0.031234523 -0.014017459
0003b0 3c 14 b1 bc 5b 53 02 bc 31 4c b1 3a 66 79 21 bb
       -0.021616094 -0.007954444 0.0013526735 -0.002463901
0003c0 b4 b5 5e bc 4b a5 dd 3a d1 14 0d 3d 62 09 1c bd
       -0.013593126 0.0016910223 0.03444368 -0.038094886
0003d0 c4 09 86 bc fa 12 1c bd 54 ef f5 bc fc 19 bc 3d
       -0.016362078 -0.038104035 -0.030021347 0.091846436
0003e0 8b 86 e8 bb 21 b2 85 bd 58 f3 cf ba 84 06 88 bd
       -0.007096117 -0.06528116 -0.0015865369 -0.06641868
0003f0 59 9a 9a 3c 5d e7 b6 bd 9d 9c ee 3c 8c b8 20 3d
       0.018872427 -0.08930848 0.029127413 0.039238498

network_body.linear_encoder.seq_layers.0.weight f4 [256, 266]
000000 09 fd 9e bd f0 96 23 bd f7 92 e5 bc cc c7 d2 bc
       -0.077631064 -0.039938867 -0.02802418 -0.025730036
000010 a9 be 5c 3d 5d 7c 84 bd ba 0b 3f 3e 70 d2 c3 3d
       0.053892765 -0.06469033 0.18656817 0.09561622
000020 9f 63 bc 3c 45 d7 d6 3c c7 bc cc 3d 93 87 c9 3c
       0.022996722 0.026225695 0.09996944 0.02460078
000030 86 4c f0 3c 12 7a 3f 3e 70 dd 88 bb b2 d6 02 bd
       0.029333364 0.1869891 -0.004176788 -0.03194303
000040 a1 3e 78 3d 86 6c 5d 3d 39 44 0a bd 5c e8 d7 bc
       0.060606603 0.054058574 -0.03375647 -0.026355915
000050 f7 9b a4 3c 0b 3b a0 3c a6 f9 81 3d f9 1c a2 3d
       0.020093901 0.019559404 0.06346445 0.07915682
000060 12 c6 9b bd fa e2 da bd df 2f 9c 3b 2a 2b 94 3c
       -0.07606138 -0.106878236 0.004766449 0.018086988
000070 ac c8 0c be 45 52 93 3c 4a b3 0f be f9 7b 85 bc
       -0.13748425 0.017983565 -0.14033237 -0.016294466
000080 b1 48 b7 bd 6a af 05 3c 56 81 22 3d 9b a5 46 bd
       -0.08949412 0.008159498 0.039674126 -0.048497777
000090 1f 13 b7 bb 39 e1 7f 3c 49 bf f9 3d c7 49 36 bd
       -0.005586996 0.015617662 0.12194688 -0.044503953
0000a0 0e 6a df bb e6 e4 f8 ba 8f 81 49 bd f4 61 e1 bc
       -0.0068180626 -0.0018989115 -0.049195822 -0.027512528
0000b0 b3 f5 65 3d 28 b3 c8 3c 39 d0 50 3d 7d ce 32 be
       0.05614252 0.02449949 0.050979827 -0.17461582
0000c0 ae 88 e0 3d cd a3 5a bd 72 07 ff 3d 06 5f 1c bd
       0.109635696 -0.05337887 0.12452592 -0.03817656
0000d0 d3 d1 d1 bd 3d c2 e6 bc 92 00 70 3d fa 1a 91 bd
       -0.10245099 -0.028168792 0.058594294 -0.070852235
0000e0 cf 5f 9e bd 69 a9 2f bd c8 ad 1d bd 96 96 9b 3c
       -0.07733118 -0.04288617 -0.03849581 0.018992703
0000f0 2b b9 c5 bd e5 11 06 bc eb b3 86 3d 1c f9 f1 bc
       -0.096544586 -0.008182977 0.065772854 -0.02953773
000100 83 ba fe bd 9e 70 21 3c 60 7e 91 3d 48 88 26 3d
       -0.12437918 0.00985351 0.07104182 0.04065731
000110 86 38 04 3d 41 c2 87 bd e2 40 0b bd 15 64 e0 3d
       0.032280467 -0.06628848 -0.033997424 0.10956589
000120 34 34 44 3d 40 93 15 be 06 d0 b0 3d 6e 68 50 3c
       0.047901347 -0.14606953 0.08633427 0.0127202105
000130 71 ca a8 3d c9 59 00 3c 89 96 fa 3d 91 3f 7d 3d
       0.08241738 0.007833906 0.122357436 0.0618282
000140 0c 4d c2 3d a7 6a b6 3c 81 85 94 3d 85 23 ed b9
       0.09487352 0.022267653 0.07252026 -0.00045230627
000150 e5 92 8a 3d 66 db 98 3b 2b 03 16 bd 6e b4 22 bd
       0.06766299 0.004664826 -0.036624115 -0.039722852
000160 16 d2 88 3b 3a f9 88 bd 67 fb 8d 3d 02 b3 8f 3d
       0.004175435 -0.06688161 0.06932717 0.07016565
000170 89 aa a8 bb 42 07 46 bd 7e 42 32 3e f1 00 cc bd
       -0.0051472825 -0.048346765 0.17408177 -0.09961117
000180 9f 90 cc bd 56 9a c5 bd 85 e4 8a 3d 0c 65 9f bd
       -0.09988522 -0.09648578 0.06781868 -0.07782945
000190 4d 84 db bc aa eb 93 3d ea bc d2 bc a7 d5 7d 3d
       -0.026796484 0.07222684 -0.025724847 0.061971333
0001a0 5a 0b 02 3d 57 0b 24 3d 08 8d 22 3e 02 1b 30 3c
       0.031749107 0.040049877 0.15874112 0.010748627
0001b0 98 9b 25 3e eb 4a 1f 3e ae f6 2d bd 4d dc e1 3d
       0.16172636 0.15555923 -0.04247158 0.11028347
0001c0 78 a9 fd bc 01 bc 98 bc 36 7b b6 3d 07 5f a9 3c
       -0.030964598 -0.018644335 0.08910219 0.020675195
0001d0 86 48 79 3c 5b 49 fc bc 19 46 19 bc 78 1a cd bb
       0.015215045 -0.030796697 -0.0093550915 -0.006259259
0001e0 07 11 1e bd 21 52 3f 3d 3e fb 4e 3c d5 9d 37 bb
       -0.038590457 0.046709184 0.012633143 -0.002801766
0001f0 b5 df ac bd 7c 6b f4 3d 6d ce 2d bd 35 69 94 3d
       -0.08441106 0.119345635 -0.04243319 0.07246629
000200 76 04 cd 3b ed b7 15 be 0a bb bd 3c c9 09 1d 3d
       0.0062566353 -0.14620943 0.023160476 0.03833941
000210 6c 84 1c 3d 00 f2 57 bc a7 d2 05 3d 7e e0 cb 3b
       0.038212225 -0.013180256 0.032671597 0.00622183
000220 16 ff cd bd 25 75 62 bc 75 58 cf bd 44 dd ad 3d
       -0.100584194 -0.013821875 -0.10124294 0.08489469
000230 e3 7f 1f be b2 d6 95 bc 6c f1 fe 3c 8f 94 c1 3d
       -0.15576129 -0.018290851 0.031120978 0.094521634
000240 fc d1 19 be cc 29 34 3c 04 5e 22 3e 91 90 bd 3d
       -0.15021509 0.010996293 0.15856177 0.092560895
000250 b3 f2 a4 3c c5 c5 a2 3d ca 79 a9 3d 43 0c 34 bd
       0.02013526 0.07947878 0.082751825 -0.043957006
000260 74 77 9d bd dd 8b f9 3d 77 24 30 3e 54 8e d2 bd
       -0.076887995 0.1218488 0.1720141 -0.10281053
000270 3e 0d 52 bc 92 b9 a7 3c 76 25 d4 bd fb 4e 6e bd
       -0.01282054 0.020474229 -0.103587076 -0.05818079
000280 ef 93 1a 3e a7 b4 74 bd 6a ab 94 3d 6a 43 35 3d
       0.15095495 -0.059742596 0.07259257 0.044253744
000290 30 7c cd bd b7 fd 79 3d 43 21 c6 3c 1f f1 39 bd
       -0.100334525 0.061032977 0.024185782 -0.045395967
0002a0 66 34 9c bd b6 ac 5a 3d 4a 4f e7 bd 4d 17 b4 bd
       -0.07627182 0.053387366 -0.1129442 -0.08793507
0002b0 01 a8 f4 bc 2f 5d c6 bd 7c 76 40 be 3a 4d 3f 3d
       -0.029865267 -0.09685742 -0.18795198 0.04670451
0002c0 1b 3d 34 3c 92 2c d5 bd 32 1d 6d 3d e0 e4 22 bb
       0.011000897 -0.10408892 0.05788917 -0.0024855658
0002d0 63 cf 84 3d a0 30 b7 bc 43 ac 18 3c 9f d2 85 bd
       0.064848684 -0.022362053 0.009318414 -0.065343134
0002e0 c3 19 c2 3d c9 b3 2a 3e e9 73 12 bd 2c 21 78 bd
       0.0947757 0.16670145 -0.03575507 -0.06057851
0002f0 39 4d d4 bc 8b cd 9f bd be 56 68 3d 78 68 30 bc
       -0.025915729 -0.07802876 0.05672335 -0.010767095
000300 8d 03 3a bd 58 4c 17 bd 47 82 55 bd b5 3d 1f 3e
       -0.045413543 -0.03693804 -0.052126195 0.15550883
000310 f6 0a 90 bd 72 f7 b5 bd 3f 06 23 bb 1a 48 a0 3d
       -0.07033341 -0.08885087 -0.002487555 0.07826252
000320 45 41 6c 3d 7c e9 02 3d 9c 24 47 3d 4f 65 b5 3c
       0.057679433 0.03196095 0.048618898 0.022143034
000330 62 4c ec bd f5 5f 4e 3d c3 7f 8d 3d a2 1f c3 bb
       -0.11538006 0.05038448 0.06909134 -0.0059546987
000340 2d 90 17 bd b9 88 f0 bb ab 83 19 3c b3 7a 9a 3c
       -0.03700273 -0.0073405174 0.009369771 0.018857336
000350 2c f2 1f 3b db ef 94 bc 8c b1 88 3d fa 86 b2 bd
       0.002440582 -0.018180778 0.066744894 -0.08717151
000360 d5 bf f3 3d c0 ea 60 bd 58 6f 89 3c 76 8b e6 3d
       0.119018234 -0.054911375 0.016776726 0.11257069
000370 79 c2 e8 3c 53 6e 4f 3d 14 4d d7 bc 39 0e d0 3c
       0.028413044 0.050642323 -0.02628187 0.025397407
000380 32 11 c7 bd d6 22 41 bb 46 df fc bd a6 98 51 3d
       -0.097200766 -0.0029470227 -0.123472735 0.051170968
000390 f4 58 f0 bc eb c3 18 3d 32 eb 9d 3d ec 8d 19 3e
       -0.029339291 0.037296217 0.077108756 0.14995545
0003a0 17 36 65 bd 9d 65 ad 3d 11 63 c1 bc 08 0e 95 3d
       -0.055959787 0.08466647 -0.023606809 0.07278067
0003b0 19 ca 8f 3d c8 c6 1a 3e e7 4d 5d 3d c6 8f 5e 3d
       0.07020969 0.15114892 0.05402937 0.05433633
0003c0 4f 6b 25 3d 89 e2 3f bd 8b 34 11 be ea da 28 bd
       0.04038554 -0.0468469 -0.141802 -0.041224398
0003d0 21 1b 22 bd cd 9c 82 3d 38 f2 90 bd 53 05 6f bd
       -0.039576653 0.063775636 -0.070774496 -0.058354687
0003e0 14 11 d4 bd bd be 11 bd cd d0 1c bd df fb 8a bc
       -0.1035482 -0.035582293 -0.038285065 -0.016965805
0003f0 c8 8c 1c bd 17 24 f6 3c e7 d8 18 bd c3 32 bc 3c
       -0.038220197 0.030046506 -0.03731623 0.022973424

network_body.linear_encoder.seq_layers.2.bias f4 [256]
000000 4d ee 30 3d 66 9c 2a 3d 74 1f 3f bd 2b 2e 9d bd
       0.04319601 0.04165306 -0.046660855 -0.076748215
000010 4f 7d 05 bd 44 42 10 3d 6c b1 8d bc 9f e5 4a bd
       -0.032590207 0.035219446 -0.017296515 -0.04953539
000020 48 44 61 3a 80 25 90 3c 78 c6 e0 3b 95 cd 87 3c
       0.00085932435 0.017596006 0.006859597 0.016577521
000030 e3 cf ed b7 02 f2 07 bb 3a 79 3c 3c 41 01 57 bd
       -2.8349406e-05 -0.0020743613 0.011503512 -0.05249143
000040 00 50 6d bc 3d f0 9d bc a6 71 f5 bb cf c0 e6 bc
       -0.0144844055 -0.019279594 -0.0074903546 -0.02816811
000050 e7 e5 1b bd ab 2c e7 bb 01 4c 07 3d 3d 67 dc bc
       -0.03806105 -0.0070548854 0.033031467 -0.026904697
000060 b6 b1 54 bd e4 f3 72 bc 89 c1 d0 3c 21 55 12 3d
       -0.05192729 -0.014828656 0.02548291 0.035725717
000070 e5 fd a3 3d fc 64 a3 3c e5 91 da 3c b8 67 58 3d
       0.08007411 0.019945614 0.026680896 0.05283329
000080 a9 ac b2 3d 73 d7 0c ba 7c b7 3a bc 7e 4e 16 bd
       0.087243386 -0.00053726806 -0.011396285 -0.03669595
000090 01 c1 3d bb 4e 85 b7 bb 38 a6 fd bc a0 5e fa bb
       -0.002895415 -0.005600608 -0.030963048 -0.0076406747
0000a0 ff ce 44 bd ac 5d d8 3c 55 5a 9d bc 88 eb 57 bc
       -0.04804897 0.026411854 -0.019208113 -0.013178714
0000b0 f4 c8 24 3c 99 33 0b bd d2 b3 b9 3c 64 fe ae bd
       0.010057677 -0.033984754 0.022668753 -0.08544615
0000c0 dd c3 94 3c 93 58 33 bd b9 f6 04 bd ac 88 fe bc
       0.018159801 -0.043785643 -0.032461856 -0.03107103
0000d0 0b 02 e8 bc df 04 d5 bc 23 6b 2d bd 24 bd 4d bd
       -0.028321287 -0.0260033 -0.0423385 -0.050229207
0000e0 79 57 5e bb 16 79 c1 3c da fe 21 bd 65 6e 87 bd
       -0.003392665 0.023617309 -0.039549686 -0.06612853
0000f0 5e 0c 01 bc 33 f0 5e bd 07 bc 35 bd 89 23 4b bc
       -0.007876484 -0.05442829 -0.04436877 -0.012398609
000100 2b f1 44 3d c4 e9 b5 bc 86 3c 0e bc 66 90 35 bc
       0.04808156 -0.022206195 -0.008681422 -0.011081791
000110 d8 6a f5 bc 2d 44 7c bd a1 17 1a bd d5 4b fc bc
       -0.029958174 -0.061588455 -0.03762019 -0.030797878
000120 74 50 40 bd c1 37 85 bc 0a 4a 71 bd c7 d6 a2 3c
       -0.046951726 -0.016261937 -0.0589085 0.019877804
000130 08 63 00 3c bc 0a a2 bc 3c 77 0c bd b0 ea b8 bc
       0.007836111 -0.01978051 -0.0342934 -0.022572845
000140 ca a0 fc 3b 15 b9 5b bd ed 65 e5 3b 96 22 42 bb
       0.0077095972 -0.053643305 0.007000676 -0.0029622666
000150 70 fa 1b bd 99 3e 8c bb e2 3d 5b 3d ce 0c 13 bd
       -0.038080633 -0.004279923 0.053525813 -0.035900883
000160 e3 a1 53 bb 9d 17 4d 3a 23 06 c1 3b c0 a5 2d 3d
       -0.0032292537 0.0007823648 0.005890624 0.0423944
000170 5d 70 a6 bc ce 27 61 bd b3 1a 80 bc 8d b3 ef 3c
       -0.02031725 -0.0549696 -0.015637731 0.029260421
000180 05 16 e7 b9 1b c4 21 3d 43 41 67 bb 1a 14 2e bd
       -0.0004407616 0.03949366 -0.0035286702 -0.04249964
000190 2f 6d 3d 3d a8 27 c4 bb 49 79 88 3c 46 7e af 3c
       0.046246704 -0.0059861727 0.016659396 0.021422517
0001a0 9e de c2 3c 1d 4e 03 bc aa 0e 13 bd 86 53 47 bc
       0.023787793 -0.008014229 -0.035902657 -0.01216591
0001b0 8a ce 14 3d 7c 70 32 3c 16 ec 32 bd fe 5a a3 bd
       0.036329783 0.010891076 -0.04368218 -0.0797634
0001c0 0f 32 32 bd a9 c2 4d bd 93 e0 ec 3b c0 d1 95 ba
       -0.04350477 -0.05023447 0.00722892 -0.0011430308
0001d0 0e b1 d4 bc bc ec 91 bc 84 28 80 bc 52 69 f6 bc
       -0.025963333 -0.017813079 -0.01564432 -0.030079518
0001e0 79 29 e7 3c 5a 3f d8 3c a8 62 f7 bc ed ab ab 3a
       0.028218018 0.026397396 -0.03019841 0.0013097503
0001f0 5f 28 06 bd b6 f6 27 3d 0b 98 ff 3c f3 2e 0b bc
       -0.032753345 0.041006766 0.03120043 -0.00849508
000200 8a 07 37 bd 09 c2 9e bc 30 fb 01 bd 65 42 df bc
       -0.044684924 -0.019379633 -0.03173369 -0.027253339
000210 f1 15 97 bc 82 34 5e bc d0 2a 15 bc 14 09 96 bc
       -0.01844308 -0.0135623235 -0.009104446 -0.018314876
000220 fe 83 91 3d d9 53 0b bd e4 7a 0f 3d 0b f4 05 bd
       0.07105254 -0.03401551 0.035029307 -0.03270344
000230 36 72 b4 bc 81 71 20 bd b3 bb 6c b9 f1 d5 e1 ba
       -0.022027116 -0.039170746 -0.00022576637 -0.0017229897
000240 d1 34 e2 3c f4 4d 4a 3d ae 91 22 3b 30 18 d5 ba
       0.027613075 0.04939075 0.002480607 -0.0016257819
000250 15 1c 1a 3d 4b e5 28 bc 70 fb 09 3c c3 a1 0c bd
       0.037624437 -0.010308574 0.008421764 -0.034333955
000260 b0 75 b1 bb 6b 30 cc bb 3b fd fa 3c e5 2a 84 bd
       -0.005415641 -0.006231358 0.030638328 -0.06453494
000270 90 6d 4a bc eb f1 6e ba c1 bc a1 bb e9 52 5f bd
       -0.012355223 -0.0009115028 -0.0049358313 -0.05452243
000280 7b cd 4e 3c bc b0 43 3c ac 49 6e bc 64 09 95 bc
       0.012622233 0.011943992 -0.014543932 -0.018192954
000290 a9 ca cc bb 71 76 00 bd f1 82 e5 bc 1d da d7 bc
       -0.006249745 -0.031362955 -0.02801654 -0.026349122
0002a0 c7 9a 29 bc 16 92 20 bd 52 8d d6 3c 3c c6 43 bd
       -0.010351843 -0.03920182 0.026190434 -0.047796473
0002b0 d1 9a 2c bc be 9c 47 bd 1f 9e 39 3c 62 ec 2a bd
       -0.010534958 -0.048733465 0.011329203 -0.04172934
0002c0 f7 06 30 bd b5 94 e0 bc 9b f4 b8 bc 9a 7a e3 bc
       -0.042975392 -0.027414659 -0.022577574 -0.027768422
0002d0 68 fe 02 bd e6 31 4d 3b 89 4c ce 3b 40 83 5c bc
       -0.031980902 0.003131026 0.006295745 -0.013459027
0002e0 11 e9 35 bd 73 87 4d bd 74 1e e5 3c ac 0e 0b 3a
       -0.044411723 -0.050178003 0.027968623 0.00053046155
0002f0 7f 37 af 3c 34 73 9d 3c c0 a1 2f bc 5f 52 a3 bd
       0.021388767 0.019219972 -0.010719717 -0.079746954
000300 7e ed 8a bd 84 46 87 3c 90 9e bb bc 25 aa 32 bc
       -0.06783579 0.016513117 -0.022902757 -0.010904823
000310 5b 0c 24 3d 09 a7 96 bd ec 74 f9 bb 3d 46 ab bc
       0.040050846 -0.07356078 -0.007612815 -0.020907516
000320 03 3f b3 bd 95 ec 0f bd 4a 44 bd bc c1 f0 5b bc
       -0.08752253 -0.03513773 -0.023103852 -0.013424099
000330 a8 20 03 bd b2 05 13 bd d7 35 24 bd 4e 9c 90 3b
       -0.032013565 -0.035894103 -0.04009041 0.004413164
000340 ac 2b a9 bc 43 8f 21 3d d8 11 fe 3b 84 97 0f bd
       -0.020650707 0.039443266 0.007753592 -0.035056606
000350 45 c1 98 bd 5e 72 09 bc eb b1 93 b9 73 48 10 bd
       -0.07458738 -0.008389084 -0.00028170584 -0.035225343
000360 09 ab b1 bc a4 d2 db 3b cb 40 2f bb 0d b7 26 bd
       -0.021688001 0.00670846 -0.00267415 -0.040701915
000370 03 5a 1d ba b4 cd d0 3c 1d 24 ee bc 37 45 59 bd
       -0.00060024875 0.025488712 -0.029069955 -0.053044524
000380 f0 bc 4e bb ce 19 89 3b 3f 5c 01 bb 8f b2 6a 3c
       -0.003154572 0.0041839844 -0.001973882 0.014324798
000390 57 83 76 bd 1a 14 02 bc b4 12 55 bc 89 4b d3 bc
       -0.06018385 -0.007939363 -0.013004947 -0.025792854
0003a0 8b 95 cc bc 8a 95 fb b9 d3 5d 1a bc 1e ed 2d 3d
       -0.024973651 -0.00047985866 -0.0094217835 0.04246246
0003b0 e0 21 f5 3b 8d 8d 7f 3b 14 0a 83 bd ba 44 f4 bc
       0.007480845 0.0038994283 -0.063984066 -0.029817928
0003c0 18 8d 16 3d e6 8f ca bc 21 e2 32 3d 29 00 e8 3c
       0.03675565 -0.02472682 0.043672685 0.028320389
0003d0 ee 1a c0 bc fb 06 b3 bc 8e 34 c9 3b 47 10 9e bb
       -0.023450341 -0.021853914 0.006140298 -0.0048237178
0003e0 7d a1 bf bc 24 d8 fc 3c 6f 72 27 3b 82 2a 95 bd
       -0.023392433 0.030864783 0.0025550385 -0.07283498
0003f0 fe 25 b6 bc 19 7a c1 3b 18 51 da 3c 03 fd 20 3b
       -0.022234913 0.0059044478 0.026649997 0.002456487

network_body.linear_encoder.seq_layers.2.weight f4 [256, 256]
000000 ec 1a f6 3d 28 50 0c be c4 be f0 bd b3 8c 33 be
       0.12016854 -0.13702452 -0.11755136 -0.17534141
000010 49 93 b7 bd d4 c5 87 3c 4f 32 e9 bc 45 ec 02 be
       -0.08963639 0.016573824 -0.028466372 -0.12785442
000020 38 36 39 3d 0e 25 89 bc 06 f7 27 be 55 e2 95 3d
       0.045217723 -0.016741302 -0.16402826 0.0731856
000030 07 eb 6b bd 32 e0 03 3e 65 41 15 3d a3 e9 bb bd
       -0.057597186 0.12878492 0.03643932 -0.09175422
000040 89 21 5b bd 94 06 02 be 51 c9 b8 3d 8f f0 ba bd
       -0.05349878 -0.12697822 0.09022773 -0.09127914
000050 f8 b2 1a 3c 39 59 ea bd ea be 6a 3d cd ca 44 bd
       0.009442084 -0.11442799 0.057310976 -0.04804497
000060 0e 2d 87 3d fa 52 69 bd cf 74 d0 bd fc 4f 2b bd
       0.066003904 -0.0569639 -0.101785295 -0.041824326
000070 00 4d 23 be ec b9 fb bc 25 78 12 bd 29 80 0d 3c
       -0.15947342 -0.030728303 -0.03575911 0.008636513
000080 c4 71 82 bd 03 6e e6 bd 87 36 66 be 4f a7 02 be
       -0.06369355 -0.11251452 -0.22481738 -0.12759136
000090 c5 28 0a bd 37 f1 d6 bd ef f0 91 3d 4f 30 eb bd
       -0.033730287 -0.10495227 0.071260326 -0.114838235
0000a0 a9 2f a9 bd 53 6b 66 3d fc 34 ed 3d ae 75 35 bd
       -0.082610436 0.056254696 0.115823716 -0.04430168
0000b0 ba 02 22 3d d9 a0 19 3b 74 46 b5 bc 1b b4 68 be
       0.03955338 0.002344182 -0.022128321 -0.22724955
0000c0 98 34 cf bc 19 47 43 be 02 9e 91 3d f8 38 0c 3d
       -0.025293633 -0.1907009 0.07110216 0.034234017
0000d0 5e 7a b8 bd 00 7b 5c bd 1f c8 47 be be d1 ba bd
       -0.09007715 -0.05382824 -0.19509934 -0.091220364
0000e0 f4 77 ba bd d8 97 82 bc 12 de c7 3c c7 c5 03 be
       -0.091049105 -0.015941545 0.024397884 -0.12868415
0000f0 fa 16 84 bc f0 c3 38 bd cf 33 b1 bd 7f 60 95 3d
       -0.016124237 -0.045108736 -0.0865246 0.07293796
000100 9e 7f a8 bd 1c 11 53 bd 5e df db bc fb d9 33 3d
       -0.08227466 -0.05152999 -0.026839908 0.043909054
000110 f3 43 e3 bc e6 83 9c bd 19 e2 7e 3c 4d f8 89 be
       -0.027742362 -0.07642345 0.015556836 -0.2694725
000120 a9 ac 6e be 8e 4b b2 bc fe 57 97 3c 3e c1 27 bd
       -0.23308052 -0.021764543 0.018474575 -0.040955774
000130 dd 1f 43 be dc 35 67 bd 6b d0 a5 bd cb b9 9c bd
       -0.19055124 -0.05644785 -0.08096393 -0.07652625
000140 d7 9e 31 bd 99 4f ce 3c b7 f5 6f bd 89 df 24 bd
       -0.043364372 0.02518444 -0.05858394 -0.040252242
000150 dc 98 28 bc ea 16 75 3d 5c 09 7c bd af a4 3d bb
       -0.010290351 0.059836306 -0.061532363 -0.002893727
000160 a3 2b 86 3d 06 6c 05 be 7d d6 3e 3d b7 c0 c5 bd
       0.06551292 -0.13029489 0.04659127 -0.09655898
000170 df c6 03 be 60 21 fe 3c c9 ac 24 be cb 04 cf bd
       -0.12868832 0.031021774 -0.16081537 -0.10108336
000180 a9 ec 58 be 13 c2 a2 bd ff 06 e1 3c 51 df a8 bd
       -0.21184029 -0.07947173 0.027469156 -0.08245719
000190 80 0c 78 bc 83 d6 45 3d 4d 1d 94 3d ea 89 fe bc
       -0.015139699 0.048300277 0.07232151 -0.031071622
0001a0 65 00 6b bd 5f aa 20 bd 79 40 0b be 52 92 88 bd
       -0.057373423 -0.03922498 -0.13598813 -0.066685334
0001b0 a9 a4 54 3d 55 4c 97 3c 76 85 0c be 4e 71 e4 bc
       0.051914845 0.018469015 -0.13722786 -0.02788606
0001c0 82 ab bf bd 74 05 c6 bd 95 f5 0d bd ad b8 09 be
       -0.093588844 -0.09669009 -0.034658033 -0.13449354
0001d0 09 61 ab bd 26 1b c1 bd b7 03 72 bd b5 ff ad 3c
       -0.08368117 -0.09429006 -0.059085574 0.021240095
0001e0 dc 68 8e bd ff 7d 0e bc 2c 8a 53 bd 9e b0 68 bb
       -0.06953594 -0.008697032 -0.051645443 -0.0035505663
0001f0 8b 96 a0 bd 6a 56 71 be de 37 ec 3c 54 0a b5 3d
       -0.07841214 -0.2356812 0.028835233 0.088398606
000200 7d 60 3b bd c3 be e1 bd a5 bb 4e 3d 3e 00 11 3e
       -0.045746315 -0.11022713 0.05047192 0.14160249
000210 d4 99 0c 3d 7b eb 76 bd 6b 5f a7 ba fe a2 a1 bd
       0.03432639 -0.060283165 -0.0012769526 -0.078924164
000220 e0 59 0d 3d 93 18 f2 bd 72 e1 f6 bd e4 12 9e bd
       0.03450954 -0.118210934 -0.12054719 -0.07718447
000230 79 93 12 be 3a b5 28 bd 9f 15 ca bc 37 e8 e0 bc
       -0.14314069 -0.041188456 -0.024668513 -0.027454479
000240 0c 7a 53 3d 9f 46 bc 3c 79 f2 25 bc ca d1 4a bd
       0.051630065 0.022982894 -0.010128611 -0.049516477
000250 9f fe 1e be b9 77 10 be ed b8 36 3d 3a 45 be 3d
       -0.15526818 -0.1410817 0.044609953 0.09290548
000260 ce 4d f2 bc 2b 5c a7 bd 46 54 13 bd c4 44 ff 3c
       -0.029578116 -0.081718765 -0.03596904 0.03116072
000270 87 59 f0 3d 69 bf be 3d c7 ea fa bc 89 3b 71 3d
       0.11735826 0.09313852 -0.030629529 0.058894668
000280 69 38 07 3d 5c 27 3f 3d bd 07 b8 bd 25 0c 21 bd
       0.03301278 0.046668395 -0.08985851 -0.039318223
000290 8d 86 59 3c 6c 0f 04 3d d5 7b 2f bd 63 77 2a be
       0.013276708 0.03224127 -0.042842705 -0.16647105
0002a0 01 95 e7 bd 3d f8 41 be db cb 95 be 69 6b af 3d
       -0.11307717 -0.18942352 -0.29257092 0.08565409
0002b0 9b a7 1b bb a2 bc 39 3e 78 ea 5e 3e d0 74 10 3d
       -0.0023751024 0.18138364 0.2176913 0.03526765
0002c0 6e 5b d3 bd a8 21 5c be aa 3f 6d be d6 ed e6 3c
       -0.10320173 -0.21497214 -0.23168817 0.02818958
0002d0 bd 2f c3 3b 7c 25 5e be e7 5e 5d bc b0 0b f1 bd
       0.0059566186 -0.21693987 -0.013511396 -0.11769807
0002e0 e4 91 ff bd 74 4f c4 bd a9 65 39 3d 26 4c b2 bd
       -0.12478998 -0.09585467 0.045262966 -0.087059304
0002f0 6c 88 19 3e 42 d1 fa bd c2 74 2a bd f5 cd c3 3d
       0.14993447 -0.12246944 -0.041615255 0.095607676
000300 71 ee fa bc 86 5c d6 3d 09 5d c5 bd 1a 32 fc bd
       -0.030631276 0.10466866 -0.09636886 -0.123142436
000310 c4 c2 83 bd b4 9d d3 3d 35 4b 50 be 37 80 c3 3d
       -0.06433633 0.10332814 -0.20341189 0.095459394
000320 18 6e 3f be a3 1c 0d 3d 25 6b 35 bd 6d d0 0c be
       -0.18694341 0.03445114 -0.044291634 -0.13751383
000330 5c ad b1 3d 62 3b 02 bd fb 0f 72 bd 45 8a e7 bd
       0.08675644 -0.031794913 -0.05909727 -0.1130567
000340 69 fb 41 bd 4a 32 45 bd 16 1d 99 bc 6d dc 08 bb
       -0.047358904 -0.048143663 -0.018690627 -0.0020883337
000350 5b 57 6e bc 31 3d cc bd 81 4a 87 3d cd 05 e5 bc
       -0.014547194 -0.09972609 0.06606007 -0.027956868
000360 dc fd d0 bb a0 9b 21 bd f9 e5 1b 3c 29 70 0b bd
       -0.0063779186 -0.039455056 0.009515279 -0.03404251
000370 d3 a1 24 be 31 c6 b5 3c 9e 85 df bd a2 a5 da bd
       -0.16077356 0.022189232 -0.10914157 -0.10676123
000380 cf 71 2b be 9a 0f af bd be 57 89 3c 44 35 a2 3d
       -0.16742633 -0.08547898 0.016765472 0.07920316
000390 1b 6d 02 3b d5 09 ad 3d 31 a9 14 be 7a d2 0b bc
       0.0019901458 0.08449141 -0.14517666 -0.008534068
0003a0 d0 f0 ca bd 1e 78 01 be 33 eb 9a bc 06 f5 a7 bd
       -0.099092126 -0.12643477 -0.01891098 -0.082010314
0003b0 ea 2c 2c 3c d9 26 46 bd 24 bd 03 bc 9f 05 be 3c
       0.010508755 -0.04837689 -0.0080407 0.02319604
0003c0 41 eb e7 bd f7 30 b0 3d 42 e6 4a be 09 d9 57 bd
       -0.11324168 0.08603089 -0.19814399 -0.052697215
0003d0 5c 72 4b bd a4 9f c5 bd 55 8d 77 bd 37 21 b8 bd
       -0.04966961 -0.0964959 -0.06043752 -0.0899071
0003e0 70 b9 86 3c e2 a6 e4 bc 66 27 0c bd 94 da a1 3c
       0.016445845 -0.027911607 -0.03421726 0.019757546
0003f0 16 e9 67 bd a6 b1 5c 3c e9 34 11 3e 00 74 9f be
       -0.056618772 0.013470089 0.1418034 -0.31143188

network_body.observation_encoder.processors.0.conv_layers.0.bias f4 [16]
000000 ff 41 45 ba d2 37 e4 bb b9 3a ef 3b 28 88 db ba
       -0.0007524788 -0.006964662 0.0073007015 -0.0016748952
000010 a7 b7 86 bc a6 7c 54 ba 80 99 46 ba 7d 7f e6 bb
       -0.016444994 -0.0008105732 -0.0007575974 -0.0070342408
000020 7c ac ef 3a ab 8e 1f bb cc 94 9b ba 09 30 25 bc
       0.0018285657 -0.0024346511 -0.0011869906 -0.010082253
000030 0f 62 89 3b 02 16 b3 bc 43 00 33 3c 17 6e cb bb
       0.0041925977 -0.02186108 0.010925355 -0.006208192

network_body.observation_encoder.processors.0.conv_layers.0.weight f4 [16, 3, 8, 8]
000000 29 25 3f bd d3 f5 df 3d 21 fe 37 bc a8 19 b2 bd
       -0.046666298 0.10935559 -0.011230023 -0.086963
000010 9d 5b 2a bd a8 9e 7e 3c 60 4e 90 bc d7 59 14 bd
       -0.041591275 0.015540756 -0.017615497 -0.03621849
000020 8c 3a 0e 3a e0 58 55 3c 51 a8 2e bd 3f 90 1a bd
       0.0005425594 0.013021678 -0.042640988 -0.03773522
000030 e3 c0 bf 3c 63 36 37 bd 5b 52 e9 bd f5 21 62 bd
       0.023407405 -0.0447296 -0.11392661 -0.055208165
000040 a9 a4 15 bd 69 97 6e 3b d9 1f 7b bd c4 3c 3f bd
       -0.036533985 0.0036406165 -0.06130967 -0.04668881
000050 d2 33 27 be d9 ca f2 bd e5 0c 44 3d bd d3 aa bd
       -0.16328362 -0.11855096 0.04786386 -0.08341167
000060 31 a5 46 3d 86 a7 dc 3c 56 70 06 be a0 ba 9f bc
       0.048497383 0.02693535 -0.1312879 -0.01949817
000070 94 c3 59 bd 0b d1 3c bd 5d 20 b9 bb 87 0a bc bd
       -0.053165033 -0.046097796 -0.00564961 -0.091816954
000080 db 15 fb 3c 20 04 da 3b 9a 30 10 bd 26 1f 16 bb
       0.03065007 0.006653324 -0.0352026 -0.002290675
000090 ad 5a 1c bd 13 98 35 bd 44 95 4c bd 61 67 13 3d
       -0.038172413 -0.044334482 -0.04994704 0.03598726
0000a0 13 53 9b bd d5 11 ec bd e3 bf d8 bc 95 84 b2 bd
       -0.075842045 -0.11526839 -0.026458686 -0.08716694
0000b0 6e af 5e 3d 68 f2 b2 3b c8 86 14 3c b4 09 2f bd
       0.05436652 0.005461026 0.0090653375 -0.042733863
0000c0 fb 26 fc bc 01 50 8c bd 81 71 44 3d e1 ae 7c bc
       -0.030780306 -0.06851197 0.04795981 -0.015422554
0000d0 cd a8 37 bd 33 e7 25 3d 03 81 81 bd 1e b7 00 3c
       -0.044838715 0.040503692 -0.06323435 0.007856159
0000e0 bd 33 ce bd a7 d8 53 bd a1 15 6a bd af f1 fc 3c
       -0.10068462 -0.051720288 -0.057149533 0.030876962
0000f0 f3 1f b8 bc 68 bd 42 3c 21 dd 66 bd 77 2f fc bc
       -0.022476172 0.011885978 -0.05636323 -0.030784352
000100 e5 80 fa bc 53 71 09 3e 35 af 11 3e 4b 62 1b bd
       -0.03057904 0.13422136 0.14226992 -0.037935536
000110 90 ed d1 3d c7 e7 0d bc 2e ed 7e 3c 23 14 1f 3e
       0.102503896 -0.008661217 0.015559478 0.15535025
000120 ce 97 ff 3d e4 90 b3 3c 93 3d 0f 3e 0f 7d 9c 3d
       0.12480126 0.021919675 0.13988332 0.076410405
000130 4c 23 55 3d 51 56 e4 3d f2 5f a1 3d 36 3f 53 bc
       0.052035615 0.11149276 0.07879628 -0.012893489
000140 5e e5 d8 3d e9 9f 9e 3d 07 da 92 3d a9 5f 90 3d
       0.10590623 0.07745344 0.07170492 0.07049496
000150 cc 51 52 bc 03 af 4b 3c fd c5 56 bc ec 6b d4 bb
       -0.012836885 0.012431863 -0.0131087275 -0.006482592
000160 ea 4d ad bc 81 21 17 3c f3 8d 06 bc 5f cc d7 bc
       -0.021155316 0.009224297 -0.008212554 -0.026342569
000170 f8 19 d7 bd c6 2a 3e 3a b7 76 8f bc 73 e0 97 3d
       -0.10503 0.00072542985 -0.017512662 0.07415857
000180 15 50 48 3d db dd 17 3d b1 a1 78 3d b8 60 3a bc
       0.048904497 0.037076812 0.060701076 -0.011375599
000190 58 42 72 bd ca 69 19 bd f6 b4 87 bd 2e 6b 8e bd
       -0.0591453 -0.037454404 -0.066263124 -0.06954037
0001a0 6e 1d 39 bd 2b fe 18 3b fc 2a 01 bd b5 a6 a3 3d
       -0.045194082 0.0023344855 -0.031535134 0.07990781
0001b0 1b 94 49 3d 88 b1 8f bc 2e 01 9b bb de 52 94 bd
       0.04921351 -0.017540708 -0.0047303652 -0.07242368
0001c0 c6 6f f1 3c 55 eb 76 3c 5e 12 00 bd a7 2e 0c 3c
       0.029472243 0.015070756 -0.031267516 0.008556045
0001d0 67 61 a6 3d 1f ec 6d 3d 69 5a c3 bb 28 ef 17 bd
       0.08124047 0.05808651 -0.0059617055 -0.03709331
0001e0 b9 08 8d 3d 34 77 42 3d 4b d2 f8 3a 85 08 62 bd
       0.06886429 0.047476962 0.0018983571 -0.055183906
0001f0 12 75 5c bb 21 4b 81 bc bd 00 0b 3d 0c 48 cc bc
       -0.0033639115 -0.015782895 0.03393625 -0.024936698
000200 6c db da 3c 6a 47 81 bc 66 e0 72 bd 5b 98 ee bd
       0.026715957 -0.015781123 -0.059296034 -0.11650153
000210 f0 b5 17 bd c9 9d 81 3d 6a 2e 29 be b9 de 04 be
       -0.037038743 0.06328923 -0.16521612 -0.12975587
000220 bf 3a 7b 3d e7 3a 90 bd 30 b0 a6 bc d8 e7 7d bd
       0.06133532 -0.07042485 -0.020347685 -0.06198868
000230 ab 50 86 bb 4e cf 4e 3c e3 f6 ef bd 52 80 6e be
       -0.004098972 0.0126226675 -0.11717012 -0.23291138
000240 52 cc 13 bd 05 fb a0 bd 7e 4b 3e bd df cf be bc
       -0.036083527 -0.07860378 -0.046458714 -0.02329248
000250 30 46 25 be 3c e7 84 bd 18 59 a0 bd a8 20 95 bd
       -0.16140056 -0.06489417 -0.07829493 -0.07281619
000260 40 12 22 3e d6 6a 45 bd c9 c0 fd bd 1f 15 82 bd
       0.15827274 -0.04819759 -0.123902865 -0.06351685
000270 60 3d c3 bd 65 69 b8 bd c2 a7 6e bd 14 51 5a bd
       -0.09533191 -0.090044774 -0.058265455 -0.05329998
000280 a2 fb 4e 3e a0 ae d6 3c f8 85 84 bd 2f 89 10 3d
       0.20213178 0.026206315 -0.06470865 0.03528708
000290 1a b6 01 3d 84 97 75 bb a7 62 f0 bd 84 a4 ad 3c
       0.031667806 -0.0037474344 -0.117375664 0.021196611
0002a0 08 fa 63 3e 14 36 12 3b b8 a1 a6 bd 7b 97 d9 bd
       0.22263348 0.0022310065 -0.08136314 -0.10624596
0002b0 57 ef dd bc e6 91 83 3d 5a e1 20 3c 76 15 94 bd
       -0.027091665 0.06424312 0.009819353 -0.07230656
0002c0 78 3b 38 3e 6b 93 15 3d ab d8 45 bd 4c 8e a9 bd
       0.17991436 0.03651754 -0.048302334 -0.08279094
0002d0 45 c4 9d bd 6e 62 ef bd 7a 90 c7 bd 50 d3 9d 3c
       -0.07703451 -0.11688696 -0.097443536 0.0192658
0002e0 8a b3 28 3e 83 19 2b bd 19 05 16 bd 5a 65 e0 bd
       0.16474739 -0.041772377 -0.036625955 -0.10956831
0002f0 a9 a5 c1 bc 56 98 1e be c4 44 09 be 25 1f 32 be
       -0.023638563 -0.15487799 -0.13405138 -0.17394693
000300 13 59 d1 bc 46 99 0a be 3b 50 92 bb 3b cc d1 bc
       -0.02555517 -0.13535032 -0.0044651306 -0.02561008
000310 c4 2c d0 bd ef c8 37 be 5f b9 7d 3c 5b c1 d6 bc
       -0.10164788 -0.17947744 0.01548609 -0.026215246
000320 ab 39 72 ba f1 25 a7 bd d1 96 a3 bd da 7c fc bd
       -0.00092401606 -0.081615336 -0.0798775 -0.12328501
000330 4f c1 b7 bb e8 42 3f be f4 16 3a be 86 a8 95 bd
       -0.005607761 -0.18677866 -0.18172818 -0.07307534
000340 f0 1e 2f 3c d0 66 0b bc 3d 37 1f 3d ad c7 5a 3d
       0.010688528 -0.008508399 0.03887104 0.053413082
000350 ae 9b 9a bc 06 50 13 bd 00 af 64 bd 90 08 b4 3c
       -0.018873062 -0.03596499 -0.055830956 0.02197674
000360 11 fb fd ba d5 00 12 bd 79 2e 4b bc 19 07 66 bd
       -0.0019377192 -0.035645325 -0.012401217 -0.056159113
000370 c4 f3 22 3d c8 1e 74 bd 53 39 96 bd 40 cf 9b bd
       0.039783254 -0.059599668 -0.073351525 -0.07607889
000380 62 36 33 3c af 41 83 3d ef f7 02 3d db f2 13 bd
       0.010938259 0.064090125 0.03197473 -0.036120277
000390 df b8 76 bd 1f a8 b6 bd 17 7b c2 bd 0b 3c 06 be
       -0.0602349 -0.08918785 -0.09496134 -0.13108842
0003a0 fd 14 9c 3d 62 4e 73 bd c3 9a a7 bd 36 93 cd 3c
       0.07621191 -0.059400924 -0.08183815 0.02509461
0003b0 61 a7 84 bd 3e c1 39 3c a9 89 84 bd 38 c2 de 3d
       -0.064772375 0.011337576 -0.06471569 0.10876888
0003c0 8d 39 58 bd 96 68 a5 bc ce 33 ed bc 90 dd 45 bd
       -0.05278926 -0.020191472 -0.028955366 -0.048307
0003d0 25 f8 a0 bd be a2 d7 3d d3 da 12 3d 28 18 ed 3c
       -0.0785983 0.105290875 0.03585322 0.028942183
0003e0 8b 83 91 bd 75 34 72 bd 1d 36 86 bd 30 2d 8e 3c
       -0.07105168 -0.05913206 -0.0655329 0.017355531
0003f0 0a 69 b9 bc ce 9a d5 3d f9 61 e4 ba 23 e5 ab 3a
       -0.022633094 0.10429917 -0.0017424218 0.0013114553

network_body.observation_encoder.processors.0.conv_layers.2.bias f4 [32]
000000 d3 33 26 3c 42 65 92 3d 5c 60 e2 bc 87 03 f1 bc
       0.010144192 0.0714822 -0.027633838 -0.029420627
000010 45 fa 3b bc fc 89 83 bc 28 66 c3 3d 1f 3c 90 3d
       -0.011473243 -0.016057007 0.09540969 0.07042717
000020 54 e4 86 3d 0f 09 26 bd 1d 39 f8 bb 5e df 58 bc
       0.06586519 -0.040535983 -0.007575168 -0.013236849
000030 37 e5 e5 3a 21 7e a6 3d 96 94 0f 3d 23 63 97 bc
       0.0017539625 0.08129526 0.035053812 -0.01847989
000040 63 86 71 bc e2 2d 9d 3d 73 ba d7 bc d2 39 98 3d
       -0.014741513 0.07674767 -0.026334023 0.07432903
000050 f6 1f 49 3d b4 ca d4 3c 3b 30 aa 3b b7 e1 8c 3d
       0.049102746 0.025975563 0.005193738 0.06878989
000060 ed 7e b6 3b 46 8c f9 bc 86 91 83 3c 39 82 21 bc
       0.00556933 -0.030462395 0.016060602 -0.009857708
000070 94 07 5c bd c8 c5 11 3d 06 b2 68 bb 5b 23 a6 3b
       -0.053718165 0.03558901 -0.00355065 0.0050701327
