Config/results/Env_PPO_07/EnvironmentAgentBehavior.onnx (onnx, 912132 bytes, 11 tensors)

action_model._discrete_distribution.branches.0.bias f4 [10]
-0.017433157 -0.035776414 -0.012031243 0.024263002 0.03772147 0.032495797 -0.0022867417 0.035809327
-0.03997368 -0.018885361
00000000: fbcf 8ebc 4a8a 12bd b11e 45bc 34c3 c63c
00000010: d481 1a3d 501a 053d 29dd 15bb cdac 123d
00000020: 71bb 23bd 79b5 9abc

action_model._discrete_distribution.branches.0.weight f4 [10, 256]
-0.036846787 -0.06450158 0.016918028 -0.023457544 0.03141081 0.015242238 0.044543717 -0.016772373
0.022315854 -0.034748744 0.019151945 0.030291073 0.027522963 0.0056418786 -0.02043727 0.039646797
0.045184348 -0.03305504 0.002735211 -0.027675131 0.026575448 -0.009236761 -0.03591027 -0.015554831
-0.14857753 0.03869019 0.020961065 -0.013817645 -0.0036302884 0.022740366 0.01978282 0.018855518
0.07734089 0.046614885 0.0040510967 -0.02077323 0.035593286 -0.0036241987 -0.04284502 -0.011062584
0.059402626 -0.014238586 0.016468957 -0.00072313263 0.021141987 0.11002935 0.017521963 0.060565323
-0.0144500155 0.00994667 0.035991948 0.06572538 0.007005026 -0.088960536 0.044418897 -0.009282793
0.0018798761 -0.009739033 0.010135245 0.050551943 -0.02387174 0.024403218 0.015091801 0.027530644
-0.0032071956 -0.026843566 0.010064435 0.026502805 0.029442089 -0.033972673 -0.01587771 -0.030490637
0.06696513 -0.07246968 -0.023093188 0.041331988 -0.0048041777 -0.008499793 -0.015106508 0.079663694
0.038153015 -0.036165535 -0.027631085 0.024987215 -0.043803684 -0.0044171023 0.023467297 0.0021558295
-0.0444118 0.10475972 -0.03279915 0.08579255 -0.0025123016 0.0020005398 -0.031338647 -0.010812118
0.010437626 0.07384532 0.061345156 0.03675729 -0.049327817 -0.071949825 0.035571832 -0.01958842
-0.021544987 -0.040177174 -0.06461099 -0.077682264 -0.032102738 -0.0076861307 -0.024703575 -0.039556
-0.051528785 0.024052277 -0.048934568 -0.0051202867 0.008779036 0.016530236 0.057923958 -0.012645461
0.027431678 0.019416457 0.02808722 -0.047257986 0.009885995 0.021961927 0.037795667 -0.04991603
-0.026471842 -0.025698287 0.0029954244 0.01674673 0.039720684 -0.017453538 -0.044462655 0.005635442
0.07877559 -0.059966665 -0.016490066 0.03140102 0.0087327715 0.07040297 -0.04662653 0.051435616
-0.025891969 -0.015443532 0.059826173 0.03175566 0.04953316 0.037101492 -0.0058009075 0.043897957
0.003361935 0.021581873 0.023317141 0.06631462 0.06806201 0.03111253 0.000490683 -0.0011513345
-0.04773118 0.029732283 0.0037813075 0.022799907 -0.026422117 -0.03742557 0.008964767 0.0067466116
0.02319075 0.005912821 -0.018314382 0.05315922 -0.051440775 0.020827953 -0.04748933 -0.0009566843
-0.015340857 0.014657938 0.06704751 0.0045410367 -0.07816167 0.034067724 0.04594815 0.060897164
-0.014418518 -0.04573977 0.011215214 0.082511276 -0.028182749 0.010483781 -0.00730704 -0.07497425
0.016570171 0.023663098 -9.018889e-05 -0.06083433 -0.0074849813 -0.0067787515 -0.0408645 0.04202378
0.030016934 -0.017671699 -0.0008533481 -0.058873925 0.041960835 0.02448236 0.089086436 -0.065553784
0.080344744 0.022589847 0.026195493 0.030952433 0.030350238 0.012371568 0.100769475 -0.018763663
-0.049492966 0.050872993 0.022218868 -0.0059511913 -0.028735641 0.015980057 -0.01592185 -0.11013887
0.021503689 -0.004257673 -0.019952375 -0.026097827 -0.0036588577 -0.006840792 0.023474725 0.037012264
-0.012171729 -0.005653692 0.0013440246 0.03476331 0.028476754 0.04188343 0.07607524 0.01743513
0.00570219 0.03171509 -0.035870582 0.041734897 -0.0022980347 -0.009192937 0.02930166 0.047219865
0.046817366 0.046656348 -0.039482526 0.025068771 -0.036361996 0.01040464 0.009158203 0.06197856
00000000: a8ec 16bd 6819 84bd ad97 8a3c 092a c0bc
00000010: 9fa8 003d 94ba 793c 7973 363d 3766 89bc
00000020: bdcf b63c b354 0ebd 8ae4 9c3c fc24 f83c
00000030: d677 e13c 82df b83b 106c a7bc ae64 223d
00000040: 3913 393d b964 07bd 3a41 333b f5b6 e2bc
00000050: c1b4 d93c c955 17bc a616 13bd b1d9 7ebc
00000060: b524 18be 9b79 1e3d 8ab6 ab3c 6763 62bc
00000070: 22ea 6dbb 014a ba3c 950f a23c e376 9a3c
00000080: e764 9e3d 40ef 3e3d 10bf 843b 9f2c aabc
00000090: 44ca 113d f783 6dbb 427e 2fbd d73f 35bc
000000a0: 2b50 733d f548 69bc e8e9 863c 9c90 3dba
000000b0: f631 ad3c 1157 e13d 388a 8f3c 5813 783d
000000c0: c2bf 6cbc 5cf7 223c 4b6c 133d 079b 863d
000000d0: 6b8a e53b f130 b6bd 97f0 353d db16 18bc
000000e0: 2d66 f63a 7790 1fbc 4c0e 263c 8e0f 4f3d
000000f0: ab8e c3bc 42e9 c73c 9a43 773c f287 e13c
00000100: d02f 52bb 0ae7 dbbc 4de5 243c 691c d93c
00000110: 8930 f13c ee26 0bbd f911 82bc 80c7 f9bc
00000120: 0425 893d fc6a 94bd ed2d bdbc bb4b 293d
00000130: 5d6c 9dbb b742 0bbc 4981 77bc b826 a33d
00000140: 5646 1c3d 5022 14bd 965a e2bc fdb1 cc3c
00000150: 7e6b 33bd 57bd 90bb 7d3e c03c d148 0d3b
00000160: 26e9 35bd 448c d63d 6758 06bd 01b4 af3d
00000170: 6da5 24bb 7d1b 033b f45c 00bd 4f25 31bc
00000180: 9402 2b3c 373c 973d 0f45 7b3d d08e 163d
00000190: f70b 4abd 6e5a 93bd c5b3 113d e577 a0bc
000001a0: 1d7f b0bc d290 24bd c452 84bd e117 9fbd
000001b0: 297e 03bd f0db fbbb 275f cabc 7905 22bd
000001c0: d90f 53bd 4809 c53c 9d6f 48bd 14c8 a7bb
000001d0: f2d5 0f3c 6b6a 873c ac41 6d3d e82e 4fbc
000001e0: 66b8 e03c 430f 9f3c 2b17 e63c 9791 41bd
000001f0: def8 213c 80e9 b33c a1cf 1a3d c074 4cbd
00000200: 7adb d8bc 3785 d2bc e24e 443b 7030 893c
00000210: 28b2 223d b9fa 8ebc 791e 36bd 84a9 b83b
00000220: 1955 a13d 9b9f 75bd 2d16 87bc 5b9e 003d
00000230: e613 0f3c 6f2f 903d 76fb 3ebd 27ae 523d
00000240: 651b d4bc de06 7dbc 4a0c 753d 3912 023d
00000250: 48e3 4a3d bcf7 173d 8a15 bebb 58ce 333d
00000260: e953 5c3b 78cc b03c 9703 bf3c f6cf 873d
00000270: 1864 8b3d b4df fe3c 2ea1 003a 60e8 96ba
00000280: c581 43bd 1e91 f33c d0cf 773b dfc6 ba3c
00000290: 3273 d8bc 8e4b 19bd f5e0 123c ae12 dd3b
000002a0: 87fa bd3c 56c0 c13b 0b08 96bc 7bbd 593d
000002b0: 90b3 52bd 629f aa3c 2c84 42bd ffc9 7aba
000002c0: 3858 7bbc d927 703c 3450 893d facc 943b
000002d0: 3a13 a0bd 998a 0b3d 2134 3c3d 4e6f 793d
000002e0: a63b 6cbc a059 3bbd 04c0 373c acfb a83d
000002f0: 82df e6bc 2ac4 2b3c e56f efbb 198c 99bd
00000300: 2bbe 873c 1dd9 c13c cb23 bdb8 6b2d 79bd
00000310: 9344 f5bb 4a20 debb 8961 27bd 2121 2c3d
00000320: 13e6 f53c 3dc4 90bc 39b3 5fba c925 71bd
00000330: 20df 2b3d 3b8f c83c f372 b63d 1041 86bd
00000340: c98b a43d 580e b93c ee97 d63c f58f fd3c
00000350: 10a1 f83c 1eb2 4a3c 3a60 ce3d 41b6 99bc
00000360: 23b9 4abd 3360 503d 5804 b63c 3602 c3bb
00000370: 0267 ebbc 9ce8 823c 8a6e 82bc 7d90 e1bd
00000380: 8128 b03c f383 8bbb 2a73 a3bc 1ccb d5bc
00000390: 72c9 6fbb b928 e0bb 114e c03c 2c9a 173d
000003a0: ee6b 47bc 9b42 b9bb fb29 b03a f963 0e3d
000003b0: 1548 e93c f68d 2b3d 56cd 9b3d 1ed4 8e3c
000003c0: 70d9 ba3b afe7 013d 08ed 12bd 36f2 2a3d
000003d0: a09a 16bb f99d 16bc 090a f03c 9e69 413d
000003e0: 91c3 3f3d ba1a 3f3d 6eb8 21bd 065d cd3c
000003f0: 51f0 14bd 3978 2a3c 4a0c 163c 3bdd 7d3d

action_model._discrete_distribution.branches.1.weight f4 [1, 256]
0.004345583 0.0005835213 -0.0026096571 0.0003460068 0.005494954 0.0025121502 -0.001574909 0.010626269
-0.0031731133 -0.0012256926 -0.0061842366 -0.0065580183 0.0006676849 0.0037387814 -0.0054151453 0.00879928
-0.003418707 0.00586463 -0.002542699 -0.0007910832 0.010898164 0.00071219256 -0.00110419 -0.008453186
0.0010688112 0.0050653066 0.0010604224 -0.0021489302 -0.0013726326 0.007030429 -0.0027924615 -0.00034718562
0.0015958193 0.00016617752 0.0040221578 0.0045134714 0.0041061775 -0.006017251 -0.0043666395 -0.0111526
0.0010742863 -0.00068708655 0.00016503113 0.0021151796 0.008616654 -0.0010692853 -0.0076032067 -0.0043567177
0.007524479 -0.0023058008 0.012284261 0.00510245 -0.0009115144 0.007452911 0.0038704337 0.003135609
-0.0015841114 0.005246383 0.003300365 -0.0013985541 0.012252939 0.0041769915 0.009880136 -0.000667946
0.0006501257 0.0062150788 0.010728068 -0.009061346 9.211709e-05 -0.0012355722 -0.0034173143 0.0028560746
-0.00592642 -0.0017438991 -0.0024539938 0.013145494 -0.002860026 0.0074310186 0.0034175813 -0.003122593
-0.0048342505 0.0056450306 6.761149e-05 0.0016731877 -0.010664518 0.004567707 -0.0025462122 -0.00033094492
-0.013973824 0.0029045665 0.0024521982 0.009859453 0.0018902877 -0.0038550254 -0.013146944 -0.011239803
-0.00886493 0.007933463 0.0011436671 -0.0071650776 0.006931936 0.0042166463 -0.001902473 0.012733333
0.007021191 -0.009043533 -0.00427931 0.017461002 0.010732789 0.0011221442 -0.0033164283 0.0028722205
0.01837516 -0.004615831 -0.004304613 0.0010824454 0.0003234413 -0.0072595514 0.009986239 0.002265953
-0.0084188385 0.0060512586 0.006159472 -0.009358 -0.008567767 0.012657977 -0.010025391 0.00801151
-0.005690825 -0.0022824924 0.0026784393 -0.009029041 0.0025190904 -0.003999719 -0.0018685991 0.0015563195
-0.0056355707 -0.0027572669 -0.0023466477 6.7666486e-05 0.0045041093 -0.0074091167 0.00013916448 0.0069264583
-0.0034426954 -0.0015492889 -0.0106615145 -0.0033173007 0.006714572 0.0054108943 -0.0003460569 0.011297776
0.009732432 -0.0016492474 0.008939023 -0.0011345806 0.011206911 -0.0033675886 -0.00023463326 0.011969802
-0.0122462455 -0.004481948 0.0028131234 -0.0063115843 0.004655322 -0.0046781423 0.0054234555 0.009334199
-0.0019969768 -0.015051953 -0.014789173 0.011898324 -0.0035419464 -0.0073519587 -0.012226355 -0.011056068
-0.004227162 0.00598736 0.0073845843 0.0055860323 0.0073587247 -0.007945652 0.008792172 0.0005046436
0.0030646857 -0.00401871 0.0036233792 0.013276731 -0.0016025415 -0.009518969 -0.00625319 0.009518915
-0.0019259424 -0.018621013 0.007421158 0.010974245 -0.006427309 0.00022233141 0.008031004 0.012367408
-0.0026477457 0.009836989 0.0068849907 -0.0053138 -0.0029376058 0.0072635612 -0.0019921644 0.0146432
-0.0053382255 -0.0024555156 -0.0020027875 -0.008842885 0.0076104016 0.0027834787 0.0038970788 -0.0020307552
-0.006316813 -0.004065404 -0.0069110724 -0.006458472 -0.003797084 0.008367811 0.0030345954 -0.005561438
-8.300303e-05 0.0010303798 0.0017594753 -1.0276809e-06 -0.004818682 -0.007420855 -0.0050898427 -0.010303582
-0.0006515554 0.00049797207 0.00086869794 -0.010309016 -0.011085876 0.0021362961 0.0038375433 0.013642239
-0.0098584695 -0.00044130255 0.002700674 -0.0017894304 -0.007124984 -0.0057903565 -0.003742824 0.0043607084
-0.00079091516 0.002476113 0.0015273342 0.015312323 -0.0026151717 -0.007412457 -0.0052674296 0.005278705
00000000: 6465 8e3b 74f7 183a c806 2bbb 3f68 b539
00000010: 040f b43b e3a2 243b 2d6d ceba cd19 2e3c
00000020: 02f4 4fbb 6ba7 a0ba 23a5 cabb a5e4 d6bb
00000030: 9307 2f3a 5806 753b 8871 b1bb db2a 103c
00000040: 630c 60bb 152c c03b 69a3 26bb b260 4fba
00000050: 368e 323c 6fb2 3a3a 78ba 90ba 3b7f 0abc
00000060: 5a17 8c3a dffa a53b dffd 8a3a 11d5 0cbb
00000070: e8e9 b3ba 835f e63b bb01 37bb 7706 b6b9
00000080: cf2a d13a f03f 2e39 4ecc 833b bee5 933b
00000090: 1d8d 863b 5c2c c5bb 0716 8fbb 65b9 36bc
000000a0: 11cf 8c3a 991d 34ba 350c 2d39 d39e 0a3b
000000b0: de2c 0d3c 4327 8cba 5224 f9bb ccc2 8ebb
000000c0: e88f f63b eb1c 17bb ed43 493c 7432 a73b
000000d0: b2f2 6eba 8d37 f43b 1aa7 7d3b ca7e 4d3b
000000e0: f5a1 cfba dae9 ab3b f04a 583b b04f b7ba
000000f0: 8dc0 483c 25df 883b 4be0 213c 1919 2fba
00000100: 326d 2a3a dca7 cb3b c7c4 2f3c 0a76 14bc
00000110: fc2e c138 ecf2 a1ba 05f5 5fbb fb2c 3b3b
00000120: 6a32 c2bb 8b93 e4ba 2fd3 20bb 3360 573c
00000130: 466f 3bbb e77f f33b 80f9 5f3b 6ba4 4cbb
00000140: a268 9ebb f3f9 b83b a4ca 8d38 dd4e db3a
00000150: 3bba 2ebc b4ac 953b 5ade 26bb ad82 adb9
00000160: 77f2 64bc 8a5a 3e3b 0fb5 203b 8b89 213c
00000170: 88c3 f73a 98a4 7cbb 4866 57bc 2727 38bc
00000180: 363e 11bc 5bfb 013c 1ae7 953a 07c9 eabb
00000190: 4b25 e33b cb2b 8a3b 675c f9ba 789f 503c
000001a0: 0512 e63b 542b 14bc 7439 8cbb 600a 8f3c
000001b0: 94d8 2f3c e914 933a 6f58 59bb dd3b 3c3b
000001c0: 8187 963c 6640 97bb b60d 8dbb d7e0 8d3a
000001d0: 8e93 a939 88e1 edbb 529d 233c 6280 143b
000001e0: 2bef 09bc a349 c63b 65d5 c93b 4c52 19bc
000001f0: d25f 0cbc 6763 4f3c 8a41 24bc b542 033c
00000200: 1a7a babb de95 15bb c188 2f3b 8bee 13bc
00000210: 5317 253b 1310 83bb c8eb f4ba 6bfd cb3a
00000220: 98aa b8bb 43b3 34bb 37ca 19bb 2be8 8d38
00000230: 3597 933b 2dc8 f2bb aeec 1139 58f7 e23b
00000240: d89e 61bb 8211 cbba a2ad 2ebc 1267 59bb
00000250: ea05 dc3b df4d b13b f96e b5b9 4f1a 393c
00000260: c774 1f3c 8f2b d8ba fb74 123c 35b6 94ba
00000270: 319d 373c c3b2 5cbb e307 76b9 fd1c 443c
00000280: 7aa4 48bc 4edd 92bb 615c 383b 68d1 cebb
00000290: ac8b 983b 1a4b 99bb 3eb7 b13b 78ee 183c
000002a0: b6df 02bb 779c 76bc 4a4e 72bc 30f1 423c
000002b0: 0020 68bb b3e8 f0bb 0d51 48bc 8324 35bc
000002c0: 0184 8abb 9e31 c43b 62fa f13b 090b b73b
000002d0: 7521 f13b 7b2e 02bc 0b0d 103c 0f4a 043a
000002e0: e5d8 483b 62af 83bb 3776 6d3b a586 593c
000002f0: 5f0c d2ba 73f5 1bbc 8fe7 ccbb 39f5 1b3c
00000300: e76f fcba 188b 98bc 2f2d f33b 52cd 333c
00000310: 2d9c d2bb a221 6939 7994 033c aba0 4a3c
00000320: cd85 2dbb 532b 213c 7d9b e13b 631f aebb
00000330: d984 40bb 2b03 ee3b f98e 02bb 08ea 6f3c
00000340: 48ec aebb b7ec 20bb 3341 03bb bfe1 10bc
00000350: ad60 f93b 066b 363b 2266 7f3b 6b16 05bb
00000360: 45fd cebb 1537 85bb 4776 e2bb 97a1 d3bb
00000370: 80d8 78bb 2519 093c 10e0 463b b93c b6bb
00000380: ea11 aeb8 cf0d 873a 329e e63a d9ee 89b5
00000390: 09e6 9dbb a52a f3bb b2c8 a6bb 5bd0 28bc
000003a0: 25cd 2aba 578a 023a 55b9 633a 26e7 28bc
000003b0: 89a1 35bc 1a01 0c3b 4b7f 7b3b b383 5f3c
000003c0: 6b85 21bc a05e e7b9 cbfd 303b 528b eaba
000003d0: b378 e9bb 08bd bdbb 2b4a 75bb 46e4 8e3b
000003e0: 6b55 4fba 4846 223b d530 c83a 8ae0 7a3c
000003f0: 4d63 2bbb 32e4 f2bb 679a acbb fdf8 ac3b

action_model._discrete_distribution.branches.2.bias f4 [10]
-0.033611834 0.001021258 0.0152108325 0.03718268 0.022421474 0.030093856 -0.0037010217 -0.01472315
-0.03583173 -0.013118108
00000000: 90ac 09bd bbdb 853a db36 793c de4c 183d
00000010: 3dad b73c 6487 f63c d78c 72bb 5e39 71bc
00000020: 4bc4 12bd 55ed 56bc

action_model._discrete_distribution.branches.2.weight f4 [10, 256]
0.017246783 -0.045196924 0.023209464 0.0028197353 -0.010471135 -0.05544793 0.0886337 0.03048853
0.08308123 0.107480735 -0.008201306 0.03888098 0.043710228 -0.008240914 0.020151526 0.03770335
0.018700493 0.022987729 -0.020522276 -0.011891196 0.018488226 -0.010831105 0.046854813 -0.04103292
0.035627212 0.09034891 0.060347933 -0.0021650777 0.049931593 -0.004035317 0.010595348 0.010707453
-0.0076050833 0.023154333 -0.01978429 0.077531524 0.013944447 -0.0793359 0.023668256 -0.007912252
-0.040155698 -0.01275807 0.056659643 -0.020763256 0.009439397 0.040491633 0.080634795 -0.04997019
-0.046841886 0.07257933 0.015613396 -0.0039904374 0.0214833 -0.053514265 0.04817721 -0.0027346776
0.0060947435 -0.01988601 -0.010908003 0.057442643 -0.020401096 0.059632428 0.031104408 0.052177653
0.032013897 0.0014982274 -0.03573002 0.04932285 -0.057036642 0.06108226 -0.021437671 0.08558519
-0.016288977 0.038635045 -0.05965595 0.006873263 -0.048888173 -0.026959918 0.026911808 0.019356659
0.047173537 -0.029366318 0.016859317 0.11737839 -0.02982513 0.01500797 0.055285282 0.00929768
-0.012436177 0.0783273 0.07142565 0.032189336 0.07335606 -0.009326442 0.033278376 0.017224168
-0.032532603 0.061100844 0.0017162757 -0.030414684 -0.018861778 0.03345348 0.023718912 -0.016780762
0.015349788 -0.01675843 0.032306075 -0.015212176 -0.034340788 0.03321845 -0.056426276 0.03159346
-0.033995565 0.002279738 0.07111302 0.029206552 0.026947558 -0.011932697 -0.028465673 -0.021513017
-0.027280044 -0.0180521 0.09120574 0.005076784 0.014665575 0.030682111 0.005241413 0.021167533
0.0394251 0.016578656 0.038109515 0.040193625 0.009166682 0.07523063 -0.04009967 0.0028071958
-0.03521616 -0.07370564 0.04966739 0.03657198 0.0049689887 -0.04311484 -0.0487783 0.02023283
0.0434191 0.023420196 0.06970515 0.07515239 0.010959385 -0.042820286 0.00976874 0.013732104
0.052882798 0.02295831 -0.033348016 -0.04988999 -0.00699382 -0.04008062 0.028435078 0.05588866
0.016448013 0.007340167 0.006432813 0.008571109 0.0739508 -0.0021156939 -0.04284607 0.008202711
0.05951692 0.005825605 -0.0017326154 0.026719667 0.051291913 0.04687054 -0.10658494 -0.032707535
0.016876249 -0.004538913 0.006150215 0.004380885 0.0048351833 0.031191273 0.081003 0.016005317
-0.0015461752 0.041205186 0.04777592 0.010910919 0.01928883 -0.018388888 0.026886513 0.018969787
-0.041386522 0.011525821 -0.07376491 -0.03564114 0.044157024 0.060401276 0.053380057 0.004874599
0.03358818 0.021239534 0.0013969331 0.03330609 -0.013421035 -0.022674274 -0.0035191805 -0.065952726
0.05542096 -0.039557163 0.008961249 -0.06674599 -0.0460811 0.05389916 0.05813582 0.024097146
0.034323547 0.009963783 0.05520723 -0.009913736 -0.015977144 0.002683043 -0.0029647427 0.07865247
0.024474353 0.019721335 0.030145222 0.0158405 0.028875869 -0.068609595 -0.027156252 -0.024977637
-0.03777612 0.062440194 0.09605812 0.039145503 -0.06754418 -0.0010047072 0.05499851 -0.009030124
-0.044763245 -0.02543512 0.008042619 0.05158001 0.027919704 0.014673045 0.04153951 0.014720611
0.032953285 0.07085953 -0.010206388 0.016979178 0.053724293 0.06975631 -0.06978214 0.016191121
00000000: 2049 8d3c 6920 39bd c621 be3c 4fcb 383b
00000010: 208f 2bbc 5e1d 63bd 9685 b53d 15c3 f93c
00000020: 7e26 aa3d dc1e dc3d c55e 06bc aa41 1f3d
00000030: 7f09 333d e604 07bc d014 a53c d46e 1a3d
00000040: c731 993c c350 bc3c 551e a8bc 4ad3 42bc
00000050: 9f74 973c f274 31bc d5ea 3f3d 2312 28bd
00000060: d7ed 113d d908 b93d 652f 773d fae3 0dbb
00000070: 1285 4c3d b13a 84bb 1c98 2d3c 506e 2f3c
00000080: 1034 f9bb 28ae bd3c aa12 a2bc d9c8 9e3d
00000090: 4077 643c dc7a a2bd eee3 c13c 64a2 01bc
000000a0: 4d7a 24bd 3907 51bc f113 683d b417 aabc
000000b0: b3a7 1a3c 8eda 253d db23 a53d 8bad 4cbd
000000c0: 47dd 3fbd 79a4 943d 54cf 7f3c 37c2 82bb
000000d0: bffd af3c c631 5bbd 7755 453d 4738 33bb
000000e0: 6ab6 c73b fce7 a2bc 7bb7 32bc fa48 6b3d
000000f0: 3320 a7bc 2241 743d acce fe3c 3cb8 553d
00000100: 0121 033d 2b60 c43a a459 12bd c206 4a3d
00000110: 419f 69bd 6431 7a3d 0e9e afbc 4a47 af3d
00000120: 7670 85bc c83f 1e3d cc59 74bd 1c39 e13b
00000130: f73e 48bd 0cdb dcbc 2776 dc3c db91 9e3c
00000140: 0a39 413d a291 f0bc 8d1c 8a3c 1564 f03d
00000150: d553 f4bc fde3 753c d272 623d 4c55 183c
00000160: 1bc1 4bbc 106a a03d 9c47 923d f7d8 033d
00000170: b43b 963d efcd 18bc e84e 083d b319 8d3c
00000180: e840 05bd e144 7a3d a8f4 e03a 3728 f9bc
00000190: 0484 9abc 8406 093d 2a4e c23c cf77 89bc
000001a0: ad7d 7b3c fa48 89bc 6053 043d 7e3c 79bc
000001b0: eda8 0cbd 1210 083d 3d1f 67bd 2568 013d
000001c0: ef3e 0bbd a867 153b b4a3 913d 9442 ef3c
000001d0: 20c1 dc3c 5c81 43bc d830 e9bc 113c b0bc
000001e0: 667a dfbc ffe1 93bc 13ca ba3d 275b a63b
000001f0: e147 703c 0d59 fb3c 29c0 ab3b 8967 ad3c
00000200: 377c 213d f6cf 873c b918 1c3d 12a2 243d
00000210: da2f 163c 8412 9a3d 8d3f 24bd eef8 373b
00000220: d23e 10bd fcf2 96bd 0870 4b3d 80cc 153d
00000230: e6d2 a23b 3099 30bd c1cb 47bd 52bf a53c
00000240: 3ad8 313d b6db bf3c 93c1 8e3d 7fe9 993d
00000250: fe8e 333c 5364 2fbd 110d 203c 9efc 603c
00000260: a29b 583d 1113 bc3c ee97 08bd 7259 4cbd
00000270: 6a2c e5bb 942b 24bd aef0 e83c 82eb 643d
00000280: fcbd 863c c985 f03b 59ca d23b d66d 0c3c
00000290: 8473 973d 74a7 0abb 5c7f 2fbd aa64 063c
000002a0: 04c8 733d b7e4 be3b ed18 e3ba 34e3 da3c
000002b0: 7817 523d 53fb 3f3d 3449 dabd 56f8 05bd
000002c0: 0f40 8a3c 29bb 94bb be87 c93b 878d 8f3b
000002d0: 7570 9e3b d784 ff3c e7e4 a53d 951d 833c
000002e0: 08a9 caba c5c6 283d afb0 433d b6c3 323c
000002f0: 9c03 9e3c 4ba4 96bc 1b41 dc3c 8766 9b3c
00000300: ea84 29bd ccd6 3c3c 0f12 97bd 72fc 11bd
00000310: ffdd 343d 5467 773d 0ca5 5a3d 1abb 9f3b
00000320: c293 093d 88fe ad3c 4c19 b73a f76b 083d
00000330: e7e3 5bbc 66bf b9bc 0da2 66bb 3912 87bd
00000340: 1701 633d b106 22bd 34d2 123c 1fb2 88bd
00000350: 89bf 3cbd 5ec5 5c3d d31f 6e3d 6167 c53c
00000360: d996 0c3d 233f 233c fa20 623d 396d 22bc
00000370: 80e2 82bc fed5 2f3b 214c 42bb 8c14 a13d
00000380: 707e c83c a38e a13c 1df3 f63c f0c3 813c
00000390: 168d ec3c 3083 8cbd ca76 debc e79d ccbc
000003a0: 22bb 1abd 4ac1 7f3d 1fba c43d 0957 203d
000003b0: 9a54 8abd 61b0 83ba 1e46 613d 16f3 13bc
000003c0: aa59 37bd 505d d0bc 30c5 033c 9045 533d
000003d0: ddb7 e43c 3667 703c 5525 2a3d b82e 713c
000003e0: 06fa 063d cd1e 913d b238 27bc eb17 8b3c
000003f0: 010e 5c3d 65dc 8e3d f0e9 8ebd 3ea3 843c

action_model._discrete_distribution.branches.3.bias f4 [5]
-0.0406964 -0.16458267 0.09655384 0.61739 0.59201187
00000000: 45b1 26bd 5c88 28be 05be c53d 450d 1e3f
00000010: 178e 173f

action_model._discrete_distribution.branches.3.weight f4 [5, 256]
0.16693625 0.040584307 0.18873537 -0.011051146 0.009429098 0.04084315 -0.0195825 -0.057473432
-0.045155216 0.10432833 0.0716206 -0.07368282 0.026037399 -0.0075160875 0.06402932 -0.015545266
0.014700145 0.0051626335 0.023886062 0.20231931 0.1582093 0.014258717 -0.00670157 0.01566782
-0.068110004 0.032075156 -0.018061101 0.024015877 0.30000448 -0.0017570698 0.068608284 -0.038647685
0.22909781 -0.004716048 -0.006098857 0.08594556 -0.046217587 0.19627656 -0.012994186 0.13181959
0.17873514 -0.004073417 0.0045081256 0.03482862 0.069154754 0.050630506 0.036608726 0.046781763
0.0020323843 -0.022221953 0.054775096 0.0316776 0.12506346 0.023906747 -0.0049773767 -0.011703806
0.110479675 0.030437905 -0.025432048 -0.004729995 0.041442525 0.17834008 0.13666432 0.00350904
-0.017228326 0.059980657 -0.046989884 0.06371408 0.05507192 -0.013432211 0.0969004 -0.02220264
-0.0078095123 0.03628423 -0.05700058 0.105258435 0.013588608 0.024101583 -0.029221047 -0.013264123
-0.057818014 0.007772536 0.018692547 0.03187761 0.018881338 0.009685941 0.19794206 0.022713374
0.04508802 -0.021895707 0.017071115 0.18883623 -0.067657314 0.014652745 0.042089827 0.08240224
0.14166212 0.015280386 0.017204333 -0.014487692 0.01735457 0.010534575 -0.0074415156 0.08715647
0.07202773 -0.03271982 0.04306153 -0.00055910065 0.060148496 0.03855593 0.0083899 0.028507605
0.0213925 0.13068426 -0.039471775 0.15840633 -0.018369721 -0.036749464 -0.0015877556 -0.05121211
-0.007155098 -0.09044668 -0.016383009 0.19650297 -0.03243095 -0.008522501 0.09080862 0.01620747
-0.051660553 -0.023685187 -0.020267015 0.046842687 0.09267569 0.06945518 0.03262309 0.13144478
0.12040811 0.039059855 0.047271896 0.27131712 0.07987757 0.13720597 0.067807764 -0.020467376
0.073002055 0.22566609 0.29116753 -0.03145837 -0.03654838 0.04746246 0.0052027986 0.16195244
-0.062898345 0.042930372 0.12156148 0.06570493 0.012338549 0.017831324 -0.037550893 0.03357809
-0.042595018 0.076199956 0.032590624 -0.05941025 0.030100325 0.004298669 -0.056299664 0.11969362
0.054920096 0.08726305 -0.04422047 -0.042897016 0.032322172 0.04371159 -0.025977107 0.019263806
0.0501044 -0.00835481 -0.009905586 0.010468916 0.020415107 3.3275348e-05 0.027132647 -0.005139976
0.039517846 -0.02870921 0.12906298 0.025862606 0.049965963 0.032525837 0.047487777 -0.022408027
0.0006311121 -0.039669793 0.025637627 0.041274786 -0.025226383 0.03987707 -0.037254035 -0.016732335
0.17425458 -0.044286173 -0.012282329 0.021653883 0.10701195 0.01098844 -0.001516697 0.111690216
-0.025300307 0.06730897 0.02596647 0.028998528 0.024907846 0.055457033 0.011827425 0.017159764
-0.020089611 0.090157814 0.014164836 0.039791677 0.024477601 0.020074064 -0.004676274 0.055439014
0.25358316 -0.03429858 0.036319435 0.15008219 -0.041687578 -0.019689914 -0.04056755 -0.042715814
0.1779443 0.016488727 0.06276566 0.03888567 -0.007404949 -0.01884265 0.00056074176 -0.0016592108
0.05126909 -0.037190087 0.006199464 -0.07449228 -0.03249702 0.004141902 0.036401037 -0.025535377
0.22723527 0.008556273 -0.033860706 0.07090289 0.07666497 0.01619578 -0.06593327 0.07764824
00000000: 56f1 2a3e bb3b 263d d843 413e de0f 35bc
00000010: 817c 1a3c 264b 273d 7b6b a0bc 4369 6bbd
00000020: adf4 38bd 17aa d53d d2ad 923d 05e7 96bd
00000030: 624c d53c 8349 f6bb ce21 833d 92b1 7ebc
00000040: e1d8 703c 4f2b a93b b4ac c33c cb2c 4f3e
00000050: 9e01 223e 659d 693c d898 dbbb cd59 803c
00000060: 427d 8bbd 3d61 033d e0f4 93bc f2bc c43c
00000070: 309a 993e 7b4d e6ba 8082 8c3d 094d 1ebd
00000080: 9e98 6a3e 1489 9abb ecd8 c7bb 3a04 b03d
00000090: a74e 3dbd b9fc 483e 91e5 54bc b7fb 063e
000000a0: 5806 373e 4c7a 85bb e6b8 933b 74a8 0e3d
000000b0: 02a1 8d3d ef61 4f3d 08f3 153d 3c9e 3f3d
000000c0: c031 053b d00a b6bc da5b 603d 5fc0 013d
000000d0: a310 003e 15d8 c33c 4319 a3bb 52c1 3fbc
000000e0: 2b43 e23d ea58 f93c df56 d0bc 13fe 9abb
000000f0: a3bf 293d c89e 363e bbf1 0b3e ecf7 653b
00000100: 6b22 8dbc 47ae 753d 7778 40bd 877c 823d
00000110: 1893 613d c712 5cbc b873 c63d 50e2 b5bc
00000120: f0e6 ffbb c69e 143d 7179 69bd bc91 d73d
00000130: c1a2 5e3c af70 c53c fa60 efbc c451 59bc
00000140: 95d2 6cbd c2b0 fe3b 1d21 993c 1992 023d
00000150: 09ad 9a3c c8b1 1e3c 53b1 4a3e 6611 ba3c
00000160: 37ae 383d a05e b3bc b9d8 8b3c 495e 413e
00000170: eb8f 8abd 1112 703c 6266 2c3d 81c2 a83d
00000180: e00f 113e 965a 7a3c 1af0 8c3c c95d 6dbc
00000190: 2c2b 8e3c 3699 2c3c f5d7 f3bb 177f b23d
000001a0: 4683 933d 3805 06bd 4961 303d 9c90 12ba
000001b0: 455e 763d d3ec 1d3d cb75 093c c888 e93c
000001c0: 533f af3c 18d2 053e 28ad 21bd 4535 223e
000001d0: 197c 96bc 9b86 16bd 3d1c d0ba cac3 51bd
000001e0: 5075 eabb 1c3c b9bd a935 86bc 1338 493e
000001f0: 51d6 04bd f6a1 0bbc dff9 b93d 87c5 843c
00000200: 049a 53bd 7007 c2bc 0307 a6bc 1ede 3f3d
00000210: c1cc bd3d 843e 8e3d ca9f 053d 7699 063e
00000220: 8798 f63d 3afd 1f3d 2da0 413d 14ea 8a3e
00000230: da96 a33d b97f 0c3e ccde 8a3d 33ab a7bc
00000240: 1a82 953d 0315 673e e913 953e 7eda 00bd
00000250: c1b3 15bd ff67 423d 3d7c aa3b dcd6 253e
00000260: d9d0 80bd c2d7 2f3d 3af5 f83d 4e90 863d
00000270: a027 4a3c ff12 923c f7ce 19bd 2e89 093d
00000280: 1d78 2ebd b90e 9c3d bf7d 053d 2a58 73bd
00000290: f594 f63c d9db 8c3b 7a9a 66bd ee21 f53d
000002a0: e5f3 603d f8b6 b23d 8620 35bd c8b4 2fbd
000002b0: 4164 043d ed0a 333d f1cd d4bc 21cf 9d3c
000002c0: 453a 4d3d 9de2 08bc 0a4b 22bc d185 2b3c
000002d0: 953d a73c 2291 0b38 4945 de3c 3e6d a8bb
000002e0: 77dd 213d 942f ebbc 1629 043e d1dd d33c
000002f0: 1ca9 4c3d d039 053d 8b82 423d 0a91 b7bc
00000300: 3771 253a cb7c 22bd 0006 d23c c00f 293d
00000310: 8fa7 cebc 2356 233d b097 18bd 4012 89bc
00000320: cb6f 323e 6b65 35bd d23b 49bc 7c63 b13c
00000330: 1529 db3d dc08 343c e8cb c6ba d7bd e43d
00000340: 9742 cfbc 49d9 893d a2b7 d43c 528e ed3c
00000350: 8a0b cc3c ea26 633d d1c7 413c a292 8c3c
00000360: f892 a4bc a9a4 b83d a113 683c 99fc 223d
00000370: 4085 c83c 5d72 a43c 6e3b 99bb 0514 633d
00000380: a7d5 813e ab7c 0cbd b0c3 143d 25af 193e
00000390: 98c0 2abd be4c a1bc 292a 26bd c7f6 2ebd
000003a0: 0837 363e 5e13 873c 488b 803d 9546 1f3d
000003b0: 37a5 f2bb e75b 9abc befe 123a e079 d9ba
000003c0: 8aff 513d a254 18bd e024 cb3b 698f 98bd
000003d0: 981b 05bd cbb8 873b 4119 153d 912f d1bc
000003e0: 5db0 683e 9c2f 0c3c 86b1 0abd 8935 913d
000003f0: 8602 9d3d 03ad 843c 0608 87bd 0a06 9f3d

network_body.linear_encoder.seq_layers.0.bias f4 [256]
0.012090011 -0.011851773 -0.0074688233 0.009518881 -0.0020599398 0.008657077 -0.016756106 -0.06846759
-0.0069069318 -0.019534105 -0.01675288 -0.017396463 -0.012402314 0.008947736 0.0096831955 -0.0032330984
-0.03441655 0.020876415 0.0073982985 -0.005116151 0.031241545 0.016704379 -0.028442217 -0.010695622
0.004155517 -0.020572016 -0.044562295 0.008272853 -0.05587239 0.018078396 -0.07379656 0.02419404
-0.05937009 -0.020471672 -0.04510477 0.011090741 -0.03375698 -0.023444887 -0.01131766 -0.0058289776
-0.009978482 -0.0020080672 -0.0068615824 -0.0012907302 -0.010554423 -0.04009495 0.0037982522 -0.0070815054
-0.010646227 -0.00648955 -0.006254805 0.00026469617 -0.0060582925 0.02034926 -0.015112517 0.02624207
0.0031033885 -0.011031188 0.017115137 -0.007939684 0.02788652 0.004198739 -0.018221237 -0.04593887
-0.0048165373 -0.004068731 0.018795408 -0.0126123475 0.0045060446 -0.010686909 -0.020809544 -0.020305278
0.01278089 -0.0032613578 -0.005568345 -0.011516948 -0.043120116 -0.01708309 0.0038392246 0.0018877948
-0.025096461 -0.016243935 0.0022396096 -0.0037934892 -0.03846158 -0.008016021 0.0109838005 -0.045406874
-0.06798994 -0.014588481 -0.007858824 -0.054373775 -0.0021373117 -0.029938446 -0.011882576 0.005945128
-0.008708692 0.015535368 0.025610283 -0.048869308 -0.020010566 -0.0027492873 0.006025586 -0.0020745674
-0.019275382 -0.021086426 -0.0112277325 -0.018627957 -0.032837115 0.024157297 -0.016894637 0.00459148
-0.01860609 0.0024952684 -0.045064017 -0.014356275 -0.0012500541 -0.07633738 -0.022525705 -0.014268836
-0.016209036 -0.0071173212 -0.019644614 0.0039441567 -0.023693874 -0.011060019 0.0041938145 -0.013823128
-0.03562911 -0.019248791 -0.016540203 -0.012357586 0.009582226 -0.0042926027 0.006297485 -0.012538507
0.005235837 0.016808474 -0.012275052 -0.08467328 0.018344564 -0.009032141 -0.0037932582 0.011056126
0.014412381 -0.0244367 -0.016047288 -0.038123675 0.00781584 -0.005661775 -0.01914249 0.001973552
-0.0016723841 0.006978767 -0.032453306 0.0063891113 -0.022015786 0.0019057197 -0.015371234 -0.012781048
-0.014270148 -0.0091328295 -0.017561289 -0.019955726 -0.007969136 -0.022940049 -0.0033803761 -0.01827304
0.028923597 -0.003984883 0.008908741 -0.025347242 -0.009835947 0.0071894377 0.009420427 -0.0070828022
-0.013114392 0.0027678467 -0.012854439 -0.0013330901 -0.0005893415 -0.07247704 0.011459387 0.016988523
-0.009523885 0.0038694423 -0.004039687 0.004961813 -0.0040219054 -0.038195357 0.010529834 -0.022610193
-0.021380747 0.0026604785 -0.019945903 0.01603799 -0.0026326145 0.0031508484 -0.029394006 -0.00485632
-0.02146988 -0.0029302984 -0.009932438 -0.08921123 -0.033006895 0.014147309 0.0029168103 -0.033615086
-0.06689619 0.011925446 -0.009569691 -0.013999952 -0.009756768 -0.014013984 0.011991024 0.010396906
-0.027616905 0.00795969 -0.006809168 -0.09398999 -0.03348619 -0.025075046 -0.0077346833 -0.010501339
-0.038160086 -0.08806447 -0.040813316 0.006190837 0.0035187898 -0.027255338 0.0036576367 0.000756557
-0.012002904 0.009525176 0.023279242 -0.035406526 0.008056782 -0.005699084 -0.02592702 0.024388505
-0.002248764 0.0027749278 0.0024148861 -0.00994394 -0.010551425 -0.08320658 -0.009799944 0.01983096
0.0018806054 0.0033450876 0.019145435 -0.01799069 -0.012419534 -0.030754829 0.006892068 -0.009535702
00000000: 2e15 463c f02d 42bc 08bd f4bb 15f5 1b3c
00000010: 0e00 07bb 6ad6 0d3c 1a44 89bc bc38 8cbd
00000020: 8b53 e2bb fd05 a0bc 563d 89bc 0783 8ebc
00000030: 1333 4bbc 8699 123c 44a6 1e3c 64e2 53bb
00000040: 5ef8 0cbd 0405 ab3c 6d6d f23b 63a5 a7bb
00000050: 45ee ff3c 9fd7 883c a7ff e8bc b13c 2fbc
00000060: 012b 883b a586 a8bc f486 36bd dc8a 073c
00000070: 72da 64bd 2519 943c a722 97bd 9432 c63c
00000080: 0d2e 73bd 35b4 a7bc c8bf 38bd f0b5 353c
00000090: c244 0abd 7e0f c0bc b56d 39bc 0201 bfbb
000000a0: c97c 23bc c799 03bb 20d7 e0bb b82d a9ba
000000b0: 75ec 2cbc 9a3a 24bd 19ec 783b f90b e8bb
000000c0: 836d 2ebc 4ba6 d4bb 1bf5 ccbb ebc6 8a39
000000d0: a484 c6bb 7eb3 a63c 7e9a 77bc 9cf9 d63c
000000e0: 3862 4b3b 28bc 34bc 0b35 8c3c 7315 02bc
000000f0: 4572 e43c 9395 893b b444 95bc 662a 3cbd
00000100: 0bd4 9dbb fd52 85bb d4f8 993c 05a4 4ebc
00000110: 71a7 933b 2518 2fbc c778 aabc 4157 a6bc
00000120: f066 513c 81bc 55bb aa76 b6bb 95b1 3cbc
00000130: b89e 30bd d6f1 8bbc 809b 7b3b e26f f73a
00000140: 1897 cdbc 0012 85bc 6ac6 123b 309c 78bb
00000150: e489 1dbd a155 03bc 66f5 333c 8ffc 39bd
00000160: 4f3e 8bbd 8604 6fbc 4cc2 00bc 09b7 5ebd
00000170: 2412 0cbb 7941 f5bc 23af 42bc 59cf c23b
00000180: e7ae 0ebc 0e88 7e3c a8cc d13c 2f2b 48bd
00000190: 33ed a3bc 632d 34bb 4772 c53b 77f5 07bb
000001a0: 68e7 9dbc 71bd acbc 86f4 37bc a899 98bc
000001b0: 3680 06bd 86e5 c53c 9f66 8abc 2074 963b
000001c0: cd6b 98bc a887 233b 0c95 38bd 9536 6bbc
000001d0: dbd8 a3ba c656 9cbd d487 b8bc d6c7 69bc
000001e0: d0c8 84bc 6b38 e9bb beed a0bc fc3d 813b
000001f0: a819 c2bc 1535 35bc 446c 893b 677a 62bc
00000200: d4ef 11bd a4af 9dbc 527f 87bc 7977 4abc
00000210: c5fe 1c3c f6a8 8cbb 225b ce3b 4f6e 4dbc
00000220: 6291 ab3b edb1 893c 4d1d 49bc 2f69 adbd
00000230: 5747 963c 8cfb 13bc 5098 78bb c124 353c
00000240: e821 6c3c 792f c8bc 9a75 83bc 9227 1cbd
00000250: 020e 003c 6986 b9bb b6d0 9cbc b556 013b
00000260: e633 dbba 24ae e43b c2ed 04bd c05b d13b
00000270: 735a b4bc 58c9 f93a a1d7 7bbc 9a67 51bc
00000280: 57cd 69bc dda1 15bc b1dc 8fbc 317a a3bc
00000290: fb90 02bc c5ec bbbc 4d89 5dbb 58b1 95bc
000002a0: 2ef1 ec3c 9f93 82bb f8f5 113c 05a5 cfbc
000002b0: f426 21bc 6095 eb3b 2258 1a3c da16 e8bb
000002c0: bfdd 56bc c364 353b 6d9b 52bc 15bb aeba
000002d0: 0a7e 1aba d86e 94bd 27c0 3b3c 842b 8b3c
000002e0: 120a 1cbc 7896 7d3b 5a5f 84bb b496 a23b
000002f0: 30ca 83bb bc72 1cbd 5385 2c3c 0339 b9bc
00000300: ad26 afbc 6c5b 2e3b 9765 a3bc 1a62 833c
00000310: f187 2cbb 777e 4e3b b3cb f0bc c421 9fbb
00000320: 9ae1 afbc 400a 40bb aabb 22bc 61b4 b6bd
00000330: 3d32 07bd 1dca 673c f527 3f3b f9af 09bd
00000340: df00 89bd f262 433c 31ca 1cbc 0e60 65bc
00000350: dada 1fbc e99a 65bc 0076 443c c957 2a3c
00000360: d93c e2bc 5c69 023c 711f dfbb d37d c0bd
00000370: d128 09bd 2f6a cdbc 3a73 fdbb cf0d 2cbc
00000380: c04d 1cbd 255b b4bd dd2b 27bd 81dc ca3b
00000390: 7f9b 663b 9646 dfbc f6b4 6f3b ae53 463a
000003a0: d4a7 44bc 7c0f 1c3c 1cb4 be3c 6f06 11bd
000003b0: 9800 043c 62bf babb e764 d4bc 67ca c73c
000003c0: 0060 13bb 90db 353b 1143 1e3b e8eb 22bc
000003d0: e2df 2cbc 3668 aabd f28f 20bc 8a74 a23c
000003e0: a57e f63a 4239 5b3b e3d6 9c3c 3661 93bc
000003f0: 4d7b 4bbc 8df1 fbbc dbd6 e13b a23b 1cbc

network_body.linear_encoder.seq_layers.0.weight f4 [256, 602]
0.045283873 0.0055085844 -0.05830172 -0.0028118275 -0.037441015 0.015233471 -0.044613138 0.043848306
0.016308574 -0.033670593 -0.017905217 0.0012274552 0.054538224 -0.043116983 -0.0804975 0.032983255
-0.079012826 0.016796215 0.05076306 0.030114045 -0.096933566 -0.023428623 -0.039560985 -0.005212995
-0.0073513105 0.075708486 -0.14080442 0.015219961 -0.07582085 0.052704312 0.07199196 0.07425896
-0.03364284 0.027784478 0.050034627 0.015978897 0.09364197 0.04041542 -0.05194948 0.06476368
-0.09098535 -0.012940875 0.021731168 0.0629353 -0.07201279 -0.008796309 -0.0604324 0.024637986
0.095188454 0.028980035 -0.13610506 -0.008493759 -0.09080571 -0.007703027 0.044997826 0.076220356
-0.0970871 -0.002818549 -0.022878168 0.06752281 -0.0687177 0.0067219012 -0.01063003 -0.021453235
0.044626717 0.06128762 0.07368212 -0.029079296 -0.011226853 -0.0017674892 0.04645159 -0.028509283
-0.07306048 0.013981009 0.03315458 0.014391147 -0.06604016 -0.017989725 0.046222948 0.05416732
-0.04560916 0.041019354 -0.035617325 0.016916128 0.048776407 -0.028412437 0.08491743 0.04440271
-0.029511137 -0.03908089 0.055986036 -0.07683154 0.017193113 -0.021863207 0.04087707 0.058783095
0.10039969 -0.017129483 -0.051521014 -0.0017062586 0.008699651 0.004691162 -0.014354153 0.00063024985
0.02107661 0.061680473 -0.022934781 0.023098363 -0.0075199977 -0.0077695344 -0.038160097 0.018937996
0.0072510405 0.005960171 0.03469768 0.016690485 -0.03703384 -0.050779074 0.011314045 -0.019500682
-0.05443986 -0.05993664 0.007120379 0.025678134 0.07228479 -0.008079857 -0.040486697 0.020156637
0.013136677 0.019467695 0.013546011 0.056428295 0.0019210686 0.11996198 0.04113788 -0.056687307
0.07285641 0.04997429 -0.059678048 0.09089264 0.09446978 0.046391185 0.03244602 -0.000821506
-0.016656943 0.022988437 0.020946952 0.019840665 0.016133111 -0.031049691 -0.04612107 -0.04113663
-0.021190625 0.020750448 0.05509863 -0.010237006 -0.06519495 0.04938892 0.07420496 0.031126233
0.041784592 -0.005231411 -0.0065429793 0.06031722 0.05260716 0.0124271875 0.043271817 -0.018366644
-0.03768454 -0.028096134 0.005136206 0.040839262 0.058689706 -0.017766135 -0.07793914 -0.004934838
0.073955834 -0.021013644 0.064382955 -0.012612558 -0.021918908 0.057977885 -0.10309617 -0.020677157
0.019369237 0.035407282 0.078271665 0.09751542 -0.09518045 -0.026617527 -0.07558966 -0.006204999
0.052509483 -0.012048888 -0.093754135 0.049747527 0.047276776 -0.055358388 -0.011649979 0.07898941
-0.07018365 -0.06764659 -0.074425496 -0.12283702 0.025078952 0.066635266 -0.053364 -0.00757459
0.021110546 -0.07406359 0.041385308 -0.016585404 -0.07336122 0.049572866 -0.010387838 -0.08125615
0.088312745 0.020089004 -0.07941139 0.015335492 0.046729237 -0.06872569 -0.028371818 0.028638637
-0.12734923 -0.06422685 0.047089573 -0.027271327 0.056956224 0.10756468 -0.13782811 -0.04217684
-0.04511304 -0.052629992 0.13037615 0.06539127 -0.11921733 -0.028478632 0.03558955 -0.0055058002
0.037743837 0.12524556 0.09866262 0.07134684 0.026938813 -0.004215954 -0.011608059 0.09402302
0.058481842 0.0017126359 0.029493885 -0.08350049 0.05131923 0.14874421 0.018236184 0.036045756
00000000: 957b 393d 5b81 b43b c9cd 6ebd a346 38bb
00000010: c05b 19bd cf95 793c 44bc 36bd 489a 333d
00000020: 8f99 853c 2dea 09bd f6ad 92bc 90e2 a03a
00000030: 7963 5f3d 6f9b 30bd e0db a4bd 7319 073d
00000040: 7ad1 a1bd 3798 893c edec 4f3d bbb1 f63c
00000050: 1b85 c6bd 62ed bfbc b30a 22bd c6d1 aabb
00000060: 43e3 f0bb 0d0d 9b3d 092f 10be 255d 793c
00000070: f647 9bbd 7ae0 573d 8570 933d 1515 983d
00000080: 13cd 09bd 469c e33c 1cf1 4c3d 2de6 823c
00000090: 5cc7 bf3d a48a 253d fac8 54bd d2a2 843d
000000a0: 8756 babd f705 54bc 9005 b23c 39e4 803d
000000b0: 717b 93bd 651e 10bc f787 77bd 9ad5 c93c
000000c0: 2af2 c23d 8a67 ed3c 205f 0bbe 6829 0bbc
000000d0: 58f8 b9bd ad69 fcbb a44f 383d 6b19 9c3d
000000e0: 9ad5 c6bd 68b7 38bb ff6a bbbc 6649 8a3d
000000f0: debb 8cbd 6543 dc3b 9429 2ebc b2be afbc
00000100: 81ca 363d ba08 7b3d a7e6 963d b437 eebc
00000110: d6f0 37bc 19ab e7ba 0644 3e3d 4d8c e9bc
00000120: bca0 95bd 9a10 653c 19cd 073d d8c8 6b3c
00000130: 1040 87bd 305f 93bc 4654 3d3d 8dde 5d3d
00000140: acd0 3abd e903 283d 79e3 11bd b193 8a3c
00000150: c5c9 473d 33c1 e8bc 31e9 ad3d 9edf 353d
00000160: 57c1 f1bc 4913 20bd 9d51 653d db59 9dbd
00000170: 92d8 8c3c 781a b3bc b76e 273d 8bc6 703d
00000180: 5a9e cd3d 2153 8cbc b307 53bd 8aa4 dfba
00000190: fb88 0e3c 52b8 993b ae2d 6bbc 5a37 253a
000001a0: dba8 ac3c aaa4 7c3d b9e1 bbbc c738 bd3c
000001b0: 506a f6bb 9497 febb c34d 1cbd db23 9b3c
000001c0: 239a ed3b 8a4d c33b 281f 0e3d 7cba 883c
000001d0: ccb0 17bd b8fd 4fbd 8b5e 393c e5bf 9fbc
000001e0: 55fc 5ebd 1f80 75bd 1152 e93b f35a d23c
000001f0: 0c0a 943d 6061 04bc 61d5 25bd 881f a53c
00000200: 383b 573c b77a 9f3c 17f0 5d3c 5b21 673d
00000210: 5ecc fb3a a0ae f53d 3280 283d f330 68bd
00000220: be35 953d d7b1 4c3d f870 74bd ec25 ba3d
00000230: 5f79 c13d af04 3e3d 1ee6 043d 565a 57ba
00000240: 2474 88bc 3f52 bc3c f198 ab3c e488 a23c
00000250: 9629 843c ec5b febc 72e9 3cbd e27e 28bd
00000260: f697 adbc d8fc a93c 1aaf 613d 1db9 27bc
00000270: ee84 85bd 094c 4a3d c5f8 973d 71fc fe3c
00000280: 5226 2b3d 426c abbb 7d66 d6bb 300f 773d
00000290: 9b7a 573d 679b 4b3c ca3d 313d a575 96bc
000002a0: 1b5b 1abd dd29 e6bc 9e4d a83b 1247 273d
000002b0: 9e64 703d 498a 91bc 8e9e 9fbd 6cb4 a1bb
000002c0: 2876 973d ce24 acbc 36db 833d e7a4 4ebc
000002d0: 488f b3bc 387a 6d3d 1624 d3bd 2463 a9bc
000002e0: 3cac 9e3c 3a07 113d e54c a03d 2ab6 c73d
000002f0: f8ed c2bd 000d dabc c0ce 9abd 4e53 cbbb
00000300: 2f14 573d b368 45bc 2b02 c0bd 10c4 4b3d
00000310: 4ba5 413d 7abf 62bd 8edf 3ebc 33c5 a13d
00000320: 72bc 8fbd 4c8a 8abd 656c 98bd fa91 fbbd
00000330: 6072 cd3c 1278 883d 3694 5abd 4434 f8bb
00000340: 06f0 ac3c a7ae 97bd a483 293d 1dde 87bc
00000350: 683e 96bd eb0c 4b3d c031 2abc a069 a6bd
00000360: 50dd b43d b291 a43c 70a2 a2bd b741 7b3c
00000370: 2867 3f3d 0ec0 8cbd 046c e8bc 939b ea3c
00000380: d667 02be 5e89 83bd ffe0 403d 1e68 dfbc
00000390: ee4a 693d df4a dc3d d022 0dbe 9fc1 2cbd
000003a0: 73c8 38bd 8c92 57bd 5381 053e dceb 853d
000003b0: 3728 f4bd 054c e9bc 59c6 113d 006a b4bb
000003c0: 4899 1a3d 5f40 003e a10f ca3d 4b1e 923d
000003d0: c9ae dc3c fc25 8abb ba2f 3ebc 248f c03d
000003e0: a88a 6f3d 867a e03a 299d f13c 4e02 abbd
000003f0: 1d34 523d 6750 183e 0d64 953c b7a4 133d

network_body.linear_encoder.seq_layers.2.bias f4 [256]
-0.014123247 -0.05343292 0.01877719 -0.029323936 -0.012311731 -0.045374952 -0.003971849 0.01913603
-0.01202708 -0.014198332 0.008296507 0.005943758 -0.020837685 -0.03715732 0.023820618 -0.08468331
-0.07987588 -0.030484233 -0.15106456 0.01402151 0.015945056 0.0051227794 -0.031700186 -0.028316647
-0.021361277 -0.14349307 -0.07191648 -0.049487554 -0.0022664922 -0.14192389 -0.067928545 0.002677781
0.0090888785 -0.10979321 -0.041430112 0.022714362 -0.019063428 0.03976761 -0.022798078 0.01970123
0.01417666 -0.046057288 -0.06245649 -0.057883766 -0.020539783 -0.0762316 -0.03402852 -0.027852502
0.0076370817 -0.10779726 -0.0077536553 -0.008118383 0.010690205 -0.048523925 -0.0076346383 -0.041135754
-0.024511877 -0.024637517 -0.0174599 -0.025846351 -0.03302425 -0.007448842 -0.017626476 -0.03398733
-0.08043853 -0.06070188 -0.020318756 -0.024105638 -0.08533115 -0.02069883 -0.007605434 -0.034208395
-0.011044921 -0.1009141 -0.06795881 -0.024558624 -0.05420614 -0.0007970681 -0.110551625 -0.04629208
-0.05358775 -0.026134174 -0.008445922 -0.08963962 -0.020447938 -0.10182472 0.0020820636 -0.10132735
-0.013484825 -0.01870626 -0.02969111 -0.01550062 -0.04675253 -0.02006662 -0.029950002 -0.017331203
-0.012740648 -0.047929272 -0.10591775 -0.023913426 -0.05141372 -0.024659427 -0.08538308 -0.0141046075
-0.057291303 -0.041313782 -0.0040207747 -0.033686753 -0.06384158 -0.017088382 -0.05826539 -0.025073474
-0.12577471 -0.033427656 -0.023201268 0.0048369355 -0.005411456 -0.02568274 -0.014977768 -0.05975246
-0.034605097 -0.013076067 -0.013164377 0.0043295743 0.022050781 -0.1677346 -0.010312776 -0.004575296
-0.016255604 -0.029290533 -0.06546428 -0.034219604 -0.040830757 0.0038304336 -0.032417987 -0.081755124
-0.028974222 -0.0048619863 -0.16731349 -0.010400668 -0.055720408 -0.04381278 0.0014429858 -0.03619631
-0.014290704 -0.0007956186 0.0014738729 -0.018170627 -0.028355163 -0.057501942 -0.05760871 -0.00041779072
-0.045656756 -0.021448703 0.009136305 -0.03833175 -0.031126302 -0.11309528 -0.016889181 -0.004028705
-0.07344245 -0.02221723 -0.067633845 -0.024836414 -0.045887552 -0.08782644 -0.013222353 -0.025484663
-0.065264665 -0.024110757 0.011349206 -0.013453749 -0.047323026 -0.06671548 -0.056852613 -0.12129604
-0.020972984 -0.109241046 -0.10008419 -0.06911953 -0.018416053 -0.08960947 -0.16488323 -0.03466998
-0.03805336 -0.0045470074 -0.030841153 -0.08744692 -0.06823242 -0.019875433 -0.07567519 -0.03503241
-0.034957085 -0.022431519 -0.024176162 -0.06341447 -0.07767856 -0.09557928 -0.038361296 -0.06351864
-0.046079855 -0.042729113 -0.11953668 -0.06712606 -0.045826048 -0.060830697 -0.06394404 -0.044358
-0.030493652 -0.017418275 -0.13831362 -0.032993995 0.0213539 -0.083577424 -0.04846341 -0.10752654
-0.054538257 0.0041274955 -0.13948877 -0.16904975 -0.05249217 -0.04384005 -0.030215938 -0.012405932
0.00059225276 -0.021656951 -0.028580328 -0.07829038 -0.003766537 -0.015601604 -0.04870443 -0.022469329
-0.03893658 -0.072963044 -0.03628088 -0.072423145 -0.05088143 -0.05583599 -0.056146543 -0.07241722
-0.026778981 -0.043569274 -0.0030455382 -0.058427382 -0.037542276 -0.066275425 -0.1105528 -0.024823302
0.047694054 -0.15119474 -0.015295039 -0.046281133 -0.040768445 -0.03977231 -0.074836686 -0.026083875
00000000: 3165 67bc 7adc 5abd 9fd2 993c c038 f0bc
00000010: 25b7 49bc 16db 39bd 4926 82bb 2ac3 9c3c
00000020: 3b0d 45bc 1fa0 68bc 13ee 073c dbc3 c23b
00000030: cbb3 aabc 4632 18bd 7523 c33c 716e adbd
00000040: f795 a3bd 12ba f9bc abb0 1abe 7aba 653c
00000050: 359f 823c fddc a73b 0ed8 01bd 50f8 e7bc
00000060: d8fd aebc d9ef 12be f348 93bd 76b3 4abd
00000070: 6e89 14bb 7f54 11be 1f1e 8bbd b67d 2f3b
00000080: 85e9 143c 43db e0bd 9fb2 29bd 7813 ba3c
00000090: e82a 9cbc 5de3 223d 09c3 babc 7964 a13c
000000a0: 3945 683c 91a6 3cbd 60d2 7fbd 8717 6dbd
000000b0: 0c43 a8bc 501f 9cbd 7d61 0bbd ee2a e4bc
000000c0: 7c40 fa3b cfc4 dcbd 6012 febb f702 05bc
000000d0: f825 2f3c 06c1 46bd fd2b fabb f77d 28bd
000000e0: 22cd c8bc 9ed4 c9bc 1008 8fbc babb d3bc
000000f0: 7044 07bd 6a15 f4bb 6665 90bc 4c36 0bbd
00000100: f5bc a4bd 89a2 78bd 8573 a6bc 3079 c5bc
00000110: 19c2 aebd 9890 a9bc 0137 f9bb 1a1e 0cbd
00000120: c2f5 34bc 0dac cebd fd2d 8bbd 2b2f c9bc
00000130: 4207 5ebd 56f2 50ba e468 e2bd c49c 3dbd
00000140: d47e 5bbd 5617 d6bc c460 0abc fa94 b7bd
00000150: 6f82 a7bc 7b89 d0bd 3b73 083b b784 cfbd
00000160: 75ef 5cbc df3d 99bc c53a f3bc 50f6 7dbc
00000170: 957f 3fbd c162 a4bc b559 f5bc 2bfa 8dbc
00000180: 27be 50bc 7c51 44bd 68eb d8bd 17e6 c3bc
00000190: 3197 52bd 9102 cabc 53dd aebd 0317 67bc
000001a0: 49aa 6abd a438 29bd b4c0 83bb 1ffb 09bd
000001b0: 60bf 82bd effc 8bbc b1a7 6ebd e366 cdbc
000001c0: 16cb 00be 70eb 08bd 9610 bebc 287f 9e3b
000001d0: 9552 b1bb 9c64 d2bc 5065 75bc ffbe 74bd
000001e0: 13be 0dbd 003d 56bc 66af 57bc 1adf 8d3b
000001f0: d7a3 b43c 9ec2 2bbe ebf6 28bc 5dec 95bb
00000200: 792a 85bc b3f2 efbc 2312 86bd db29 0cbd
00000210: 273e 27bd 0308 7b3b b9c8 04bd 3b6f a7bd
00000220: 595b edbc 4c51 9fbb 3a54 2bbe 9067 2abc
00000230: 153b 64bd 0875 33bd 9222 bd3a 9542 14bd
00000240: 8f23 6abc 0f91 50ba f82e c13a 91da 94bc
00000250: 1649 e8bc 2887 6bbd 1cf7 6bbd ec0a dbb9
00000260: 9402 3bbd 31b5 afbc 71b0 153c c101 1dbd
00000270: 96fc febc 809e e7bd 2e5b 8abc 3a03 84bb
00000280: ff68 96bd e900 b6bc 9d83 8abd bc75 cbbc
00000290: 96f4 3bbd 59de b3bd 91a2 58bc 36c5 d0bc
000002a0: 7ba9 85bd ec83 c5bc 05f2 393c 1d6d 5cbc
000002b0: cad5 41bd 20a2 88bd 49de 68bd 0f6a f8bd
000002c0: 89cf abbc c5b9 dfbd f1f8 ccbd 8a8e 8dbd
000002d0: 43dd 96bc 2b85 b7bd 26d7 28be 1c02 0ebd
000002e0: d7dd 1bbd 10ff 94bb 96a6 fcbc 5f17 b3bd
000002f0: 70bd 8bbd ced1 a2bc 98fb 9abd 257e 0fbd
00000300: 292f 0fbd 4ec2 b7bc 160d c6bc 72df 81bd
00000310: f015 9fbd 12bf c3bd bc20 1dbd 1016 82bd
00000320: 3bbe 3cbd b904 2fbd a6cf f4bd 6379 89bd
00000330: 18b4 3bbd 9c29 79bd 18f5 82bd bcb0 35bd
00000340: d3cd f9bc c5b0 8ebc 16a2 0dbe b624 07bd
00000350: 60ee ae3c a42a abbd 9281 46bd e036 dcbd
00000360: 8263 5fbd f13f 873b 25d6 0ebe 611b 2dbe
00000370: 0802 57bd a091 33bd 6a87 f7bc 4042 4bbc
00000380: 6941 1b3a eb69 b1bc 4b21 eabc b556 a0bd
00000390: 01d8 76bb df9d 7fbc 4c7e 47bd 9911 b8bc
000003a0: f77b 1fbd a66d 95bd 439b 14bd 9652 94bd
000003b0: 0c69 50bd 47b4 64bd ebf9 65bd 7b4f 94bd
000003c0: 985f dbbc b275 32bd a797 47bb 8d51 6fbd
000003d0: eec5 19bd 69bb 87bd 8269 e2bd 3d5a cbbc
000003e0: d75a 433d cbd2 1abe 0b98 7abc 4991 3dbd
000003f0: d0fc 26bd 4ae8 22bd fa43 99bd daad d5bc
