Config/results/Env_PPO_22/EnvironmentAgentBehavior/EnvironmentAgentBehavior-8999991.onnx (onnx, 394523 bytes, 10 tensors)

action_model._discrete_distribution.branches.0.bias f4 [100]
-0.03566732 -0.0067308657 -0.0679438 -0.04037224 -0.034584846 -0.023427429 -0.053837184 -0.034068458
-0.010094703 -0.035975285 -0.01505678 -0.014580702 -0.0118319895 -0.007265149 0.016764417 0.0036124855
-0.046682477 -0.032552052 -0.03089675 -0.070427984 -0.0091320425 -0.03502271 -0.04263681 -0.040598996
-0.007712212 -0.025743116 0.016393369 -0.060807697 -0.059453733 -0.049386114 -0.048916236 -0.050212268
0.020845493 -0.028744427 0.012261243 0.014147643 -0.015944006 0.01895029 0.007849437 -0.019973785
-0.009229128 0.006061137 0.0067587453 0.03246619 -0.056769546 0.00803601 0.022375181 -0.03517057
-0.021676524 -0.030320818 -0.01811032 0.011091864 -0.035530623 0.044265173 -0.04489239 0.041092396
-0.024114368 0.014523789 -0.0059322417 -0.01793752 -0.03471085 -0.041163348 0.0030229613 0.025359921
0.0386773 -0.018862396 0.0060811425 0.032518454 -0.051459517 -0.052288286 -0.049350623 -0.01847367
0.026947252 -0.0048634103 -0.01848539 0.033402063 -0.030810697 -0.0042308117 -0.012397284 -0.0022604933
-0.04177177 -0.031358708 0.010424447 -0.0041408236 -0.020895896 -0.0025746648 0.011867495 -0.03396333
-0.03200403 -0.06957866 -0.01927132 -0.03432794 -0.025581254 -0.060549967 -0.0106296595 -0.021665592
-0.04514718 -0.017844895 -0.013150398 -0.003145876
00000000: e517 12bd 988e dcbb 1e26 8bbd 5d5d 25bd
00000010: d7a8 0dbd e1ea bfbc 6184 5cbd 5e8b 0bbd
00000020: 4164 25bc d25a 13bd b6b0 76bc e6e3 6ebc
00000030: f6da 41bc 7d10 eebb 8855 893c 73bf 6c3b
00000040: 2036 3fbd 4d55 05bd 2e1b fdbc 8c3c 90bd
00000050: 909e 15bc f973 0fbd f0a3 2ebd 224b 26bd
00000060: b9b6 fcbb 3ae3 d2bc 634b 863c 7e11 79bd
00000070: c285 73bd 1849 4abd 645c 48bd 61ab 4dbd
00000080: 2bc4 aa3c 6f79 ebbc 61e3 483c 84cb 673c
00000090: 019d 82bc a33d 9b3c ed9a 003c 10a0 a3bc
000000a0: c535 17bc 819c c63b 7778 dd3b 45fb 043d
000000b0: 2f87 68bd 78a9 033c 284c b73c 040f 10bd
000000c0: f792 b1bc 5d63 f8bc 185c 94bc a6ba 353c
000000d0: 8f88 11bd 664f 353d 15e1 37bd 8050 283d
000000e0: 7f8b c5bc 30f5 6d3c 4063 c2bb b5f1 92bc
000000f0: f72c 0ebd e69a 28bd e01c 463b 9cbf cf3c
00000100: 176c 1e3d 5085 9abc 5244 c73b 1232 053d
00000110: 37c7 52bd 3e2c 56bd e123 4abd 1856 97bc
00000120: 7cc0 dc3c 3e5d 9fbb ac6e 97bc 9ad0 083d
00000130: b766 fcbc 9fa2 8abb fa1d 4bbc c924 14bb
00000140: e018 2bbd fd71 00bd 4dcb 2a3c bfaf 87bb
00000150: df2d abbc b5bb 28bb e26f 423c 221d 0bbd
00000160: a816 03bd 427f 8ebd e3de 9dbc 749b 0cbd
00000170: c78f d1bc 3e03 78bd 0628 2ebc 0a7c b1bc
00000180: 40ec 38bd 752f 92bc c474 57bc 0b2b 4ebb

action_model._discrete_distribution.branches.0.weight f4 [100, 128]
-0.022313023 -0.04288591 -0.05783365 0.03520884 -0.0066586924 0.0018392308 -0.054785617 -0.030653495
0.030026685 -0.028651835 -0.080238774 0.03751125 -0.037139766 0.002459305 0.010405653 0.015098253
-0.04169199 -0.051874004 -0.019036721 -0.06364041 0.007658363 -0.036669943 0.032498598 0.023716075
0.015331234 0.014437173 0.018815588 -0.03149822 -0.008254673 0.064473286 -0.018797131 -0.020336261
-0.006618654 -0.008877772 0.013173428 -0.034801845 0.0027188188 -0.033971664 -0.012988327 0.0032159197
-0.039164048 -0.013091551 -0.034750793 -0.04533621 -0.006930258 -0.101178534 0.032540202 -0.008398625
-0.0020943973 -0.034690823 -0.0755412 -0.07188339 -0.023976777 0.009877219 0.004979192 -0.05196988
-0.011834353 -0.02545074 -0.036796853 0.034387607 -0.03046511 0.006300626 -0.052948657 -0.018512646
-0.022851458 -0.017886098 -0.009979929 -0.063453004 -0.011686856 -0.030056648 -0.0084738415 -0.045422193
-0.02993136 -0.012522842 -0.02326009 0.018068377 -0.022812152 -0.011212863 -0.05601885 0.0034367982
-0.020717204 0.028571682 -0.02158307 -0.005572081 -0.017284324 -0.012807529 -0.01977811 0.033077292
0.023927476 0.010456348 -0.047570232 0.04016208 0.005318067 -0.07426376 -0.039555494 -0.020759905
0.0021867678 -0.056270078 -0.047724087 -0.025044631 0.011011215 0.007664645 -0.038607616 -0.036947012
0.041645423 -0.030103475 -0.032264426 0.009920924 -0.03641641 0.027437553 -0.033265267 -0.024330417
0.0007597975 -0.04961932 -0.03198116 -0.048419088 0.0058561717 -0.07147394 -0.0333072 -0.027561612
0.0030461925 0.016689822 -0.01388771 -0.048891563 0.014368864 -0.095018655 -0.03130739 -0.01229048
-0.038957957 -0.024051916 -0.05308548 -0.038531125 -0.048779603 -0.044680625 -0.05005137 -0.055399578
-0.06512959 -0.025965372 -0.023434635 -0.025971752 -0.06473485 -0.055985704 -0.027450753 -0.028401757
-0.012537753 0.0120071275 -0.033222757 0.011713513 -0.036037512 -0.012086722 0.0016775383 -0.02674674
-0.017296879 0.0086868955 -0.009763012 0.014629796 0.009459076 -0.04726921 0.0154079795 -0.03567793
-0.014712526 -0.003938137 -0.01566505 -0.025281336 0.00088088034 -0.017455975 -0.04324633 -0.014703922
-0.011535089 -0.018666286 -0.006143845 -0.008178863 -0.031042684 -0.025452469 0.0122943 -0.009977226
0.0005885327 -0.009398838 -0.029591102 -0.005454701 0.0069309655 -0.025238223 -0.02508903 -0.07172041
-0.032381315 -0.031543773 -0.04980554 0.017713467 -0.02854986 -0.024443652 -0.027189918 -0.049740445
-0.025019122 -0.016815325 -0.004888234 -0.023926148 0.020248378 -0.08237947 -0.0027693661 -0.09086142
-0.044297006 -0.03628587 -0.045702264 -0.015742473 -0.030529626 -0.018331092 -0.05007574 -0.051704478
-0.004638002 -0.007369776 -0.0052101435 -0.011887175 -0.026718043 0.045140225 0.003910268 -0.039432563
-0.008599343 -0.06235247 -0.030829571 0.0031435576 -0.04292723 0.0005487312 0.00087812974 -0.008768337
-0.026129145 -0.06426845 -0.0152899325 -0.04144077 -0.03941976 -0.0447736 -0.028361931 -0.00061622134
0.0051970063 -3.1034597e-05 0.0031156584 -0.0035327417 -0.0308477 -0.019688908 -0.017276308 -0.06425718
-0.04697754 -0.027793624 0.008188802 -0.002860083 -0.042819463 -0.046306677 -0.042120688 -0.005196046
-0.052534018 -0.030202447 -0.038024694 -0.03704011 -0.0055910856 0.027941223 0.0062185093 -0.049852725
00000000: cdc9 b6bc 23a9 2fbd fae2 6cbd 2537 103d
00000010: 2931 dabb 5812 f13a e266 60bd 0a1d fbbc
00000020: 86fa f53c 41b7 eabc 3a54 a4bd 65a5 193d
00000030: de1f 18bd 4b2c 213b 797c 2a3c aa5e 773c
00000040: 38c5 2abd d679 54bd e6f2 9bbc e755 82bd
00000050: 01f3 fa3b 3933 16bd 401d 053d 3748 c23c
00000060: db2f 7b3c e489 6c3c 2623 9a3c 4704 01bd
00000070: 9c3e 07bc 920a 843d 71fc 99bc 3b98 a6bc
00000080: 4be1 d8bb 1374 11bc 5dd5 573c 618c 0ebd
00000090: 362e 323b df25 0bbd fecc 54bc 2ec2 523b
000000a0: 7b6a 20bd f27d 56bc d956 0ebd 76b2 39bd
000000b0: 3817 e3bb b136 cfbd e048 053d 639a 09bc
000000c0: 2842 09bb f717 0ebd 58b5 9abd 9937 93bd
000000d0: f26a c4bc 0fd4 213c 7d28 a33b 5ede 54bd
000000e0: e0e4 41bc 127e d0bc 4cb8 16bd 05da 0c3d
000000f0: f791 f9bc 7b75 ce3b b1e0 58bd d5a7 97bc
00000100: fb32 bbbc de85 92bc db82 23bc a6f3 81bd
00000110: 3a7a 3fbc 5c39 f6bc ded5 0abc 9f0c 3abd
00000120: 9d32 f5bc 9b2c 4dbc f28b bebc 2204 943c
00000130: 8de0 babc 28b6 37bc 0674 65bd e83b 613b
00000140: 20b7 a9bc 290f ea3c face b0bc 0196 b6bb
00000150: db97 8dbc acd6 51bc b405 a2bc 0e7c 073d
00000160: 8e03 c43c 1a51 2b3c 01d9 42bd fe80 243d
00000170: 2e43 ae3b 9917 98bd f104 22bd ad10 aabc
00000180: e04f 0f3b 747b 66bd 557a 43bd 662a cdbc
00000190: 6268 343c b427 fb3b 0523 1ebd c055 17bd
000001a0: 6494 2a3d 909b f6bc b427 04bd 5f8b 223c
000001b0: 6029 15bd b8c4 e03c 2941 08bd 9550 c7bc
000001c0: 262d 473a a13d 4bbd adfe 02bd 1853 46bd
000001d0: 21e5 bf3b ee60 92bd 216d 08bd e4c8 e1bc
000001e0: a1a2 473b 18b9 883c 4789 63bc 8542 48bd
000001f0: 626b 6b3c 2499 c2bd 2e3c 00bd 025e 49bc
00000200: 6192 1fbd 8608 c5bc 2970 59bd d0d2 1dbd
00000210: 1fcd 47bd 0803 37bd aa02 4dbd abea 62bd
00000220: aa62 85bd 55b5 d4bc fef9 bfbc b6c2 d4bc
00000230: b493 84bd 4451 65bd 67e0 e0bc cdaa e8bc
00000240: 266b 4dbc 8bb9 443c 9614 08bd 09ea 3f3c
00000250: 129c 13bd 6307 46bc d8e0 db3a fb1b dbbc
00000260: 2fb2 8dbc 7b53 0e3c 0af5 1fbc d0b1 6f3c
00000270: 3efa 1a3c 5c9d 41bd c071 7c3c 0523 12bd
00000280: cf0c 71bc 7d0b 81bb fe53 80bc ce1a cfbc
00000290: e1ea 663a d5ff 8ebc 1023 31bd b8e8 70bc
000002a0: acfd 3cbc 0aea 98bc 4f52 c9bb a300 06bc
000002b0: 3a4d febc b281 d0bc 086e 493c 8577 23bc
000002c0: c347 1a3a 95fd 19bc 0a69 f2bc 59bd b2bb
000002d0: 271d e33b 64c0 cebc 8287 cdbc 26e2 92bd
000002e0: 45a2 04bd 0b34 01bd e500 4cbd d51b 913c
000002f0: 65e1 e9bc 0e3e c8bc 64bd debc a3bc 4bbd
00000300: e7f4 ccbc 4bc0 89bc 7b2d a0bb c500 c4bc
00000310: eddf a53c 91b6 a8bd 417e 35bb 8d15 babd
00000320: c770 35bd 7ea0 14bd 4c32 3bbd 5cf6 80bc
00000330: 4419 fabc 162b 96bc 381c 4dbd 13c8 53bd
00000340: 61fa 97bb 297e f1bb dab9 aabb 6dc2 42bc
00000350: ccdf dabc f5e4 383d b521 803b 0a84 21bd
00000360: 42e4 0cbc 4e65 7fbd 4c8e fcbc 2504 4e3b
00000370: 77d4 2fbd bad8 0f3a 4a32 663a 12a9 0fbc
00000380: ca0c d6bc 2d9f 83bd a082 7abc ccbd 29bd
00000390: 9d76 21bd 8664 37bd 4857 e8bc ea89 21ba
000003a0: a64b aa3b 252b 02b8 1330 4c3b 9285 67bb
000003b0: 51b4 fcbc a24a a1bc 0b87 8dbc 4599 83bd
000003c0: 856b 40bd 74af e3bc 532a 063c 3b70 3bbb
000003d0: 7663 2fbd 12ac 3dbd be86 2cbd 9843 aabb
000003e0: e92d 57bd 1f6b f7bc c8bf 1bbd 5fb7 17bd
000003f0: 6d35 b7bb fee4 e43c a3c4 cb3b 5f32 4cbd

action_model._discrete_distribution.branches.1.bias f4 [2]
-0.00051165523 0.0005116491
00000000: 9a20 06ba 3120 063a

action_model._discrete_distribution.branches.1.weight f4 [2, 128]
-0.0050890376 -0.006219841 0.0150945345 0.002108393 0.033122525 -0.02234836 0.034000542 0.009025244
-0.0020880732 -0.008019232 0.019193217 -0.0055366303 -0.021944324 -0.009965704 0.0022072466 -0.004305685
0.0008679261 0.0022440446 -0.01409701 0.060126908 -0.021645494 0.03523658 -0.0050534266 -0.0179258
0.007278845 0.014635924 -0.0047354065 0.028264051 -0.016426941 -0.015822427 -0.006384867 0.028523251
-0.02929724 -0.014143853 -0.06072229 0.02285552 0.008836677 0.013718173 0.022032138 0.020401966
0.009554759 -0.007246722 0.017064884 -0.008902596 0.05598606 -0.012151456 0.0020957778 -0.010639104
0.027544476 -0.0078569995 0.02049156 0.038902115 0.0074079027 -0.02186122 -0.022854418 0.010000592
0.015121239 0.0063229636 0.0044801603 -0.011914095 -0.012051432 -0.028872564 0.0041120946 0.022054581
0.0010519478 0.025565881 -0.011090273 0.04862205 -0.008832598 0.012522571 -0.0067379936 0.033767857
0.005956416 -0.017329037 0.012647166 0.015442876 -0.0051690456 -0.033274017 0.01745196 0.015625756
-0.031476937 0.0036204874 0.009549404 -0.04243326 0.019446393 -0.015367579 -0.003943306 -0.011638881
-0.043656092 -0.0036245883 0.021210054 -0.010575376 -0.030733587 0.0064856196 0.012890943 -0.013319466
-0.0036761872 0.011069969 0.0013863789 -0.00059138273 0.0009949501 0.010811944 -0.007705078 0.00026430836
0.0015142258 0.0027845993 0.0057159183 -0.008229383 -0.013075834 0.028887903 0.015065766 0.0047238357
-0.02484676 0.014597562 0.00355243 -0.0014012413 -0.013311866 0.017050264 -0.019283623 -0.0025146632
-0.035529602 0.029330155 0.017037082 0.02657836 -0.002046721 -0.0030620075 0.030122753 0.017328765
-0.016778061 -0.0017108967 -0.02164038 -0.0018319116 -0.032277882 0.004859397 -0.024576694 -0.016891807
0.023417635 -0.018788293 -0.008762815 0.013030404 0.027542235 0.021224922 0.011809204 0.006930824
-0.016947176 0.00014143264 0.012737812 -0.058850393 0.023761805 -0.05391174 0.005455126 0.020886006
0.0055650407 -0.009282385 0.0044340785 -0.046176337 -0.0018296017 0.01637001 -0.016407115 -0.021591138
-0.0032454524 0.0015936572 0.078561656 -0.0015154276 0.00092468486 0.008237023 -0.0051045003 -0.009769801
-0.009024131 -0.0025870234 -0.021701453 0.0040515256 -0.062354665 0.016938314 -0.00536726 0.025271619
-0.025374204 0.0026342515 -0.014003599 -0.03753781 0.015177099 0.0107563855 0.018675866 0.004887251
-0.025109336 -0.0033824064 -0.0150389485 0.007215724 0.009242813 0.017338844 -0.0058687963 -0.01690958
-0.010433839 -0.021869801 0.013291525 -0.056851555 -0.007608741 -0.011997645 0.011611625 -0.03085847
0.008439599 0.010221982 0.010033454 -0.00919142 0.0018590797 0.017279604 -0.019737514 -0.0036072503
0.027261274 -0.020878278 -0.010003528 0.032941397 0.0045513883 0.004218201 -0.0073551796 0.008355319
0.041892357 0.019059967 -0.003016236 -0.0046663457 0.029201118 -0.00838063 -0.0050653433 0.027038444
-0.0012722644 -0.028952995 0.010713542 -0.0003477021 0.010865213 0.0051535647 0.0105089415 0.014586304
-0.0024438058 -0.025136365 0.0035845179 0.019455742 0.017893005 -0.012818238 -0.004650841 -0.007079186
0.053811457 0.0008461578 -0.01131378 0.008986866 0.024709947 -0.008263412 0.021709614 -0.0035443627
0.025429878 -0.026979629 -0.022085968 -0.030813303 0.0067806463 -5.8641857e-05 -0.0044342033 -0.029357968
00000000: f1c1 a6bb cfcf cbbb 114f 773c f72c 0a3b
00000010: 7cab 073d e813 b7bc 2744 0b3d 9ede 133c
00000020: 0ed8 08bb 1963 03bc 183b 9d3c 9f6c b5bb
00000030: 95c4 b3bc 3147 23bc 74a7 103b b416 8dbb
00000040: 8985 633a d210 133b 25f7 66bc a247 763d
00000050: e451 b1bc 3b54 103d 3797 a5bb 21d9 92bc
00000060: 6183 ee3b 84cb 6f3c 782b 9bbb 038a e73c
00000070: cb91 86bc 099e 81bc 2538 d1bb 98a9 e93c
00000080: c400 f0bc 9fbb 67bc f0b7 78bd 803b bb3c
00000090: b6c7 103c 30c2 603c be7c b43c 0622 a73c
000000a0: 908b 1c3c e975 edbb a8cb 8b3c 32dc 11bc
000000b0: a451 653d e716 47bc 5159 093b a34f 2ebc
000000c0: f4a4 e13c a5ba 00bc ebdd a73c d357 1f3d
000000d0: febd f23b 4d16 b3bc 3039 bbbc 86d9 233c
000000e0: 13bf 773c dd30 cf3b 4fce 923b 5633 43bc
000000f0: 5f73 45bc 2886 ecbc c0be 863b cfab b43c
00000100: 83e1 893a 8a6f d13c fab3 35bc ea27 473d
00000110: 9ab6 10bc 782b 4d3c 63ca dcbb 2a50 0a3d
00000120: 0a2e c33b a0f5 8dbc 0f36 4f3c 1e04 7d3c
00000130: 1961 a9bb 564a 08bd 6af7 8e3c 9601 803c
00000140: f6ed 00bd b345 6d3b 1a75 1c3c 7fce 2dbd
00000150: 0b4e 9f3c 4cc8 7bbc d936 81bb 01b1 3ebc
00000160: bbd0 32bd 808a 6dbb b5c0 ad3c 5844 2dbc
00000170: 01c5 fbbc 5285 d43b 8934 533c e439 5abc
00000180: 30ec 70bb d15e 353c 28b7 b53a 0607 1bba
00000190: fc68 823a 9424 313c e17a fcbb de92 8a39
000001a0: fd78 c63a d37d 363b 994c bb3b 89d4 06bc
000001b0: 063c 56bc 53a6 ec3c 67d6 763c 68ca 9a3b
000001c0: 6f8b cbbc 9d2a 6f3c e3cf 683b dba9 b7ba
000001d0: 031a 5abc ffac 8b3c b0f8 9dbc 0ccd 24bb
000001e0: 7d87 11bd cb45 f03c 5a91 8b3c dcba d93c
000001f0: 4822 06bb f6ab 48bb fec3 f63c 0ef5 8d3c
00000200: 2572 89bc 2b40 e0ba 2b47 b1bc c11c f0ba
00000210: d035 04bd 943b 9f3b 1055 c9bc b060 8abc
00000220: 57d6 bf3c e8e9 99bc e991 0fbc 7a7d 553c
00000230: 41a0 e13c e3df ad3c 647b 413c f71b e33b
00000240: ced4 8abc 894d 1439 41b2 503c 1c0d 71bd
00000250: 1ea8 c23c 8fd2 5cbd eac0 b23b 2119 ab3c
00000260: f25a b63b 2515 18bc bf4b 913b 6623 3dbd
00000270: 3fcf efba 661a 863c 3768 86bc e6df b0bc
00000280: a8b1 54bb 43e2 d03a efe4 a03d 50a1 c6ba
00000290: 8d66 723a 94f4 063c a743 a7bb 8411 20bc
000002a0: f3d9 13bc 0d8b 29bb 3fc7 b1bc a9c2 843b
000002b0: 9b67 7fbd 38c2 8a3c d7df afbb 6d06 cf3c
000002c0: 90dd cfbc 68a3 2c3b 5a6f 65bc 3fc1 19bd
000002d0: 5ea9 783c 8d3b 303c 21fe 983c 3c25 a03b
000002e0: 18b2 cdbc 5dab 5dbb ec65 76bc e171 ec3b
000002f0: 2b6f 173c 310a 8e3c 084f c0bb f685 8abc
00000300: b1f2 2abc 4c28 b3bc b2c4 593c 2ddd 68bd
00000310: bf52 f9bb c591 44bc af3e 3e3c e7ca fcbc
00000320: 3e46 0a3c 1a7a 273c 5b63 243c 9c97 16bc
00000330: 5dac f33a f58d 8d3c 91b0 a1bc 9e67 6cbb
00000340: 0953 df3c ec08 abbc d6e5 23bc 8fed 063d
00000350: d023 953b d638 8a3b b803 f1bb bfe4 083c
00000360: 5297 2b3d a623 9c3c 0bac 45bb 25e8 98bb
00000370: 2f37 ef3c e94e 09bc 2efb a5bb ba7f dd3c
00000380: 1cc2 a6ba d52e edbc da87 2f3c c94b b6b9
00000390: 0204 323c 3cdf a83b b22d 2c3c 65fb 6e3c
000003a0: 4228 20bb c7ea cdbc 3bea 6a3b a661 9f3c
000003b0: 5a94 923c 9603 52bc 1566 98bb 84f8 e7bb
000003c0: 6769 5c3d b0d0 5d3a 6f5d 39bc a63d 133c
000003d0: 846c ca3c 4363 07bc 5cd8 b13c 8a48 68bb
000003e0: 5252 d03c 6204 ddbc a2ed b4bc 2e6c fcbc
000003f0: 2f30 de3b 37f6 75b8 cb4c 91bb 1f80 f0bc

network_body.linear_encoder.seq_layers.0.bias f4 [128]
-0.0040094582 0.016476166 0.009115465 -0.0023624378 0.012857276 -0.00032722295 0.0034440942 0.00656258
-0.0032367324 0.004479756 0.007834319 0.010736539 0.015130537 0.0030655526 0.011168058 0.012401607
0.009571928 0.014131341 0.012944568 -0.024121648 0.015917458 0.0038911076 -0.00061739056 -0.0023240682
0.009131886 -0.013549877 0.0026675984 0.005483947 0.009862616 0.009227967 0.008290921 0.006970658
0.010311603 -0.0044969097 0.006030632 -0.0056800875 8.105168e-05 0.01049795 -0.015980061 0.0036362067
0.010286023 0.015278883 0.008328959 0.016223863 0.010413363 0.0071941237 0.013140063 0.0056247674
0.008780665 0.005322258 0.007303431 -0.0037640976 0.014376486 -0.0009611471 0.0129720215 0.004724948
0.020385675 0.014658268 0.016434347 0.014594001 0.00039623555 0.01512841 0.014010737 0.019862847
-0.03157915 0.010162985 0.007129536 0.005262773 -0.014751659 0.012497624 -0.00016524995 0.013565137
0.010187873 -0.001887501 -0.012083815 0.018297516 -0.0034356874 0.020307716 0.009712479 0.012502235
0.007670314 0.008159604 0.007742734 0.01732352 0.0016694033 0.026530994 0.0020002397 0.012701596
0.009768468 0.025135117 0.0025258255 0.009198672 0.011291218 0.019191923 0.0149155725 -0.006973307
0.018286083 0.0054881894 0.016105214 0.006511128 0.0057159527 0.009174677 0.01646463 0.0033936005
0.010579512 0.0036086133 0.0171109 0.016403485 -0.0004495256 0.0044315136 0.013867158 0.015787795
0.0016035079 -0.036404505 -0.005728837 -0.0057152803 0.0005469704 0.009424815 0.008575252 0.014512096
0.019648677 0.020668551 -0.009235085 0.0011967064 0.012523412 0.0033595918 0.012918854 -0.000470906
00000000: c661 83bb 06f9 863c 0859 153c 21d3 1abb
00000010: 53a7 523c 1f8f abb9 50b6 613b e90a d73b
00000020: 5c1f 54bb ebca 923b 845b 003c 4fe8 2f3c
00000030: 12e6 773c 70e7 483b 3bfa 363c 1c30 4b3c
00000040: 93d3 1c3c 2487 673c 7415 543c c39a c5bc
00000050: 5465 823c f401 7f3b 61d8 21ba 654f 18bb
00000060: e89d 153c 4e00 5ebc e0d2 2e3b afb2 b33b
00000070: cf96 213c e630 173c a5d6 073c 1e6a e43b
00000080: fff1 283c d05a 93bb 9c9c c53b 0720 babb
00000090: 4afa a938 98ff 2b3c 9ee8 82bc 6d4d 6e3b
000000a0: b586 283c 4854 7a3c 3076 083c e8e7 843c
000000b0: cf9c 2a3c afbc eb3b 6b49 573c f84f b83b
000000c0: c7dc 0f3c 5666 ae3b 9f51 ef3b 14af 76bb
000000d0: 5a8b 6b3c 7df5 7bba 9a88 543c bdd3 9a3b
000000e0: dcff a63c 3b29 703c 53a1 863c ad1b 6f3c
000000f0: d6bd cf39 27dd 773c 4a8d 653c 69b7 a23c
00000100: 2459 01bd a682 263c e29e e93b 5773 ac3b
00000110: f1b0 71bc d6c2 4c3c f246 2db9 4f40 5e3c
00000120: 09eb 263c 0666 f7ba 32fb 45bc ace4 953c
00000130: 4529 61bb 5e5c a63c 1721 1f3c 2dd6 4c3c
00000140: 4257 fb3b dcaf 053c c3b6 fd3b 0eea 8d3c
00000150: e1cf da3a 8757 d93c 7416 033b 5b1a 503c
00000160: ed0b 203c 29e8 cd3c 5288 253b 07b6 163c
00000170: cdfe 383c 6138 9d3c 7260 743c 5780 e4bb
00000180: b2cc 953c 45d6 b33b 15ef 833c 4d5b d53b
00000190: e34c bb3b 6251 163c d5e0 863c 2b67 5e3b
000001a0: b155 2d3c 7c7e 6c3b 282c 8c3c 9a60 863c
000001b0: 4eae ebb9 3b36 913b 1433 633c 6855 813c
000001c0: cc2c d23a e41c 15bd f8b8 bbbb 3f47 bbbb
000001d0: 9062 0f3a 8a6a 1a3c 377f 0c3c 24c4 6d3c
000001e0: 43f6 a03c 1851 a93c c14e 17bc ceda 9c3a
000001f0: ff2e 4d3c 992c 5c3b 9aa9 533c efe3 f6b9

network_body.linear_encoder.seq_layers.0.weight f4 [128, 402]
-0.013127897 0.0481461 -0.028107904 -0.011034924 -0.008001834 0.04449391 -0.009006089 -0.043739848
-0.14903174 0.026823957 -0.07711352 0.037079696 -0.018774077 0.0361233 -0.04766142 -0.050243065
-0.00255778 0.04266246 -0.03104339 0.013976872 0.073784746 -0.0010692398 -0.029379236 -0.12098498
0.059954833 0.0836815 -0.082480095 -0.008045792 -0.102836676 0.02027297 -0.014409101 -0.024078816
0.10093373 0.00090646837 -0.06303493 0.014613741 0.0017783905 0.03038346 0.0011342271 -0.0076463623
0.041692853 0.025571056 -0.061802197 0.0026529822 -0.054849926 -0.039113488 -0.030487835 -0.040033013
-0.0453252 -0.0295724 -0.025278958 0.041442744 0.022283917 -0.018004097 0.030710481 0.03545486
-0.03218228 0.093963265 -0.108254895 0.036482602 -0.0157968 0.00065289973 -0.057488576 -0.038208596
-0.055241805 -0.015290133 -0.04748364 -0.018711444 0.017620614 -0.018066712 -0.034667354 0.09913531
-0.0133394115 0.04454109 0.043234486 -0.061090894 0.045302317 -0.009269814 0.012909774 0.02127275
0.093838915 0.03654867 0.044244982 0.015767477 0.036348216 0.08472268 0.08699556 0.070144154
0.061391056 -0.035565253 -0.006482295 0.059936106 -0.057158124 -0.071231335 0.036003884 -0.0815751
-0.06657954 -0.09687717 0.044368178 0.049659166 -0.0880259 0.011562658 -0.034590933 0.06322377
0.027010627 -0.0007042286 -9.17237e-05 -0.041147333 0.1482092 -0.052248046 0.066587925 0.05287446
0.026162812 0.093211204 -0.0461739 0.07214892 -0.070485294 0.06573505 0.052053045 0.045240063
-0.030144302 0.0025480103 -0.16857333 -0.01760264 0.0023424043 0.13317978 -0.075990364 0.05771786
-0.015561745 0.016723974 -0.052415185 -0.026989814 -0.024795685 -0.035801683 -0.04347012 0.036254898
-0.13372569 -0.065230876 -0.067142956 -0.023782372 -0.035004687 0.032205995 -0.039964322 0.012343514
-0.067079574 0.01086704 -0.03297522 -0.014312925 -0.13915329 0.004845695 -0.00017469504 -0.1228901
-0.012577488 0.007581811 -0.046710096 -0.13712527 0.07207325 0.08942355 -0.08291097 0.030636372
-0.07977582 -0.03520874 0.0027348355 0.107538596 -0.09760436 0.05961983 0.12965362 -0.044814177
0.014819208 -0.0030801864 0.031168247 -0.03431687 -0.04580817 -0.07301829 -0.025229098 0.06988229
0.015131657 -0.069825545 -0.026955303 -0.011624952 -0.013858592 0.065123454 0.002062037 0.053843018
0.14724681 -0.048901167 0.021442888 0.020827344 0.074328095 -0.029721724 -0.07618915 0.009010237
-0.03453072 -0.0052103843 0.17538942 -0.040439073 0.030327516 -0.04994519 -0.036615044 0.02452989
-0.03394394 0.057779543 0.037908807 0.041626047 -0.009425437 0.03216519 0.07202457 0.003043627
-0.0062659746 0.031095784 -0.030383142 0.03992848 -0.040964723 -0.022611322 0.08263985 0.025876718
-0.022136321 0.01570318 0.014042123 0.03438212 0.05649569 -0.03810669 0.012689529 0.026144665
0.023713052 0.052178327 0.037310645 0.08607708 0.033940915 -0.034925237 0.018569348 0.036945537
-0.014307333 -0.005562672 0.030244887 0.047683142 0.06588569 -0.11168021 0.073369354 0.011946386
-0.016622655 -0.025987927 0.13809167 -0.04562398 0.047865845 0.047659673 0.02135039 0.025444943
0.014431367 0.04611622 -0.029356461 0.06089886 -0.06476511 -0.012136826 -0.04855219 0.042988695
00000000: 6416 57bc d834 453d 8c42 e6bc d3cb 34bc
00000010: 201a 03bc 3f3f 363d 468e 13bc 8e28 33bd
00000020: c79b 18be eabd db3c b1ed 9dbd e1e0 173d
00000030: 18cc 99bc 07f6 133d 9f38 43bd accb 4dbd
00000040: 6da0 27bb d5be 2e3d b54e febc 40ff 643c
00000050: 751c 973d bc25 8cba b9ac f0bc f9c6 f7bd
00000060: 3393 753d 3561 ab3d 53eb a8bd 7fd2 03bc
00000070: 099c d2bd 8013 a63c 2614 6cbc f040 c5bc
00000080: 58b6 ce3d 10a0 6d3a 7518 81bd 796e 6f3c
00000090: e218 e93a bce6 f83c 59aa 943a 568e fabb
000000a0: 20c6 2a3d 647a d13c 4d24 7dbd a8dd 2d3b
000000b0: 51aa 60bd 7735 20bd a0c1 f9bc a8f9 23bd
000000c0: eba6 39bd d141 f2bc d115 cfbc debf 293d
000000d0: c38c b63c 547d 93bc 8c94 fb3c 1e39 113d
000000e0: 91d1 03bd d06f c03d beb4 ddbd c86e 153d
000000f0: 4a68 81bc 5c27 2b3a 2479 6bbd 9e80 1cbd
00000100: 3b45 62bd 7783 7abc 357e 42bd be48 99bc
00000110: 1b59 903c a400 94bc 5bff 0dbd 7407 cb3d
00000120: 8c8d 5abc b870 363d a516 313d 723a 7abd
00000130: ec8e 393d 6be0 17bc 8483 533c 3144 ae3c
00000140: 9e2e c03d 0fb4 153d 3a3a 353d cc2a 813c
00000150: dee1 143d 1683 ad3d ba2a b23d bda7 8f3d
00000160: 3075 7b3d dfac 11bd 6f69 d4bb 907f 753d
00000170: a31e 6abd bce1 91bd cf78 133d d910 a7bd
00000180: db5a 88bd 8a67 c6bd 68bb 353d 6967 4b3d
00000190: ec46 b4bd 4d71 3d3c 39af 0dbd 777b 813d
000001a0: 6445 dd3c fb9b 38ba c95b c0b8 1b8a 28bd
000001b0: 27c4 173e 0c02 56bd 405f 883d e492 583d
000001c0: 6553 d63c 84e5 be3d d820 3dbd d0c2 933d
000001d0: 985a 90bd 19a0 863d 9335 553d a54d 393d
000001e0: 2ff1 f6bc 85fc 263b 7d9e 2cbe 6933 90bc
000001f0: 0683 193b 4860 083e d6a0 9bbd 9069 6c3d
00000200: b0f6 7ebc b700 893c 4eb1 56bd be19 ddbc
00000210: 5220 cbbc c9a4 12bd b90d 32bd 0480 143d
00000220: 63ef 08be c497 85bd 3f82 89bd 40d3 c2bc
00000230: 1361 0fbd 6fea 033d a1b1 23bd 733c 4a3c
00000240: 0461 89bd ab0b 323c 0611 07bd c280 6abc
00000250: 337e 0ebe a3c8 9e3b 582e 37b9 cead fbbd
00000260: cf11 4ebc d770 f83b 1653 3fbd 916a 0cbe
00000270: 249b 933d b223 b73d 3acd a9bd 21f9 fa3c
00000280: 8161 a3bd 0a37 10bd ed3a 333b 323d dc3d
00000290: cbe4 c7bd ec33 743d ebc3 043e 128f 37bd
000002a0: 43cc 723c f4dc 49bb 8d54 ff3c d98f 0cbd
000002b0: 59a1 3bbd 9d8a 95bd 41ad cebc 721e 8f3d
000002c0: c5ea 773c b200 8fbd 5ed1 dcbc 9576 3ebc
000002d0: 260f 63bc 725f 853d 3d23 073b 7f8a 5c3d
000002e0: dec7 163e 974c 48bd ffa8 af3c 1b9e aa3c
000002f0: 5439 983d f97a f3bc 0f09 9cbd ac9f 133c
00000300: 1670 0dbd dfbb aabb 4999 333e 71a3 25bd
00000310: 6971 f83c 5493 4cbd a8f9 15bd e8f2 c83c
00000320: cd08 0bbd 3eaa 6c3d 4446 1b3d 1380 2a3d
00000330: 266d 1abc a5bf 033d 9e81 933d 9677 473b
00000340: ce52 cdbb 96bc fe3c 11e6 f8bc 0c8c 233d
00000350: a0ca 27bd 613b b9bc 153f a93d 69fb d33c
00000360: 3b57 b5bc f5a3 803c ef10 663c 44d4 0c3d
00000370: 0668 673d c315 1cbd bee7 4f3c 562d d63c
00000380: e041 c23c f1b8 553d 0cd3 183d 2e49 b03d
00000390: a105 0b3d c40d 0fbd bf1e 983c 3454 173d
000003a0: 4e69 6abc 1347 b6bb 20c4 f73c 664f 433d
000003b0: 14ef 863d 98b8 e4bd ac42 963d c6ba 433c
000003c0: 3c2c 88bc a2e4 d4bc e767 0d3e 36e0 3abd
000003d0: fa0e 443d ca36 433d 03e7 ae3c ea71 d03c
000003e0: 8a71 6c3c 5de4 3c3d f67c f0bc 1571 793d
000003f0: 92a3 84bd 8ad9 46bc a9de 46bd ea14 303d

network_body.linear_encoder.seq_layers.2.bias f4 [128]
-0.0006074371 0.021941377 -0.004897211 -0.0043769726 -0.000978748 0.0013769245 0.014614023 0.03197826
0.018840224 0.014795441 -0.022804828 0.02245081 -0.012355576 0.016498478 0.022018239 0.023316585
0.014198516 0.019671189 0.006670457 -0.019415343 0.018718652 0.00518953 0.02831122 0.0019534952
-0.00554907 0.009264139 -0.0070716687 0.032883976 -0.00023084965 -0.0061235726 -0.013364291 0.004238978
-0.015444919 0.03106781 0.00987377 0.017443286 0.018575255 0.008633827 -0.011237363 0.020699352
-0.017048175 0.015731856 0.024951586 0.009534872 0.00170291 -0.017288884 0.0009819235 -0.024846984
-0.024378093 0.0060581383 0.01605181 0.0066645048 0.008280898 0.025542963 0.020287113 0.002449846
0.013594003 0.003458424 0.0025158038 0.001531637 0.0006329526 -0.0029618314 0.030289434 0.015141532
-0.0009664809 -0.0044396156 0.0068495506 -0.0055360263 0.021341702 0.015280224 0.025981221 0.009277662
0.017651824 0.015019442 0.017527545 0.010361492 0.0011756395 0.021943664 0.023294413 0.009944895
0.008411492 0.01654113 -0.01531969 0.023827128 0.03077345 0.014022524 0.020556733 -0.020565115
0.020943087 -0.0033070727 0.018553255 0.014834102 -0.00812605 -0.0007352289 0.016942883 0.017977515
0.012880871 -0.010009473 -0.028787225 0.012803222 -0.009073346 0.02220369 -0.008817847 0.0049607144
0.019149328 0.027540047 0.019231815 -0.006390517 0.01649253 -0.0041070064 -0.0044316184 0.009861144
0.0070019583 0.015915213 -0.015766693 -0.00024823705 -0.02046575 -0.0045896396 -0.022786947 0.0025779544
0.001761323 0.021845164 0.025950702 0.014942431 0.0020721727 0.024138011 0.017243253 0.00277709
00000000: 6a3c 1fba 67be b33c c978 a0bb b56c 8fbb
00000010: 5549 80ba eb79 b43a a86f 6f3c a3fb 023d
00000020: d056 9a3c 9468 723c 31d1 babc c3ea b73c
00000030: 0b6f 4abc d127 873c 985f b43c 6c02 bf3c
00000040: e4a0 683c 7925 a13c d993 da3b ed0c 9fbc
00000050: dc57 993c ef0c aa3b efec e73c 3606 003b
00000060: f9d4 b5bb 9ec8 173c 75b9 e7bb 59b1 063d
00000070: 3b10 72b9 40a8 c8bb e6f5 5abc 20e7 8a3b
00000080: af0c 7dbc eb81 fe3c 98c5 213c 39e5 8e3c
00000090: 222b 983c e574 0d3c eb1c 38bc b091 a93c
000000a0: 9da8 8bbc 18e0 803c 4567 cc3c 2738 1c3c
000000b0: 2e34 df3a 6ba1 8dbc e3b3 803a e78b cbbc
000000c0: 91b4 c7bc 5983 c63b 167f 833c eb61 da3b
000000d0: 9bac 073c 7a3f d13c 2931 a63c 988d 203b
000000e0: 62b9 5e3c baa6 623b 2fe0 243b 36c1 c83a
000000f0: bbec 253a 491b 42bb 8c21 f83c 3014 783c
00000100: 6f5b 7dba 327a 91bb 3272 e03b 8e67 b5bb
00000110: cbd4 ae3c e859 7a3c 92d6 d43c 5601 183c
00000120: 8f9a 903c 1b14 763c ed95 8f3c 3fc3 293c
00000130: ea17 9a3a 33c3 b33c edd3 be3c eaef 223c
00000140: 5bd0 093c 4481 873c 70ff 7abc 1c31 c33c
00000150: 9a18 fc3c babe 653c 9866 a83c 2c78 a8bc
00000160: d690 ab3c 79bb 58bb fffc 973c bc0a 733c
00000170: 2023 05bc 60bc 40ba cdcb 8a3c 9545 933c
00000180: 4a0a 533c c6fe 23bc 30d3 ebbc 9bc4 513c
00000190: 5fa8 14bc 83e4 b53c bb78 10bc 7d8d a23b
000001a0: 0ddf 9c3c aa9b e13c 0a8c 9d3c 8b67 d1bb
000001b0: 581b 873c 1194 86bb 1c37 91bb a390 213c
000001c0: af70 e53b 9f60 823c 2729 81bc d025 82b9
000001d0: caa7 a7bc b064 96bb b1ab babc e6f2 283b
000001e0: 31dc e63a a1f4 b23c 9196 d43c 19d1 743c
000001f0: 4acd 073b 14bd c53c b941 8d3c d7ff 353b

network_body.linear_encoder.seq_layers.2.weight f4 [128, 128]
0.00091025146 -0.063593976 -0.031613484 0.16037638 0.1343499 0.11701705 -0.05471584 -0.043292247
-0.106766544 0.015776439 0.09506775 -0.01607079 -0.03509223 0.01179064 -0.03029564 0.03954199
0.08754691 0.13984552 0.114595056 0.058844637 -0.024844557 -0.11917854 0.065715246 -0.011857988
0.19482034 -0.028403465 -0.001763637 -0.16621755 0.026783826 0.15326807 0.16579506 0.16670343
0.05587933 0.04605244 0.071811214 0.11202721 0.06231045 0.025823938 -0.102760546 0.2124799
-0.041907605 0.03456705 -0.122583866 -0.0056184875 -0.08820004 0.0077068065 0.07866012 0.05214886
-0.13103399 -0.10694359 -0.0015191131 -0.27583483 0.0859397 0.03929955 0.04268573 -0.007201372
-0.018831007 -0.080231145 0.036893126 -0.012009315 -0.075834624 0.06722637 0.11720255 0.2581603
0.020408414 -0.0005879347 -0.04362337 0.07864455 -0.12788017 -0.05777672 -0.10421673 0.06334564
0.041592002 -0.076575145 -0.102198385 -0.078917086 -0.05531873 -0.15528387 0.04262544 -0.047668863
-0.047715634 -0.019612642 0.1244145 0.0435364 0.06026113 0.044161484 -0.004142233 -0.0035250452
-0.053759497 0.12860218 0.01812858 -0.05960958 0.10005062 -0.04194537 -0.034249656 -0.09747875
0.046311192 0.10085409 0.040568314 -0.10115356 0.013059778 0.044692762 -0.058749627 -0.04021434
0.068777196 -0.24862012 0.08015108 -0.1932238 0.16008629 0.06887927 0.007479806 -0.09530601
-0.100983635 0.012664307 0.03713129 -0.0037331218 0.01300372 -0.22016488 0.040551484 -0.14254847
-0.08506771 -0.03979048 0.036875863 -0.0041938005 -0.10105537 -0.08757954 -0.041964427 -0.01876791
-0.11415896 0.106794775 0.24274418 0.009141383 0.007003752 -0.06644189 -0.07462143 0.16433458
-0.16903867 -0.07373463 0.2716687 0.0077493773 -0.04954785 0.24522206 -0.056578934 0.10693846
0.11002139 0.0717376 0.031353533 0.00769658 0.091866314 0.009556286 0.008025748 -0.15624334
-0.014602002 0.058535006 -0.01183681 0.11834869 -0.06227938 0.06169697 -0.0065849167 -0.045144968
0.08123843 -0.13450526 -0.071093395 -0.006763506 -0.04206133 -0.047492977 -0.056370456 -0.076538384
-0.18996136 0.019251361 0.08765671 0.14691052 0.066044986 0.17319185 0.14204246 -0.087488435
0.18680406 -0.09804579 -0.14845632 0.07060907 -0.03605104 -0.10004446 -0.039819367 0.02474347
0.05518825 0.07126023 0.20662262 0.051193528 0.06950389 0.022984026 0.07812431 0.024811704
-0.051792596 0.027083987 -0.017638344 0.11104645 -0.040218502 0.039356906 -0.029171886 0.18291882
0.06422686 -0.09727743 -0.0805981 0.0406369 0.09924878 -0.11725228 -0.086821966 -0.12574705
-0.0007761468 -0.10000283 -0.0411052 -0.109793864 -0.028440677 0.14172404 0.054855645 0.105699666
-0.16809602 -0.02670381 0.1736357 0.08274976 -0.12429159 -0.02644283 -0.2151502 -0.071863346
0.12259212 0.03642691 -0.09851345 0.019935897 0.07494314 -0.010989642 0.10731386 0.034306247
-0.07912929 -0.083175585 -0.009816096 0.0689594 0.030740729 -0.108874895 0.051922183 0.12081497
-0.2378152 -0.044848975 0.051655464 -0.08931627 -0.07368357 -0.053596877 -0.082287796 -0.0037246868
0.052019756 0.1064641 0.039145265 -0.08204121 0.113201395 -0.06908046 -0.017734887 0.11275667
00000000: f19d 6e3a 8f3d 82bd 247d 01bd b539 243e
00000010: 0593 093e a3a6 ef3d b71d 60bd 3653 31bd
00000020: 6ba8 dabd 973d 813c e1b2 c23d e4a6 83bc
00000030: dfbc 0fbd 872d 413c 902e f8bc c8f6 213d
00000040: cb4b b33d aa33 0f3e d0b0 ea3d 1307 713d
00000050: d086 cbbc e113 f4bd b795 863d 0248 42bc
00000060: fc7e 473e 62ae e8bc d629 e7ba ef34 2abe
00000070: c169 db3c 4ef2 1c3e 2ec6 293e 4eb4 2a3e
00000080: b9e1 643d 7ca1 3c3d c211 933d 866e e53d
00000090: 3e39 7f3d b98c d33c 1f74 d2bd 5594 593e
000000a0: 4fa7 2bbd 2e96 0d3d 400d fbbd 4a1b b8bb
000000b0: 39a2 b4bd 6189 fc3b 8f18 a13d 0b9a 553d
000000c0: c62d 06be 3e05 dbbd fa1c c7ba 393a 8dbe
000000d0: 2701 b03d 91f8 203d 3bd7 2e3d 7df9 ebbb
000000e0: 7c43 9abc 3a50 a4bd 3f1d 173d b8c2 44bc
000000f0: 2f4f 9bbd fbad 893d e407 f03d 962d 843e
00000100: 8c2f a73c a11f 1aba 6bae 32bd 6510 a13d
00000110: 05f3 02be 48a7 6cbd 956f d5bd 5cbb 813d
00000120: 605c 2a3d 6ed3 9cbd 634d d1bd 489f a1bd
00000130: e595 62bd bc02 1fbe 0398 2e3d 6d40 43bd
00000140: 7871 43bd b1aa a0bc 08cd fe3d 3953 323d
00000150: 60d4 763d ace2 343d 92bb 87bb 7204 67bb
00000160: eb32 5cbd 4ab0 033e 6382 943c 2d29 74bd
00000170: 57e7 cc3d e9ce 2bbd 5e49 0cbd f0a2 c7bd
00000180: ceb0 3d3d 978c ce3d f62a 263d 9929 cfbd
00000190: aef8 553c c20f 373d 73a3 70bd cbb7 24bd
000001a0: 0fdb 8c3d 4696 7ebe 4026 a43d 76dc 45be
000001b0: a9ed 233e 9310 8d3d 2919 f53b cc2f c3bd
000001c0: 82d0 cebd f47d 4f3c fb16 183d 64a7 74bb
000001d0: 8e0d 553c e772 61be 5019 263d 3af8 11be
000001e0: fb37 aebd 58fb 22bd 250b 173d 266c 89bb
000001f0: 1ef6 cebd e75c b3bd e4e2 2bbd 29bf 99bc
00000200: 2ccc e9bd 38b7 da3d ee91 783e bdc5 153c
00000210: bb7f e53b b012 88bd 1fd3 98bd 5347 283e
00000220: 7918 2dbe 2f02 97bd 2918 8b3e 7dee fd3b
00000230: b0f2 4abd 7e1b 7b3e 50bf 67bd 8d02 db3d
00000240: e552 e13d 2aeb 923d 906c 003d 9833 fc3b
00000250: 6824 bc3d f891 1c3c 6d7e 033c 41fe 1fbe
00000260: 3c3d 6fbc 67c2 6f3d 2eef 41bc cc60 f23d
00000270: aa18 7fbd f6b5 7c3d 49c6 d7bb eee9 38bd
00000280: 5660 a63d bfbb 09be 6a99 91bd 67a0 ddbb
00000290: 8048 2cbd ff87 42bd b5e4 66bd 28c0 9cbd
000002a0: 3b85 42be 08b5 9d3c 5c85 b33d b66f 163e
000002b0: 9842 873d 3459 313e 9473 113e 232d b3bd
000002c0: 9049 3f3e 3bcc c8bd ef04 18be 7d9b 903d
000002d0: 41aa 13bd 1ce4 ccbd a219 23bd d1b2 ca3c
000002e0: 130d 623d e2f0 913d e194 533e 4eb0 513d
000002f0: 0e58 8e3d ff48 bc3c a3ff 9f3d ea41 cb3c
00000300: 7924 54bd 3ddf dd3c 4a7e 90bc 526c e33d
00000310: 28bc 24bd b534 213d e1f9 eebc 124f 3b3e
00000320: 5f89 833d 6439 c7bd 9e10 a5bd e172 263d
00000330: f242 cb3d f721 f0bd b7cf b1bd d6c3 00be
00000340: 5476 4bba 49ce ccbd ed5d 28bd 9bdb e0bd
00000350: 6cfc e8bc 1b20 113e 50b0 603d 1179 d83d
00000360: 5d21 2cbe f3c1 dabc 8fcd 313e b578 a93d
00000370: 978c febd a29e d8bc 5650 5cbe 172d 93bd
00000380: 9411 fb3d 6234 153d 6bc1 c9bd 9b50 a33c
00000390: ca7b 993d e60d 34bc 5ec7 db3d b584 0c3d
000003a0: 8a0e a2bd f657 aabd b1d3 20bc 963a 8d3d
000003b0: fbd3 fb3c cdf9 debd 5bac 543d d76d f73d
000003c0: d485 73be 8fb3 37bd ae94 533d 73eb b6bd
000003d0: 69e7 96bd 6688 5bbd 8186 a8bd e019 74bb
000003e0: ab12 553d da09 da3d c956 203d 3905 a8bd
000003f0: 22d6 e73d 0e7a 8dbd c148 91bc f8ec e63d

network_body.linear_encoder.seq_layers.4.bias f4 [128]
0.03281356 0.033895127 0.033897147 0.010759828 0.0033586866 0.004039224 -0.007280948 -0.0039540813
-0.028362596 0.015527421 0.013795487 0.024411557 -0.0017320308 0.012064495 -0.01814957 -0.036622565
0.036184423 0.031461604 -0.007501807 0.00020694731 0.0007425818 -0.016554423 0.034586046 -0.015437221
0.022155415 -0.0065266094 -0.010924017 -0.005163945 0.02146538 0.025516931 0.015691321 0.017543761
0.020640615 -0.009115094 -0.007897066 0.051197853 -0.0029830576 0.008008976 0.014577005 0.0011794645
0.02636779 0.019119523 -0.008078334 0.051729918 0.009237638 -0.0064369715 0.00769479 0.017095538
0.013284187 0.013828814 0.0074701402 0.007210834 0.048011955 -0.008274729 0.008503464 0.01283643
-0.0079804035 0.021804387 0.0005215496 -0.022845611 0.03562577 -0.0016230266 0.017990006 0.012108978
0.028516814 0.003374475 0.009124226 0.031627182 0.015741875 0.0011316624 0.01935 -0.00074075244
-0.039753858 -0.011663018 0.011095801 -0.0024762845 0.011757117 0.023122806 -0.0022774818 -0.0040936396
0.018091341 0.008707551 0.012479083 0.002083083 0.004785918 -0.0050539547 0.005477776 0.0014962078
0.013947145 0.019821383 0.03051504 0.0023901425 0.023342054 0.013473044 0.026563462 0.014800849
0.0076553356 0.009154709 0.016053678 0.034475032 0.01225201 -0.0054680496 0.019057749 0.02749611
-0.044184774 0.020182671 0.012368554 0.018065685 -0.009104965 -0.0005939776 0.035112277 -0.009989733
0.0056577907 0.027524425 0.025032248 0.032908868 -0.015404356 0.0190749 -0.010965613 0.019992018
-0.013802415 -0.012623932 0.020552363 -0.0037496323 -0.041164666 0.009992142 0.025606476 0.0150089925
00000000: 8367 063d 9ed5 0a3d bcd7 0a3d fd49 303c
00000010: 691d 5c3b 775b 843b 0595 eebb 3d91 81bb
00000020: ad58 e8bc b966 7e3c 7706 623c bffa c73c
00000030: 4f05 e3ba 29aa 453c 68ae 94bc 8b01 16bd
00000040: 1e36 143d e2dd 003d b8d1 f5bb ffff 5839
00000050: d2a9 423a 249d 87bc 19aa 0d3d 66ec 7cbc
00000060: 467f b53c 2bdd d5bb a6fa 32bc 4f36 a9bb
00000070: 2ad8 af3c e208 d13c 168b 803c efb7 8f3c
00000080: 8216 a93c 7a57 15bc b262 01bc d7b4 513d
00000090: 677f 43bb 1438 033c 64d4 6e3c 4398 9a3a
000000a0: 4301 d83c 8ca0 9c3c fd5a 04bc c0e2 533d
000000b0: 7659 173c 3bed d2bb 9424 fc3b f10b 8c3c
000000c0: eba5 593c 4092 623c 14c8 f43b dc48 ec3b
000000d0: 2fa8 443d bb92 07bc 1d52 0b3c e44f 523c
000000e0: 3dc0 02bc 1d9f b23c 9ab8 083a b826 bbbc
000000f0: 54ec 113d bcbb d4ba c75f 933c bc64 463c
00000100: 189c e93c 4c26 5d3b c77d 153c 818b 013d
00000110: 1bf5 803c 4a54 943a e483 9e3c 0e2f 42ba
00000120: f1d4 22bd 3e16 3fbc 2acb 353c 2949 22bb
00000130: eca0 403c 0a6c bd3c ce41 15bb f023 86bb
00000140: 4b34 943c 1eaa 0e3c 1175 4c3c 5584 083b
00000150: 31d3 9c3b a59b a5bb ea7e b33b 671c c43a
00000160: 9182 643c 7460 a23c adfa f93c f0a3 1c3b
00000170: d637 bf3c 0bbe 5c3c 9e9b d93c 437f 723c
00000180: 9cd9 fa3b a2fd 153c 0183 833c b135 0d3d
00000190: a8bc 483c 532d b3bb ff1e 9c3c 863f e13c
000001a0: 18fb 34bd 2156 a53c 7aa5 4a3c 7dfe 933c
000001b0: fe2c 15bc 29b5 1bba e4d1 0f3d faab 23bc
000001c0: fd64 b93b e77a e13c 6e10 cd3c 73cb 063d
000001d0: 8d62 7cbc f742 9c3c 1da9 33bc 4dc6 a33c
000001e0: 8623 62bc 9cd4 4ebc 6e5d a83c 64bc 75bb
000001f0: 489c 28bd 15b6 233c acc4 d13c 47e8 753c

network_body.linear_encoder.seq_layers.4.weight f4 [128, 128]
-0.025081782 0.22667465 0.08233231 -0.034598764 0.11119382 -0.0917358 -0.019526867 0.05675529
-0.016371751 0.19556838 -0.11010189 0.061862238 -0.13652496 -0.004435676 -0.04773172 -0.01923971
0.14165844 0.2177741 0.11234805 -0.07830349 -0.05026982 -0.07150103 -0.026415875 0.06595209
-0.076500386 -0.033801913 -0.23397674 0.29030865 -0.033166792 -0.055633936 -0.06479015 0.10512673
0.01769652 0.13709131 -0.03285982 0.076765396 0.1332098 0.020072196 -0.13967581 0.24858221
0.17894213 0.08966503 0.10889239 -0.16663428 -0.12798011 -0.122043885 -0.09720851 0.09661798
0.039024778 0.095363796 0.06640281 -0.062478032 0.060567077 0.033831842 -0.0030960548 -0.15128888
-0.039927002 -0.04709422 0.005882821 -0.01974764 -0.0565851 -0.12157859 0.0921792 0.060530927
-0.055469323 -0.15526225 0.005098647 0.0029718603 0.08450276 0.18437521 0.22095059 0.043047342
0.04269207 -0.0151623115 0.05526503 0.103687696 0.17218757 -0.02593747 -0.047815915 0.08066892
0.099862985 -0.041751023 -0.008969155 0.13312958 -0.050372764 -0.006705976 -0.0036810164 -0.07283107
0.14732966 -0.00042764764 -0.056355715 0.2224187 -0.053795334 0.04254686 0.05486585 0.094231576
0.12190676 -0.035462555 -0.10870321 0.14316091 0.0036134063 0.016771577 -0.10250392 -0.01251468
-0.03712955 0.0027136137 0.059807595 -0.046914805 0.031741973 -0.013928807 -0.12687935 -0.06891704
0.14959207 0.085273564 -0.043947347 -0.057449944 -0.041752268 -0.12919983 -0.012586287 0.17743453
-0.005479962 0.06216009 -0.058340166 -0.12613735 -0.019921483 0.06005955 0.07691187 0.09351321
-0.036968555 0.0666202 0.15919676 0.10940354 0.09067543 -0.096987315 0.122570775 0.04093644
0.07515255 0.11456837 -0.20127837 0.08878223 0.08552152 0.060933087 0.0062654293 0.04738897
0.036016528 -0.123679385 -0.017845294 0.04213771 -0.16151242 -0.08661394 -0.05205124 0.026894389
-0.07400685 0.05544695 -0.028327003 0.16552804 -0.17220329 -0.03123825 0.037716225 -0.08625447
-0.095351525 0.12926978 0.0876474 0.06639168 0.044385906 0.07116943 -0.02546198 -0.048165783
-0.19613364 0.1110602 0.08053181 0.15603527 -0.010910096 0.02815737 -0.19357343 0.022590203
0.04705876 -0.019048098 0.07367412 0.002849797 0.02463976 -0.017960515 -0.018323975 0.19702421
0.18938835 0.18805747 -0.012619941 0.056252763 0.111471854 -0.113077916 0.18592742 -0.058122065
-0.104499325 -0.13380861 -0.013746523 0.029401114 -0.001969898 0.13846417 -0.003890454 0.08298388
0.1693122 -0.10293257 0.034354873 -0.01663777 -0.08733626 0.07402006 0.016283186 -0.08858099
-0.021036485 -0.09397493 0.006693366 0.100586966 0.013333119 -0.14433426 -0.02381979 -0.093618326
0.1870687 -0.16141422 -0.11001888 0.13038239 -0.112555705 0.06893776 0.12968075 0.046651226
0.15797108 0.11484585 -0.052431982 -0.07187072 0.023148196 0.16580527 -0.07208271 -0.14216508
-0.1182744 0.046872318 0.15755536 -0.14076409 0.17378882 -0.16917045 0.03215132 -0.08815009
0.011817315 0.19814114 0.022618169 0.139015 -0.080925606 -0.02995679 0.006416625 -0.07818923
-0.20249872 0.021784456 0.1320336 0.12456321 0.025658077 -0.07361217 0.0017229991 0.094575554
00000000: 4f78 cdbc 661d 683e d89d a83d 6fb7 0dbd
00000010: 96b9 e33d fbdf bbbd cff6 9fbc 3c78 683d
00000020: 0d1e 86bc 1443 483e 1a7d e1bd 4263 7d3d
00000030: 33cd 0bbe 2659 91bb 5682 43bd 999c 9dbc
00000040: e90e 113e 2c00 5f3e bc16 e63d 955d a0bd
00000050: bae7 4dbd 226f 92bd 1b66 d8bc e411 873d
00000060: 3cac 9cbd e073 0abd 9997 6fbe 56a3 943e
00000070: e7d9 07bd 69e0 63bd b3b0 84bd af4c d73d
00000080: 4bf8 903c aa61 0c3e 0598 06bd 2d37 9d3d
00000090: 2668 083e 726e a43c 2d07 0fbe 568c 7e3e
000000a0: 9b3c 373e 4da2 b73d f902 df3d 2da2 2abe
000000b0: 380d 03be 25f2 f9bd 4115 c7bd a6df c53d
000000c0: 72d8 1f3d 184e c33d 32fe 873d f7e8 7fbd
000000d0: 2f15 783d 4293 0a3d 2ee7 4abb 79eb 1abe
000000e0: 7f8a 23bd dee5 40bd aec4 c03b cdc5 a1bc
000000f0: c7c5 67bd 32fe f8bd 73c8 bc3d 47ef 773d
00000100: cd33 63bd 11fd 1ebe 8d12 a73b 8bc3 423b
00000110: c80f ad3d dbcc 3c3e df40 623e 6952 303d
00000120: e1dd 2e3d 586b 78bc 965d 623d 375a d43d
00000130: f051 303e d17a d4bc 9fda 43bd bf35 a53d
00000140: f784 cc3d 1f03 2bbd 5df3 12bc 1f53 083e
00000150: ac53 4ebd cebd dbbb 353d 71bb 7528 95bd
00000160: 96dd 163e e535 e0b9 40d5 66bd bac1 633e
00000170: 7f58 5cbd 9e45 2e3d 03bb 603d 7cfc c03d
00000180: 40aa f93d 2f41 11bd ca9f debd c698 123e
00000190: e6ce 6c3b 8c64 893c 93ed d1bd 5f0a 4dbc
000001a0: 2815 18bd e2d6 313b cff8 743d bd29 40bd
000001b0: df03 023d a735 64bc a9ec 01be 6124 8dbd
000001c0: aa2e 193e e8a3 ae3d 2202 34bd a250 6bbd
000001d0: 6d04 2bbd f64c 04be b736 4ebc 66b1 353e
000001e0: 4191 b3bb 949b 7e3d 19f6 6ebd 262a 01be
000001f0: 6132 a3bc 0101 763d f883 9d3d db83 bf3d
00000200: 576c 17bd 2c70 883d 7a04 233e f70e e03d
00000210: 0ab4 b93d 49a1 c6bd 6306 fb3d f8ac 273d
00000220: 95e9 993d d2a2 ea3d eb1b 4ebe 75d3 b53d
00000230: e825 af3d f994 793d 3b4e cd3b f01a 423d
00000240: 1186 133d 9e4b fdbd 4b30 92bc 9798 2c3d
00000250: 8363 25be a662 b1bd ae33 55bd 9f51 dc3c
00000260: e790 97bd 571c 633d 080e e8bc 2f80 293e
00000270: 0f56 30be 5ce7 ffbc 547c 1a3d 2fa6 b0bd
00000280: a947 c3bd 4c5f 043e 7b80 b33d 5cf8 873d
00000290: ffcd 353d 47c1 913d a495 d0bc 7c49 45bd
000002a0: 42d7 48be 8873 e33d dded a43d b6c7 1f3e
000002b0: 42c0 32bc 49aa e63c 1d38 46be 170f b93c
000002c0: b0c0 403d c20a 9cbc 75e2 963d a9c3 3a3b
000002d0: 52d9 c93c ee21 93bc 291c 96bc b7c0 493e
000002e0: 05ef 413e 2392 403e dec3 4ebc 4c69 663d
000002f0: 5b4b e43d 6595 e7bd c263 3e3e 6711 6ebd
00000300: be03 d6bd 2005 09be 1939 61bc 9bda f03c
00000310: 6719 01bb 8dc9 0d3e fdf6 7ebb 74f3 a93d
00000320: 2d60 2d3e 50ce d2bd b2b7 0c3d ef4b 88bc
00000330: 5add b2bd d497 973d 5164 853c f369 b5bd
00000340: b554 acbc ee75 c0bd 0654 db3b 8a00 ce3d
00000350: 2873 5a3c 5ccc 13be b821 c3bc f7ba bfbd
00000360: f08e 3f3e c549 25be 9451 e1bd f682 053e
00000370: 9b83 e6bd 3e2f 8d3d 08cb 043e 5b15 3f3d
00000380: 2cc3 213e 4d34 eb3d ebc2 56bd f530 93bd
00000390: 49a1 bd3c dbc8 293e 1aa0 93bd b993 11be
000003a0: d939 f2bd 30fd 3f3d 3156 213e 7624 10be
000003b0: b2f5 313e 053b 2dbe 1ab1 033d 0988 b4bd
000003c0: 699d 413c 83e5 4a3e bd49 b93c f359 0e3e
000003d0: 53bc a5bd f167 f5bc 8d42 d23b ad21 a0bd
000003e0: d35b 4fbe 5175 b23c d133 073e ff1a ff3d
000003f0: e330 d23c fac1 96bd 42d6 e13a d4b0 c13d
