Config/results/Env_PPO_20/EnvironmentAgentBehavior/EnvironmentAgentBehavior-8499986.onnx (onnx, 548635 bytes, 10 tensors)

action_model._discrete_distribution.branches.0.bias f4 [100]
00000000: f91f 043d 2afa 143c 1fd1 25bd 59bc 233c
00000010: 220d 02bc 7aec acbc 2008 1abd b1aa df3b
00000020: 7563 2a3b 7230 db3b ef0a 75bb 7ac3 fcbc
00000030: cd4b 3b3c e941 b03c 284d 52bc 8833 0ebd
00000040: 77ca f7bc d626 a03c e8a4 513c a9ea 1a3d
00000050: 7223 5c3c d59c 8c3c 1475 093c d326 0b3b
00000060: 0f53 c03c d914 6cbc e850 dbbb 2039 81bc
00000070: 23b4 873c f064 013c 3be1 43bc 7e66 103b
00000080: e00d 0f3c 5d92 f8bb 3d14 f63b ff04 883c
00000090: 35ef ad3c 925a 5dbc 58e5 c63c 2c08 6d3c
000000a0: 3df6 b7bc 51e1 a63c 12ff e33c 71b5 f13b
000000b0: 04fc 0ebd ccc8 8b3c 9aef be3b 23f7 023c
000000c0: 244a b83b 44ec 23bc 44bc 7d3b b8ed 133d
000000d0: df3c 95bc 5f8b 863c fe3b 83ba 7d72 173d
000000e0: 2d8d 16bd 365d 30bc 43e5 673c 54d3 473c
000000f0: 3c62 2f3d cf4e 19bd f275 8abc 2ba8 a73c
00000100: acb3 94ba 3991 303c b788 13bd bbc5 13bd
00000110: e2f1 da3c f2e1 35bd c749 f13c ff3e 1d3c
00000120: a1d4 8f3c 74fb 03bc 0e42 4a3c 14da 2bbb
00000130: 60ac 3ebc 45a1 58bb a823 f13b facb 9fbc
00000140: 2943 df3b 3964 a9bc b46c 4ebc 09cc 8e3c
00000150: 0952 223b cbe7 a0bb 6c61 923b 2481 90bc
00000160: bf9c c03c 2c62 2e3c 612f 143c 2e5f 4abd
00000170: ff34 98bc a8d2 23bb f700 543c 9179 8c3c
00000180: b919 9a3c 9e7c 17bc 7943 b2bc 2a5b a03c
0.032257054 0.009092847 -0.040482637 0.009993636 -0.007937701 -0.021108855 -0.037605405 0.006825768
0.0025999222 0.0066891247 -0.003739055 -0.03085493 0.0114316465 0.021515803 -0.012835778 -0.034717113
-0.03024791 0.019549768 0.012795664 0.037821446 0.013436185 0.017164627 0.00838973 0.0021232858
0.023477105 -0.014409267 -0.0066929944 -0.01577431 0.016565388 0.0078976005 -0.011955555 0.0022033746
0.008731335 -0.0075858072 0.007509737 0.016603945 0.021232227 -0.013510363 0.024279281 0.01446728
-0.022456283 0.020371111 0.027831588 0.007376366 -0.03490831 0.01706352 0.0058269026 0.007993492
0.0056240726 -0.010005061 0.0038716951 0.03611538 -0.018217502 0.01642388 -0.0010012386 0.03697442
-0.03675573 -0.010764411 0.014153781 0.012196381 0.042818293 -0.037428673 -0.016901944 0.02046593
-0.001134505 0.010776811 -0.036019053 -0.036077242 0.026726667 -0.04440493 0.029454125 0.009597539
0.017557444 -0.008055557 0.01234485 -0.0026222514 -0.011637777 -0.0033055109 0.007358987 -0.019506443
0.006813426 -0.020677673 -0.012599159 0.017431276 0.0024768135 -0.0049104444 0.00446718 -0.017639704
0.023512242 0.010643523 0.009044499 -0.049407177 -0.018579958 -0.0024997387 0.012939683 0.017147811
0.018811094 -0.00924602 -0.02176069 0.01957472

action_model._discrete_distribution.branches.0.weight f4 [100, 128]
00000000: 2a16 95bd 32e2 1e3d 6eda 9e3c 1fab bd3c
00000010: a0a9 31bc ab82 e3bc 72f1 d53b 6562 a53d
00000020: 3899 eebc b554 45bd 2575 b3bd 3d27 acbc
00000030: 3b8e 8dbd f45a 8cbd f8e7 1abc 3cd7 a33d
00000040: df91 123d bfba 1b3c e5bb 893a d4e5 693d
00000050: 3383 e4bc dd26 a23c cd5c ee3c c0cd 5bbd
00000060: a769 49bd 88f7 10bd 4638 80bd 5432 893d
00000070: ab29 b33c 663d 8cbc e01c 643d dc2a 6abd
00000080: 34db b5bd 8bd8 8b3d 1018 ae3c fa41 32bd
00000090: c378 c93b ff70 bdbc ac7b 273d 62ba e4bc
000000a0: b496 cf3d d6d1 de3b ddbe 9d3b e839 5a3d
000000b0: 1bc5 133d bbd2 313d 1582 4b3d a930 173c
000000c0: 7e08 d8bc 49e0 d73c e2b7 20bd 507f 133d
000000d0: 6639 e0bd 14f4 083d b84f 4b3d 2441 813d
000000e0: b741 7abd d046 ee3c f690 8f3d 577c 833d
000000f0: 74c7 773d c9fe a33c 1083 263d 07f7 92bc
00000100: dbed 7e3d a18e 09bd 57f9 a13d d850 993b
00000110: caf0 d33b 78b4 323d 38ce 223d b89e b1bd
00000120: 3df9 683d ddc6 a5bd 9069 5c3d 0488 ff3b
00000130: 1587 04bd 95f8 a53c f9b0 453d 47ef 5cbd
00000140: 51dc 5f3d 898c 943d 1a7f 533d 60d1 393d
00000150: 2ea6 083d 8e49 e8b9 4ed8 6c39 9d72 a33d
00000160: f291 9b3d 50db 7ebd 354d f0bc 1f30 a83c
00000170: a77d 743d 7f55 653b f460 0b3d d13f 553d
00000180: 35af 4ebc b31e 393c 35de d3bc ac33 afbd
00000190: dcf6 36bd d81d 043d 3688 88bd 1231 15bb
000001a0: 4488 40bd 5fff 1a3d 2fed 3abd cfca ffbc
000001b0: a8ae 8abd f9ce 863d 272a 1f3d 01ee c5bc
000001c0: 5c05 babc b048 733d 58b9 683d 0098 edbc
000001d0: 7449 103d 3d30 2e3c 0ca8 b93d b29b 7f3d
000001e0: 5de1 6c3d 7566 bdbd 2334 2abc 0622 753d
000001f0: 9f9b 783d 8abd 493d ff3b e3bc 3ed7 4a3d
00000200: 6b24 58bc a40b 4d3d d565 d33c 6be5 8c3c
00000210: a05c 4bbc bb80 1cbc 0c47 103b a7c3 8e3c
00000220: 4f48 b73c 0337 23bc 6048 73bd 30d0 2a3d
00000230: 2be0 2bbd aec7 703b 292b ce3c 39d5 fa3c
00000240: 5aee f63c 1790 d83c fcb7 a1bc ef79 403d
00000250: 8b78 40bd 656a 5dbb bf67 e13a 1489 b93c
00000260: 1e06 68bb 47b6 15bc 8d97 2fbd b894 99bb
00000270: b2c5 db3c 1186 06bd e912 733c bd2e 0bbd
00000280: 062c 38bd b3b0 723c 76de 0c3d 291d 7b3b
00000290: 1acf 95bc e2a2 2abd 86db 773c d5c2 36bb
000002a0: fc3e b53c cf8d c03c 1cda 173d ade3 983c
000002b0: e4b2 fb3c 6fec 183d 0ec2 1f3d 535a 1d3d
000002c0: c097 babc e6a6 e03c 5c83 78bc 131f e23b
000002d0: 93df c9ba a290 6bbc f793 40bc 4c9d 1c3d
000002e0: 8682 9eba 9ab0 a8ba f25f ea3c d25c 333d
000002f0: 2766 e23c 6607 ac3c a194 1b3d 597a 06bc
00000300: f8f6 e23c f4a1 ceba e8be b73c a449 0f3d
00000310: a457 acbb fec2 fa3c d666 1a3d b687 d8bc
00000320: b4f3 0e3d 735c 38bc 26a9 893c 5c48 ceba
00000330: 0606 aa3c 70d0 da3c 9d39 b83c 252e 14bd
00000340: e0eb db3c 4145 dd3c 9938 203d 8c97 ed3c
00000350: 59e9 ff3c 26cc 633b 9f8c 363c 9d80 123d
00000360: d33c 663c 9ef8 1abd 4f44 02bc 09d6 ea3b
00000370: bdbe 2b3d 6047 493c aa91 3d3c 524b 9e3c
00000380: 53db 52ba 9332 2abb 7853 75bb 6e30 b0bc
00000390: 8219 1bbd b010 b339 1884 4bbd 434f a43c
000003a0: 9950 963c e980 de3c 6724 c5bc 64e8 9a3c
000003b0: a1f0 8dbc e4db 043d 6d3f 913c 8e0f 253a
000003c0: 24e9 823c bdfa da3c 4a41 253c 44ad 4bbc
000003d0: e004 053d 3030 c13b 8f24 ca3c 53a1 353d
000003e0: 61b2 fd3c 61e4 25bd 4e00 f23c 13bf ad3c
000003f0: 69db d43c 55f4 283d 205a 72bc ae82 543d
-0.07279618 0.038789935 0.019391265 0.023152886 -0.010843664 -0.027772268 0.0065290267 0.08075408
-0.029125795 -0.048176486 -0.08762578 -0.021014804 -0.06911894 -0.068532854 -0.00945472 0.08000037
0.035783645 0.009504973 0.0010508267 0.057103947 -0.027894592 0.019793922 0.029096985 -0.053663015
-0.049173024 -0.035392314 -0.06260733 0.066990525 0.021870455 -0.01711912 0.0556916 -0.05716978
-0.088797 0.06828412 0.021251708 -0.04351995 0.006148429 -0.02312517 0.040889427 -0.027920906
0.10136166 0.0067999167 0.0048140124 0.05327788 0.036076646 0.04341386 0.049684603 0.00922791
-0.026371237 0.026352065 -0.039237864 0.036010087 -0.10948448 0.033435896 0.049636573 0.06311253
-0.061097827 0.0290865 0.07010071 0.064202 0.060492948 0.020018952 0.040652335 -0.017940057
0.062238555 -0.033583287 0.07908886 0.004678827 0.0064679133 0.04362914 0.039747447 -0.08672851
0.056878317 -0.08094571 0.05381161 0.0077981967 -0.032355387 0.020260135 0.048264477 -0.05393913
0.05465347 0.072533675 0.051634885 0.04536569 0.033361606 -0.0004430529 0.00022587294 0.07980845
0.07596196 -0.06222087 -0.02933369 0.020530758 0.059690144 0.0034993587 0.03402801 0.052062813
-0.012615015 0.011298823 -0.025862793 -0.085547775 -0.044669017 0.032255024 -0.06666605 -0.0022764844
-0.047004953 0.037841197 -0.045636352 -0.031224636 -0.06771594 0.06582446 0.03885856 -0.02416134
-0.022707634 0.059395492 0.056817383 -0.029003143 0.0352263 0.010631618 0.090652555 0.062404342
0.05783211 -0.09248058 -0.010388407 0.0598469 0.060695287 0.049253024 -0.02773857 0.049521677
-0.0131922765 0.05005993 0.025805393 0.017199239 -0.01241222 -0.009552176 0.0022015003 0.017427279
0.022373347 -0.009961846 -0.059395194 0.04170245 -0.04196183 0.0036740112 0.025167065 0.03061925
0.030142952 0.026435895 -0.01974105 0.046991285 -0.04698996 -0.003378534 0.0017197056 0.022648372
-0.0035404037 -0.009137697 -0.04286914 -0.004686918 0.026827667 -0.0328427 0.0148360515 -0.03398012
-0.04496386 0.014812636 0.034391843 0.0038316941 -0.01828723 -0.041659243 0.015128022 -0.0027887125
0.02212476 0.02350512 0.03707324 0.018663252 0.03072495 0.037334856 0.039003424 0.038416218
-0.022777438 0.027423333 -0.015168037 0.006900677 -0.0015401713 -0.014377745 -0.011754028 0.038235947
-0.0012093342 -0.0012870014 0.028610203 0.043789692 0.0276366 0.020999622 0.03798354 -0.008207881
0.027705655 -0.0015764819 0.022429898 0.03498234 -0.005259471 0.030610558 0.03769573 -0.0264319
0.034900382 -0.01125251 0.01680429 -0.0015738118 0.020754825 0.026710719 0.02248841 -0.03617682
0.026845872 0.027010562 0.039116476 0.029002927 0.031239199 0.0034759133 0.011141925 0.035767186
0.014052588 -0.037834756 -0.007950856 0.0071666283 0.04192995 0.0122850835 0.011570374 0.019323025
-0.0008043546 -0.0025970086 -0.0037433784 -0.021507468 -0.037866123 0.00034153974 -0.04968652 0.020057326
0.018348979 0.027161079 -0.02406521 0.01890964 -0.017326655 0.032436267 0.01773044 0.00062965683
0.01598031 0.02673089 0.010086367 -0.012431446 0.032475352 0.005895637 0.024675636 0.044343304
0.030968847 -0.040501002 0.02954116 0.021209275 0.02598353 0.04124864 -0.014791995 0.05188244

action_model._discrete_distribution.branches.1.bias f4 [2]
00000000: a534 e9bc ac34 e93c
-0.028467486 0.028467499

action_model._discrete_distribution.branches.1.weight f4 [2, 128]
00000000: fa9f e43b a716 3c3c 4c34 7b3b 4495 8b3c
00000010: 5a23 1fbc c8e1 083d 46b2 02bd 2157 d03b
00000020: 4d37 7e3c 9cb9 653c 6193 d83c 5867 8ebb
00000030: f113 4cbc 9b85 763c 5b34 a93c eb0d fabb
00000040: 2467 52bd 4db6 22bd 99bd 60bd 1acd a6bc
00000050: 2293 843c 2b9f e1bb bfa1 343c b850 65bc
00000060: 58f6 f1bc 1150 6a3c 71a3 8b3b 74e7 13bd
00000070: de66 a7b9 b825 9a3c ff79 48bb 086b 22bc
00000080: fdfd 783c ea96 54bd a34a d93b 9a5e 353c
00000090: 3a3a 50bd a73d c33c a367 3abc b27e a33b
000000a0: ea89 36bc 1457 d4bb d35f cd3c 3c32 18bd
000000b0: a46d d5bc 4e06 ea3b 48dd 65bc 02f5 12bc
000000c0: c720 033d 466f 32bb 90ba c5bc bd6f b9bc
000000d0: ba9b 743c fa6b 01bd e58c 1f3c d150 e7bb
000000e0: 40e7 ff3c 7fdd 233d d487 14bd 4d69 bc3c
000000f0: 8fba eabc 9612 d5bc b6a0 eabc 5d80 cabc
00000100: 2338 8e3b 53e9 ae3c 1252 9e3b 8c1a 113c
00000110: 69b3 64bc 7443 a43c 8dab 31bd 4b52 6fbc
00000120: de9a 34bd b25c 153d 84ca 00bd e1e3 09bd
00000130: 56d3 933c 4a37 fdbc 8123 2dbd 082b b43c
00000140: 986a 8b3c 3a3f 5abc a534 6fbc 72ab 72bb
00000150: 7938 8a3c 8bb0 6bbd 83eb b2bc b40f c6bc
00000160: b2d0 19bc 0773 8d3c 430a 5bbc 00ae b7bc
00000170: 4160 9f3c 3a2e f73c c7a5 12bd 4bfd e7bc
00000180: 7729 d43c 5fc8 0fbd 829c 50bd dac1 6ebc
00000190: aecc 083d 18ea dcbb 94a0 0fbc 1b0a 9b3b
000001a0: 9ced 38bc a0dd 85bc afee 96bc a226 8bba
000001b0: 77eb a53c aefe 4abc ef0f bbbc c202 d03c
000001c0: ef94 ae3b 8946 61bd b8c2 85bc 4881 0dbd
000001d0: c8c3 8fba 0a2b 583c 7101 deba d8a5 c7bc
000001e0: 8b87 2ebc 54f2 773c af25 833c 46c4 ff3c
000001f0: 7335 94bc fe39 2c3b a888 a4bb b7ea 81bb
00000200: b43c d6bc a89f 59bc 1c59 adbc 0d45 4bbc
00000210: 9088 e13b 3506 d6bc 1dbe fd3c 3bfe 733c
00000220: 70cb babc ac43 aebc f2ae 43bd a376 b63c
00000230: 43fd 933c fb66 b3bc 9a69 e8bc 887f 11bc
00000240: 4584 053d d86f 1c3d 7a78 363d 0ddc 463b
00000250: f533 a1bb 6a0a 763c 6a6c 3fbc 3567 e53b
00000260: 68ca e73c 2fd9 8838 7438 d5bc 027b 0c3d
00000270: 2c39 9ebc 0712 84bc a4e7 1dbc ec2f 483b
00000280: 0f57 0ebc ea23 b03c 6699 7fbb 37e6 c4bc
00000290: c464 253d e865 b6bc a1a5 e9bb f66f ae3b
000002a0: 3988 f03b 3560 38ba 6bdb 37bc bc70 283d
000002b0: cdeb 8c3c f960 c0bc ecde c43c 9691 75bc
000002c0: 573b 00bd b6b6 d63b a2d9 0b3b 24ed c53c
000002d0: fb0f 12bd d9f8 183d 80e3 fcbb 80d5 3f3c
000002e0: 92fe 05bd b473 00bd 39d5 de3c dcc3 07bd
000002f0: fc09 b63c 88a3 c73c ccc1 1b3d c85e a63c
00000300: 6f8f 803c 9112 afbc c98d b33b 4b19 7b3c
00000310: 4d6a 8d3c 019e d0bc 5245 f23c f329 7c3c
00000320: 05c9 b83c 6f30 95bc aae8 233d ff97 b43c
00000330: 0466 06bd 737c 023d 19a7 153d 4a65 39bc
00000340: f7ba f13a ff58 473c 0ef8 303c bc28 bd39
00000350: 4f14 933b b3fa 473d 252b 523c 4906 113d
00000360: cb4c 8a3b 8d4b 1abc b593 d13c 4ab4 743c
00000370: 96aa 18bd 9b2a f9bc 84b5 5b3d 2bbd 063d
00000380: 432f c8bc 2e1a e13c 82fe 043d 93e3 be3c
00000390: c1c3 09bd 6555 7b3b 1cff 203c 6cad 373c
000003a0: 83ea a23c 3584 923b 07c0 943c a8ec b43b
000003b0: de6c 0abd cae4 b13c 985c d53c 4717 5fbd
000003c0: 08b8 b03b 3b3a 433d 9f23 b83c 7306 5c3c
000003d0: 048e 0e3c 81c1 f3bb 47e6 82bb 8739 7d3b
000003e0: e5c0 203c 7fd5 01bd d986 c0bb f9ca 01bd
000003f0: 097b 913c ee95 1e3b 379f b5bb 793e bc39
0.0069770785 0.01148001 0.0038330732 0.017038949 -0.009713018 0.033418447 -0.031908296 0.006358043
0.015516114 0.0140213035 0.026437463 -0.0043458156 -0.012455926 0.015046502 0.020654848 -0.0076310537
-0.051367894 -0.039724637 -0.054868314 -0.020361472 0.01618344 -0.0068854294 0.011024891 -0.013996296
-0.029536411 0.014301316 0.004261427 -0.036109403 -0.00031929364 0.018816814 -0.0030590293 -0.009913214
0.015197274 -0.051901735 0.006631212 0.011069918 -0.05083678 0.023833109 -0.011377248 0.0049894685
-0.01114128 -0.006480107 0.025070107 -0.037157282 -0.026053257 0.007141865 -0.014029808 -0.008969547
0.03201368 -0.0027226969 -0.024136811 -0.022636289 0.014929706 -0.031597115 0.009738182 -0.0070591946
0.031238198 0.040006157 -0.03626235 0.02299943 -0.028653411 -0.026009839 -0.028641086 -0.024719412
0.004340188 0.021351492 0.004831561 0.008856427 -0.01395879 0.020051695 -0.043376494 -0.0146070225
-0.044093005 0.036465354 -0.031443134 -0.033664588 0.018045109 -0.030910153 -0.042270187 0.021993175
0.017018601 -0.013320738 -0.014599954 -0.003702846 0.016872631 -0.05754141 -0.021840816 -0.02417741
-0.009388136 0.017266763 -0.013369146 -0.022421837 0.019455077 0.03017341 -0.03580263 -0.028319022
0.025898678 -0.0351032 -0.050930507 -0.014572585 0.033398323 -0.0067417733 -0.008766312 0.0047314293
-0.011287119 -0.01634103 -0.01842436 -0.0010616372 0.02025388 -0.012389822 -0.022834746 0.02539194
0.005327813 -0.05499891 -0.0163282 -0.03454712 -0.0010968382 0.013193855 -0.0016937685 -0.024371073
-0.010652433 0.015133459 0.01600918 0.03122152 -0.018091893 0.0026279683 -0.0050211735 -0.003964748
-0.026151992 -0.013282694 -0.021160655 -0.0124066 0.0068827346 -0.026126007 0.030974442 0.014892156
-0.022802085 -0.021272503 -0.047774263 0.022273367 0.0180651 -0.02189969 -0.028370667 -0.0088805035
0.032596845 0.0381926 0.04454849 0.0030343563 -0.004919524 0.015017131 -0.011683563 0.0070008286
0.028294757 6.525439e-05 -0.026027896 0.034296997 -0.019314371 -0.016121877 -0.009637747 0.0030546142
-0.008687749 0.0215015 -0.0039001345 -0.024035556 0.0403793 -0.02226539 -0.00713034 0.0053234054
0.0073404578 -0.0007033379 -0.011221747 0.041123137 0.017202282 -0.02348374 0.024032079 -0.014988324
-0.03130659 0.0065525426 0.0021339436 0.024160929 -0.03565977 0.037346695 -0.00771755 0.011708617
-0.03271348 -0.031360343 0.027201282 -0.03314577 0.022221558 0.02436997 0.038026616 0.020308867
0.015693394 -0.021371158 0.0054795486 0.0153258545 0.017262602 -0.025465967 0.02957407 0.015390861
0.022556791 -0.018211571 0.040016808 0.022045134 -0.032812133 0.031856965 0.03653631 -0.011315653
0.0018442561 0.012167214 0.010801328 0.0003607924 0.004488505 0.04882307 0.012827669 0.035406385
0.00422058 -0.009417427 0.025583128 0.014935562 -0.03727206 -0.030415824 0.053639904 0.03289525
-0.024436599 0.027478304 0.03246928 0.023301875 -0.03363395 0.003835046 0.009826448 0.011210781
0.019887215 0.0044713267 0.018157972 0.0055213757 -0.03379523 0.02171554 0.026045129 -0.05446556
0.005393032 0.047662955 0.022477923 0.013429272 0.008700851 -0.007438839 -0.0039947364 0.0038639025
0.009811615 -0.031697746 -0.00587545 -0.03168771 0.017758863 0.0024198252 -0.0055426615 0.000359047

network_body.linear_encoder.seq_layers.0.bias f4 [128]
00000000: 9dc7 c53c a958 2b3c 7504 9f3c 6173 523c
00000010: 4a7e b33a f998 513c b1bc 053c 4d52 313c
00000020: 6937 88ba 7732 a93c a65d 493c f321 543b
00000030: b2b0 5237 336b 533c 611a 4e3c b80a 0b3b
00000040: 26b9 353c 328d 583b 7419 1b3c 6e34 943b
00000050: 606b 1d3c 8cf0 9a3c 1a3d 1bbb 9ddf 7a3c
00000060: 8c5f b13b 76c2 9b3b 0348 563c 459d 213c
00000070: f984 563c b57c 193c 2a06 0a3b 43e8 bc3b
00000080: c586 2d3c fc8e f83b ced6 823c 39ee b03c
00000090: f68d 603b 6f12 043c 4f7c 533b e5c2 873c
000000a0: e3a9 79bc 3a4a 503c 4695 343c 113a 8b3c
000000b0: 4817 5e3b 90d9 803c a5cc 0b3c 92c7 973c
000000c0: 2d91 3b3c 8db2 263c 9d56 333c b549 633c
000000d0: baf3 883b e5f3 a0bb 3a3a 2f3c 0b1a 213c
000000e0: c46a 6d3c cc20 cd3b 3062 753c 3502 043c
000000f0: 94a4 2b3c 3edf 293c ed95 c13a 322f 8d3c
00000100: a960 1d3c 0d5b 8b3c ab79 da3c 764a 0ebd
00000110: fd8e 353c 34a1 033c 1ebb 683b 3c85 133c
00000120: dffb 81ba 4e3e a6bc f5a6 7b3b e6d6 bf3b
00000130: 64c2 3f3c f1fb 533b ac0b 843c 92c5 af3b
00000140: 406e ff3b 20b8 72bb b598 a2bb c381 80ba
00000150: 9a98 513c 41fa ac3b 4723 263c f10b 883c
00000160: 43f5 613c 6766 b73c e124 403c 1979 7cbb
00000170: 0b2e 6d3c eed7 fb3b 9417 1e3c cbbd 02bd
00000180: ff0f 6f3c 8bdd 2d3c c677 d33c e34f 1c3c
00000190: 0c88 963b 3493 1f3c 57d4 333c f8e5 353c
000001a0: 04c6 6f3b 78a4 01bb de38 3e3c 5ee1 373c
000001b0: 1fb5 85b9 ee0c 373c 807c 5f3c f9e2 573c
000001c0: 7bc5 28bb 17a4 a13c b733 b23b e864 6a3c
000001d0: 2bb0 eb3b ecf5 a13b 9246 4d3c 6252 8d3c
000001e0: d443 873c 477b 7d3c 0ee1 593b c44e f13a
000001f0: f034 6c3b 2ab2 3e3c 83e0 933b 6395 643c
0.024143035 0.01045815 0.019411305 0.012844891 0.0013694253 0.012792819 0.008162663 0.010822845
-0.001039249 0.020653946 0.012290394 0.0032368868 1.25581155e-05 0.012903976 0.012579531 0.0021216106
0.011091506 0.0033043143 0.009466518 0.0045228517 0.00960812 0.01891353 -0.0023687542 0.015312103
0.0054130014 0.004753406 0.013078692 0.009864156 0.013093227 0.009368111 0.0021060803 0.0057649924
0.010591214 0.0075854044 0.015971567 0.021597968 0.0034264303 0.008061036 0.0032270139 0.016572425
-0.015238258 0.0127130095 0.011021918 0.016995462 0.0033888388 0.015728742 0.008532678 0.01852778
0.011448187 0.010174406 0.010945943 0.013872554 0.004179445 -0.004911887 0.010695035 0.009832869
0.014490787 0.006260013 0.014977023 0.008057167 0.01047625 0.0103681665 0.0014769413 0.017234419
0.009605565 0.01701119 0.026669344 -0.03473898 0.011081454 0.008034039 0.003551192 0.0090039335
-0.0009916982 -0.020293381 0.0038399075 0.0058544753 0.011704061 0.0032346214 0.016118847 0.0053641284
0.0077951252 -0.0037036017 -0.0049620518 -0.0009804297 0.012792731 0.005278856 0.010140247 0.016607257
0.013791385 0.022387696 0.011727543 -0.0038524328 0.0144763095 0.007685653 0.009649176 -0.031919282
0.014591216 0.010611902 0.025813948 0.009540531 0.004593855 0.009739686 0.010975919 0.011102192
0.0036586532 -0.001978187 0.011610238 0.011223165 -0.00025502683 0.011172516 0.013640523 0.013176673
-0.0025752473 0.019731564 0.005438294 0.0143062845 0.0071926317 0.0049426463 0.012529032 0.017251197
0.016511835 0.015471286 0.0033245715 0.0018410315 0.0036042295 0.011639157 0.004512848 0.013951632

network_body.linear_encoder.seq_layers.0.weight f4 [128, 703]
00000000: a016 dd3c d829 c63d 91bd 35bd 7f88 183d
00000010: 3f7a 87bd ca0c 953d 46d4 92bb 4e7c 293d
00000020: 132b 1e3d 0801 8f3d bddc a4bc ce4a c4bd
00000030: ea00 573d 4c37 e13c d56f 1b3d 30bc 7f3d
00000040: bf5a 563d 0c9b bcbd d350 3b3d e07d 253d
00000050: fd07 b43c 3f98 923c fee1 803d f00a 5dbc
00000060: c024 1d3c 23c6 2d3b af2e 113c 2dc3 78bd
00000070: 7e6f a23c 24c9 823d 8acb c5bc 6131 593c
00000080: 46e7 273d 1dbd 2d3c 9466 f43c 48f7 59bd
00000090: 39e0 2f3d 23b2 1a3d 2d08 15bb 9c6a 1f3d
000000a0: 031d d63c b288 783d 1591 22ba 6dea 853d
000000b0: 4f92 e6bd da27 87bd 340b ef3c d4ff 063d
000000c0: 5e2b ca3b cb6a 233d d0d8 7c3c 4fbc f43c
000000d0: 41ed bebd 5345 aabc 1e1f 463c 5d9e 00bc
000000e0: e80c 9ebd 1d3c 843d d912 553c 3764 25bd
000000f0: 00e7 643b 9a4c 46bd 796b 153c 318b 093d
00000100: d0c1 0a3d 15d7 2a3c a8dd 07bd 98a4 c43c
00000110: 4196 653d b70b 453d db7b cd3c 3c7a ca3d
00000120: 40a2 a13c ea86 e13c 7ffc a7ba 1d80 1bbc
00000130: c479 ed3c 5544 823c 6025 033e cfb8 d93c
00000140: c429 c03b 64bf a93c d063 8dbd 15b1 52bd
00000150: 23bb 85bc 6880 9a3d 59df 6739 9412 9c3c
00000160: 38f6 c33a 81cd 67bd d60c 123e d20d 593d
00000170: 0950 413d 42fb 193d dcc4 0abd c56d 99bd
00000180: 8d9f fcbc c7e0 25bd 8477 4d3d ae37 003e
00000190: 9273 ea3c f591 c53d 89d8 9fbc 50d3 9f3c
000001a0: 4f90 cfbc d8cc b33c 2864 233e ebcd 4d3c
000001b0: 5c28 463d ba91 32bc 5f74 5bbd 887b 91bd
000001c0: daba 04bd 5818 b23d 42b0 3c3d 1fc3 b93d
000001d0: a11e 683d 0f9c 75bc 3462 a23d 0ee1 073d
000001e0: 7eca 0e3d 25e3 743d 3716 803d 650d 03bc
000001f0: ad36 04bd 3d74 d03d 1ea2 543c 40af 1c3d
00000200: cb8a 93bc b98a 4b3d 8f25 0fbd 95eb fc3c
00000210: de86 913d e924 cd3d 4e4b 823d ddac ddbc
00000220: 64b7 08bc 6749 1ebd c678 f7bd 2271 1cbd
00000230: 7866 d9bc fa09 a43d 51c0 013c 35e6 b73c
00000240: a504 b93a 1ccd 05bd d058 9ebb c5e8 1b3d
00000250: e080 2d3d 9062 0dbd 1e8c eebb 42b2 9bbc
00000260: 1e97 32bd 9c12 d23d a205 8d3d f13b a63d
00000270: d674 46bc 3051 04bc 1226 69bd fd47 e53c
00000280: 01d6 e43c 4cbc 22bc 1b7b ca3c bf49 e93c
00000290: 3746 3b3d db94 82bd 5ec5 163d 095e f3bc
000002a0: c634 8bbd 2f79 ab3d c970 e93c 50cc 1f3d
000002b0: 3538 12bc 485d c7bc 33b2 09bd 0aa2 d63c
000002c0: 4104 8b3d ae52 f33c e239 15bd 8865 803c
000002d0: 5fbe 163c 1e5e 253d 9165 22bc f487 a93d
000002e0: 4bca 703c 7b3e 3ebc 331b b8bc b90f 75bd
000002f0: a39c ae3d 7b71 0e3e 9ece ee3d 8f76 373b
00000300: 7e19 74bd 1277 7abc 902c 4cbc 94c8 a53c
00000310: 2b04 cfbc 785f 8b3c 4844 37bb 6308 7b3c
00000320: ab34 42bd 70d6 463d 95b7 de3a 925d e1bc
00000330: 6afe 5c3d feca 7c3c bbf3 fd3b 5c16 99bc
00000340: a5f8 89bd 9172 413d d21c 0f3d d01f 903d
00000350: 5925 a0bb 9220 90bd f54d a1ba ea9d 0e3d
00000360: b9bf 16bd b8b4 8fbd 78a4 b73d 4a5a afbb
00000370: 0e16 2bbd 20cb cabb 5a84 b0bb c736 a4bb
00000380: b187 11bc cdde 523d 89c4 96bd 8bc6 a1bc
00000390: 0808 21bd 77a6 99bc 0999 cabc 56a9 62bc
000003a0: f7b2 2d3e 06ea ebbd e629 013d cacd 85bc
000003b0: fb2c 19bd b1b1 2ebd 4fa0 3fbd 8c99 6b3d
000003c0: 7a5a 94bd 0158 dcbc 1651 48bc 570a ba3a
000003d0: 9f0e 983c 4252 bb3c 3969 cc3d f38e acbd
000003e0: 8e44 2e3c 94c1 2f3b 4ca7 923c ff4c 5f3b
000003f0: f7ef 103d a8cf d03c ea51 19bd 0cc0 f13c
0.026988328 0.0967595 -0.044370238 0.037239548 -0.066151135 0.0727783 -0.0044808714 0.04137831
0.038615298 0.069826186 -0.020124787 -0.0958458 0.052491106 0.027492188 0.03794845 0.06243533
0.052332636 -0.0920926 0.045731377 0.040403247 0.021976465 0.017894862 0.062931046 -0.013491377
0.009591281 0.0026515804 0.008861228 -0.06073301 0.019828554 0.06386021 -0.024144907 0.013256402
0.040992044 0.01060417 0.02983407 -0.05321434 0.042938445 0.03776754 -0.002274047 0.03892003
0.02613688 0.060677238 -0.00062014285 0.06538854 -0.11258375 -0.06599398 0.029180147 0.03295882
0.0061697206 0.039896768 0.0154325515 0.029874949 -0.09322596 -0.02078501 0.01209238 -0.007850257
-0.077173054 0.06456778 0.013004982 -0.040378775 0.0034927726 -0.048412897 0.009119862 0.03358001
0.03387624 0.010427256 -0.033170372 0.024004266 0.056051496 0.048106875 0.025083473 0.098865956
0.019730687 0.027530152 -0.0012816339 -0.009490994 0.028988726 0.015901724 0.12807226 0.026577381
0.005864354 0.020721145 -0.06903803 -0.05143841 -0.016324585 0.07544023 0.0002211308 0.019051827
0.0014950698 -0.05659247 0.14262709 0.052991696 0.047195468 0.037593134 -0.033879146 -0.0749164
-0.030837798 -0.040497568 0.050162807 0.1252124 0.028619561 0.0964698 -0.019512432 0.019509941
-0.025337366 0.021948263 0.15956175 0.012561302 0.048378333 -0.010899002 -0.053577777 -0.0710364
-0.032404758 0.086960495 0.04606653 0.090704195 0.056669835 -0.014990821 0.07928887 0.033173613
0.03486108 0.059786934 0.06254237 -0.007998799 -0.032278705 0.10178421 0.012978105 0.03825307
-0.018010518 0.049692843 -0.034947928 0.030874053 0.07105802 0.10016806 0.063620195 -0.027059967
-0.008344505 -0.03864422 -0.120835826 -0.03819383 -0.026538119 0.080097154 0.007919387 0.022448638
0.0014115764 -0.03266631 -0.0048323646 0.038063783 0.042359233 -0.034517825 -0.007279887 -0.019005898
-0.043601148 0.10257456 0.0688584 0.08116902 -0.012112817 -0.008075997 -0.056921072 0.027988428
0.027934076 -0.009932589 0.024716904 0.028477548 0.04572126 -0.06376048 0.036809318 -0.029707925
-0.06797175 0.08372723 0.028496163 0.039013207 -0.008924534 -0.024336472 -0.03361721 0.026200313
0.06787921 0.02970251 -0.036432154 0.015673414 0.009200661 0.04037296 -0.009911911 0.08277884
0.014696668 -0.011611576 -0.022473907 -0.059829447 0.0852597 0.13910477 0.11660503 0.002799425
-0.059594624 -0.015287178 -0.012461796 0.020237245 -0.025270542 0.017013296 -0.0027964283 0.015321824
-0.04741351 0.048544347 0.0016991968 -0.027510438 0.053953566 0.0154292565 0.007750002 -0.01868742
-0.06736878 0.0472284 0.034939595 0.07037318 -0.0048872647 -0.07037462 -0.0012306558 0.034818567
-0.036803935 -0.07016891 0.08966917 -0.0053513395 -0.04176908 -0.006188765 -0.0053868713 -0.005011413
-0.008882449 0.05148201 -0.07361705 -0.019747993 -0.0393143 -0.018756134 -0.024731176 -0.013834318
0.16962801 -0.11519246 0.031534098 -0.01633348 -0.037396412 -0.04264993 -0.04678374 0.05751948
-0.072438195 -0.026897432 -0.012226364 0.0014193755 0.01856166 0.022866372 0.09981007 -0.08425703
0.010636462 0.0026818262 0.017902039 0.0034072993 0.0353851 0.025489643 -0.037431635 0.02951052

network_body.linear_encoder.seq_layers.2.bias f4 [128]
00000000: a37a 8f3c e51d 323c 33c2 153c a58d 0c3c
00000010: f147 123b 0265 813b 3710 1cbc a170 403c
00000020: b189 913c cad9 163c 3e58 4f3c a43e f83b
00000030: 3a42 433c 27d6 003d 8789 cc3b d7d5 813c
00000040: b1a9 9d3c e672 2a3b 4d39 8cbb afc0 71bb
00000050: 22b1 323c 12c8 103d d2d4 17bd 2c04 393b
00000060: 20b2 caba 82e8 16b8 8077 1f3c a8f2 203c
00000070: 4ff8 a83c c818 923c 660a 4c3c 9d15 c9bb
00000080: 2e9c 133c a977 803c 388e e93c 8dff 9c3c
00000090: ba2d 913c 8f23 4b3c c42f c13b 162d e0bc
000000a0: 99f1 ef3b 90df 1d3c a5aa 503c fb22 373c
000000b0: ba64 8e3c 6bca 893c 72be 853c fa48 62bb
000000c0: 881c 9d3c 1012 513d 90a9 9dba d201 7d3c
000000d0: b91a a63b 6652 9f3c 17e2 323c e69f 8ebb
000000e0: 2493 743c 9202 edbb d363 ba3b e457 3c3c
000000f0: cde4 113c 291d 7dbc cda3 423c cfb6 743c
00000100: e76b da3b 13b4 0a3c 0558 a53c 62e9 9d3c
00000110: 76ab 903c 5cd6 b43b d696 4e3c e88b 0b3c
00000120: e979 f03c 28be 773a f4c9 8a3b 1a7d 0d3d
00000130: 8693 c63c dd56 963c 2853 b0bb 484d 91bb
00000140: 289f 153c 1dff 5cbc a1a3 493c b90f 263c
00000150: f09c 1d3c 113f ca3c bb14 8d3b 776e d63c
00000160: 5621 423c 47f3 c13c caa0 353c 58de e8bb
00000170: 4327 1d3c 9f9f be3b 257c 213c bffe 353c
00000180: 5277 043c 72b3 a93c 9df4 173c 22c8 d03b
00000190: 89c8 5a3b a178 8f3b 8b3f 823c 903a fa3b
000001a0: ce3b c73b d186 403c 0b72 ac3c f0e4 e83b
000001b0: f31c d43b 5e8e 823c 838f 4a3c 6f43 d93b
000001c0: cb51 4e3c 9de0 ab3b db96 eb3a 9a8b 193c
000001d0: c699 86bc 85d6 0c3d a788 b83c 9a25 2e3c
000001e0: 5aa4 f6ba c588 553c d9cd 863c ba7e e3bb
000001f0: 38a1 0ebc 1e18 d4bb e0f5 c6bc 751b c43c
0.017514532 0.010871385 0.009140539 0.008578693 0.0022320712 0.0039488086 -0.00952535 0.011745603
0.017765852 0.009207198 0.012655316 0.0075758267 0.011917645 0.03145423 0.0062419805 0.015849037
0.019245954 0.0026008426 -0.0042792917 -0.003688853 0.01090649 0.035347052 -0.037068196 0.0028231246
-0.0015464462 -3.5979327e-05 0.009733081 0.009823479 0.020626215 0.017834082 0.012453651 -0.0061366097
0.009009404 0.015682058 0.028510198 0.019164825 0.017722 0.012398615 0.0058955867 -0.027365249
0.007322502 0.009635821 0.012735997 0.011177774 0.017382015 0.016820153 0.016326163 -0.003452836
0.019178644 0.051042616 -0.0012028683 0.0154423285 0.0050691036 0.01944847 0.010918162 -0.0043525575
0.014927659 -0.0072329724 0.0056881695 0.011495564 0.008904648 -0.015448847 0.011879873 0.014936163
0.006665695 0.008465785 0.020183573 0.019276325 0.017659884 0.0055187177 0.012609204 0.008517243
0.029355006 0.0009450638 0.0042355005 0.034543134 0.024240267 0.018351967 -0.0053810067 -0.0044342615
0.009132184 -0.013488558 0.012307079 0.0101355845 0.009619936 0.024688276 0.00430545 0.02617572
0.011848768 0.023675574 0.011085698 -0.0071065836 0.00959188 0.005817368 0.0098562585 0.0111080995
0.008085089 0.020715449 0.009274629 0.006371514 0.0033383688 0.0043783938 0.01589944 0.0076363757
0.0060801273 0.011750893 0.021050474 0.0071073696 0.0064731776 0.015937027 0.012363317 0.006630353
0.012592743 0.005245282 0.0017974036 0.0093716625 -0.016430747 0.03438427 0.022526098 0.010629082
-0.0018817291 0.013033097 0.016455578 -0.006942597 -0.00870543 -0.0064726016 -0.024287164 0.023938874

network_body.linear_encoder.seq_layers.2.weight f4 [128, 128]
00000000: 55d1 833c 5c91 cf3c 7c46 15be 65e8 18bd
00000010: 7e7f e83d fe3a 413d 174b 17be c87f 9b3d
00000020: 3c5d fd3d 1713 8dbd af36 3f3c 8671 33be
00000030: 6a6d 493e c74e df3d d269 94bd 4692 a83c
00000040: 0ef3 07be 3da2 243e e7b1 57be b2f1 c0bd
00000050: 80cf bfbd c875 833d 8ccb aa3d 287c d43d
00000060: 6a55 ac3d 72fc 143e 323a 973d cf7a a0bd
00000070: b16c 06bd b5dd ef3d d25d 873d dce4 9dbd
00000080: b32e ed3c ba22 9cbd 10c6 59bd 44e7 99bb
00000090: 6e2d 753d d1fd 10be d065 823d b43d ae3c
000000a0: 18bb a33b 7467 23be 3cd4 d3bd d486 b73c
000000b0: 5157 6dbd e37a fdbd 8997 563d d1a7 38be
000000c0: 78a7 403e 4f1e 87bd 7a8b 25bd 7a04 983d
000000d0: e78a 213e d9c9 723d cd42 08be edf7 d1bd
000000e0: 038d cb3d 47d0 cd3c 87c1 6cbd 6f7e 4abd
000000f0: 63ad 633c e4b6 073e 0751 e9bd 8403 85bd
00000100: f451 33bd 8cc6 043d ac37 d4bd b828 cdbd
00000110: 732f 24bd 489e cdbd cd42 ecbd 40c0 93bc
00000120: 7113 1bbd 8819 e5bc 32f0 81bc f3ee cd3d
00000130: 9bb5 8dbd 8a00 5bbd 4fc7 b53d b739 8a3d
00000140: 405b c9bc cb86 df3d 6ab0 11be 9a0e 8abd
00000150: dc15 f0bb ccd5 333d 22f8 4fbd e71a 003e
00000160: 52f9 27bd ac9b 0c3d 383f 6e3e 6cbc d83d
00000170: 8106 dcbc 2fbb 1bbc cc02 873c ee9b 0bbe
00000180: f4e1 08be cfe9 b8bc 8138 573e 76c0 383d
00000190: 625c 60bd f866 ba3d 9eb1 4a3b bed9 383d
000001a0: 25d0 483d 7286 a53d ace6 db3d 6650 7fbd
000001b0: 6b4e 193e 5135 e8bd 3a31 8ebc f169 c83d
000001c0: a783 a7bd b811 bd3c 7846 953d d154 21be
000001d0: cfdb 223e 6c7c c93b c99d babc 8c5f 1abd
000001e0: e029 35bd 3f0f 55bd dbe9 29bd 2de6 78be
000001f0: 31a2 f13d ae90 573c 7a93 843d b9ae ce3d
00000200: ca3d bebd 44cd 0cbd e848 793d 386d f3bb
00000210: 6127 3d3c a8c8 6e3d 1620 b8bd 1113 dc3c
00000220: 2a8d 083d 405d e03d e41a 8f3c 265d 823d
00000230: 73e4 f2bc db06 fa3c 9c67 663d 2a26 aebc
00000240: 9c3c 36bc a5e7 f1bd 51b1 263e 5a04 f3bd
00000250: 8276 6f3d c877 7d3c a09e dfbd 3eff 0dbe
00000260: f292 42bc 67b9 1bbd df9f 1c3e 2064 8f3d
00000270: 5439 90bd 3596 3cbd a65f 793d 4a0f 1cbe
00000280: 4c88 3f3d 20c4 5e3c 83ac 4dbd 3386 913d
00000290: e3d8 f13d 2953 383d 9ad8 c3bd ce12 bcbd
000002a0: 9dba 6ebd b911 8fbd bdec b9bd 8389 c53c
000002b0: 9da3 513d e492 603e a5fe cb3d f397 003e
000002c0: 5669 713c ffcb 18bd c7c1 5b3e 5698 ba3d
000002d0: d6bf 0bbe 6c4a 1dbe b11c f63d 3dff 983d
000002e0: ed61 18be 5cbb febd b285 613d b341 f4bb
000002f0: ad0b 9abc a161 b5bb 5fa0 713d ed79 263e
00000300: c670 aa3c 8d12 8b3e eb11 d23d f923 a23c
00000310: 7375 043d be21 0abe c514 d73c 65f8 d13d
00000320: f508 6cbd 75a5 22bd febf a93d 4b55 7e3d
00000330: cb28 243e 5957 043d c048 183e d170 f9bd
00000340: 558e c7bc 66ff ec3c 0aaa ebbd 87b1 0bbe
00000350: 9904 503e 5151 aabb fd55 cb3d 43e5 e13d
00000360: 1d21 163e 52ee 093d 8f8d 2fbd ab13 68bd
00000370: 3a48 103d 23f2 633d 92ed d0ba 367d 0d3d
00000380: 9c6c 00bd 0554 b83d 73d3 2cbe 0623 dcbd
00000390: 8574 d23d 3d3a 90bd 04e4 333e 2394 af3c
000003a0: 0bfb a9bc cebc 303d 5074 553d a1f2 8a3d
000003b0: d377 4a3e 9a1b 473e 0e87 4e3e 635c 5ebd
000003c0: ce7d cebd a4b8 20bd 7efe ba3d d070 003e
000003d0: 2f96 953d 11fd 44bd 790a 03be 4537 8d3e
000003e0: 74fa 15be 4a3a 2dbd e432 85bd d7e9 b7bc
000003f0: b220 cabc f15a 47bb be55 ccbd e170 bfbd
0.016091028 0.025337867 -0.14577669 -0.037331004 0.11352442 0.0471754 -0.14774738 0.07592732
0.12371299 -0.06888407 0.011670752 -0.17523775 0.19670644 0.109036975 -0.07246746 0.020577561
-0.13276312 0.16077514 -0.21063958 -0.094211 -0.09365749 0.06418949 0.08339605 0.103752434
0.08414729 0.14549425 0.07384147 -0.07835924 -0.0328185 0.11712209 0.06609692 -0.07709667
0.028952932 -0.07623811 -0.053167403 -0.0046967585 0.05985778 -0.14159323 0.063670754 0.021269657
0.0049966685 -0.15957433 -0.10343215 0.022403158 -0.0579446 -0.123769544 0.05239061 -0.18032767
0.18813884 -0.06597578 -0.04041622 0.07422729 0.15775643 0.05927453 -0.13306732 -0.10252366
0.09939005 0.025123728 -0.05780175 -0.049436983 0.013896319 0.13253361 -0.11392408 -0.06494811
-0.04377933 0.03241591 -0.10362181 -0.10017532 -0.040084314 -0.100399554 -0.11536179 -0.018036008
-0.037860338 -0.027966276 -0.015861604 0.100553416 -0.06919404 -0.05346731 0.08875906 0.067492895
-0.024579644 0.109143816 -0.14227453 -0.06741066 -0.0073268246 0.043905064 -0.050773747 0.12510262
-0.041009255 0.034328148 0.23266304 0.105828136 -0.02685857 -0.009505077 0.016480826 -0.13633701
-0.13367444 -0.022572426 0.21017648 0.04510542 -0.054775603 0.09101671 0.0030928622 0.04512953
0.049026627 0.08082284 0.107373565 -0.062332533 0.1497132 -0.11338294 -0.017357457 0.09785832
-0.081794076 0.023079738 0.072888315 -0.15755011 0.15904163 0.0061488654 -0.022780316 -0.037688777
-0.04422939 -0.052016493 -0.041482788 -0.24306555 0.11798514 0.013157053 0.064734414 0.100919195
-0.09289129 -0.034375444 0.060860544 -0.0074287914 0.011545033 0.05829683 -0.08990495 0.02686456
0.03333775 0.10955286 0.017468877 0.06365423 -0.029649949 0.030520847 0.056251153 -0.021258432
-0.011122849 -0.11811761 0.16278578 -0.11866064 0.058462627 0.015470453 -0.10918927 -0.13866898
-0.011875855 -0.03801861 0.15295361 0.07001519 -0.070421845 -0.046041686 0.060882233 -0.15240207
0.046760842 0.0135965645 -0.050213348 0.071056746 0.11808946 0.045001183 -0.09562798 -0.09183274
-0.058283437 -0.06985802 -0.09078357 0.024113422 0.051181424 0.21931034 0.09960679 0.12557964
0.014734587 -0.03730392 0.21460639 0.09111087 -0.13647398 -0.15360421 0.12017191 0.07470558
-0.14881106 -0.1243808 0.055059142 -0.007454121 -0.018804396 -0.00553532 0.058990832 0.16257448
0.020805728 0.2716259 0.10257324 0.019792544 0.03233857 -0.13489434 0.02625502 0.102524556
-0.05762573 -0.039708573 0.08288573 0.06209306 0.16031186 0.032309864 0.14871502 -0.12179721
-0.024359861 0.028930377 -0.11507042 -0.1364194 0.20314254 -0.005197682 0.0992851 0.11030056
0.14661069 0.033674546 -0.04285961 -0.05665938 0.03522513 0.05565084 -0.0015939942 0.03454324
-0.031353578 0.090004005 -0.16877536 -0.10748868 0.102761306 -0.07042358 0.1756745 0.021432942
-0.02074959 0.04314881 0.052112877 0.06784559 0.19772272 0.19444123 0.20168707 -0.054287326
-0.10082589 -0.039238587 0.09130572 0.12543035 0.07304036 -0.048092905 -0.12796964 0.2758123
-0.14646322 -0.042291917 -0.06503847 -0.02245037 -0.024673793 -0.0030419196 -0.099772915 -0.09347702

network_body.linear_encoder.seq_layers.4.bias f4 [128]
00000000: 926b f33c e289 563b 7253 42bc a573 3abc
00000010: c1e4 f63c f2ab ffba d52e c13c 7fd3 053d
00000020: bfdc 323c c7c5 ac3b 9969 d03c 97bf 533c
00000030: 7561 be3c dc12 513c aeb0 aebc cd57 9f3c
00000040: 5fa3 923c ed59 7c3c 4106 403c 0164 993c
00000050: 9532 88bc 0229 64bc b575 26bd 95a5 86bc
00000060: b5b3 2ebc 322d 063c 605f f63c 8b6e 5a3c
00000070: 7160 14bc 33b7 5dbb f2dd ffbb c3c1 a63c
00000080: f60c d03c b8d5 803b e085 303b 00ee dd3b
00000090: 244e e33c 080a 773c 487a 0b3b 85f6 9cbc
000000a0: b8f0 5d3c 43e1 d6bc 2ed5 bdbb d3f8 c53b
000000b0: 201a 95ba b9ed 8d3b f408 d23a 5256 a3bc
000000c0: af3c cd3c d120 763c 628a 223c ebde c93c
000000d0: 5a57 143d 16af b73c ab63 0f3a 7a64 433c
000000e0: 4c4a a3bb f95c 04bd cb57 933b d557 e13c
000000f0: 35dd a53c 9f99 133c 78cc 34bb c9a2 903a
00000100: 34a0 1b3c 677a 6bbc 4bc4 d23b a6d6 9abc
00000110: b33b 8d3c 541e 80bc d0e3 633c 17b7 38b9
00000120: 4d0b c83b 9ccc eb3c 4c70 e53b 673f da3b
00000130: 5a65 f0bb 126c 253c 0027 5e3c 5c27 173d
00000140: e2de d0bb 956f c33c 948b d23c d04e cf3b
00000150: 28e3 5c3c 65ab 4d3d be62 7d3c 4094 603c
00000160: 6ccc ab3c 024b 9e3b 6f4d a33b 480f c13a
00000170: 7f15 3eba c9e5 02bc 0e6a 2d3b 60f0 a13c
00000180: 4379 563c baa1 af3c ebdb b93c 72e4 5b3c
00000190: 1112 4f3b 55c4 5a3b 0bc3 b53c 9112 863b
000001a0: f701 b1bc 9429 96bb 73fe 923b b901 14bc
000001b0: c522 ab3b 58a7 923c 7669 c0b9 5f8d 45bc
000001c0: 3021 d7bb fe14 093c 072c 513c 05f8 bdbb
000001d0: 08e1 6bbc e194 d9bc 31aa 8b3c 99ae 533b
000001e0: 1f58 d13b 8bd1 b43c a5a3 debb a5df 41bc
000001f0: 6e3f 17bc d26c 72bc 5c73 063b 127b 873a
0.02971438 0.0032735993 -0.011860715 -0.011380111 0.030138375 -0.00195062 0.023581902 0.0326724
0.010916888 0.0052726003 0.025440978 0.012924097 0.02323983 0.012760844 -0.021324482 0.019451046
0.017900167 0.015402299 0.011720241 0.018724443 -0.016625682 -0.013925793 -0.040639598 -0.016436378
-0.010662963 0.008189486 0.030074775 0.01333202 -0.009056197 -0.003383112 -0.0078084404 0.020356065
0.025396805 0.0039317273 0.0026935264 0.0067727566 0.027747221 0.015078075 0.0021282602 -0.019160518
0.013546161 -0.02623046 -0.0057932353 0.006041625 -0.0011375584 0.0043313173 0.0016024397 -0.019938622
0.02505335 0.0150224725 0.009920688 0.024642428 0.036216117 0.022422355 0.0005469869 0.011925811
-0.004983222 -0.032315228 0.0044965497 0.027507702 0.020247081 0.009008794 -0.0027587693 0.0011034842
0.009498645 -0.014372445 0.0064320914 -0.01890118 0.01724038 -0.015639462 0.013909295 -0.00017615814
0.006104863 0.028784089 0.007001912 0.00666039 -0.007336301 0.010096567 0.013559103 0.03690277
-0.006374226 0.023856917 0.025701322 0.006326534 0.013481893 0.050212283 0.0154654365 0.013707221
0.0209715 0.004830719 0.004983596 0.0014729286 -0.0007251128 -0.007989355 0.0026460919 0.01976794
0.0130904345 0.021439422 0.022687873 0.013421165 0.0031596462 0.0033381183 0.02218773 0.0040915688
-0.021607382 -0.004582593 0.004485899 -0.009033614 0.0052226507 0.017902061 -0.00036699668 -0.012057631
-0.0065652356 0.008366821 0.012766845 -0.0057973885 -0.014396913 -0.026560249 0.017048927 0.0032300113
0.0063886787 0.022072574 -0.0067944103 -0.011833106 -0.009231431 -0.014796453 0.0020515537 0.001033636

network_body.linear_encoder.seq_layers.4.weight f4 [128, 128]
00000000: fe86 62bd de39 503c 5847 2a3e 2261 a63d
00000010: e179 5c3c e325 ac3d f778 55bb ab36 afbd
00000020: 8c8e bc3c 8cc1 c43d 7716 0bbd 8fea b5bd
00000030: 9f35 81bc d55b 03bd bed7 3b3d ef7d b0bd
00000040: c884 a5bd 7aa3 f13d cdc4 083e 2172 9fbd
00000050: cf34 ddbd b84f 34bd 551a 72bd f550 a73d
00000060: 6347 2a3c 3076 a63b 3576 b2bd b1e4 723e
00000070: bcc6 88bd d756 043d 6c51 7d3a 2caa b2bd
00000080: 925e 613e 7785 773d 886d 9aba 9339 dd3d
00000090: 7141 c03d 127c b3bc 9c3b 00bd 0893 d9bd
000000a0: 25ad 103d d0da 5dbc 7e5c fe3c 0aeb 7f3b
000000b0: 579c de3d e7f2 3ebd 0330 acbe 1c58 a0bd
000000c0: cf13 2e3d 08e2 ca3d 372f 083e 3ed6 e43d
000000d0: 8cbb c4bc 3f43 00be ca32 79bc 9a5c d73d
000000e0: 6d4e 743d 89dd cbbd a8fd 453e ae4d 4fbd
000000f0: fb62 acbb c5ce de3c 48cb b33d d4c8 83be
00000100: a368 ac3d 3c6e 0a3e 8f15 87bd eb1f a83d
00000110: 7072 673e 4958 9abd 9d40 8ebd 72a7 963d
00000120: df36 f6bb 9696 7abd 52c0 da3d 2356 de3c
00000130: b767 f33d 7645 aebd f7e0 273e 47ee 16be
00000140: 322b 34be 34ec a43d beec 163c cccb 55bd
00000150: 0ff3 2b3e da16 29be a9ee e8bd 717d 133e
00000160: c3a7 b83d 0383 c23d dd9b 053d 9c4d 453d
00000170: adb2 e4bd eb9c e2bc e4c0 b83c eaa2 263e
00000180: 796f f33c 1bd1 c63c 3e7a cd3d be63 52bd
00000190: e067 533d b781 213d dce0 22be 5155 56bb
000001a0: 2e6d c4bd 29e3 84bd 114f 583d 4614 3a3d
000001b0: 52df efbc 969b 193e 074e 14b8 3dc6 84bd
000001c0: 9f04 173e c9ac d3bd 910e 063e d015 363e
000001d0: 098d b43c 18b5 c83d 78fb f8bd 5c3b 0a3e
000001e0: 3149 413c 7fe1 3b3e 9cbb 483e 1967 85bd
000001f0: 63c0 f0bc e78e 0bbe ef3b 123e 94a4 53bd
00000200: 9b2a 313e d422 05be 1186 81bd 1683 dabd
00000210: 4dd5 e8bd cc0f 043e a54d 39bd 2117 6cbd
00000220: bdbd 1fbd 479a 053e 4fe6 5b3d fad9 0f3d
00000230: a825 403d a8f7 283d 393c febb 434f aebc
00000240: d4a7 173e 9df4 f73c 0af1 ad3d 8194 aabc
00000250: ad66 3e3d 0623 7f3e 8a87 673e f6f2 8f3c
00000260: 5891 efbc b51f e53d cd9c d33c 2b30 d23c
00000270: dccb 35bd fc00 3f3c c15f 4abe 2a51 973d
00000280: 85e5 2ebe 03a6 e73d 60ef ee3d 2fea ce3b
00000290: 0ad1 dcbd 8593 84bd ef41 e5bd 4e0c 45bd
000002a0: 4cf4 b63c b84e f43d 0a04 e5bd 2cf3 bd3d
000002b0: 728f d0bd 3c8d 8d3d 7db3 ed3d 99a8 4ebd
000002c0: db2d f13d 42ad 75be 26ea cfbc e869 293e
000002d0: ca41 1bbe 7353 eebd 83d7 d03d 94c4 81be
000002e0: 36f5 9fbd b4f9 9a3c c638 aabd aac0 933c
000002f0: 42d2 a43c c5b6 7d3e 9b06 ad3d b3db 163c
00000300: 7288 e83d dd50 083e f4fc b13c e77e 2dbe
00000310: 2c9a 15be d62e e13d 0912 a23c 091a 35bd
00000320: 96d6 0b3e 14fc b9bd daf9 99bd 0993 dcbd
00000330: 84e3 c6bd 6f2e e03d 999e dfbd 8131 dc3d
00000340: 4609 503d 70d9 d63d 543b c7bd d62b 683e
00000350: f99e 1b3c 8f83 7fbd 606e 973d d57b fb3d
00000360: 0cf9 b2bc c3e0 e3bd e47f 8a3d 83d5 2c3d
00000370: a149 13bd 28c0 793c dcf9 52bc d2fe 5b3d
00000380: 5780 35be 0075 293d 751e fbbd b015 283d
00000390: 6755 87bd 937b 503e f2b3 04bd efde e33c
000003a0: 27d6 f8bc 9543 acbd 39d7 8b3d dd1b 8cbc
000003b0: c106 1c3d e90c 953d bf63 3dbe 26a9 533d
000003c0: 585e 29be f01a 08be 27ae bc3c 558a b53c
000003d0: f58c 65bd 634c 573d f808 a4bd 0344 4d3d
000003e0: 7a94 c73d d184 5a3c af7c 34be 5941 713d
000003f0: 79a4 4ebe 0dbc 4dbe 7e5f b53c ef64 ad3b
-0.05530452 0.012709109 0.16628778 0.08123995 0.013456793 0.08405664 -0.0032573321 -0.08555349
0.02301719 0.09607229 -0.03395697 -0.08882629 -0.015772639 -0.03207 0.045860045 -0.0861777
-0.08081967 0.11798759 0.13356324 -0.0778544 -0.10801088 -0.04402134 -0.059107143 0.08169738
0.0103929965 0.005080007 -0.087139525 0.23720051 -0.066785306 0.03230938 0.0009663317 -0.08723864
0.22008732 0.060430016 -0.001178191 0.10801997 0.09387482 -0.021909747 -0.031306848 -0.10623747
0.035321373 -0.0135409385 0.031049963 0.0039050006 0.10869663 -0.04661837 -0.3363038 -0.078293055
0.04249936 0.09906393 0.13299261 0.11173676 -0.02401521 -0.12525652 -0.015209863 0.10515709
0.059645105 -0.09954364 0.19335043 -0.05061119 -0.005260823 0.027198205 0.08779007 -0.25739157
0.08418395 0.13518614 -0.06595909 0.08209213 0.22602248 -0.0753637 -0.06945918 0.073561564
-0.0075138654 -0.061178766 0.106812134 0.027140683 0.118850164 -0.08509342 0.16394411 -0.14739333
-0.17594603 0.08052865 0.009211717 -0.05219631 0.16791938 -0.16512623 -0.11373646 0.14403321
0.09016373 0.09497645 0.032619346 0.048169717 -0.11166892 -0.027662715 0.022552915 0.16273084
0.02971624 0.024269631 0.100330815 -0.051364653 0.051612735 0.039430346 -0.1590609 -0.003270466
-0.09591137 -0.0648864 0.05280978 0.04542949 -0.029281292 0.15000758 -3.535862e-05 -0.064831235
0.14747857 -0.103356905 0.13091494 0.17781758 0.022039907 0.09800166 -0.12157339 0.13499206
0.011797235 0.18347739 0.19602817 -0.06513805 -0.029388612 -0.13628732 0.14280675 -0.051670626
0.17301409 -0.13001567 -0.06324399 -0.10669534 -0.11368809 0.12896651 -0.045240063 -0.057639245
-0.038999308 0.13047133 0.053686436 0.035119988 0.04691091 0.04125181 -0.007758644 -0.02127803
0.14810115 0.030268008 0.0849324 -0.020822765 0.046484638 0.24915704 0.22610298 0.017571907
-0.02924411 0.11187688 0.025831604 0.025657734 -0.04438387 0.01165795 -0.1976309 0.07388528
-0.17079742 0.11310961 0.11666751 0.006314538 -0.107820585 -0.064734496 -0.111942165 -0.048107438
0.022333287 0.11929077 -0.11182411 0.09274897 -0.1018361 0.06911704 0.116065 -0.050453756
0.11776324 -0.23991874 -0.025380205 0.16544306 -0.15161815 -0.116370104 0.101973556 -0.2534529
-0.07810442 0.018917896 -0.0831161 0.018036205 0.02011979 0.24776752 0.084485255 0.009207654
0.1135415 0.13312097 0.021727063 -0.1694294 -0.14609593 0.10995261 0.01978399 -0.044214282
0.13656077 -0.09081283 -0.075183585 -0.10770232 -0.09711364 0.109463565 -0.10918922 0.107516296
0.050790094 0.10490692 -0.09728113 0.22672972 0.009498351 -0.062381323 0.07394099 0.122794785
-0.02184727 -0.11126854 0.067626745 0.04219581 -0.03595889 0.0152435675 -0.012876954 0.053709812
-0.17724739 0.041371346 -0.122616686 0.041036308 -0.06608086 0.2035964 -0.03239817 0.027816264
-0.030375553 -0.08411328 0.0682816 -0.01710313 0.03809238 0.07277853 -0.18495081 0.051674984
-0.16539896 -0.13291526 0.023032261 0.022160688 -0.05604263 0.052563082 -0.08009523 0.05011369
0.097451165 0.01333733 -0.17625688 0.05890021 -0.20179929 -0.20091267 0.02214026 0.0052915732
