Config/results/Env_PPO_18/EnvironmentAgentBehavior/EnvironmentAgentBehavior-6999923.onnx (onnx, 482236 bytes, 8 tensors)

action_model._discrete_distribution.branches.0.bias f4 [100]
0	0xbcf2dd93	-0.02964667
1	0xbd2687fc	-0.04065703
2	0xbd312bc1	-0.043254618
3	0xbd0d8ea2	-0.034559853
4	0xbceff68e	-0.029292371
5	0xbd72c476	-0.05926939
6	0xbcc97a72	-0.02459452
7	0xbd1aa09b	-0.03775082
8	0xbb6a1090	-0.0035715438
9	0xbc99e77c	-0.018787138
10	0xbd5d0bd2	-0.05396635
11	0xbc89525a	-0.016762901
12	0xbcc0b7b0	-0.023525089
13	0xbd23be31	-0.039976303
14	0xbd2449d5	-0.040109474
15	0xbc91dcae	-0.017805424
16	0x3af37b5f	0.0018576196
17	0xbd36f531	-0.044667426
18	0x3be07ed2	0.0068510557
19	0xbcf49553	-0.02985636
20	0xbc5cac94	-0.01346888
21	0xbd4d5a8b	-0.050135177
22	0x3ab5da7b	0.0013874316
23	0x3c9d9e86	0.019240629
24	0x3c2cf443	0.010556283
25	0x3ca43086	0.020042669
26	0x3b7a8908	0.003822865
27	0xbbe01b73	-0.0068392097
28	0xbd10953b	-0.035298567
29	0xbc8bc8c5	-0.017063508
30	0xba87dda1	-0.0010365733
31	0x3aa14de5	0.001230654
32	0x3c225f40	0.009910405
33	0x3cb79c71	0.022413464
34	0x3c841a9e	0.016125973
35	0x3cf809c7	0.0302781
36	0xbc4258a0	-0.01186195
37	0x3d00573a	0.031333186
38	0xbcfbbf89	-0.03073098
39	0xba80f818	-0.0009839563
40	0x3ca29e23	0.019850796
41	0x3c5c359e	0.013440518
42	0x3a574ce7	0.00082130585
43	0x3d09399d	0.03350221
44	0x3ab15f30	0.0013532396
45	0x3cab7650	0.02093044
46	0x3cbe22f6	0.02321003
47	0x3c473ecb	0.012160967
48	0x3caee6f1	0.021350356
49	0xbc818e3c	-0.015814893
50	0xbca781b0	-0.020447582
51	0xbd5f8961	-0.054574374
52	0x3cb6d4fb	0.022318354
53	0x3ce386fe	0.02777433
54	0x3cee8c7e	0.029119726
55	0x3c89985d	0.016796285
56	0x3d0f4d52	0.034985848
57	0xbcba1160	-0.022713363
58	0xbccf0a28	-0.025273398
59	0xbd119fae	-0.035552673
60	0xbd300567	-0.042973902
61	0x3a18f8b2	0.00058353983
62	0x3d27f1d9	0.04100213
63	0x3c984a02	0.018589977
64	0x3cc6f921	0.024288716
65	0x3c8b906e	0.017036643
66	0xbc80c938	-0.015720949
67	0x3d18e543	0.037328016
68	0xbc13a6ea	-0.009011963
69	0xbcca8e91	-0.024726184
70	0xbc8e55d2	-0.017374907
71	0x3b6dc9cd	0.0036283613
72	0x3c10e4e1	0.0088436315
73	0x3c5ccae9	0.013476112
74	0xbce1d887	-0.027569069
75	0x3c887d48	0.016661301
76	0x3b56e3c5	0.003278957
77	0x3c909244	0.01764787
78	0xbbe69ac3	-0.007037492
79	0xbd7caad7	-0.061686363
80	0xbcdcffab	-0.02697738
81	0xbcdf613f	-0.02726805
82	0xbd2d738e	-0.04234653
83	0x3ce175f4	0.027522065
84	0x3bbd4c7e	0.005776941
85	0x3d06243f	0.03274941
86	0xbd69a670	-0.057043493
87	0xbb6ccefb	-0.0036134112
88	0xbd31d146	-0.04341247
89	0xbc047bad	-0.008086127
90	0xbd5dceb3	-0.0541522
91	0xbd0480fa	-0.032349564
92	0xbd060080	-0.03271532
93	0xbcc029ab	-0.023457369
94	0xbc833d57	-0.01602046
95	0xbcabbc44	-0.020963795
96	0xbc8afa2a	-0.01696499
97	0xbb4ff182	-0.0031729643
98	0xbcc91050	-0.024543911
99	0xbc679f2b	-0.01413707

action_model._discrete_distribution.branches.0.weight f4 [100, 128]
0	0xbd9c3dd8	-0.07628983
1	0xbdb9f227	-0.0907939
2	0xbbd1cf1a	-0.0064028623
3	0xbcbf5c73	-0.023359513
4	0xbd866f06	-0.06564145
5	0xbc136388	-0.008995898
6	0xbd4bbacc	-0.04973869
7	0x3d014b34	0.03156586
8	0xbc84130f	-0.01612237
9	0xbd69c1a5	-0.05706944
10	0x3cfdf1c0	0.030999064
11	0xbd3eb7d5	-0.046562035
12	0x3b3f8a2c	0.0029226644
13	0xbd71e2b6	-0.0590541
14	0x3c399902	0.011327984
15	0xbbfbaa77	-0.007680233
16	0x3d4d95fb	0.05019186
17	0xbd1cba38	-0.03826353
18	0xbce70967	-0.028202726
19	0xbd8caed0	-0.0686928
20	0xbd0b2862	-0.03397406
21	0xbd8b52cb	-0.06802901
22	0xbd2f0ef8	-0.042738885
23	0xbcfd8871	-0.03094885
24	0xbbde0e8d	-0.006776637
25	0x3b5c3089	0.0033598265
26	0xbdc84b21	-0.09779955
27	0xbcf47fd8	-0.029846117
28	0xbd05945f	-0.0326122
29	0xbd28c856	-0.04120668
30	0xbd22d6c3	-0.039755594
31	0xbd626e49	-0.055280957
32	0xbcf8f22b	-0.030388912
33	0x3d4f1a36	0.050562106
34	0xbc3858cb	-0.011251639
35	0xbd3688da	-0.044564106
36	0xbd408f57	-0.0470117
37	0xbc423442	-0.01185328
38	0x3c195259	0.009358012
39	0xbd5397a8	-0.051658303
40	0xbd0c97b9	-0.03432438
41	0x3c2372d5	0.009976109
42	0xbce4012c	-0.02783259
43	0xbd063de7	-0.03277388
44	0xbce98f23	-0.028510636
45	0x3d0f293f	0.034951445
46	0x3b40099d	0.0029302605
47	0x3d020ee5	0.031752486
48	0xba842df5	-0.0010084497
49	0x3cc96814	0.024585761
50	0x3cf7d2a8	0.030251816
51	0xbd81b95d	-0.06334183
52	0xbd2b9198	-0.041886896
53	0x3cdeb815	0.027187387
54	0xbd92aa1f	-0.07161354
55	0xbd17665a	-0.036962844
56	0x3d180160	0.037110686
57	0xbcf978be	-0.030453082
58	0xbbd4fe85	-0.0065000677
59	0x3c4b1351	0.012394742
60	0xbcf1d980	-0.029522657
61	0xbc1a72af	-0.009426757
62	0xbc2862d2	-0.010277467
63	0xbc1ea16a	-0.009682039
64	0xbd29a1c2	-0.04141403
65	0x3c7f7ce8	0.015593745
66	0xba4d231b	-0.00078253605
67	0x3c079ea8	0.008277573
68	0xbd0fa43e	-0.035068743
69	0xbc02b2cd	-0.0079772
70	0x3c413251	0.0117917815
71	0xbd17cd81	-0.03706122
72	0xbd48c491	-0.049015585
73	0x3cd42f54	0.025901474
74	0xbcff0810	-0.031131774
75	0xbdd1ffc6	-0.10253863
76	0x3d62fc62	0.055416472
77	0xbd82d6df	-0.0638864
78	0xbcd23529	-0.025660114
79	0xbd7bb6d7	-0.061453667
80	0xbd8eeeec	-0.069791645
81	0x3ce10b2e	0.027471151
82	0x3c2b95a4	0.010472689
83	0xbd95325c	-0.07284996
84	0x3adec9d3	0.0016997404
85	0x3d3f232a	0.046664394
86	0xbcdcb7c6	-0.026943099
87	0xbc5d5338	-0.01350861
88	0xbd2a43a6	-0.04156842
89	0x3b8681c8	0.0041048266
90	0xbdaad94d	-0.08342228
91	0x3d31229c	0.043245897
92	0xbd0a75f2	-0.033803888
93	0x3d443bcc	0.04790859
94	0x3cb29962	0.021801654
95	0xba4635ba	-0.00075611065
96	0xbb26cc92	-0.0025451523
97	0x3c85e9b9	0.0163468
98	0x3ca33a4c	0.019925259
99	0x3c3b16a7	0.011418975
100	0xbcde718e	-0.027153756
101	0x3c5589df	0.013033359
102	0xbcd3fd09	-0.025877493
103	0xbd8b2601	-0.06794358
104	0xbca5d64c	-0.020243786
105	0xbd80865d	-0.06275628
106	0xbd9bb9f9	-0.07603831
107	0xbde5620e	-0.11200343
108	0x3c759bb7	0.014990739
109	0xbd420c9e	-0.047375314
110	0x3c977a69	0.018490987
111	0x3c0ddb59	0.008658254
112	0x3b4b2546	0.0030997558
113	0xbd811ece	-0.06304704
114	0xbc8b69a0	-0.01701814
115	0x3cd06c0f	0.025442151
116	0x3d482817	0.048866358
117	0xbbeffbf1	-0.007323735
118	0xbbd5dd10	-0.006526597
119	0xbcf36dba	-0.029715408
120	0xbd21869c	-0.039435014
121	0xbd059abc	-0.03261827
122	0x3cdbd4c7	0.026834859
123	0xbd5e18fa	-0.05422304
124	0xbc84c71a	-0.01620822
125	0xbd0f7999	-0.035028074
126	0xbd13a134	-0.036042407
127	0xbc1bf61b	-0.009519125
128	0xbd6e5cf3	-0.058194112
129	0xbcd1ddeb	-0.025618514
130	0xbd3d68e4	-0.04624261
131	0xbd71348b	-0.058888
132	0xbc55274a	-0.0130098555
133	0xbcbce499	-0.023058223
134	0xbd82e8bd	-0.063920476
135	0x3cc46f0f	0.023978738
136	0xba61df32	-0.00086163275
137	0xbc680860	-0.014162153
138	0x3cfda95c	0.030964546
139	0xbd15a4fe	-0.036534302
140	0xbc8a477c	-0.01687979
141	0x3ce6f7d6	0.02819435
142	0x3c9c300d	0.019065881
143	0x3d2e63e4	0.042575732
144	0x3d8211c2	0.06351043
145	0xbd695e56	-0.05697473
146	0xbd04cc9c	-0.032421693
147	0xbce41c3a	-0.02784549
148	0xba8cca45	-0.0010741433
149	0x3abb05f1	0.0014268738
150	0xbd1533b8	-0.036426276
151	0xbdaee939	-0.085405774
152	0xbbeabc78	-0.0071635805
153	0x3a0f9166	0.0005476683
154	0xbd0735e6	-0.033010386
155	0xbc386c69	-0.011256316
156	0xbd048f88	-0.032363445
157	0xbccc40b8	-0.024933204
158	0xbc935279	-0.017983662
159	0xbce9d87b	-0.028545609
160	0xbd6cb7b8	-0.057792395
161	0x3d60d43c	0.054889902
162	0xbaee7fe7	-0.0018196077
163	0xbd1a235e	-0.037631385
164	0xbc5ceb4f	-0.013483836
165	0xbd95ad64	-0.07308462
166	0x3a6c9224	0.0009024462
167	0xbd1da86e	-0.038490705
168	0xbc898e57	-0.016791506
169	0x3ce13684	0.027491815
170	0xbd1ded32	-0.038556285
171	0xbc83e24a	-0.016099114
172	0xbc95999d	-0.018261725
173	0x3cd072e7	0.025445415
174	0x3c77d3f1	0.015126214
175	0x3caab30d	0.020837331
176	0x3d6801b4	0.05664225
177	0xbcecd752	-0.028911266
178	0x3d227658	0.039663643
179	0xbc890228	-0.016724661
180	0xbcb409ac	-0.021977268
181	0xbc24b10d	-0.010051978
182	0xbd1b18db	-0.0378655
183	0xbd3255aa	-0.043538727
184	0xbc9a6fd9	-0.018852161
185	0xbbecab0e	-0.0072225397
186	0x3b0d77ba	0.0021586255
187	0x3d56bc18	0.052425474
188	0xbc97750f	-0.018488435
189	0xbca803ba	-0.02050959
190	0x3bfe0276	0.007751758
191	0xbc8b8e21	-0.017035546
192	0xbd98333f	-0.074316494
193	0x3d820377	0.06348317
194	0xbb00407d	-0.0019569688
195	0xbc204bd4	-0.009783704
196	0xbd1599d3	-0.03652365
197	0x3d8a0674	0.06739512
198	0x3b9f6d25	0.004865306
199	0x3bb4909d	0.0055104033
200	0xbc7ab17e	-0.0153011065
201	0x3d0ba636	0.034094058
202	0x3ae79d56	0.0017670791
203	0xbcffccf7	-0.031225665
204	0x3d04755b	0.03233848
205	0xbd37bc79	-0.044857476
206	0xbd1f6f7b	-0.038924675
207	0xbd078157	-0.033082332
208	0xbd716ce8	-0.05894175
209	0xbcf2c973	-0.029637074
210	0x3c3d8ebb	0.011569674
211	0xbd8a9f62	-0.06768681
212	0xbd968fa5	-0.07351617
213	0x3d47e902	0.048806198
214	0x3c4d024c	0.012512755
215	0xbda35e73	-0.07976999
216	0xbd5b8373	-0.053592157
217	0xbcf7ad53	-0.030234015
218	0xbd2f4489	-0.04278997
219	0x3d71d116	0.05903729
220	0xbd26d74c	-0.040732667
221	0x3c754f67	0.014972544
222	0x3d10b9bd	0.035333384
223	0xbd3f3dee	-0.04668992
224	0xbd366238	-0.044527262
225	0x3d059b7a	0.032618977
226	0x3a4a5ac3	0.0007719213
227	0xbc9b9168	-0.018990234
228	0x3bf0b5f8	0.007345911
229	0x3d06219c	0.032746896
230	0xbce22d8d	-0.02760961
231	0xbd50f6a3	-0.05101646
232	0xbd5f31e3	-0.054490935
233	0xbd61ef12	-0.055159636
234	0xbd5fd98c	-0.05465083
235	0xbd603f7e	-0.05474805
236	0x3d53c496	0.05170115
237	0xbd4aa283	-0.04947139
238	0x3cdcddef	0.026961295
239	0x3d60a8ad	0.05484836
240	0xbd71f524	-0.059071675
241	0xbd99dc23	-0.07512691
242	0xbd3a3e5b	-0.045469623
243	0xbc318fb5	-0.010837485
244	0x3b9139bd	0.004431932
245	0x3c8099d2	0.015698347
246	0xbbe6bd4b	-0.0070416084
247	0xbc3c9672	-0.011510478
248	0xbd25328f	-0.04033142
249	0xbc8b8176	-0.017029505
250	0x3d1500fa	0.036377884
251	0xbd8098ae	-0.06279121
252	0x3ca25c35	0.019819358
253	0xbd62cb64	-0.05536975
254	0xbd33a144	-0.043854967
255	0xbbd2cfc9	-0.0064334613

action_model._discrete_distribution.branches.1.bias f4 [2]
0	0xbc2128da	-0.0098364
1	0x3c2128d4	0.009836394

action_model._discrete_distribution.branches.1.weight f4 [2, 128]
0	0xbd089369	-0.033343706
1	0xbc44b0f5	-0.0120050805
2	0xbcccbc8f	-0.024992255
3	0xbca486dc	-0.020083837
4	0xbcbacbf6	-0.022802334
5	0x3cfbf9c4	0.030758746
6	0xbd366320	-0.044528127
7	0xbac24985	-0.0014822936
8	0xbc08a91a	-0.008341098
9	0x3cafdeb6	0.021468502
10	0xbc906f98	-0.017631337
11	0x3cfd3091	0.030906947
12	0x3c99f506	0.018793594
13	0xbc8e500b	-0.017372152
14	0xbc3c9e5e	-0.011512367
15	0x3ca8d522	0.020609442
16	0x3d1d1918	0.03835401
17	0x3c9f0881	0.019413235
18	0xbcf03d79	-0.029326187
19	0xbd9b1e8a	-0.07574184
20	0xbb8e5849	-0.0043440205
21	0xbd017da3	-0.031613957
22	0xbcba2846	-0.022724282
23	0xbd48686c	-0.04892771
24	0x3d4126f9	0.047156308
25	0x3a67e3b4	0.0008845881
26	0xbb4d3f20	-0.0031318143
27	0x3cb3b00a	0.021934528
28	0xbd1966da	-0.037451603
29	0x3aa93637	0.0012909834
30	0xbcb6e13c	-0.022324197
31	0x3b3a2c93	0.0028407916
32	0x3c73d938	0.014883332
33	0x3c086ee8	0.008327223
34	0xbbd2d01e	-0.006433501
35	0xbb6449e2	-0.0034834077
36	0x3c5b954c	0.013402294
37	0xbbb67c97	-0.0055690515
38	0x3c9404af	0.01806864
39	0x3b813811	0.003943451
40	0xbc87f656	-0.016596954
41	0xba4e6d24	-0.00078745396
42	0xbb6ba760	-0.0035957918
43	0xbbca173b	-0.00616732
44	0x3bac59e6	0.00525974
45	0x3c729a4e	0.014807297
46	0x3ab6f6d3	0.0013959057
47	0x3ca7dac6	0.020490061
48	0x3bb26775	0.005444462
49	0xbbce3012	-0.0062923515
50	0xbc4af4e3	-0.012387487
51	0x3c86d13f	0.016457198
52	0xbd2eedd5	-0.042707283
53	0x3c99c140	0.018768907
54	0x3c7c3842	0.015394272
55	0xbc70480c	-0.014665615
56	0x3c856bf8	0.016286835
57	0x3ca29724	0.01984746
58	0xbc49f38d	-0.012326133
59	0x3b6f4d8d	0.003651473
60	0xbd03761c	-0.03209506
61	0xbbd6966e	-0.0065486943
62	0xbcdcb063	-0.026939576
63	0xbbc625b2	-0.006046974
64	0x3cede24f	0.029038576
65	0x3c8f8e46	0.017523896
66	0x3bf9f50c	0.007628089
67	0xbaee862c	-0.0018197945
68	0xbbb7c5ce	-0.005608297
69	0xbb5a5474	-0.0033314498
70	0xbd422347	-0.047396924
71	0xbc9781aa	-0.018494446
72	0xbcdf9972	-0.027294848
73	0xbc18bbe6	-0.009322142
74	0xbcd6f617	-0.026240392
75	0x3c8fcea1	0.017554583
76	0x3b200f23	0.0024423085
77	0xbcc18e0e	-0.023627307
78	0xbcae70a8	-0.021293953
79	0x3cda209d	0.02662688
80	0xbb9ba783	-0.0047501936
81	0xbc1ffc81	-0.0097647915
82	0xbce7e1ca	-0.028305907
83	0xbd03b04d	-0.032150555
84	0xbb96378d	-0.004584259
85	0xbbd6b7c6	-0.006552669
86	0x3d71260c	0.058874175
87	0xbc98c7d8	-0.01864998
88	0x3b824135	0.0039750584
89	0x3d3bbc65	0.045833964
90	0x3c85b3b5	0.016321043
91	0x3c6ac610	0.014329448
92	0x3c3de817	0.011590979
93	0xbc6c4775	-0.014421334
94	0x3c39f97c	0.011350986
95	0x3b0993ac	0.002099256
96	0xbbf576f5	-0.0074909874
97	0x3c522669	0.0128265405
98	0x3c59e660	0.013299555
99	0x3c5a4c01	0.013323785
100	0x3d2e35f1	0.04253191
101	0x39ff8b55	0.000487412
102	0xbd0ea611	-0.034826342
103	0x3ba5d6f5	0.0050610253
104	0xbd1792a6	-0.03700509
105	0x3c9b9509	0.018991964
106	0x3c6e34c5	0.014538948
107	0xbc625283	-0.013813618
108	0xbb8a9ba9	-0.004229982
109	0xbbebb38e	-0.0071930354
110	0x3bc809cf	0.006104685
111	0x3ae53761	0.0017487818
112	0x3d7aec8e	0.061260752
113	0xbbeb2789	-0.007176344
114	0x3c631449	0.013859817
115	0xbca824ea	-0.020525414
116	0xbc6c50d0	-0.014423564
117	0x3c16a625	0.009194885
118	0xbd16da9d	-0.03682958
119	0x3c5c23b2	0.013436245
120	0xbadcba26	-0.0016840145
121	0xb9398b84	-0.00017694948
122	0x3d26bd6c	0.04070799
123	0x3c268870	0.010164365
124	0x3c3882a3	0.011261615
125	0xbab3e6dd	-0.0013725419
126	0xbd9bc511	-0.07605947
127	0x3c859597	0.016306682
128	0x3d0abf85	0.033874054
129	0x3c14a783	0.009073141
130	0x3c6f8af6	0.014620533
131	0x3c8300f2	0.015991662
132	0x3d18cfc3	0.037307512
133	0xbc6cc8f5	-0.014452209
134	0x3d3548ee	0.044259004
135	0xbcb9c80a	-0.022678394
136	0x3c9f83e8	0.019472077
137	0xbcaa26b5	-0.02077041
138	0xbb640360	-0.003479205
139	0xbcff5a9c	-0.031171136
140	0xbca70a42	-0.020390633
141	0x3bb25dc9	0.005443309
142	0xbc44dca8	-0.012015499
143	0xbbb5a397	-0.005543183
144	0xbd254f18	-0.040358633
145	0xbcd94735	-0.026523212
146	0x3c494e0d	0.012286675
147	0x3d9f4ed5	0.07778708
148	0xbb822489	-0.0039716405
149	0x3d074477	0.033024278
150	0x3cfbc2d1	0.030732544
151	0x3d828363	0.06372716
152	0xbce45d9b	-0.027876666
153	0x3c3d53ad	0.011555594
154	0xbc4aeaf7	-0.012385122
155	0xb931ce19	-0.00016956813
156	0x3c9e123e	0.019295808
157	0xbbd4634f	-0.006481565
158	0x3c9b5925	0.018963406
159	0x3ac1679a	0.0014755607
160	0xbbaa4dcb	-0.005197262
161	0xbca16a28	-0.01970394
162	0x3bd0a812	0.006367692
163	0xb8efd19b	-0.0001143545
164	0xbcd611fb	-0.02613162
165	0x3c60850f	0.013703599
166	0xbc80c380	-0.015718222
167	0x3b9a1371	0.0047020246
168	0x3ca4ff09	0.020141141
169	0xbc48db2c	-0.012259286
170	0x3c284338	0.010269932
171	0x3c6e5bfa	0.014548296
172	0xbc89b966	-0.016812038
173	0xbbeec920	-0.0072871596
174	0x3c18f8da	0.009336675
175	0x3c2502a2	0.0100714285
176	0xbbeb7079	-0.0071850386
177	0x3ae32d0d	0.0017332152
178	0xbb0261d8	-0.0019894745
179	0xbb2c9a81	-0.0026337209
180	0x3d430876	0.04761549
181	0xbcac0b5d	-0.021001512
182	0xbcddda04	-0.027081497
183	0x3ab12916	0.0013516273
184	0x3b6c5b79	0.0036065264
185	0xbca36414	-0.019945182
186	0x3c9ac1c4	0.018891223
187	0x3c860576	0.016360026
188	0x3d3d8a99	0.046274755
189	0x3c71da52	0.014761524
190	0x3ce1c162	0.027558032
191	0x3bae32a7	0.005316097
192	0xbd0b0132	-0.033936687
193	0xbd0b8790	-0.03406483
194	0xbcf11675	-0.029429654
195	0xbb9942c0	-0.0046771467
196	0xbc64f993	-0.013975519
197	0x3b266dfb	0.0025395143
198	0x3d20bc72	0.039242215
199	0x3cec4969	0.028843598
200	0x3d083a54	0.03325875
201	0x3bcc1b49	0.0062288386
202	0x3cb8ca50	0.022557408
203	0xbce24a3f	-0.027623294
204	0x3947dc6c	0.00019060232
205	0x3cfb317d	0.030663246
206	0x3c6f9ffc	0.014625546
207	0xbcd9f4d0	-0.026605994
208	0x3c26be1f	0.010177164
209	0x3ce20361	0.027589502
210	0x3d7147f9	0.05890653
211	0x3c214574	0.009843219
212	0x395c1810	0.00020989799
213	0xbc68d114	-0.014210004
214	0xbd07def2	-0.0331716
215	0x3c8896b2	0.01667342
216	0xbc7f6272	-0.015587436
217	0xbccb293f	-0.024799941
218	0xbcec5dc6	-0.028853308
219	0xbcdaf152	-0.026726399
220	0xbc8e7840	-0.017391324
221	0xba7a8c26	-0.0009557627
222	0xbc49695f	-0.012293189
223	0x3ca54f2f	0.02017936
224	0x3b7541f4	0.0037423344
225	0xbc0c305f	-0.008556454
226	0xbbc0d70a	-0.0058850097
227	0xbc9fd937	-0.019512756
228	0xbd1caafb	-0.038248997
229	0xbbda3165	-0.0066587203
230	0x3d1a6eb9	0.03770325
231	0x3c264890	0.010149136
232	0x3d552cee	0.0520448
233	0xbcfa6429	-0.030565338
234	0xbc0acaee	-0.008471234
235	0xbc296578	-0.010339133
236	0x3ba1b4a9	0.0049348664
237	0xbc2dc3b7	-0.010605744
238	0x3b21748a	0.0024636113
239	0x3c69f6b2	0.014280008
240	0xbd5c3162	-0.053758033
241	0x3c2a5c80	0.01039803
242	0xbcca6358	-0.024705574
243	0x3bc856ef	0.006113879
244	0xbc10c4b5	-0.008835961
245	0xbccf8c39	-0.025335418
246	0x3d04a355	0.032382328
247	0xbbb289f8	-0.005448576
248	0x3ad31543	0.0016104359
249	0x3c26e95b	0.010187472
250	0xbd014a18	-0.031564802
251	0x3bffd1da	0.0078069987
252	0x3bc5f533	0.006041193
253	0x393a15ee	0.00017746512
254	0x3d42f513	0.047597002
255	0xbc46e52b	-0.012139599

network_body.linear_encoder.seq_layers.0.bias f4 [128]
0	0x3cc5d9ab	0.024151644
1	0xbb8fdd4e	-0.0043903952
2	0x3b2c6f8f	0.0026311611
3	0x3cb19663	0.021678155
4	0x3c21e673	0.0098816035
5	0x3c1ca750	0.009561375
6	0xbb88a381	-0.004169882
7	0xb8ecbb23	-0.00011288214
8	0x394cbe1a	0.00019525774
9	0x3b7fae3b	0.0039013762
10	0x3ca8738c	0.02056291
11	0xbcca536b	-0.02469798
12	0xbb9807c9	-0.0046396
13	0xbce3b1d3	-0.027794754
14	0xbcd393a9	-0.025827246
15	0x3c5b19aa	0.013372818
16	0x3c20393b	0.00977927
17	0x3c18bbd5	0.009322126
18	0x3bc33468	0.005957175
19	0x3c86fc20	0.016477644
20	0x3c8664dd	0.016405517
21	0x3a30137b	0.000671677
22	0x3d002139	0.031281684
23	0x3cbcf3e8	0.023065522
24	0x3bdc0926	0.0067149578
25	0x3d0125f4	0.031530336
26	0xbc269d1d	-0.010169295
27	0x3c17511f	0.009235649
28	0x3cad9e0e	0.02119353
29	0x3c4aff6f	0.012390002
30	0x3c85442b	0.016267857
31	0x3c9ec91b	0.019383004
32	0x3c24b612	0.010053175
33	0x3c4ec5dc	0.012620416
34	0x3c65ee58	0.014033876
35	0x3ce982d9	0.028504776
36	0xbb7773be	-0.0037758197
37	0x3ca14fe6	0.019691419
38	0x3cd2e1e5	0.02574248
39	0x3bd488fa	0.0064860554
40	0x3cb60a3d	0.022221679
41	0x3cc22d63	0.023703283
42	0x3b4fac0d	0.0031688244
43	0xbc6fd7e6	-0.014638877
44	0x3b8a45ef	0.0042197625
45	0xba1067f9	-0.0005508657
46	0x3ce61f09	0.02809097
47	0x3cbd4804	0.023105629
48	0x3c73bd88	0.014876731
49	0xbaed217a	-0.0018091642
50	0x3cf362ba	0.029710162
51	0x3c1faf85	0.009746437
52	0x3ca53c55	0.02017037
53	0xbab2892a	-0.00136212
54	0x3c29386c	0.010328393
55	0x3b8e3a77	0.0043404656
56	0x3c4e7195	0.012600322
57	0x3be449ac	0.00696679
58	0xbb9e2193	-0.0048257797
59	0xbb27e907	-0.0025621073
60	0x3c94fda9	0.01818736
61	0x3ca58ae7	0.020207835
62	0x3c838ce0	0.016058385
63	0x3cd6b710	0.026210338
64	0xbc4c77d5	-0.012479742
65	0x3c84d586	0.016215097
66	0xbb0f227b	-0.002184062
67	0x3b6fc84b	0.003658789
68	0xbc87b7e9	-0.016567187
69	0x3c9af4b5	0.018915514
70	0xbc11b862	-0.008894058
71	0x3b159b19	0.002282804
72	0x3c98b511	0.018641027
73	0x3cbd671f	0.023120461
74	0x3c1359ba	0.00899356
75	0x3c29c137	0.010361007
76	0x3c6617de	0.014043776
77	0xbc4288c3	-0.011873427
78	0xbbbd073b	-0.005768684
79	0xbaac849f	-0.0013162083
80	0x3bdb4924	0.0066920687
81	0xbbdaca33	-0.006676936
82	0x3ca278b4	0.019832946
83	0x3c885a5e	0.016644653
84	0x3cc4fc5b	0.024046114
85	0x3c87663d	0.016528243
86	0xbba501cf	-0.005035616
87	0x3b9fbac2	0.004874558
88	0x3cb1d4ec	0.021707974
89	0x3cb70d6d	0.02234527
90	0x3c4509e6	0.012026286
91	0x3c801cb6	0.01563869
92	0xbb011956	-0.001969894
93	0x3d1efe18	0.03881654
94	0x3c5b6234	0.013390113
95	0x3c1f2551	0.009713487
96	0xbb7e6ff5	-0.0038824056
97	0x3c1618df	0.009161203
98	0xbbf6abbe	-0.0075277975
99	0x3cf37828	0.02972038
100	0x3c973164	0.018456168
101	0x3c372bd7	0.011179886
102	0x3c3484cd	0.01101799
103	0x3c365b5e	0.011130182
104	0x3bbecbc8	0.0058226325
105	0xbcc24a97	-0.023717208
106	0xbc87829b	-0.01654177
107	0x3d1165c1	0.03549743
108	0x3b69744a	0.0035622292
109	0x3aa05f90	0.0012235511
110	0x3c4d395b	0.012525882
111	0xbb650523	-0.0034945689
112	0x3c5296a3	0.012853297
113	0x3c168443	0.009186807
114	0x3c8f55be	0.01749694
115	0x3c84a4e8	0.016191915
116	0x3c672348	0.014107533
117	0x3b5befc0	0.003355965
118	0xbccd8fc1	-0.025092961
119	0x3ca0f67c	0.019648783
120	0x3ba4971d	0.005022897
121	0x3c0dcf70	0.008655414
122	0x3c12be40	0.008956492
123	0x3bd7a9e4	0.006581532
124	0x3cf46412	0.029832873
125	0x3c23d2d4	0.009998996
126	0x3bd242f4	0.006416673
127	0x3c2c1ef4	0.010505427

network_body.linear_encoder.seq_layers.0.weight f4 [128, 703]
0	0xbd8a3fbd	-0.06750438
1	0x3dcadf63	0.09905889
2	0x3d83e854	0.064407974
3	0xbdb5d4c9	-0.08878476
4	0xbd58cdea	-0.05293075
5	0x3ca2f025	0.0198899
6	0x3b37ad38	0.002802683
7	0x3c93593d	0.017986888
8	0x3d839078	0.064240396
9	0x3d1de915	0.038552362
10	0x3d087fb4	0.033324912
11	0xbd61a0ee	-0.055085115
12	0x3cf4aaa3	0.029866522
13	0xbc872d9e	-0.016501244
14	0xbcab019e	-0.020874795
15	0x3d25d8f6	0.040490113
16	0x3da09a83	0.07841971
17	0xbcf3c6be	-0.029757854
18	0xbc56ef40	-0.013118565
19	0x3c9ca484	0.019121416
20	0x3d70183a	0.058616854
21	0x3ce93913	0.028469598
22	0x3c3961f2	0.011314856
23	0x3d889199	0.066683955
24	0xbb899e31	-0.004199766
25	0x3b4bf186	0.00311193
26	0xbca26f54	-0.019828476
27	0xbd2d107f	-0.04225206
28	0x3d14a08e	0.03628593
29	0x3d8639e9	0.06554014
30	0x3c94f629	0.018183785
31	0xbdca6d2f	-0.09884106
32	0x3dae17a5	0.085006036
33	0xbc82b8df	-0.015957294
34	0xb934c49b	-0.00017239379
35	0x3c21c44d	0.009873462
36	0x3c8f6579	0.01750444
37	0x3d2c3432	0.042041965
38	0xbcb89bf9	-0.022535311
39	0x3d930e39	0.07180447
40	0x3b222da2	0.0024746438
41	0x3c51e17f	0.01281011
42	0xbcc3bf40	-0.023894906
43	0x3ddbac42	0.10726215
44	0xbd151535	-0.036397178
45	0x3c2f2281	0.010689379
46	0xba625615	-0.0008634043
47	0x3c24e92b	0.010065357
48	0x3d073c89	0.033016715
49	0x3c480037	0.0122070825
50	0x3c5b2f9b	0.013378049
51	0x3d61cab1	0.055124942
52	0xbd921719	-0.07133312
53	0xbcf1f921	-0.02953774
54	0xbd3419e2	-0.043969996
55	0xbccf5b97	-0.025312228
56	0x3ddd40a2	0.10803343
57	0x3d1f49a8	0.038888603
58	0x3d470122	0.048585065
59	0xbca39d02	-0.019972328
60	0xbd0b1f71	-0.03396553
61	0xbc956ad6	-0.01823942
62	0x3d41056d	0.047124315
63	0xbc91c666	-0.017794799
64	0x3cb9abe7	0.022664977
65	0xbc2607a7	-0.01013366
66	0xbce64092	-0.028106961
67	0x3c9a5cbc	0.018843047
68	0x3b424a6d	0.0029646412
69	0xbd2e4a03	-0.04255105
70	0xbdaafc7f	-0.08348941
71	0x3d9c3ede	0.076291785
72	0xbc8423e2	-0.016130392
73	0x3a77a860	0.0009447392
74	0xbafef6c9	-0.001945221
75	0x3cd45e5e	0.025923904
76	0x3b7b729a	0.0038367868
77	0xbdc66bcb	-0.096885286
78	0x3c36dc8c	0.011160981
79	0xbd32504f	-0.04353362
80	0xbd65ce1e	-0.05610477
81	0x3d2a9dab	0.04165427
82	0xbc0727a9	-0.008249202
83	0x3c90cd34	0.017675973
84	0x3d3af556	0.045644127
85	0x3d012358	0.031527847
86	0xbd451985	-0.04812004
87	0xbd20ae7f	-0.039228912
88	0x3d8b04a0	0.067879915
89	0xbb564688	-0.0032695848
90	0x3d103a74	0.035211995
91	0x3dcddd9a	0.10052033
92	0xbc27eb48	-0.0102489665
93	0xbd2d087c	-0.04224442
94	0x3c8718c9	0.01649131
95	0x3deeca5c	0.11659691
96	0xbc904595	-0.017611304
97	0x3b6d7007	0.0036230104
98	0xbd74a4e0	-0.05972755
99	0x3d3a7f4a	0.04553155
100	0x3c73ac83	0.014872673
101	0x3c6f8961	0.014620156
102	0x3d9dae79	0.07699294
103	0x3d257ec9	0.040404115
104	0xbc08b083	-0.008342865
105	0x3d69e56e	0.057103567
106	0x3d69a568	0.05704251
107	0xbdc55ab4	-0.09636441
108	0x3cb9a3d3	0.022661125
109	0xbb3a9188	-0.002846809
110	0xbceabbc5	-0.028653989
111	0x3cdb2d88	0.02675511
112	0xbd71d5b6	-0.0590417
113	0x3c9220e7	0.017837955
114	0xbc35a357	-0.011086307
115	0xbd235615	-0.039877016
116	0xbd3bc3fd	-0.045841206
117	0xbcc94d44	-0.024572976
118	0x3d2e6a43	0.042581808
119	0xbc7abdf8	-0.015304081
120	0x3d3a1348	0.045428544
121	0x39720f25	0.0002308456
122	0xbcbc3bdc	-0.022977762
123	0xbd0491de	-0.032365672
124	0x3d413a58	0.04717478
125	0x3c89759f	0.016779719
126	0xbd7144a1	-0.05890334
127	0x3c863d79	0.016386734
128	0xbd053760	-0.032523513
129	0xbd9131b9	-0.07089562
130	0xbdb46734	-0.08808747
131	0xbd41b7ae	-0.04729431
132	0x3c02119e	0.007938771
133	0xbcc75202	-0.024331097
134	0x3d5dfb3b	0.05419467
135	0xbd406be2	-0.046977885
136	0xbd67e3a4	-0.05661358
137	0x3cefb6da	0.029261995
138	0x3d46feb9	0.048582766
139	0xbd086d56	-0.033307396
140	0xbda5a95b	-0.080889426
141	0x3b66a74e	0.0035194936
142	0xbd02a9ff	-0.031900402
143	0x3c7ea43c	0.015542086
144	0xbcf90137	-0.030396087
145	0x3c4199b4	0.011816431
146	0x3ca3468e	0.019931104
147	0xbc3932f8	-0.011303656
148	0x3c24d83f	0.010061323
149	0xbdae24c0	-0.08503103
150	0x3bfd397e	0.007727801
151	0x3b395e86	0.00282851
152	0xbb64a3a2	-0.0034887572
153	0x3d0b94b7	0.034077372
154	0x3cd2e10c	0.025742076
155	0x3d82ff7c	0.06396386
156	0xbd2ba99c	-0.0419098
157	0xbcdf2f65	-0.02724428
158	0x3d1a13d9	0.037616584
159	0x3d4f3200	0.050584793
160	0xbd4da778	-0.05020854
161	0xbd4bff57	-0.049804058
162	0x3d31740a	0.043323554
163	0xba72813b	-0.0009250824
164	0xbc3dba32	-0.011580037
165	0x3d0062bb	0.031344157
166	0xbcf4ca39	-0.029881584
167	0xbb609e99	-0.003427422
168	0xbd2cd78d	-0.042197753
169	0xbd0d9ab4	-0.034571365
170	0x3bb005b3	0.005371773
171	0x3d2237ba	0.039603926
172	0x3c064acd	0.008196545
173	0x3dbbb2dc	0.09164974
174	0xbc12a654	-0.0089507885
175	0x3c85719b	0.016289523
176	0x3cee9f79	0.029128777
177	0x3cf68ccc	0.030096434
178	0x3d2f8deb	0.042859953
179	0xbc38a22b	-0.011269133
180	0x3ccb0b9d	0.024785811
181	0x3b9d03af	0.004791699
182	0xbd752179	-0.059846375
183	0x3d83d893	0.06437793
184	0x3cc409d6	0.023930471
185	0xbd054e76	-0.03254553
186	0x3c98c64a	0.01864924
187	0xbc35ddad	-0.011100215
188	0xbccd3dda	-0.025053907
189	0x3be43d05	0.006965282
190	0xbd56fc5b	-0.05248676
191	0xbc94be9d	-0.018157298
192	0xbc7a153a	-0.01526385
193	0x3cb26062	0.021774475
194	0xbc3d4047	-0.011550969
195	0xbd3858c3	-0.045006525
196	0x3c81312a	0.015770514
197	0x3d31a38c	0.04336886
198	0xbd8230fd	-0.06357
199	0xbc0599a2	-0.008154305
200	0xbca2e620	-0.019885123
201	0x3d1d6ff1	0.038436834
202	0x3afdd92f	0.0019367094
203	0x3b29800c	0.0025863675
204	0x3d8572c1	0.06516028
205	0xbd1f873d	-0.038947333
206	0x3ddda183	0.108218215
207	0x3c17249c	0.009225037
208	0x3da02a7c	0.07820603
209	0xb9a1600f	-0.00030779882
210	0x3c78235f	0.015145152
211	0x3d7784b7	0.0604293
212	0xbc00d16e	-0.007862432
213	0x3c86ca0c	0.016453765
214	0x3d122d08	0.035687476
215	0xbd366e5b	-0.044538837
216	0xbd2eab26	-0.04264369
217	0xbe091fe2	-0.13391069
218	0x3cdc2dc2	0.026877288
219	0xbd93900d	-0.0720521
220	0x3d1ae7d0	0.03781873
221	0x3d34d0dd	0.0441445
222	0x3cb14d1b	0.021643212
223	0xbd3c4750	-0.045966446
224	0x3db37e7e	0.08764361
225	0x3d1a00f2	0.037598558
226	0xbc7c7447	-0.015408582
227	0x3c6bf69d	0.014402059
228	0xbd1b56cb	-0.03792457
229	0xbd1ba025	-0.037994523
230	0x3ba11214	0.004915485
231	0xbcee8b0d	-0.029119039
232	0x3cfbcf83	0.030738598
233	0xbd88c07a	-0.06677337
234	0x3c9ca8ce	0.019123461
235	0xbc02ba88	-0.007979043
236	0x3d274988	0.04084161
237	0x3d118a60	0.035532355
238	0xbd82cb5a	-0.063864425
239	0xbae2bd8c	-0.0017298921
240	0xbce80794	-0.028323926
241	0x3a7031e5	0.00091627083
242	0x39d9d432	0.00041547563
243	0x3bf98b0d	0.007615453
244	0xba1b41bb	-0.00059225754
245	0xbd329ddf	-0.04360759
246	0x3d974e97	0.07388037
247	0xbd254d10	-0.040356696
248	0x3d8e1948	0.06938416
249	0x3c41d2e6	0.011830067
250	0x3da871e6	0.082248494
251	0xbcd26bc4	-0.025686152
252	0xbd508780	-0.050910473
253	0xbcce1464	-0.025156207
254	0x3cd65f53	0.026168501
255	0x3cebe0f5	0.028793791

network_body.linear_encoder.seq_layers.2.bias f4 [128]
0	0x3cb6a1e8	0.022294
1	0x3c0b0c3f	0.008486806
2	0x3c9a3c2d	0.018827522
3	0x3c959ff1	0.018264743
4	0x3c92cd2c	0.0179201
5	0xb9067455	-0.00012822573
6	0x3c8c9539	0.017160999
7	0x3b816383	0.0039486303
8	0xbba752ca	-0.005106305
9	0x3c65b630	0.014020488
10	0xbc3934b9	-0.011304074
11	0x3cab1d02	0.020887855
12	0xba4f01a3	-0.0007896667
13	0x3caadc56	0.020857017
14	0xbcc175b8	-0.023615703
15	0xbcc1f142	-0.023674611
16	0x3b873ac7	0.00412688
17	0x3d35c5dc	0.044378147
18	0x3ce0ca5a	0.027440239
19	0x3ce8702f	0.028373806
20	0x3c4787ab	0.012178342
21	0x3d038079	0.032104943
22	0x3c63a887	0.0138951605
23	0x3cca0b1c	0.0246635
24	0x3cbbeba0	0.022939503
25	0xbc48a848	-0.012247153
26	0x3d02440a	0.03180317
27	0x3c0536d2	0.008130746
28	0xbbb8d6cb	-0.0056408397
29	0x3c374c9a	0.011187697
30	0x3c2094ff	0.009801148
31	0x3bc5648c	0.006023949
32	0x3d08012c	0.033204243
33	0x3c7df75f	0.015500872
34	0xbc01137f	-0.007878183
35	0x3ced802e	0.028991785
36	0x3ab32728	0.0013668286
37	0x3d2eb8ea	0.042656817
38	0x3b97a0cf	0.004627324
39	0x3d08752f	0.03331488
40	0x3c5bd715	0.013417979
41	0xbbdd5ae7	-0.006755221
42	0x3ce1ecf1	0.027578803
43	0x3b1f2c98	0.0024288055
44	0x3a8d47ad	0.0010778807
45	0xbd0bf3d6	-0.034168087
46	0xbcfb52ba	-0.030679096
47	0xbd1e85e2	-0.0387019
48	0xbc4168f4	-0.011804808
49	0x3ad0cc03	0.0015929941
50	0x3c3470ae	0.011013193
51	0x3cca9aa5	0.024731943
52	0x3c54f755	0.012998422
53	0xbc17dab8	-0.009268455
54	0x3d175131	0.036942665
55	0x3bd6164b	0.0065334192
56	0x3b684adf	0.0035445017
57	0x3c5a93c6	0.013340896
58	0xbbdfc5f0	-0.006829016
59	0xbc02fd1b	-0.007994915
60	0x3c8808e2	0.016605798
61	0x3c2c0224	0.010498557
62	0x3b89297d	0.004185854
63	0x3c5c615f	0.013450949
64	0x3c1e7eeb	0.009673814
65	0xbbcc9bef	-0.0062441747
66	0x3c3893f8	0.011265747
67	0x3c550593	0.013001817
68	0x3b628884	0.0034566233
69	0xbcd392c1	-0.025826814
70	0x3bfce61b	0.0077178604
71	0x3cdd0370	0.026979178
72	0x3ce06869	0.027393537
73	0x3a83e2ca	0.0010062095
74	0x3c5f59d6	0.013632258
75	0x3ce30ffa	0.02771758
76	0xbc891332	-0.016732786
77	0x3c9ce29b	0.019151023
78	0x3bb7665d	0.0055969195
79	0x3cc7491f	0.024326859
80	0x3cdafd05	0.026731977
81	0x3c156baf	0.009119912
82	0x3c065aca	0.008200357
83	0x3d18f48d	0.037342597
84	0x3c2c68ec	0.010523062
85	0xbc0bb1d3	-0.008526283
86	0x3ba3574b	0.0049847714
87	0x3b9c719c	0.0047742855
88	0x3ca07770	0.019588202
89	0x3cb96a4d	0.022633696
90	0x3d31d4b3	0.043415736
91	0xbc49c0d1	-0.012314037
92	0x3c617bb9	0.013762408
93	0xbc88444c	-0.016634129
94	0xbc96869d	-0.018374735
95	0x3ca06953	0.019581473
96	0xbb85963f	-0.0040767486
97	0x3be47928	0.0069724508
98	0xbc9a07ec	-0.018802606
99	0x3c43fc1f	0.011961966
100	0x3cd4bbb1	0.025968404
101	0xbbf3e1e9	-0.007442702
102	0x3cb42464	0.021990009
103	0x3bd92386	0.006626549
104	0x3bd5eedb	0.006528718
105	0x3bb2b21c	0.005453361
106	0x3d216e71	0.039411966
107	0x3d06228f	0.0327478
108	0xbc96fc8f	-0.018430976
109	0x3cdf614d	0.027268076
110	0x3a12db06	0.0005602095
111	0xbc942bb1	-0.01808724
112	0x3cb505c7	0.022097481
113	0x3d07e1fd	0.033174504
114	0x3c632b45	0.013865297
115	0xba907149	-0.001102009
116	0xba890257	-0.0010452968
117	0xbb4a8aad	-0.003090541
118	0x3bf9ae0e	0.007619626
119	0xbc65fbde	-0.014037101
120	0x3cfdb7de	0.030971464
121	0x3c5581ed	0.013031465
122	0x3b27ac45	0.0025584858
123	0x3c2dc3a2	0.0106057245
124	0x3cb17f23	0.021667069
125	0x3d0530dc	0.0325173
126	0x3cae6815	0.021289865
127	0xba734ca2	-0.00092811335

network_body.linear_encoder.seq_layers.2.weight f4 [128, 128]
0	0xbd78924a	-0.060686387
1	0x3dfa1fb3	0.122130774
2	0xbde88292	-0.11353029
3	0x3e6b1845	0.22958477
4	0xbe265bf7	-0.1624602
5	0xbd99f856	-0.075180694
6	0x3c005e8e	0.007835044
7	0x3e5a34df	0.21309231
8	0xbc9d59cb	-0.019207856
9	0xbd66b6f7	-0.056326833
10	0x3daa6763	0.08320501
11	0x3d4d9c53	0.05019791
12	0xbe3c0ad5	-0.18363507
13	0x3de1b577	0.1102094
14	0xbd979292	-0.07401003
15	0x3d9794f1	0.07401455
16	0xbdbc4a22	-0.09193827
17	0x3d1fe862	0.039039977
18	0xbc445141	-0.011982263
19	0x3e290c43	0.16508584
20	0xbd8b814d	-0.068117715
21	0x3dc1acd3	0.09456792
22	0x3d13096c	0.035897657
23	0xbe28502d	-0.16436835
24	0xbe116e4e	-0.14202234
25	0xbceb9e25	-0.028761933
26	0x3bee7970	0.00727766
27	0x3dd30083	0.10302832
28	0x3e0a9d8b	0.1353666
29	0x39b853c0	0.00035157613
30	0xbceb204c	-0.028701924
31	0x3d12715a	0.03575263
32	0x3dbc6c35	0.09200326
33	0xbcbc8b73	-0.023015713
34	0xbdd1b23e	-0.10239075
35	0x3d9b6e28	0.0758937
36	0xbd319f82	-0.04336501
37	0x3eb0339a	0.3441437
38	0x3ddc01a2	0.10742499
39	0xbdc95314	-0.09830299
40	0x3d0efc2f	0.03490847
41	0xbb9eb9a5	-0.004843908
42	0x3e339228	0.17536223
43	0x3d2cc76a	0.042182364
44	0xbdfb9a8a	-0.12285335
45	0xbe35be33	-0.17748336
46	0x3e63fe7b	0.22265045
47	0xbc5f63e2	-0.013634654
48	0x3cc96b9d	0.024587447
49	0x3d707b32	0.05871124
50	0x3dbcf9b1	0.09227312
51	0x3b2abc92	0.0026052338
52	0xbe077683	-0.13228802
53	0xbc1cd764	-0.0095728375
54	0x3d411ea5	0.047148366
55	0xbe24972d	-0.16073294
56	0x3ca24d8b	0.019812366
57	0x3d0b4a99	0.03400669
58	0xbd09c2ce	-0.033633046
59	0x3d1ed963	0.038781535
60	0x3decaa0c	0.11555871
61	0x3e518964	0.20462567
62	0x3c573a8c	0.013136517
63	0x3d7d4ca3	0.061840665
64	0x3e1a60a9	0.15075935
65	0x3e3629b9	0.17789353
66	0xbdb6e134	-0.08929673
67	0x3d9b5822	0.075851694
68	0xbd74dd8a	-0.05978159
69	0x3da22ee7	0.07919102
70	0x3d3d109d	0.04615842
71	0xbe0a25c1	-0.13490964
72	0x3d88ad1a	0.066736415
73	0x3e197fb0	0.14990115
74	0xbc527e8c	-0.012847554
75	0x3d771979	0.060327027
76	0x3cc9a5b7	0.024615152
77	0xbba2384b	-0.0049505583
78	0x3b9b83be	0.0047459295
79	0xbd8eeddf	-0.06978964
80	0xbdff13b5	-0.12454931
81	0x39068483	0.000128286
82	0xbdd8d7f0	-0.10588062
83	0x3cbb8fd8	0.022895738
84	0x3dca75bf	0.098857395
85	0x3dbc8899	0.092057414
86	0xbd8d2b41	-0.06893016
87	0xbd025cea	-0.03182689
88	0x3e41b31b	0.1891598
89	0xbe720761	-0.23635627
90	0xbdb90e87	-0.09035974
91	0x3cb32a33	0.021870708
92	0x3e512acd	0.20426483
93	0x3e20d42d	0.15705939
94	0xbc460df9	-0.012088292
95	0xbd01f2ca	-0.031725682
96	0x3a96a857	0.0011494261
97	0x3d719186	0.058976673
98	0x3d33714d	0.043809224
99	0x3e222d61	0.15837623
100	0xbd87c56b	-0.06629451
101	0x3dcbcf0e	0.09951602
102	0x3d23b6c7	0.039969232
103	0xbe1465f6	-0.1449202
104	0x3d0fe7b5	0.035133082
105	0xbd46aec7	-0.048506524
106	0x3bc5ccbb	0.0060363687
107	0xbda85f19	-0.082212634
108	0xbe413943	-0.188695
109	0xbe248c54	-0.16069156
110	0x3e13bd94	0.14427787
111	0xbe3cf04e	-0.18451044
112	0x3d78caa3	0.060740124
113	0xbe5cde9c	-0.21569294
114	0x3d11a115	0.03555401
115	0x3da85b9e	0.082205996
116	0xbd89bdc7	-0.0672565
117	0x3d249c9e	0.040188424
118	0xbcc98955	-0.024601618
119	0xba2cd2ff	-0.000659272
120	0x3dadd91b	0.08488675
121	0x3d1f8bec	0.0389518
122	0xbdf978c0	-0.12181234
123	0x3e544616	0.2072986
124	0x3d8d31b1	0.068942435
125	0xbe09a88f	-0.13443206
126	0xbcab280f	-0.020893125
127	0xbbac4eb8	-0.0052584074
128	0x3d1cf25f	0.03831708
129	0x3e238983	0.15970425
130	0x3dabd4bb	0.083901845
131	0xbe156970	-0.14591002
132	0xbd119a30	-0.035547435
133	0xbdc5b2ec	-0.09653267
134	0x3d01d41d	0.031696428
135	0xbbd1a9f9	-0.006398436
136	0x3c5074a9	0.012723126
137	0xbcc4a404	-0.02400399
138	0x3b906a07	0.0044071707
139	0xbd0304fc	-0.031987175
140	0x3cc81497	0.02442388
141	0x3d5e78c7	0.0543144
142	0x3cc5602c	0.02409371
143	0xbddbbf3f	-0.10729837
144	0xbe1c8ec8	-0.15288842
145	0x3da90832	0.08253516
146	0xbe24ef77	-0.16106974
147	0xbc5e34e7	-0.013562418
148	0x3c8dafb4	0.017295696
149	0x3e3279e0	0.17429304
150	0x3c8670fd	0.016411299
151	0xbd6c5e37	-0.057707038
152	0xbc16d7fe	-0.00920677
153	0x3d2b206d	0.04177897
154	0xbd9fe18a	-0.0780669
155	0x3db5abda	0.08870669
156	0x3d4dde54	0.050260857
157	0xbda494e4	-0.08036211
158	0xbd69bab9	-0.05706284
159	0x3e6870b0	0.22699237
160	0xbe476c9e	-0.19475028
161	0x3c5a5097	0.013324878
162	0x3df5f1d5	0.120090164
163	0x3da22ee4	0.079191
164	0x3ba79828	0.005114574
165	0x3e450818	0.19241369
166	0x3baa133e	0.005190282
167	0xbe1d9c73	-0.15391712
168	0x3d75eb90	0.060039103
169	0x39ddfb85	0.000423398
170	0xbd8611b2	-0.06546344
171	0x3ddd96e4	0.10819796
172	0x3d0983ed	0.03357308
173	0xbda9005e	-0.08252023
174	0x3e0cd05e	0.13751361
175	0xbdaeaac9	-0.085286684
176	0x3de802b5	0.11328641
177	0x3e1e5fa2	0.15466169
178	0xbd36a08d	-0.044586707
179	0xbd1e3880	-0.0386281
180	0xbad192f8	-0.0015989235
181	0x3be46fb4	0.006971324
182	0xbde03c8a	-0.10949047
183	0xbcda1b01	-0.026624205
184	0xbd80f490	-0.062966466
185	0xbdccaab0	-0.099934936
186	0xbb8306cd	-0.0039986135
187	0xbd5172ea	-0.05113498
188	0x3d98384e	0.07432614
189	0xbd02735e	-0.031848304
190	0xbe412ab0	-0.1886394
191	0x3d213f63	0.03936709
192	0x3c654251	0.013992862
193	0x3dd42ca5	0.10360078
194	0xbe8b29e8	-0.2718041
195	0x3c1ee51c	0.009698179
196	0x3d23a16c	0.039948866
197	0xbbc96923	-0.0061465665
198	0xbd06cdb3	-0.032911014
199	0x3df6c8e0	0.120500326
200	0x3dbfdd85	0.09368423
201	0x3dc34b1a	0.09535809
202	0x3d88356d	0.06650815
203	0xbe035f0d	-0.12829228
204	0x3d8ba1a4	0.0681794
205	0xbd02b7ef	-0.031913694
206	0x3d33f958	0.043938965
207	0xbd70ee96	-0.058821283
208	0x3ca55fc8	0.020187274
209	0xbc82c446	-0.015962731
210	0xbd183c1b	-0.037166696
211	0xbd2bb755	-0.041922886
212	0xbd191865	-0.03737678
213	0xbd5360a7	-0.051605847
214	0xbd3eaa61	-0.046549205
215	0xbda23c16	-0.07921617
216	0xbcba94d2	-0.022776041
217	0xbd94444e	-0.072395906
218	0xbc8e7f9d	-0.017394835
219	0x3e383f5c	0.1799292
220	0x3d909716	0.07060067
221	0x3cb01204	0.021492966
222	0x3dbcd8fc	0.09221074
223	0x3da182f0	0.078863025
224	0x3cad0a68	0.021123126
225	0x3cee20e4	0.029068418
226	0x3d936e23	0.07198741
227	0x3d014209	0.031557117
228	0xbc5c3c31	-0.013442085
229	0x3cf54441	0.029939773
230	0x3c2c947d	0.010533449
231	0x3b976bbc	0.0046209972
232	0x3dd5e724	0.10444477
233	0xbe4ab22c	-0.1979453
234	0xbcadd7e5	-0.02122111
235	0x3d203474	0.039112523
236	0xbdd0c905	-0.101945914
237	0x3ada29bb	0.0016644517
238	0x3d8079e2	0.06273247
239	0xbc32f6df	-0.0109231165
240	0x3df55d49	0.11980683
241	0xbc7231f3	-0.014782417
242	0x3d8312f0	0.064000964
243	0x3ba22074	0.0049477164
244	0xbdcf0c94	-0.10109821
245	0xbca37ff3	-0.019958472
246	0x3d81ccbf	0.0633788
247	0xbd137cad	-0.036007572
248	0x3da3bd8d	0.07995138
249	0xbcec035f	-0.028810201
250	0x3e01d1a4	0.12677628
251	0xbc4b5336	-0.012409976
252	0xbc107455	-0.008816798
253	0xbe15d293	-0.14631109
254	0xbd675c5e	-0.056484573
255	0xbd8ebf35	-0.069700636
