Config/results/Env_PPO_10/EnvironmentAgentBehavior/EnvironmentAgentBehavior-18499968.onnx (onnx, 913156 bytes, 11 tensors)

action_model._discrete_distribution.branches.0.bias f4 [10]
-0.062510364 0.019450348 0.007321377 0.04159662 0.03080514 0.06260633 0.024346625 0.00815468
-0.061796818 -0.06551571
00000000: 6f05 80bd 5656 9f3c 29e8 ef3b 3861 2a3d
00000010: 105b fc3c bf37 803d 9372 c73c 359b 053c
00000020: a91e 7dbd 1a2d 86bd

action_model._discrete_distribution.branches.0.weight f4 [10, 256]
0.010734827 -0.08542228 0.076759346 -0.054770846 0.040994674 0.10210053 0.043474507 -0.21971135
-0.006384141 0.01817358 -0.023690986 0.047651436 0.092626944 0.094025806 -0.009700033 -0.009889207
-0.059821323 0.10526848 0.10079539 0.08864731 -0.067510016 -0.038828343 -0.06807304 0.0675086
0.020278776 0.07681388 0.0540672 -0.05950335 0.022700366 -0.055643532 0.0075065787 -0.030701809
0.08544712 -0.15078245 0.06643658 0.13235337 -0.015316989 0.11055097 0.004161108 0.033874363
0.12393889 0.13425098 -0.21680145 0.017550902 -0.07758917 -0.15994397 -0.053990245 0.089160815
-0.12847021 0.11221331 0.0075703203 0.0798214 -0.023820248 0.029630328 0.002934564 0.05791644
0.062243536 -0.081610136 0.06817009 0.038165465 -0.008812831 0.111797474 0.029443637 -0.015605002
-0.009946677 0.054542013 0.0061135287 0.24051118 0.20956166 -0.0033460464 0.12025524 0.03126042
0.044513293 -0.08776031 0.020702943 -0.034326877 0.08091733 0.07952871 0.047170784 0.07897127
0.07902183 0.020118495 -0.099350706 0.0068301656 0.052016754 -0.1023669 -0.03615459 -0.009451971
0.014262791 0.092938885 0.08588357 -0.049956024 0.08982022 0.037886955 -0.08742718 0.07455924
0.009736852 0.026782589 0.104821816 -0.018264001 -0.1857523 0.035851654 -0.013787045 0.098437734
0.05008629 0.016633889 -0.054011166 -0.02781361 0.108733945 0.02837895 0.086327575 -0.077706136
-0.0023092618 -0.036959957 0.032775316 -0.022082295 0.07291712 0.0027634695 -0.112772696 0.016895276
-0.061905723 -0.048816383 0.07248476 0.0038219579 0.08739355 -0.04729571 0.00600987 -0.063768744
0.0696507 0.1435039 -0.029817984 0.05982524 0.026515847 0.06953906 0.07957394 -0.0042224843
0.12523793 0.020589817 0.121036634 0.09583348 0.045716636 -0.010672648 0.056319922 0.0081123235
0.107949056 -0.05266911 -0.0068826326 0.0417762 0.032039173 -0.013243784 0.029037539 0.028551897
-0.120143846 0.016555289 -0.11097705 0.027935088 -0.0503851 -0.018546008 0.050520744 0.010338847
-0.07303947 0.19316767 -0.0011109652 0.13283624 0.14739703 -0.06366117 0.05233847 0.019017901
-0.028765913 0.011994861 -0.03132829 0.067753606 0.12672971 0.049105577 0.06619248 0.083955474
0.031785104 -0.046624884 -0.17637235 -0.045392983 0.07790315 0.108089425 -0.116885185 -0.14819638
-0.036904823 -0.023237208 0.0773812 -0.06619213 -0.09390879 0.027644658 0.18860687 0.06939337
0.08146513 0.019577947 -0.192355 -0.09591762 0.017248543 0.1872928 -0.05507115 0.05802839
-0.08618011 0.0696163 -0.12204722 0.054097526 0.025070997 -0.024038495 -0.0076717394 -0.035193067
0.10290076 0.007547416 0.009514673 -0.01629543 0.057372384 0.0356915 0.21786393 0.124481395
-0.029257346 -0.041613672 0.021561986 0.027892241 0.09542207 0.0306854 0.08484603 -0.15911512
0.057769973 -0.1087922 0.02851386 -0.0726325 -0.07324737 0.052316107 0.028840018 -0.022999788
-0.0276624 0.07901305 0.06529386 0.036859907 -0.056226436 0.04733101 0.02901701 0.03846583
0.006125466 -0.154607 -0.0066247466 -0.050573763 0.02063729 0.062099952 0.20877922 0.0063145254
0.0693196 -0.033283632 -0.18702714 0.05167934 0.08203796 -0.0672913 0.21125942 0.101613835
00000000: 21e1 2f3c e0f1 aebd 0134 9d3d 6557 60bd
00000010: 08ea 273d 151a d13d 5312 323d 03fc 60be
00000020: 0e32 d1bb c2e0 943c 9913 c2bc 272e 433d
00000030: 32b3 bd3d 9a90 c03d e3ec 1ebc 5706 22bc
00000040: 3407 75bd 0097 d73d d06d ce3d b98c b53d
00000050: b142 8abd 780a 1fbd e169 8bbd f341 8a3d
00000060: ad1f a63c 9850 9d3d 9175 5d3d c9b9 73bd
00000070: 1ef6 b93c 79ea 63bd bff9 f53b 5c82 fbbc
00000080: e6fe ae3d b766 1abe e70f 883d a487 073e
00000090: 1cf4 7abc 8c68 e23d e759 883b d8bf 0a3d
000000a0: acd3 fd3d 1779 093e 3301 5ebe e9c6 8f3c
000000b0: 12e7 9ebd 5ac8 23be e024 5dbd f299 b63d
000000c0: b28d 03be 18d0 e53d 7310 f83b 6779 a33d
000000d0: ae22 c3bc 4dbb f23c d051 403b ca39 6d3d
000000e0: 14f3 7e3d 3723 a7bd c39c 8b3d 6453 1c3d
000000f0: b163 10bc 13f6 e43d c833 f13c 1fac 7fbc
00000100: 63f7 22bc 7267 5f3d ff53 c83b 9048 763e
00000110: 5597 563e 5849 5bbb 6148 f63d ed0a 003d
00000120: 9253 363d adbb b3bd 3899 a93c 579a 0cbd
00000130: fcb7 a53d f3df a23d 2736 413d b0bb a13d
00000140: 32d6 a13d 8bcf a43c 6278 cbbd 95cf df3b
00000150: 850f 553d bda5 d1bd d616 14bd 71dc 1abc
00000160: 7bae 693c be56 be3d bae3 af3d b09e 4cbd
00000170: aaf3 b73d 5a2f 1b3d 050d b3bd 84b2 983d
00000180: 5187 1f3c 2967 db3c d2ac d63d 639e 95bc
00000190: da35 3ebe 2fd9 123d 0fe3 61bc b999 c93d
000001a0: 4827 4d3d cb43 883c d03a 5dbd 5ed9 e3bc
000001b0: e7af de3d f97a e83c 83cc b03d 6524 9fbd
000001c0: fc56 17bb 5363 17bd 693f 063d eee5 b4bc
000001d0: 9255 953d 531b 353b 5ff5 e6bd f667 8a3c
000001e0: db90 7dbd b0f3 47bd e472 943d d079 7a3b
000001f0: 64fb b23d 25b9 41bd 72ee c43b 3099 82bd
00000200: 07a5 8e3d b0f2 123e d844 f4bc 500b 753d
00000210: c337 d93c 7f6a 8e3d a9f7 a23d c45c 8abb
00000220: 5f3e 003e faab a83c 0ee2 f73d 5844 c43d
00000230: 5e41 3b3d 55dc 2ebc b8af 663d 8de9 043c
00000240: 6514 dd3d 91bb 57bd b587 e1bb 851d 2b3d
00000250: 823b 033d 75fc 58bc 22e0 ed3c abe5 e93c
00000260: fa0d f6bd f59e 873c f047 e3bd 20d8 e43c
00000270: 9b60 4ebd cced 97bc d7ee 4e3d 4464 293c
00000280: b895 95bd bfcd 453e ce9d 91ba 3906 083e
00000290: 3fef 163e ca60 82bd dd60 563d 6ecb 9b3c
000002a0: 7ea6 ebbc 1886 443c 1852 00bd 67c2 8a3d
000002b0: 6fc5 013e ee22 493d ec8f 873d d9f0 ab3d
000002c0: 1931 023d bcf9 3ebd f49a 34be feed 39bd
000002d0: b08b 9f3d fd5d dd3d 8061 efbd cbc0 17be
000002e0: 8329 17bd f55b bebc 097a 9e3d bd8f 87bd
000002f0: 4053 c0bd 0d77 e23c 2922 413e 1c1e 8e3d
00000300: 31d7 a63d ee61 a03c b6f8 44be 7570 c4bd
00000310: d14c 8d3c afc9 3f3e 4992 61bd 2daf 6d3d
00000320: 337f b0bd fe92 8e3d e5f3 f9bd 5e95 5d3d
00000330: b161 cd3c 61ec c4bc 3763 fbbb 9b26 10bd
00000340: a2bd d23d 5050 f73b 6ee3 1b3c fe7d 85bc
00000350: 4eff 6a3d 4031 123d b917 5f3e 1af0 fe3d
00000360: 1aad efbc 1973 2abd c3a2 b03c 457e e43c
00000370: a56c c33d f35f fb3c c1c3 ad3d 13ef 22be
00000380: 35a0 6c3d 72ce debd e695 e93c 59c0 94bd
00000390: b802 96bd 6a49 563d e741 ec3c 0d6a bcbc
000003a0: 429c e2bc 98d1 a13d cab8 853d 6afa 163d
000003b0: b14d 66bd 29de 413d 15b5 ed3c 598e 1d3d
000003c0: 22b8 c83b 4c51 1ebe 6714 d9bb 6f26 4fbd
000003d0: 890f a93c 855c 7e3d 38ca 553e 14ea ce3b
000003e0: 6ff7 8d3d 6b54 08bd 0b84 3fbe b7ad 533d
000003f0: 8503 a83d 05d0 89bd 6454 583e ea1a d03d

action_model._discrete_distribution.branches.1.weight f4 [1, 256]
0.011366977 0.014544 -0.0072616893 0.008010786 0.007416775 0.00035284855 -0.006451906 0.008612994
-0.010229457 0.010568234 -0.0019291533 -0.0033075113 -0.0014778628 -0.004171432 0.013583138 0.0043109027
-0.0014892358 -0.007306983 0.0031812028 0.007677294 0.0068380064 -0.008891744 -0.0063463296 0.005240407
0.0024215851 0.011052134 -0.00030029772 0.0057544033 0.0062842327 -0.00294383 0.001160113 -0.00072509714
-0.010194502 -0.0017680852 0.0040271 -0.0029552 0.006786307 -0.016025603 -0.004624631 -0.0021926553
0.0026000876 -5.8297122e-05 0.004255574 -0.0023509662 -0.006343953 0.0018975784 0.016385136 0.006005855
-0.0007929519 -0.011342305 0.0062835324 0.005751045 0.000104836676 0.0019959998 -0.004036006 0.014146741
0.011270762 0.0051040947 0.0018575595 0.001770391 -0.002748376 0.0053002723 -0.005973372 0.0001818347
0.0059166853 -0.00624507 -0.0050672577 0.00727939 0.0011689464 -0.0054080444 -0.008563193 0.0006231332
0.0051971795 0.024486553 -0.0045798267 -0.0022067414 0.00024244409 0.009719062 -0.011139142 -0.005894678
0.0051790006 0.008308012 0.0043271724 -0.004400707 0.0045054075 -0.00050873234 9.909291e-05 -0.0020600026
0.0039809514 -0.008842537 -0.00948812 -0.006602178 0.007320951 0.0058461907 -0.002293059 0.00420527
0.0008001844 -0.0006270663 0.0011721065 0.0005742906 0.0021316074 -0.0016750826 0.0013846246 0.0011684676
0.005638473 -0.0020956097 0.0018514965 -0.0004619831 0.0065323273 -0.0053595044 0.003923831 -0.0017901926
0.004686899 0.0019921411 -0.0017636862 0.008785372 -0.0012728438 0.00031413275 0.009753765 0.010739067
0.0028508673 -0.0025306207 -0.0045088707 -0.0045284764 -0.0025829447 0.0007474287 -0.004151718 -5.8329865e-06
0.007153097 0.011582102 0.0021944186 -0.002397062 0.008817701 0.0031094416 -0.006422553 0.0022020102
0.0016896966 0.0042508817 0.0017281622 -0.003790856 0.010781507 -0.009710604 0.00776774 0.006276775
0.000994578 -0.0036994498 -0.012976013 -0.004874283 0.0063639814 0.0017037826 -0.0019080046 0.014186585
0.0029976023 0.00052544905 0.0008430962 -0.009405768 0.0023058197 0.0072378865 0.0038792936 -0.0068833493
-0.0070145964 0.0027084213 0.0056692045 -0.012487068 0.0042793816 0.002115258 -0.001892603 0.011981484
0.0039575635 -0.0012796762 -0.006533615 -0.0027156826 0.0026605106 -0.015468324 -0.0027630697 7.449352e-05
-0.0032760536 -0.00032119759 0.010653179 -0.0007221689 0.00062116625 -0.007131605 -0.020074032 -0.004996718
-0.0037485634 0.0028472904 0.0007749233 0.0081732115 0.014018719 0.006110503 0.0034433142 0.0040762373
0.0016967145 -0.00088793086 -0.0066197775 -0.005434588 0.0018011623 0.004696504 0.0076503023 -0.0019281879
0.0008017276 0.0052434118 0.0069905194 -0.0060312226 -0.004482142 0.011190147 -0.0041811964 0.0042067175
0.001575649 -0.004852397 0.0065699625 0.0051696184 0.0034824812 0.0039035857 -0.0051373034 0.0025427805
0.0016117067 -0.0074665956 -0.003969764 -0.0051488928 -0.01235296 0.0025624165 0.015307021 0.00037981963
0.009168351 -0.015699837 0.0012844128 0.001618927 0.006632864 -0.006876185 -0.002043193 0.003923628
-0.0005986443 -0.006598234 -0.008841728 0.0050392733 -0.009478542 -0.0050111567 0.0068059154 -0.017065017
0.01303587 -0.005277121 0.0002850837 0.0024208026 0.014445178 -0.012345343 -0.017688233 0.002997056
0.0052095368 0.0014085522 0.009336365 -0.007897888 -0.0109775085 -0.015571021 0.006382003 -0.0024585843
00000000: 8f3c 3a3c f549 6e3c 77f3 edbb ac3f 033c
00000010: 6b08 f33b 88fe b839 836a d3bb 841d 0d3c
00000020: 7499 27bc 6326 2d3c a5db fcba d5c2 58bb
00000030: d9b4 c1ba 82b0 88bb cf8b 5e3c 7942 8d3b
00000040: 7632 c3ba 6b6f efbb ba7b 503b cf91 fb3b
00000050: 5b11 e03b adae 11bc dff4 cfbb b8b7 ab3b
00000060: 75b3 1e3b 0314 353c 4771 9db9 6f8f bc3b
00000070: f7eb cd3b 46ed 40bb ef0e 983a 7214 3eba
00000080: d706 27bc 18bf e7ba c3f5 833b 07ac 41bb
00000090: ab5f de3b 2048 83bc 378a 97bb a7b2 0fbb
000000a0: 3b66 2a3b 0f84 74b8 5872 8b3b ab12 1abb
000000b0: efe0 cfbb 2ab8 f83a 1f3a 863c c3cc c43b
000000c0: 1ade 4fba 13d5 39bc 17e6 cd3b 4373 bc3b
000000d0: c3db db38 52cf 023b 7940 84bb bbc7 673c
000000e0: 01a9 383c 4040 a73b 5b79 f33a 770c e83a
000000f0: 191e 34bb e8ad ad3b 47bc c3bb e1aa 3e39
00000100: c1e0 c13b 72a3 ccbb 3d0b a6bb f387 ee3b
00000110: 5537 993a f735 b1bb a24c 0cbc c359 233a
00000120: 1a4d aa3b 0698 c83c 5f12 96bb fa9e 10bb
00000130: 9738 7e39 b33c 1f3c f380 36bc 2528 c1bb
00000140: 9bb4 a93b 541e 083c f4ca 8d3b ce33 90bb
00000150: 19a2 933b 735c 05ba 1ad0 cf38 1c01 07bb
00000160: a472 823b 4ae0 10bc 0f74 1bbc 1557 d8bb
00000170: 97e4 ef3b 6791 bf3b 2547 16bb 5dcc 893b
00000180: 77c3 513a b561 24ba 5ea1 993a fd8b 163a
00000190: 70b2 0b3b 728e dbba 4b7c b53a 4427 993a
000001a0: f1c2 b83b 7f56 09bb eaad f23a 5236 f2b9
000001b0: 220d d63b c89e afbb 7b93 803b e5a4 eaba
000001c0: 8f94 993b 958e 023b 7d2b e7ba 85f0 0f3c
000001d0: 8dd5 a6ba 2fb2 a439 41ce 1f3c e9f2 2f3c
000001e0: 9ed5 3a3b c5d8 25bb 26bf 93bb 9d63 94bb
000001f0: 9f46 29bb 17ef 433a 230b 88bb f9b8 c3b6
00000200: 8764 ea3b dbc2 3d3c 3cd0 0f3b 0718 1dbb
00000210: 1e78 103c c6c7 4b3b 4874 d2bb 9a4f 103b
00000220: cf78 dd3a fb4a 8b3b 8083 e23a 0370 78bb
00000230: eba4 303c 3a19 1fbc 8788 fe3b 68ad cd3b
00000240: 805c 823a 7872 72bb 5899 54bc 73b8 9fbb
00000250: f288 d03b 7551 df3a 0316 faba da6e 683c
00000260: 6c73 443b 4abe 093a 3a03 5d3a a61a 1abc
00000270: 3c1d 173b cb2b ed3b bf3b 7e3b b88d e1bb
00000280: b3da e5bb c57f 313b bcc4 b93b 8f96 4cbc
00000290: 0e3a 8c3b 24a0 0a3b 3811 f8ba fc4d 443c
000002a0: 73ae 813b cfba a7ba ef17 d6bb 98f9 31bb
000002b0: f65b 2e3b da6e 7dbc 9e14 35bb 6739 9c38
000002c0: 0fb3 56bb 6966 a8b9 ac8a 2e3c ef4f 3dba
000002d0: c3d5 223a 3db0 e9bb 4c72 a4bc 82bb a3bb
000002e0: 75aa 75bb 9b99 3a3b 3924 4b3a efe8 053c
000002f0: c5ae 653c 9d3a c83b 3aa9 613b f591 853b
00000300: 4b64 de3a 08c4 68ba b8ea d8bb a114 b2bb
00000310: fa14 ec3a 22e5 993b 63af fa3b 40bb fcba
00000320: 072b 523a edd0 ab3b ba10 e53b 90a1 c5bb
00000330: efde 92bb e156 373c 6b02 89bb 81d8 893b
00000340: 0286 ce3a db00 9fbb d748 d73b e765 a93b
00000350: 573a 643b 4dd3 7f3b d356 a8bb c7a4 263b
00000360: e73f d33a 58aa f4bb cb14 82bb 0bb8 a8bb
00000370: 1264 4abc 37ee 273b 4dca 7a3c 8722 c739
00000380: da36 163c f29c 80bc be59 a83a 2d32 d43a
00000390: 7f58 d93b 9f51 e1bb 17e7 05bb c791 803b
000003a0: 57ee 1cba 0036 d8bb e5dc 10bc 7d20 a53b
000003b0: e34b 1bbc a134 a4bb 2804 df3b efcb 8bbc
000003c0: 6794 553c b3eb acbb 4977 9539 54a6 1e3b
000003d0: 78ab 6c3c 1f44 4abc eae6 90bc 426a 443b
000003e0: c3b4 aa3b 2b9f b83a 8ef7 183c 2566 01bc
000003f0: 02db 33bc 981d 7fbc 1f20 d13b 3320 21bb

action_model._discrete_distribution.branches.2.bias f4 [10]
-0.12473446 0.023141585 0.042702235 0.019370679 0.0054601016 0.07008273 0.026879061 -0.012602318
-0.02120843 -0.03077075
00000000: c874 ffbd 6c93 bd3c 8ae8 2e3d 42af 9e3c
00000010: a7ea b23b 8987 8f3d 7a31 dc3c f479 4ebc
00000020: 4dbd adbc f112 fcbc

action_model._discrete_distribution.branches.2.weight f4 [10, 256]
-0.09967877 0.045494348 -0.050584786 0.094330296 0.055277497 0.06562341 0.016875852 -0.09533931
-0.0065855356 0.04358021 -0.07333084 0.05938157 0.023492044 0.03893082 0.04150756 0.044762675
0.013277022 -0.07829879 -0.034774914 -0.015120679 -0.13515301 0.04960499 -0.006639055 0.03070724
-0.046364505 0.049353722 0.051872235 -0.026487472 -0.15361495 0.121140994 -0.036639646 0.078896396
-0.01650633 -0.116201274 0.11972494 -0.064616635 -0.0006239308 -0.029861296 0.106333286 -0.030220585
0.028077526 -0.08491196 -0.0988422 -0.059133455 -0.0015576781 -0.09091665 0.069722116 0.12585181
0.027026946 -0.053461727 0.020023458 0.004274806 0.032316346 -0.005382687 0.06428301 0.085473105
-0.013648871 -0.045974307 -0.10228421 0.12028325 -0.09619589 0.12720822 -0.01504143 0.1096559
-0.02574718 0.055592366 -0.0718609 0.047157746 -0.100378454 -0.030421486 0.031762693 -0.041243978
0.043623827 -0.12923573 -0.09791692 0.028698076 0.08524731 0.21585849 0.056823976 0.107405856
0.08944364 0.08961033 -0.13962361 -0.13453853 0.0011519395 0.13495219 0.092182755 -0.077983804
-0.04004621 0.12294791 0.10311433 0.11200561 -0.1463269 -0.042909477 -0.0655008 -0.024534678
0.06413494 -0.037080336 0.07379359 0.05619801 -0.09538859 0.04780157 0.06720836 0.035282332
-0.043188147 0.11257317 0.251954 0.025363246 -0.006849781 0.038097046 -0.0034400192 0.1392787
-0.17439021 -0.09530793 0.1230761 0.0020498957 0.039957512 0.019370787 0.019674657 0.12715802
0.0180659 0.031212483 0.0062898602 -0.042389542 -0.026301859 -0.088826284 -0.015178999 0.18445118
-0.04310002 -0.017582582 0.045376446 -0.037567526 0.046855267 0.124114946 -0.026579956 0.07957833
0.086756214 0.0010193988 -0.020336203 0.12209742 0.030842701 0.09880969 -0.0011916668 0.11689591
0.030985609 -0.08293051 0.08794867 0.09321551 0.05183559 -0.012525369 0.016107887 -0.033159044
-0.10187713 0.03554301 -0.089756206 0.10845824 -0.01946912 -0.12620729 0.07861448 0.07223999
0.050854202 0.09509788 0.11190672 0.06496667 0.0048416513 0.069765165 0.05173764 0.047697328
-0.01607132 0.11123524 -0.13492347 0.0064119496 0.06900385 0.05326751 -0.04604925 -0.105743505
0.075072475 -0.11014706 0.010464124 -0.0025161428 0.061721418 0.034113094 -0.0083545325 0.11179363
0.08542943 0.09504852 -0.0011900936 -0.022585362 -0.064172335 0.15024567 0.02658999 -0.008816447
-0.105947845 0.04396 -0.037401583 -0.006771554 0.076597616 -0.03964407 0.0007622133 0.045893196
0.10892732 0.06454559 -0.06368983 0.09919664 0.04677973 0.15978825 0.038445707 -0.019675042
0.026386006 0.05015642 -0.0048598116 -0.027929299 -0.031896662 0.0075470395 0.10305993 0.06273263
-0.00984689 -0.014545557 0.06278697 -0.0040427335 0.051153436 0.18380341 0.059329644 0.052507646
0.04735577 0.05068263 0.123882525 0.061136078 -0.08020345 0.111374944 0.021743216 0.044499483
-0.058512513 -0.0726037 0.059764966 0.006038176 0.025381308 0.08844007 0.015590827 0.016486356
-0.02721497 0.05570154 0.08353899 0.038127366 -0.028645813 0.060100116 0.015683206 0.09122356
0.03587821 0.016959587 -0.2196947 0.082615525 0.09333216 0.23838937 0.1013755 0.024796017
00000000: 6224 ccbd 4858 3a3d fe31 4fbd 3e30 c13d
00000010: a86a 623d 9165 863d 3a3f 8a3c 4241 c3bd
00000020: 7acb d7bb 2a81 323d 7b2e 96bd 173a 733d
00000030: 6372 c03c ec75 1f3d d503 2a3d 1159 373d
00000040: de87 593c 1e5b a0bd 2470 0ebd b9bc 77bc
00000050: 8d65 0abe 9a2e 4b3d 6e8c d9bb c08d fb3c
00000060: b5e8 3dbd 2127 4a3d fb77 543d 41fc d8bc
00000070: 3d4d 1dbe c518 f83d 7413 16bd 6f94 a13d
00000080: 4838 87bc effa edbd 5932 f53d ba55 84bd
00000090: 4a8f 23ba ad9f f4bc 44c5 d93d 2991 f7bc
000000a0: d702 e63c 52e6 adbd c86d cabd ec35 72bd
000000b0: 012b ccba 8232 babd 78ca 8e3d 4cdf 003e
000000c0: 9d67 dd3c affa 5abd 3c08 a43c ac13 8c3b
000000d0: 255e 043d 4061 b0bb d0a6 833d 860c af3d
000000e0: 849f 5fbc 8e4f 3cbd 627a d1bd 1157 f63d
000000f0: 5a02 c5bd df42 023e 5470 76bc 4693 e03d
00000100: c0eb d2bc d2b4 633d cf2b 93bd 7b28 413d
00000110: 3893 cdbd 7b36 f9bc 9919 023d 72ef 28bd
00000120: e6ae 323d 5f56 04be ab88 c8bd 3a18 eb3c
00000130: 2496 ae3d 020a 5d3e 42c0 683d 9af7 db3d
00000140: 3a2e b73d 9f85 b73d 7ef9 0ebe 78c4 09be
00000150: adfc 963a e830 0a3e 50ca bc3d f9b5 9fbd
00000160: 7f07 24bd 1dcc fb3d 9b2d d33d 3263 e53d
00000170: b8d6 15be d9c1 2fbd 4925 86bd f3fc c8bc
00000180: 2e59 833d 8de1 17bd 1821 973d e22f 663d
00000190: 185b c3bd 94cb 433d 89a4 893d 3584 103d
000001a0: 0ee6 30bd c38c e63d 1d00 813e 95c6 cf3c
000001b0: 2174 e0bb a60b 1c3d f271 61bb 139f 0e3e
000001c0: 5993 32be ce30 c3bd 530f fc3d 8b57 063b
000001d0: 7daa 233d 7caf 9e3c bf2c a13c b635 023e
000001e0: f0fe 933c 52b1 ff3c 2c1b ce3b a8a0 2dbd
000001f0: ff76 d7bc 8eea b5bd 56b1 78bc c5e0 3c3e
00000200: a689 30bd 5909 90bc a7dc 393d 68e0 19bd
00000210: 4feb 3f3d fa2f fe3d 35be d9bc f7f9 a23d
00000220: 3ead b13d 599d 853a 1c98 a6bc 360e fa3d
00000230: d5a9 fc3c bc5c ca3d b431 9cba 1f67 ef3d
00000240: 88d5 fd3c 79d7 a9bd 6f1e b43d c6e7 be3d
00000250: 8e51 543d 3537 4dbc b0f4 833c c7d1 07bd
00000260: f5a4 d0bd 8c95 113d 1ad2 b7bd 5b1f de3d
00000270: b47d 9fbc 7c3c 01be a100 a13d 8ff2 933d
00000280: 7f4c 503d adc2 c23d 5a2f e53d 3f0d 853d
00000290: b7a6 9e3b 0ae1 8e3d d9ea 533d 465e 433d
000002a0: 00a8 83bc 4dcf e33d 6129 0abe 551b d23b
000002b0: e451 8d3d 082f 5a3d 239e 3cbd 0d90 d8bd
000002c0: 99bf 993d c894 e1bd b871 2b3c dfe5 24bb
000002d0: 99cf 7c3d 2cba 0b3d 73e1 08bc 0ff4 e43d
000002e0: a0f5 ae3d cca8 c23d eafc 9bba f004 b9bc
000002f0: c96c 83bd 00da 193e 40d3 d93c dc72 10bc
00000300: 2ffb d8bd 670f 343d 6732 19bd e9e3 ddbb
00000310: 36df 9c3d d261 22bd 45cf 473a 81fa 3b3d
00000320: 4915 df3d 7a30 843d d06f 82bd 9c27 cb3d
00000330: 1a9c 3f3d 889f 233e 3f79 1d3d 8e2d a1bc
00000340: 7727 d83c d170 4d3d 0e3f 9fbb fccb e4bc
00000350: 13a6 02bd 284d f73b 1611 d33d f779 803d
00000360: da54 21bc 7d50 6ebc 7496 803d e878 84bb
00000370: 4486 513d f636 3c3e a403 733d 4212 573d
00000380: 20f8 413d 9798 4f3d 1fb6 fd3d d369 7a3d
00000390: b541 a4bd 8c18 e43d d41e b23c 1745 363d
000003a0: d1aa 6fbd 40b1 94bd 1ccc 743d e4db c53b
000003b0: 76ec cf3c 1120 b53d ab70 7f3c 650e 873c
000003c0: eef1 debc 4c27 643d 7d16 ab3d 712b 1c3d
000003d0: a0aa eabc 8a2b 763d 117a 803c 6bd3 ba3d
000003e0: 08f5 123d d5ee 8a3c a6f7 60be 5432 a93d
000003f0: ee24 bf3d 581c 743e f59d cf3d 0421 cb3c

action_model._discrete_distribution.branches.3.bias f4 [5]
-0.17923366 -0.13937767 0.1473769 1.069903 1.0940711
00000000: 0789 37be 05b9 0ebe f8e9 163e 95f2 883f
00000010: 860a 8c3f

action_model._discrete_distribution.branches.3.weight f4 [5, 256]
0.13280216 0.017657323 0.034576677 0.22882622 0.19881383 0.11822736 0.05257092 0.036935292
0.059636243 -0.022042414 -0.057069875 -0.0049004736 0.111005425 -0.07032836 0.21833456 0.020920085
0.14035757 -0.011020529 -0.019419238 0.108315 -0.013076825 0.10868467 0.09997523 0.0500674
0.018137913 0.097113214 0.06301367 0.13228963 -0.026381519 0.09253887 0.06368071 -0.0016377806
0.26097277 0.042358212 0.048634533 0.03695139 0.044465326 0.15764935 0.06797267 0.034556255
0.039524786 0.036816783 -0.1399627 -0.013395011 0.07417343 0.033119474 0.32902855 0.033610594
0.076836765 -0.0109814955 0.025243143 0.09779388 0.009996947 0.056559574 -0.010240712 0.20337963
0.07817407 0.06306943 0.019279027 0.069315605 0.02053355 0.0107468385 -0.0011345696 -0.035087787
0.077243745 0.15836932 -0.017393637 -0.07407716 0.008329414 0.0689582 0.059376404 0.062556885
0.05652799 -0.12426603 0.028637705 -0.038525347 0.1480139 0.017630026 0.042132773 0.12209699
-0.04682176 0.14055471 0.07272938 0.015590453 0.113343306 -0.051757734 0.04193624 0.03650109
-0.01335362 0.0133899255 0.110176824 0.060154784 0.08511259 0.059544135 0.08216942 0.06600421
0.1017118 0.023808235 0.10064692 0.22941203 0.013229155 0.13723978 0.0816824 0.1503412
0.10398033 0.02023829 -0.0013206453 0.038295794 0.09499968 0.03171913 0.13646872 0.1268659
0.133945 0.0073083644 0.040569253 0.002090026 0.035310857 0.23197742 0.06024567 0.13377519
0.084261864 0.13210617 -0.049709056 0.004631108 -0.057422575 0.05907656 0.04627269 0.096260026
0.040171105 0.07487891 0.2492982 0.10056203 -0.13492699 0.11117731 0.10880513 -0.023545006
0.044081997 0.02524784 -0.05039639 0.10677721 0.17609467 0.07669539 -0.009632376 -0.20561017
0.060256563 -0.08303452 0.07250792 0.13996714 0.025720831 0.0824387 0.04818296 0.08785173
0.0067527695 0.039709855 -0.02051381 0.07591165 -0.14279445 -0.06733395 0.13689633 0.076057136
0.09815722 0.037010893 0.048202734 0.0385658 -0.0230644 0.038711343 -0.015874464 0.06647484
-0.03979878 0.16231105 -0.006982635 -0.009832678 0.11304399 -0.002714319 0.058407854 -0.09888365
0.0048359875 0.09853869 0.057007566 -0.023219366 0.09353875 0.1309348 0.024663335 0.0031757983
0.10034613 0.028603122 0.11749102 0.040714692 0.14672886 -0.04330192 0.12072189 -0.11964103
0.06293231 0.09348964 -0.0016521942 -0.0077368724 0.18924716 -0.024453312 0.0039021687 0.08410513
0.118948 0.23943922 0.004151413 0.011271932 -7.32717e-05 0.006535273 0.13299166 0.025922954
-0.01600433 0.2243506 0.01193551 0.11931257 0.24130386 0.034166742 0.15577336 0.0142290285
0.14432605 -0.1139685 0.02002134 0.04173306 0.048682395 0.069069944 0.06457579 0.069453575
0.010036144 0.09924036 0.13760523 0.14059068 0.04885948 0.18452454 0.0159395 0.17624828
-0.048274804 0.09063095 0.0374759 0.0017659966 0.02940122 0.07052425 0.0804521 -0.060652614
0.01349048 0.00015378861 0.06915701 -0.0033427102 0.027331615 0.13569325 0.0750558 0.083058245
-0.024401234 -0.054129075 -0.11075265 0.009790017 -0.042457238 -0.014331734 0.11210951 0.10840812
00000000: 4afd 073e 17a6 903c 46a0 0d3d 6c51 6a3e
00000010: da95 4b3e 3021 f23d 9b54 573d 7649 173d
00000020: 2245 743d 4b92 b4bc 1ac2 69bd 2794 a0bb
00000030: d056 e33d 5108 90bd 1893 5f3e 9960 ab3c
00000040: e5b9 0f3e 738f 34bc 1815 9fbc 41d4 dd3d
00000050: 2e40 56bc 1196 de3d d0bf cc3d 7913 4d3d
00000060: f695 943c 4be3 c63d 500d 813d ef76 073e
00000070: 0e1e d8bc 0585 bd3d 086b 823d ccaa d6ba
00000080: 399e 853e ce7f 2d3d 0135 473d 575a 173d
00000090: 4621 363d d56e 213e 4135 8b3d dc8a 0d3d
000000a0: bee4 213d 32cd 163d 6252 0fbe c076 5bbc
000000b0: 3de8 973d 49a8 073d 6e76 a83e 43ab 093d
000000c0: 985c 9d3d bbeb 33bc b5ca ce3c 2848 c83d
000000d0: 3cca 233c 03ab 673d a9c8 27bc c042 503e
000000e0: ba19 a03d 8c2a 813d 0def 9d3c 57f5 8d3d
000000f0: fa35 a83c 8213 303c d7b5 94ba 36b8 0fbd
00000100: f831 9e3d 912b 223e 1a7d 8ebc c4b5 97bd
00000110: 1878 083c f539 8d3d ac34 733d d31d 803d
00000120: e589 673d 307f febd 9f99 ea3c c1cc 1dbd
00000130: f590 173e d86c 903c 6a93 2c3d fd0d fa3d
00000140: 2cc8 3fbd 93ed 0f3e 24f3 943d 196f 7f3c
00000150: 8920 e83d ebff 53bd 56c5 2b3d 2b82 153d
00000160: 24c9 5abc 6b61 5b3c 63a4 e13d dd64 763d
00000170: 824f ae3d 8de4 733d 7148 a83d 372d 873d
00000180: 474e d03d 7d09 c33c f91f ce3d fdea 6a3e
00000190: 19bf 583c 9688 0c3e 1a49 a73d 0bf3 193e
000001a0: a4f3 d43d c5ca a53c 8119 adba 0ddc 1c3d
000001b0: 318f c23d ebeb 013d 75be 0b3e 22e9 013e
000001c0: e128 093e 017b ef3b f22b 263d d1f8 083b
000001d0: 1ea2 103d 7d8b 6d3e 2ac4 763d 5dfc 083e
000001e0: 7c91 ac3d d746 073e b99b 4bbd 8dc0 973b
000001f0: ef33 6bbd 43fa 713d 6f88 3d3d fa23 c53d
00000200: 758a 243d 1d5a 993d 0748 7f3e 77f3 cd3d
00000210: 4d2a 0abe eeb0 e33d 39d5 de3d 75e1 c0bc
00000220: 538f 343d 8fd4 ce3c 726c 4ebd 03ae da3d
00000230: 2952 343e 7912 9d3d 1dd1 1dbc 798b 52be
00000240: 96cf 763d 010e aabd 087f 943d 8c53 0f3e
00000250: 7eb4 d23c 9fd5 a83d 7f5b 453d 9ceb b33d
00000260: 5646 dd3b cda6 223d 940c a8bc 9177 9b3d
00000270: b538 12be 62e6 89bd 8d2e 0c3e d8c3 9b3d
00000280: a706 c93d bc98 173d 3b70 453d 2cf7 1d3d
00000290: 8df1 bcbc c98f 1e3d 2a0b 82bc f623 883d
000002a0: 0c04 23bd de34 263e 96ce e4bb 3e19 21bc
000002b0: 9c83 e73d b7e2 31bb 133d 6f3d 8383 cabd
000002c0: 3477 9e3b a7ce c93d c480 693d 8a36 bebc
000002d0: 3f91 bf3d c613 063e c30a ca3c 0e21 503b
000002e0: 4682 cd3d 1851 ea3c 229f f03d 73c4 263d
000002f0: 1740 163e 5b5d 31bd 0a3d f73d 5b06 f5bd
00000300: a8e2 803d 7f77 bf3d 708e d8ba 9785 fdbb
00000310: 02ca 413e 5052 c8bc 87bb 7f3b 4f3f ac3d
00000320: 029b f33d 8e2f 753e 9408 883b e9ad 383c
00000330: 72a9 99b8 d825 d63b f72e 083e 605c d43c
00000340: 831b 83bc 2abc 653e 288d 433c 265a f43d
00000350: 5c18 773e 6df2 0b3d 0d83 1f3e df20 693c
00000360: 35ca 133e 5168 e9bd cb03 a43c 49f0 2a3d
00000370: 3167 473d 8b74 8d3d 5040 843d ad3d 8e3d
00000380: a46e 243c 883e cb3d 63e8 0c3e 01f7 0f3e
00000390: e120 483d 00f4 3c3e 8e93 823c 6e7a 343e
000003a0: cdbb 45bd b89c b93d 5480 193d 0379 e73a
000003b0: d4da f03c 056f 903d 12c4 a43d e06e 78bd
000003c0: 2d07 5d3c 5142 2139 31a2 8d3d 5f11 5bbb
000003d0: 8de6 df3c 2cf3 0a3e dbb6 993d 711a aa3d
000003e0: 19e5 c7bc 73b6 5dbd 49d2 e2bd 4f66 203c
000003f0: a4e7 2dbd a6cf 6abc ac99 e53d 1405 de3d

network_body.linear_encoder.seq_layers.0.bias f4 [256]
-0.01581205 0.0010630989 0.0058797286 -0.0093752025 0.005839447 0.0066386107 -0.005559698 -0.014343277
-0.05749423 -0.021105254 -0.0017870406 0.0026359009 -0.11845987 0.0004597209 -0.06381292 -0.04831718
0.0030310904 -0.025152288 0.006369914 0.0007772337 -0.07290324 -0.10870611 0.017399669 -0.03023223
-0.020377764 -0.0017129097 -0.018117279 0.029431293 -0.01962668 0.004292103 -0.0036239875 -0.0029398338
-0.0069189523 0.0045721675 -0.0031597132 -0.009647764 0.019670516 -0.0119538205 -0.0010020519 -0.022633972
-0.00034312453 0.0004034236 -0.09081697 -0.013115412 -0.035325643 -0.031559464 -0.011718327 -0.0200602
-0.012923492 -0.012827822 -0.01655979 0.011348464 -0.031365123 -0.027775602 0.021616811 -0.0010579503
-0.0060943277 -0.011704331 0.016216364 0.0065836064 -0.0016482957 0.010792017 0.020346135 0.00747536
0.012566753 -0.03944534 0.014281436 0.015255034 -0.03094742 0.011981875 -0.016230527 0.0026343875
0.0078607425 0.0014039299 -0.030318443 0.030591873 -0.049144816 -0.031208156 -0.08693734 -0.03148153
0.007919204 0.01387015 -0.007273535 -0.029169928 -0.02194812 -0.0007276245 -0.017094126 0.0091744745
-0.0035340486 -0.037671454 -0.0024415888 0.000996756 -0.009136733 0.009636295 -0.0016205042 0.0035918825
0.0053336713 0.027728656 -0.05643186 -0.03167351 -0.036915325 0.04002506 0.03380542 0.013595457
-0.0054744175 -0.01728311 0.014957775 -0.035527598 0.010196469 -0.01727314 -0.004171634 -0.01974026
0.033800565 0.0024458421 -0.12765317 -0.0097132595 -0.019427883 -0.07840764 -0.007384642 -0.04926412
-0.015905384 0.013107979 -0.0044038873 0.010583095 -0.005532 0.010059409 -0.043838598 0.01281503
0.028615907 -0.0082790665 -0.0052644853 0.009349303 -0.011168374 0.017620463 -0.037201066 0.01536426
-0.033698138 -0.03734481 -0.0017447073 -0.04764181 -0.017696144 -0.008127574 -0.0065798764 -0.0006312054
-0.061426636 -0.029485514 -0.12841387 0.0038766544 0.015947899 -0.015759325 0.024076566 0.024178088
-0.0037697111 0.0027706993 -0.0032712533 0.008476883 -0.003960075 0.0148539785 0.002657799 -0.04600574
-0.00439406 -0.079948634 -0.0009085207 -0.009331489 -0.03150564 -0.0061686714 0.0017452077 0.011642273
0.0029139922 0.009652294 -0.035150297 -0.0018902901 -0.0099979965 -0.008691527 -0.04534274 0.009959232
-0.009473377 -0.091861576 -0.05476602 0.0017762601 -0.016845666 0.01890696 -0.0031280231 0.025494268
-0.009588686 -0.043963984 0.021619476 0.02388848 -0.099522345 -0.057116557 0.010581654 -0.023477249
-0.011813895 -0.030285027 0.022947654 0.0032113264 -0.031622082 -0.02168797 -0.008122514 -0.020707868
0.027990688 0.00043963338 -0.06678087 -0.011402538 0.005314606 -0.0049825883 -0.015209569 3.7977246e-05
0.0067021707 -0.007341306 -0.15511328 -0.0010691414 -0.008757489 0.016125716 -0.0118084205 -0.021263883
-0.008965998 -0.020949546 -0.045897763 -0.029426776 -0.0819712 -0.057547662 -0.028402682 -0.010282982
-0.022633843 0.020778893 -0.021225048 0.0005545019 0.03217295 -0.079251304 -0.007127522 0.0015348758
0.002897975 0.016198894 0.016405635 -0.010298675 0.0013167257 -0.005717224 0.00042298262 0.0037974634
-0.0750933 0.017762259 -0.002945915 -0.020240083 -0.058829855 -0.022784237 -0.08630432 -0.016705599
-0.04878812 -0.031121064 -0.006509168 -0.0564543 0.025942372 -0.12665766 -0.007480718 -0.03918008
00000000: 4688 81bc ae57 8b3a bdaa c03b 739a 19bc
00000010: d558 bf3b b488 d93b 212e b6bb 1000 6bbc
00000020: 127f 6bbd ede4 acbc 223b eaba 14bf 2c3b
00000030: 179b f2bd b206 f139 59b0 82bd 3ce8 45bd
00000040: 42a5 463b 2c0c cebc b6ba d03b 45bf 4b3a
00000050: 4b4e 95bd 4fa1 debd c089 8e3c 95a9 f7bc
00000060: 45ef a6bc b683 e0ba b06a 94bc e519 f13c
00000070: 22c8 a0bc c5a4 8c3b 6c80 6dbb 3aaa 40bb
00000080: 61b8 e2bb 1fd2 953b 3113 4fbb a811 1ebc
00000090: 1024 a13c f5d9 43bc 4857 83ba e16a b9bc
000000a0: 65e5 b3b9 9982 d339 3ffe b9bd 06e2 56bc
000000b0: 9fb1 10bd 7f44 01bd 3afe 3fbc 4a55 a4bc
000000c0: 0ebd 53bc c92b 52bc 66a8 87bc e8ee 393c
000000d0: b778 00bd a989 e3bc bd15 b13c ecaa 8aba
000000e0: edb2 c7bb 86c3 3fbc 2ed8 843c 4bbb d73b
000000f0: a00b d8ba 00d1 303c f0ac a63c ddf3 f43b
00000100: c8e4 4d3c 7091 21bd affc 693c 40f0 793c
00000110: 7285 fdbc a04f 443c e2f5 84bc b0a5 2c3b
00000120: 58ca 003c 1204 b83a 625e f8bc cf9b fa3c
00000130: 134c 49bd 3fa8 ffbc 340c b2bd c7f2 00bd
00000140: 8dbf 013c a03f 633c d556 eebb c6f5 eebc
00000150: 8bcc b3bc 0ebe 3eba fb08 8cbc 8950 163c
00000160: 7f9b 67bb 624d 1abd 1003 20bb 95a5 823a
00000170: 3cb2 15bc 8de1 1d3c 1967 d4ba ca65 6b3b
00000180: 14c6 ae3b 3527 e33c 1825 67bd 15bc 01bd
00000190: 8634 17bd 51f1 233d 8d77 0a3d 7bbf 5e3c
000001a0: be62 b3bb 4f95 8dbc 7511 753c 6385 11bd
000001b0: 170f 273c 6680 8dbc 34b2 88bb 53b6 a1bc
000001c0: 7672 0a3d 6c4a 203b 83b7 02be 5d24 1fbc
000001d0: 3927 9fbc 2f94 a0bd defa f1bb 2dc9 49bd
000001e0: 024c 82bc d9c2 563c 7c4e 90bb b864 2d3c
000001f0: c845 b5bb 38d0 243c 1a90 33bd 22f6 513c
00000200: e86b ea3c eca4 07bc b481 acbb d22d 193c
00000210: 8efb 36bc ca58 903c 2560 18bd 61ba 7b3c
00000220: 0f07 0abd dff6 18bd aaae e4ba 0f24 43bd
00000230: 81f7 90bc 8429 05bc 019c d7bb 7a77 25ba
00000240: 7f9a 7bbd 9b8b f1bc ed7e 03be 780f 7e3b
00000250: 2ba5 823c b319 81bc 383c c53c 2011 c63c
00000260: 420d 77bb 9f94 353b 8662 56bb a0e2 0a3c
00000270: 84c3 81bb 1a5e 733c 782e 2e3b 8470 3cbd
00000280: 0cfc 8fbb 1cbc a3bd cb29 6eba 1ae3 18bc
00000290: 0f0c 01bd 9122 cabb 74bf e43a 3bbf 3e3c
000002a0: adf8 3e3b a824 1e3c c2f9 0fbd 9cc3 f7ba
000002b0: a3ce 23bc e866 0ebc 4fb9 39bd 0c2c 233c
000002c0: 3936 1bbc ec21 bcbd 5652 60bd 66d1 e83a
000002d0: ecff 89bc c5e2 9a3c 85ff 4cbb 5bd9 d03c
000002e0: dd19 1dbc 9413 34bd 541b b13c c6b1 c33c
000002f0: 5fd2 cbbd 0df3 69bd ac5e 2d3c 5c53 c0bc
00000300: 118f 41bc 4e18 f8bc b8fc bb3c 1e75 523b
00000310: 2886 01bd f8aa b1bc 4b14 05bc 8ca3 a9bc
00000320: ba4c e53c 987e e639 69c4 88bd b6d1 3abc
00000330: 2526 ae3b fb44 a3bb 8e31 79bc c249 1f38
00000340: e29d db3b 578f f0bb 04d6 1ebe 6f22 8cba
00000350: 927b 0fbc 141a 843c 1b78 41bc 9831 aebc
00000360: 1fe6 12bc 629e abbc 4bff 3bbd 6c10 f1bc
00000370: 84e0 a7bd 19b7 6bbd beac e8bc f479 28bc
00000380: 9c6a b9bc 7f38 aa3c 27e0 adbc fe5b 113a
00000390: c9c7 033d 824e a2bd fd8d e9bb e32d c93a
000003a0: f4eb 3d3b 8bb3 843c 1c65 863c c6bb 28bc
000003b0: fc95 ac3a 8d57 bbbb c4c3 dd39 ddde 783b
000003c0: 84ca 99bd 2882 913c 4110 41bb 88ce a5bc
000003d0: 93f7 70bd 02a6 babc 52c0 b0bd 2eda 88bc
000003e0: 0dd6 47bd 9af1 febc dc4a d5bb a03c 67bd
000003f0: 1985 d43c 8cb2 01be d020 f5bb 4b7b 20bd

network_body.linear_encoder.seq_layers.0.weight f4 [256, 603]
0.14754558 -0.048362587 -0.21276656 0.039509304 -0.23169708 0.04219346 0.110285714 -0.06827406
-0.14378218 -0.04768438 -0.22381322 0.0133779915 0.13421826 -0.01674319 -0.14149952 0.06253659
-0.18181728 -0.09038191 0.12142144 -0.0891681 -0.094050415 0.00638608 -0.23944682 -0.0200054
0.09489874 -0.051684946 -0.17639454 0.024240684 -0.17178127 -0.021815661 0.086071834 -0.05917067
-0.06269027 -0.0068955687 -0.15267478 -0.026652982 0.0913598 -0.07942363 -0.095841415 0.0299018
-0.23193634 -0.010790282 0.10786575 -0.029979283 -0.13424443 -0.03347666 -0.20037761 0.060302984
0.059759196 -0.06465365 -0.076325536 -0.012131174 -0.22472121 0.03338261 0.12876487 -0.06250315
-0.16981436 -0.06622883 -0.21487255 -0.04272326 -0.089501455 -0.022433039 0.07941474 0.012704932
0.0030773967 -0.0024403364 -0.07941994 0.00047997182 -0.10191717 0.07610317 0.015713258 -0.029945167
-0.07677226 -0.09194202 0.016585583 -0.08928614 0.0064244363 0.03348764 -0.10807231 0.004263233
-0.08350578 -0.064769 0.05475016 0.03090469 -0.124925315 -0.016764482 -0.016962353 -0.054493207
0.022801144 -0.001813077 -0.15074368 -0.0121856 -0.0040281992 -0.038778774 0.06323674 -0.024030484
-0.104401305 -0.011189175 -0.011621321 -0.071433455 0.017401608 -0.04562801 -0.11393608 0.06585483
-0.07219686 0.038306355 0.044993274 0.028626958 -0.0762007 0.0022771943 -0.10279811 0.0035535016
0.053854585 -0.038281586 -0.17519152 -0.07088382 -0.084089436 -0.0034055891 0.06445162 0.016676415
-0.005561147 -0.13498014 0.011428668 -0.016464293 0.018028105 -0.006254617 -0.07141964 -0.061890166
-0.057570443 0.008872306 -0.04220513 -0.03125753 -0.02448295 -0.11739914 0.016336914 -0.034574907
0.049054205 0.12060727 -0.07192729 -0.030627113 -0.061033595 -0.013536946 0.017125411 -0.020123636
0.06455343 -0.1007203 -0.0540623 0.003929905 -0.017283441 0.010353342 -0.006619758 0.024638215
0.051477954 -0.07055509 -0.08146659 -0.060516864 0.06319023 -0.12476868 -0.0012699667 0.0124080125
0.070663944 0.051535204 -0.056798056 -0.017448157 -0.04059528 0.006644393 -0.013799298 0.017595276
0.038916625 0.002661362 0.074248455 0.039235305 0.02852355 -0.03318424 0.036385383 0.0021762522
-0.031057272 -0.04375178 0.039972737 0.07471462 -0.24937285 -0.117493674 -0.022745501 -0.019161839
0.022779487 0.0034872815 -0.24318235 -0.27092418 -0.03259231 -0.029826686 -0.0033667155 0.024312556
-0.17346945 -0.2279287 -0.022117335 -0.021576475 0.07698943 -0.07148473 -0.20349342 -0.20597641
-0.051250964 9.1494796e-05 0.12322678 -0.014464461 -0.22301926 -0.14695008 0.002706718 0.020594269
0.0005844612 -0.0177528 -0.23527655 -0.18001351 0.018120345 0.024644671 -0.084203884 -0.09300685
-0.2979109 -0.18416233 0.01731526 0.08738068 0.03950904 0.00543471 -0.24430974 -0.20995763
-0.083192445 0.05949307 -0.011287324 -0.013503701 -0.21602128 -0.13218307 0.0014413833 -0.026348788
0.04124143 -0.03248487 -0.3113309 -0.21295343 -0.04363994 -0.002896875 0.016065441 -0.016426288
-0.08287925 -0.119939856 0.11492009 0.005445342 -0.0073344316 -0.052606955 -0.09187671 -0.18212485
0.116928086 -0.0057375506 0.057609025 -0.031553768 -0.113357626 -0.16033421 0.16368803 0.039043766
00000000: 3016 173e d917 46bd 7adf 59be 82d4 213d
00000010: 0042 6dbe 0dd3 2c3d 7add e13d 45d3 8bbd
00000020: a33b 13be b250 43bd 4b2f 65be 5d2f 5b3c
00000030: 8370 093e 0429 89bc 40e5 10be 2f13 803d
00000040: 4f2e 3abe 271a b9bd ceab f83d c49d b6bd
00000050: 819d c0bd 5242 d13b 8c31 75be 5de2 a3bc
00000060: 455a c23d 98b3 53bd c5a0 34be 6694 c63c
00000070: 6ee7 2fbe c2b6 b2bc 6e46 b03d f25c 72bd
00000080: c263 80bd 39f4 e1bb c756 1cbe 5b57 dabc
00000090: d91a bb3d dba8 a2bd 8148 c4bd 9ff4 f43c
000000a0: b880 6dbe b9c9 30bc b8e8 dc3d 1d97 f5bc
000000b0: 5f77 09be d21e 09bd ca2f 4dbe 4300 773d
000000c0: 0fc6 743d 2269 84bd 9050 9cbd d5c1 46bc
000000d0: 511d 66be 34bc 083d f0da 033e a701 80bd
000000e0: d1e3 2dbe fba2 87bd 8d07 5cbe 96fe 2ebd
000000f0: 8a4c b7bd 7ec5 b7bc 32a4 a23d 5928 503c
00000100: 26ae 493b 0dee 1fbb eca6 a2bd baa4 fb39
00000110: f3b9 d0bd fbdb 9b3d 17b9 803c 914f f5bc
00000120: c63a 9dbd 194c bcbd 7dde 873c a7db b6bd
00000130: 1484 d23b 562a 093d 0455 ddbd 97b2 8b3b
00000140: 1405 abbd 9ca5 84bd b441 603d d52b fd3c
00000150: d8d8 ffbd ab55 89bc a2f4 8abc 4534 5fbd
00000160: 77c9 ba3c c5a4 edba 8d5c 1abe 1ca6 47bc
00000170: fcfe 83bb 7ed6 1ebd 4482 813d 94db c4bc
00000180: 5ad0 d5bd cd52 37bc 5a67 3ebc b44b 92bd
00000190: d18d 8e3c 70e4 3abd 5257 e9bd e6de 863d
000001a0: f3db 93bd 20e7 1c3d de4a 383d 1583 ea3c
000001b0: 1d0f 9cbd fb3c 153b d187 d2bd dde1 683b
000001c0: a096 5c3d 27cd 1cbd 6865 33be 892b 91bd
000001d0: 1537 acbd 4e30 5fbb 36ff 833d fa9c 883c
000001e0: 483a b6bb 3c38 0abe 4f3f 3b3c 20e0 86bc
000001f0: adaf 933c 88f3 ccbb 7644 92bd 8b80 7dbd
00000200: fcce 6bbd 265d 113c 49df 2cbd e507 00bd
00000210: 7890 c8bc f66e f0bd fed4 853c 6b9e 0dbd
00000220: 10ed 483d f200 f73d 9d4e 93bd b6e5 fabc
00000230: 5dfe 79bd 11ca 5dbc 974a 8c3c 53da a4bc
00000240: 9734 843d 7246 cebd 6e70 5dbd 6fc6 803b
00000250: 0196 8dbc 10a1 293c 8eea d8bb 15d6 c93c
00000260: 8cda 523d 307f 90bd f5d7 a6bd 88e0 77bd
00000270: e169 813d b986 ffbd 0375 a6ba fa4a 4b3c
00000280: 42b8 903d 9416 533d 14a5 68bd 70ef 8ebc
00000290: 3c47 26bd 35b9 d93b 7316 62bc f823 903c
000002a0: 0a67 1f3d 3f6a 2e3b 930f 983d 33b5 203d
000002b0: 38aa e93c 33ec 07bd d708 153d 749f 0e3b
000002c0: d26b febc 1135 33bd 74ba 233d fb03 993d
000002d0: 995b 7fbe 86a0 f0bd c654 babc 4af9 9cbc
000002e0: 0c9c ba3c e08a 643b cb04 79be 93b6 8abe
000002f0: 847f 05bd 1857 f4bc 1da4 5cbb 202b c73c
00000300: faa1 31be 2466 69be 6a2f b5bc 26c1 b0bc
00000310: a2ac 9d3d 9666 92bd 9460 50be 7beb 52be
00000320: 88ec 51bd e5e0 bf38 525e fc3d 59fc 6cbc
00000330: 295f 64be 157a 16be 3163 313b 50b5 a83c
00000340: 8736 193a 526e 91bc 56ec 70be 7655 38be
00000350: 1e71 943c 9fe3 c93c 1673 acbd 607a bebd
00000360: c787 98be 0d95 3cbe bbd8 8d3c a4f4 b23d
00000370: 3bd4 213d a715 b23b 552c 7abe 22ff 56be
00000380: cd60 aabd 01af 733d 78ee 38bc a13e 5dbc
00000390: af34 5dbe 005b 07be ccec bc3a 6ad9 d7bc
000003a0: c6ec 283d db0e 05bd c466 9fbe 7710 5abe
000003b0: cbbf 32bd 7fd9 3dbb ac9b 833c 6c90 86bc
000003c0: 99bc a9bd 07a3 f5bd 395b eb3d d76e b23b
000003d0: ac55 f0bb 647a 57bd db29 bcbd f07e 3abe
000003e0: fe77 ef3d 1002 bcbb 71f7 6b3d 863e 01bd
000003f0: 0b28 e8bd a72e 24be d69d 273e 5bec 1f3d

network_body.linear_encoder.seq_layers.2.bias f4 [256]
-0.039772946 -0.00095704297 -0.04184899 -0.056500178 -0.04704103 -0.028882364 -0.056101836 0.0033608652
-0.012262363 -0.073340416 -0.011079016 -0.037143253 -0.014198428 -0.04136397 -0.088769145 0.012123571
-0.08970329 -0.023705684 -0.08942393 -0.06096614 -0.015251683 -0.03777406 -0.026241926 -0.13183275
-0.049652066 -0.08549744 -0.03823515 -0.0801731 -0.04786895 -0.047473386 -0.113689244 -0.024643857
-0.034313582 0.02109427 -0.034312017 0.015378787 -0.06302697 -0.012243926 -0.040922824 -0.09641844
-0.058310304 -0.039855797 0.007774555 -0.03117627 -0.09527961 0.006258306 -0.06265179 -0.05318576
-0.046858445 -0.054750934 -0.0634396 -0.052669607 -0.052390024 -0.06422616 -0.058256183 -0.033279333
-0.06927308 -0.049426224 -0.021864152 -0.015522666 -0.047687415 -0.07345563 0.027479813 -0.006988038
-0.057645805 -0.03943579 -0.06292586 -0.077334866 0.021767363 -0.031723514 -0.07315877 -0.068145335
-0.03624817 0.076794766 -0.01133007 -0.025139758 -0.042283375 -0.047388155 -0.014359211 -0.100628674
-0.03516165 -0.037621316 -0.021817949 -0.052214123 -0.09085087 -0.037686646 -0.085264035 -0.057371143
0.0068692937 -0.048697542 -0.04722793 -0.055887956 -0.0605383 -0.020005846 -0.072991095 -0.09810325
-0.040814023 -0.079626925 -0.03193655 -0.05391646 -0.044550322 -0.08169309 -0.051130284 -0.0746777
-0.07621838 -0.07129748 -0.10348034 -0.10229887 -0.13130857 -0.061712723 -0.053501297 -0.07338807
-0.036201123 0.0012710452 -0.06570859 -0.048292756 -0.02637167 -0.027600758 -0.046555053 -0.05149434
-0.03292745 -0.05298197 -0.016145542 -0.06926595 -0.04218905 -0.03677456 0.0049348925 -0.035185404
-0.001874238 -0.073477216 -0.06168777 -0.038283404 0.017414251 -0.065687716 -0.08242324 -0.064835094
-0.011248774 -0.05485371 -0.0068477225 -0.04267955 -0.062679574 -0.06647369 -0.015353581 0.03642382
-0.063312896 -0.022896083 -0.07553932 -0.08901286 -0.035778522 -0.0146638155 -0.047909226 -0.06710553
0.02019069 -0.048922375 0.035251535 -0.0018955648 -0.014006588 -0.028404523 -0.018340522 -0.12810367
-0.1271767 -0.08089849 -0.051348627 -0.0269901 -0.07059905 -0.047213666 -0.065914735 -0.0613706
-0.0059754783 -0.055601887 -0.0013513742 -0.019708706 -0.050890066 -0.014295545 -0.033364296 -0.0112520205
-0.063320376 -0.050331943 0.008241733 0.006887895 -0.040304728 -0.05355464 -0.03887797 -0.007807306
-0.09144437 -0.036376085 -0.038782556 -0.05243413 -0.0845358 -0.0020411504 -0.062357888 -0.012178041
-0.058614552 -0.11143582 -0.049699094 -0.06599059 -0.060897976 -0.11486176 -0.024020685 -0.018361188
-0.022447854 -0.030055668 0.032187987 -0.05910608 -0.0014425692 -0.057132598 -0.052521132 -0.036978293
-0.05472357 -0.0069146384 -0.011624185 -0.034542166 -0.087624155 -0.037994016 -0.031220011 -0.045409445
-0.03601716 0.013423669 0.009267374 -0.06591468 -0.07362182 -0.11283553 -0.038894687 -0.0674336
-0.053488 -0.03527399 -0.039455306 -0.074647814 -0.08110485 -0.070737235 -0.0584479 -0.09909064
-0.054118082 -0.05124558 -0.047648195 -0.05506348 -0.0069772676 -0.04691939 -0.03257195 0.014101848
-0.014318067 -0.08401816 -0.025071552 -0.057001602 -0.037101485 -0.05362665 -0.06614952 -0.07933862
-0.0901928 -0.010954128 -0.00064668764 -0.07079999 -0.06140588 -0.029808853 -0.01925838 -0.054591924
00000000: f5e8 22bd 11e2 7aba d969 2bbd bb6c 67bd
00000010: 18ae 40bd b59a ecbc 0acb 65bd f641 5c3b
00000020: 14e8 48bc 8033 96bd c384 35bc 8623 18bd
00000030: 86a0 68bc 446d 29bd 99cc b5bd f1a1 463c
00000040: 5cb6 b7bd 6c32 c2bc e523 b7bd a2b7 79bd
00000050: 32e2 79bc f9b8 1abd 4ff9 d6bc 2aff 06be
00000060: f75f 4bbd 4819 afbd 769c 1cbd cb31 a4bd
00000070: 3b12 44bd 7473 42bd e8d5 e8bd eae1 c9bc
00000080: 668c 0cbd e4cd ac3c c28a 0cbd 4ff7 7b3c
00000090: 4914 81bd bf9a 48bc b19e 27bd 0877 c5bd
000000a0: c9d6 6ebd d53f 23bd b2c1 fe3b 6165 ffbc
000000b0: f521 c3bd 7a12 cd3b 954f 80bd 50d9 59bd
000000c0: a4ee 3fbd 8442 60bd 9fec 81bd 16bc 57bd
000000d0: ec96 56bd 0189 83bd 099e 6ebd e94f 08bd
000000e0: 0bdf 8dbd 2773 4abd 731c b3bc c852 7ebc
000000f0: e153 43bd e86f 96bd 581d e13c e9fb e4bb
00000100: 021e 6cbd 6c87 21bd 46df 80bd be61 9ebd
00000110: 7851 b23c 84f0 01bd 44d4 95bd c88f 8bbd
00000120: f678 14bd 9346 9d3d c2a1 39bc e5f1 cdbc
00000130: 5531 2dbd 151a 42bd e542 6bbc 6816 cebd
00000140: aa05 10bd cf18 1abd 8ebb b2bc 7ade 55bd
00000150: 0510 babd 505d 1abd e99e aebd 01fe 6abd
00000160: d017 e13b 1377 47bd 1372 41bd c5ea 64bd
00000170: 02f7 77bd 4de3 a3bc 5b7c 95bd 5bea c8bd
00000180: 9b2c 27bd 7113 a3bd e6cf 02bd 82d7 5cbd
00000190: 667a 36bd b54e a7bd fd6d 51bd 9ff0 98bd
000001a0: 6218 9cbd 6a04 92bd 80ed d3bd 1282 d1bd
000001b0: c175 06be 7bc6 7cbd 2d24 5bbd 7c4c 96bd
000001c0: a147 14bd 3399 a63a 3a92 86bd a0ce 45bd
000001d0: 6709 d8bc fc1a e2bc 83b0 3ebd bbeb 52bd
000001e0: efde 06bd 9f03 59bd a843 84bc 4edb 8dbd
000001f0: 6dce 2cbd eca0 16bd e1b4 a13b 921e 10bd
00000200: fea8 f5ba 397b 96bd 51ac 7cbd 0fcf 1cbd
00000210: 55a8 8e3c 4887 86bd 84cd a8bd 43c8 84bd
00000220: c74c 38bc 49ae 60bd dc62 e0bb c0d0 2ebd
00000230: 265e 80bd 5c23 88bd 968d 7bbc 2531 153d
00000240: 31aa 81bd 9190 bbbc 5cb4 9abd 604c b6bd
00000250: 808c 12bd 8040 70bc 773c 44bd a06e 89bd
00000260: f266 a53c d462 48bd ea63 103d 9a74 f8ba
00000270: e37b 65bc 9ab0 e8bc dd3e 96bc 9c2d 03be
00000280: 9c3a 02be 1cae a5bd f052 52bd 581a ddbc
00000290: 3c96 90bd 1e63 41bd 4efe 86bd bd5f 7bbd
000002a0: f2cd c3bb cebe 63bd 9820 b1ba 2774 a1bc
000002b0: 1a72 50bd dd37 6abc 00a9 08bd 655a 38bc
000002c0: 1dae 81bd de28 4ebd 5508 073c dab3 e13b
000002d0: 9216 25bd 1c5c 5bbd 823e 1fbd 6ed4 ffbb
000002e0: 3047 bbbd 17ff 14bd 75da 1ebd 2cc5 56bd
000002f0: 1b21 adbd d2c4 05bb fc6a 7fbd 6886 47bc
00000300: d015 70bd 7738 e4bd 4791 4bbd 1326 87bd
00000310: 2870 79bd a43c ebbd 07c7 c4bc 346a 96bc
00000320: 90e4 b7bc 4e37 f6bc 8dd7 033d 3819 72bd
00000330: 9714 bdba df03 6abd 6620 57bd 8d76 17bd
00000340: d225 60bd 3194 e2bb 5e73 3ebc 167c 0dbd
00000350: 4b74 b3bd 9d9f 1bbd 1cc1 ffbc 41ff 39bd
00000360: bb86 13bd f3ee 5b3c 2fd6 173c 47fe 86bd
00000370: 09c7 96bd 5016 e7bd 0950 1fbd a11a 8abd
00000380: 3c16 5bbd 767b 10bd e39b 21bd f4e0 98bd
00000390: 4d1a a6bd afde 90bd 1167 6fbd 09f0 cabd
000003a0: ecaa 5dbd e3e6 51bd c12a 43bd 3e8a 61bd
000003b0: 90a1 e4bb 8c2e 40bd 2a6a 05bd 700b 673c
000003c0: 5396 6abc b711 acbd db62 cdbc 837a 69bd
000003d0: baf7 17bd 9ea7 5bbd 6679 87bd 497c a2bd
000003e0: 01b7 b8bd f178 33bc 7986 29ba 96ff 90bd
000003f0: bb84 7bbd b231 f4bc c0c3 9dbc c89b 5fbd
