Config/results/PPO_02/PlatformerBehavior/PlatformerBehavior-4813228.onnx (onnx, 652848 bytes, 15 tensors)

action_model._continuous_distribution.log_sigma f4 [1, 2]
-0.21213561 -0.8923308
00000000: 143a 59be cb6f 64bf

action_model._continuous_distribution.mu.bias f4 [2]
0.019931432 -0.25081363
00000000: 3e47 a33c a56a 80be

action_model._continuous_distribution.mu.weight f4 [2, 256]
-0.059325587 0.020243257 0.039648615 -0.07558838 -0.04130594 -0.003185036 -0.017307825 -0.041535135
-0.05010279 -0.05049061 -0.044754326 -0.0099617895 0.11285548 -0.006377828 0.004369961 0.018412782
0.06370092 0.024530398 -0.08236604 0.06368532 -0.08992843 -0.059235543 0.019333666 0.016709171
-0.113600545 -0.07094979 -0.06280028 -0.05675485 0.01754838 -0.051212948 0.0042886827 -0.023890475
-0.031284552 -0.007106922 0.22816986 0.012889706 -0.005608275 0.111405045 -0.1084288 0.009531701
-0.011551071 -0.11146679 0.0149484845 0.002359492 -0.0018892249 -0.0031698258 -0.17292285 -0.052139588
-0.0056407843 0.004760782 -0.03125195 -0.0028126175 -0.06274029 -0.06261802 0.042691033 -0.016308166
-0.0030486141 0.015927782 0.059431702 -0.029077783 -0.007905199 0.028229134 0.042259872 -0.08501202
-0.012185476 -0.022273941 -0.015238128 -0.0057439944 -0.10585734 -0.017921293 -0.06643154 -0.12247522
0.01058596 -0.014827314 -0.037851807 0.028807346 -0.013472602 0.012482742 -0.003585765 -0.04776565
-0.14671163 0.015334335 -0.0032024155 0.0370521 -0.017874679 0.00697922 -0.036350556 0.011120326
0.0052805445 -0.0020263924 0.057959367 -0.09276119 0.010933171 0.06023198 0.04146481 -0.010136875
-0.04642825 -0.105407774 -0.06734597 0.02820778 -0.0074782223 0.05059199 0.012826065 0.01789431
0.041739754 -0.07429847 -0.050754834 -0.01148874 0.027141854 -0.01454851 -0.07903092 0.032314017
0.01608868 0.020348268 -0.022962008 -0.032965507 -0.049943857 -0.063676834 -0.028741881 -0.026725652
0.0977697 -0.060692184 -0.007878457 -0.055196043 0.0070959255 0.090460464 -0.051734593 0.079890355
0.025558868 -0.048887417 0.019740913 -0.003190563 -0.14557417 -0.0059169442 -0.005650915 0.0152717475
-0.04499025 0.014167011 -0.060854215 0.08972739 -0.024345208 -0.012346432 -0.0063625183 -0.0468029
0.02095527 -0.06780363 0.038860813 -0.074009396 0.07529461 0.030759424 0.07071318 -0.036134113
0.091130145 -0.023155916 0.08968041 -0.06912742 0.0074972576 -0.1178898 0.035276573 -0.0124861915
-0.0031405715 -0.044228032 -0.04517724 -0.049824975 -0.0027651896 0.01633017 0.08620578 -0.13196638
-0.018082742 0.08655681 0.067083076 0.06710142 -0.00158489 -0.004730925 -0.068464026 -0.114276566
-0.05114923 -0.041794643 -0.025715806 -0.049893733 0.010884418 -0.014214128 -0.011989811 -0.10754779
-0.013515589 0.050288733 0.0042869058 -0.08443168 0.11037275 0.06864758 -0.0036845943 -0.08200064
0.16391094 0.121054396 0.1575511 -0.06465686 -0.1692728 -0.049957287 -0.027179811 0.0018554047
0.061047122 0.023150742 0.036278244 0.004843111 -0.03555352 -0.048812017 -0.0009800748 -0.013759856
0.00744038 -0.084139705 -0.006902313 0.003117066 0.03670332 0.035492264 -0.10222141 -0.010048504
-0.04549895 0.013550753 -0.031331822 -0.023030136 -0.0010232694 0.0041055735 0.0084482245 0.03957748
0.065545075 -0.043169316 0.031337827 0.043898515 0.12704763 -0.018014899 0.0026015842 -0.0031659268
0.0068323417 0.17672293 -0.03123635 0.0014636902 0.026619637 0.09526448 -0.038723867 -0.0037481643
-0.004268708 0.0055127176 -0.112782136 -0.011146917 -0.05468334 -0.0023810677 0.024950119 0.09158424
-0.016880931 0.007918317 -0.011138754 0.058791764 -0.0073792944 0.14433172 -0.12888183 -0.037716858
00000000: 63ff 72bd 30d5 a53c 9666 223d 15ce 9abd
00000010: 6b30 29bd 09bc 50bb 24c9 8dbc bf20 2abd
00000020: 9538 4dbd 3ecf 4ebd 5050 37bd c636 23bc
00000030: c620 e73d 19fd d0bb e431 8f3b 67d6 963c
00000040: a175 823d f9f3 c83c 87af a8bd 736d 823d
00000050: 662c b8bd f8a0 72bd a361 9e3c ace1 883c
00000060: 67a7 e8bd 204e 91bd 6f9d 80bd c677 68bd
00000070: 9fc1 8f3c abc4 51bd 1488 8c3b f5b5 c3bc
00000080: 3b24 00bd 2fe1 e8bb 5ca5 693e 582f 533c
00000090: 9fc5 b7bb 5428 e43d eb0f debd da2a 1c3c
000000a0: b440 3dbc b348 e4bd 7dea 743c b5a1 1a3b
000000b0: de9f f7ba dabc 4fbb b012 31be 5290 55bd
000000c0: 54d6 b8bb 5500 9c3b 0b02 00bd e453 38bb
000000d0: fb7d 80bd e03d 80bd cbdc 2e3d b498 85bc
000000e0: 42cb 47bb fb7a 823c a86e 733d 8834 eebc
000000f0: cf84 01bc c940 e73c b018 2d3d c81a aebd
00000100: 97a5 47bc d777 b6bc 57a9 79bc 1e38 bcbb
00000110: bccb d8bd adcf 92bc 420d 88bd 4ad4 fabd
00000120: bc70 2d3c 43ee 72bc 7f0a 1bbd 62fd eb3c
00000130: 30bc 5cbc 6a84 4c3c 27ff 6abb eaa5 43bd
00000140: 933b 16be dd3c 7b3c 9edf 51bb f1c3 173d
00000150: eb6d 92bc f1b1 e43b 52e4 14bd 0732 363c
00000160: 6b08 ad3b 39cd 04bb cd66 6d3d 94f9 bdbd
00000170: 0b21 333c cfb5 763d 01d7 293d 2315 26bc
00000180: 8c2b 3ebd 08e0 d7bd afec 89bd 0114 e73c
00000190: e00b f5bb 8c39 4f3d 6a24 523c 1797 923c
000001a0: 4ef7 2a3d cc29 98bd 4de4 4fbd 453b 3cbc
000001b0: 9858 de3c e05c 6ebc f7da a1bd b45b 043d
000001c0: 68cc 833c 69b1 a63c d21a bcbc d706 07bd
000001d0: ee91 4cbd 0069 82bd 1874 ebbc c1ef dabc
000001e0: 7b3b c83d 5e98 78bd a514 01bc 3f15 62bd
000001f0: f084 e83b 5643 b93d a7e7 53bd 8e9d a33d
00000200: d560 d13c 2c3e 48bd b2b7 a13c c418 51bb
00000210: 6511 15be ede2 c1bb 502b b9bb 5a36 7a3c
00000220: b247 38bd c01c 683c 4542 79bd fec2 b73d
00000230: 9a6f c7bc b048 4abc ac7c d0bb 66b4 3fbd
00000240: 63aa ab3c a1dc 8abd 842c 1f3d 3d92 97bd
00000250: 0f34 9a3d 30fb fb3c 12d2 903d 5d01 14bd
00000260: 71a2 ba3d 7ab1 bdbc 5daa b73d ad92 8dbd
00000270: 8eab f53b 3570 f1bd 2b7e 103d e292 4cbc
00000280: 0cd2 4dbb 7428 35bd c50b 39bd 4615 4cbd
00000290: 2f38 35bb d9c6 853c a88c b03d 3222 07be
000002a0: 4222 94bc b244 b13d da62 893d 786c 893d
000002b0: 15bc cfba e005 9bbb de36 8cbd d509 eabd
000002c0: db81 51bd dc30 2bbd f4a9 d2bc 5f5d 4cbd
000002d0: 8f54 323c 60e2 68bc ea70 44bc 0442 dcbd
000002e0: 7d70 5dbc 8ffb 4d3d 2c79 8c3b 84ea acbd
000002f0: 1c0b e23d 1a97 8c3d 3c79 71bb f4ef a7bd
00000300: 45d8 273e 5eeb f73d 1355 213e d16a 84bd
00000310: d955 2dbe 03a0 4cbd 32a8 debc 0d31 f33a
00000320: 8c0c 7a3d a0a6 bd3c 7f98 143d f6b2 9e3b
00000330: 91a0 11bd 1cef 47bd da75 80ba 0571 61bc
00000340: 6ece f33b 7051 acbd cc2c e2bb b147 4c3b
00000350: 3856 163d 5660 113d 7559 d1bd 7ba2 24bc
00000360: 1b5d 3abd fa03 5e3c cc55 00bd b2a9 bcbc
00000370: 391f 86ba 0c88 863b 6c6a 0a3c ff1b 223d
00000380: 7f3c 863d 4fd2 30bd 185c 003d eece 333d
00000390: c618 023e fb93 93bc 577f 2a3b 707b 4fbb
000003a0: d6e1 df3b dbf6 343e 60e3 ffbc 4bd9 bf3a
000003b0: 6d11 da3c 061a c33d eb9c 1ebd c3a3 75bb
000003c0: 85e0 8bbb 07a4 b43b 52fa e6bd 8fa1 36bc
000003d0: a3fb 5fbd b00b 1cbb 3164 cc3c 8590 bb3d
000003e0: e149 8abc d4bb 013c 527f 36bc a2cf 703d
000003f0: 02ce f1bb b2cb 133e 99f9 03be fe7c 1abd

action_model._discrete_distribution.branches.0.bias f4 [2]
-0.0065610902 0.006561117
00000000: 6afe d6bb a3fe d63b

action_model._discrete_distribution.branches.0.weight f4 [2, 256]
-0.02059403 -0.03235008 0.07137483 0.055689685 0.06843359 0.019239035 0.024438929 0.074225254
0.054395337 0.057184257 0.06669328 0.04179798 0.0062372927 -0.009209049 0.021349167 0.34047988
-0.24324195 -0.044082798 0.063129574 0.015341199 0.038938213 -0.008074974 -0.07308264 -0.008479188
0.008284147 0.027057672 -0.012118179 0.037001453 0.018779498 -0.015967462 0.07956244 0.060888164
0.08060698 -0.03864023 0.0184415 0.1130903 -0.018108502 -0.057015862 0.09695409 -0.039029855
0.026609706 0.093134 0.014792949 -0.041791163 -0.0020305277 0.051343262 0.017995719 0.07055586
-0.015303892 0.103911795 0.11085751 -0.020901605 0.08150903 0.011707903 0.02866329 -0.05322077
-0.042214107 0.023220133 -0.0077817007 0.04843338 0.049626905 0.035261862 0.03995859 -0.029239902
0.015691146 -0.020786844 -0.0025012048 0.036422934 -0.054219607 0.3134193 -0.037015155 0.058519848
-0.29784068 -0.04543316 -0.03346861 0.004999246 -0.032243144 0.06659878 0.040909253 -0.0207588
0.07781365 -0.1640573 -0.057773434 -0.02675234 0.121568516 0.04688183 -0.03804744 0.031138571
-0.029308183 0.04785604 -0.037898336 0.040453665 -0.16726682 -0.019882917 -0.031109491 0.074438125
0.083751306 0.04299712 0.06987184 -0.15577711 -0.01652338 0.27258846 -0.34136423 0.24544193
-0.032691162 0.016046202 0.03394518 0.050231963 0.04429841 0.048269257 0.055296823 0.010297339
0.059501316 0.033315733 0.00674568 -0.02465316 0.0090063615 0.0031465595 -0.029958315 0.00049887213
0.031817418 -0.050762895 -0.07025927 0.07765758 0.079027504 -0.004319616 0.020338714 -0.07992072
-0.014207611 0.04529167 0.039635807 0.033688556 -0.04127722 0.013058394 -0.10906446 0.041809164
-0.01433384 0.14668252 -0.053420823 -0.024561932 0.0753093 0.062489014 -0.056109034 0.07141677
0.033177394 0.057208445 -0.020889375 0.002451419 -0.09853761 -0.10124611 -0.076874115 0.051360667
-0.079859875 0.06987531 0.01731419 0.02306642 0.06040919 0.08682477 0.021109298 0.12988806
0.013929959 0.0033802832 0.032236636 0.12532945 0.008765137 -0.01095813 -0.09940153 -0.048181746
0.0056747305 0.022563022 -0.039535623 -0.08258575 0.04702619 0.0558872 0.007564352 0.037411015
0.009529962 0.058263447 0.064975984 0.068105325 0.013718238 -0.0064916583 0.022084668 0.0134721445
0.014404347 -0.053815402 0.13296148 0.014126595 -0.09036503 -0.1002794 -0.005879479 0.054339416
-0.014582378 -0.064782254 -0.12642288 -0.0045056674 -0.027925203 0.04145795 -0.04197004 -0.022643479
-0.04005504 0.0058740946 -0.03003543 -0.023243511 0.08603402 -0.04557232 0.09055837 -0.034273736
0.09328542 0.079323284 0.10365661 0.0058457092 0.024688747 -0.033198535 0.029215785 -0.020009449
-0.056099255 0.0005431538 -0.01670893 0.027173044 0.22915174 0.03062812 0.09075656 -0.16476195
-0.011248432 0.002029997 0.038286734 0.29690385 -0.028144898 0.019873574 -0.023217568 -0.003777778
-0.02809404 -0.0020324327 0.077815875 0.08562142 0.30667433 -0.039843485 0.062090408 0.049101867
0.027324488 0.0746897 -0.015092931 0.0394714 0.0067210156 0.0384129 -0.04678714 -0.05962232
0.05816473 -0.024104973 -0.02069877 -0.07730901 0.06711797 -0.09001382 -0.0006014885 -0.009652116
00000000: d0b4 a8bc 8481 04bd f82c 923d de1a 643d
00000010: e926 8c3d 2e9b 9d3c 2634 c83c 6903 983d
00000020: a5cd 5e3d 0a3a 6a3d 7d96 883d 5c34 2b3d
00000030: 3462 cc3b 8de1 16bc 73e4 ae3c 6153 ae3e
00000040: 6b14 79be 2a90 34bd 144a 813d a759 7b3c
00000050: ad7d 1f3d e54c 04bc 5aac 95bd 4bec 0abc
00000060: 3bba 073c 0da8 dd3c 548b 46bc d68e 173d
00000070: 76d7 993c 32ce 82bc a2f1 a23d de65 793d
00000080: 4615 a53d 3845 1ebd a112 973c e39b e73d
00000090: 4858 94bc 7789 69bd de8f c63d c5dd 1fbd
000000a0: 99fc d93c 0abd be3d 205e 723c 362d 2bbd
000000b0: 9a12 05bb 504d 523d c26b 933c 977f 903d
000000c0: 2dbd 7abc b5cf d43d 4309 e33d d839 abbc
000000d0: 35ee a63d 81d2 3f3c 47cf ea3c 06fe 59bd
000000e0: b3e8 2cbd 2638 be3c a3fd febb 1462 463d
000000f0: 9545 4b3d be6e 103d 9eab 233d 8588 efbc
00000100: b88a 803c 2c49 aabc 41eb 23bb 3730 153d
00000110: 6115 5ebd 7f78 a03e 349d 17bd 82b2 6f3d
00000120: 937e 98be 1f18 3abd 6216 09bd b7d0 a33b
00000130: 6311 04bd f164 883d 7690 273d 5c0e aabc
00000140: c35c 9f3d a3fe 27be d6a3 6cbd b927 dbbc
00000150: eaf8 f83d 2907 403d a2d7 1bbd 5116 ff3c
00000160: b717 f0bc b204 443d 493b 1bbd beb2 253d
00000170: fe47 2bbe 80e1 a2bc 55d9 febc 0473 983d
00000180: ce85 ab3d c01d 303d f818 8f3d 0984 1fbe
00000190: 0a5c 87bc b790 8b3e 4bc7 aebe 2155 7b3e
000001a0: 2be7 05bd 5373 833c 1a0a 0b3d 08c0 4d3d
000001b0: 4072 353d fcb5 453d ec7e 623d 2cb6 283c
000001c0: a7b7 733d 1476 083d dd0a dd3b 6cf5 c9bc
000001d0: 6b8f 133c 8236 4e3b 246b f5bc bec6 023a
000001e0: fb52 023d c1ec 4fbd 18e4 8fbd f00a 9f3d
000001f0: 2cd9 a13d 918b 8dbb 609d a63c 79ad a3bd
00000200: 0ac7 68bc c283 393d 2859 223d 03fd 093d
00000210: 4d12 29bd e0f2 553c 305d dfbd 1640 2b3d
00000220: 7cd8 6abc f133 163e cbcf 5abd 1b36 c9bc
00000230: c33b 9a3d 7bf4 7f3d 96d2 65bd f542 923d
00000240: 05e5 073d 6753 6a3d 3220 abbc fca7 203b
00000250: 16ce c9bd 1f5a cfbd 2d70 9dbd 905f 523d
00000260: 938d a3bd c91a 8f3d 7dd6 8d3c caf5 bc3c
00000270: a06f 773d 2fd1 b13d 68ed ac3c 6001 053e
00000280: 7c3a 643c be87 5d3b 900a 043d 5d56 003e
00000290: a69b 0f3c ba89 33bc 0893 cbbd 395a 45bd
000002a0: 17f3 b93b 16d6 b83c 1bf0 21bd b822 a9bd
000002b0: 899e 403d fae9 643d 62de f73b 4b3c 193d
000002c0: 8f23 1c3c a7a5 6e3d 2112 853d ce7a 8b3d
000002d0: 76c2 603c fab7 d4bb e8ea b43c 45ba 5c3c
000002e0: 3600 6c3c 8a6d 5cbd 0e27 083e 3c73 673c
000002f0: 4d11 b9bd 495f cdbd a5a8 c0bb 0293 5e3d
00000300: edea 6ebc 8fac 84bd 0075 01be 47a4 93bb
00000310: 65c3 e4bc d0cf 293d c7e8 2bbd d17e b9bc
00000320: c110 24bd 7a7b c03b dd0c f6bc 2d69 bebc
00000330: 9b32 b03d 0baa 3abd ab76 b93d 9e62 0cbd
00000340: 6d0c bf3d 3f74 a23d eb49 d43d 5d8d bf3b
00000350: 0e40 ca3c 30fb 07bd f155 ef3c dbea a3bc
00000360: 55c8 65bd 6f62 0e3a 2ae1 88bc 019a de3c
00000370: c1a6 6a3e d3e7 fa3c 93de b93d 5bb7 28be
00000380: 584b 38bc b309 053b 8dd2 1c3d c803 983e
00000390: 2190 e6bc e8cd a23c c532 bebc 9994 77bb
000003a0: 7925 e6bc 9032 05bb ee5d 9f3d 485a af3d
000003b0: 6b04 9d3e ec32 23bd 8352 7e3d 0a1f 493d
000003c0: 9bd7 df3c eaf6 983d 5748 77bc c3ac 213d
000003d0: f73b dc3b d856 1d3d dfa3 3fbd 8936 74bd
000003e0: 243e 6e3d cb77 c5bc 7890 a9bc 3054 9ebd
000003f0: 2575 893d 2a59 b8bd 36ad 1dba e923 1ebc

network_body.linear_encoder.seq_layers.0.bias f4 [256]
-0.023952236 -0.18328354 0.018442517 -0.0043907533 0.06533388 0.004150833 0.054393705 0.07063612
-0.041921463 0.0841736 -0.013227082 -0.016669462 -0.053895287 -0.13307017 -0.015809799 0.016843323
0.07695704 -0.05616885 -0.031052133 -0.001222859 -0.11112557 0.07681213 -0.065469906 0.015304452
-0.03933405 0.10663318 0.11972229 -0.130344 -0.07132742 -0.03825899 -0.07090769 0.051524784
-0.012780412 0.0032302884 -0.11087698 0.13793355 0.09402618 -0.053953953 -0.0035309421 -0.2049382
0.015602708 -0.17798929 -0.1553981 -0.2067949 -0.032252416 -0.11039848 0.058265336 -0.060942367
-0.12578873 -0.0065119034 0.05305097 -0.056815315 -0.04976526 -0.025395535 -0.10516168 -0.037615232
-0.11194367 -0.08068992 -0.015345523 -0.06426442 -0.2215487 0.033885658 -0.1029269 0.013691067
-0.13298254 -0.07982912 -0.10274098 -0.1214117 -0.07527671 0.04101496 -0.014723682 -0.13815288
-0.22457479 0.022502048 -0.048305783 -0.00020259996 -0.090733856 -0.01389099 0.100383736 0.072482
-0.103731416 -0.009118725 0.020668266 0.023249753 -0.1308644 0.08683082 0.04003054 -0.02700555
-0.06437791 -0.11212353 -0.08677858 0.013502171 -0.08288611 -0.08127668 0.08573902 -0.0894681
-0.008507648 -0.026513156 0.16825639 -0.1140424 -0.21104835 0.034654148 -0.14428487 -0.10401284
-0.07943496 0.021784153 -0.08163635 -0.032515638 -0.16334584 0.011138104 -0.1542802 -0.11610363
-0.06521604 -0.03974316 0.045863565 -0.048814308 -0.11421626 0.09011055 0.046501365 -0.009902529
-0.14553647 -0.007508985 -0.055007294 -0.09804313 -0.049044926 -0.1462485 -0.060008112 0.108399466
-0.040803757 0.09596697 -0.11327043 -0.054776482 -0.06293179 0.020778354 -0.07862556 -0.0977532
0.13005531 -0.043439057 -0.057289004 0.008305958 -0.054598782 -0.036434863 -0.04798447 -0.024311958
0.114359744 -0.04709814 0.007710264 0.13028266 0.009943517 -0.010500894 0.046258822 0.17131865
0.0005615131 -0.081531905 -0.03907634 0.060517203 -0.10367665 0.008534877 0.06936079 -0.05814433
0.07158221 0.11123982 -0.06297484 -0.100794576 0.004353445 -0.08829211 -0.09802093 0.026742214
-0.0066805123 -0.14316446 -0.068093784 -0.04565335 0.042330157 -0.13101697 0.0026313064 -0.1340241
-0.12032271 -0.09073046 -0.082096614 -0.1927139 -0.1367129 -0.055921547 -0.06587056 -0.091798894
-0.1247026 -0.07936655 -0.0036285687 -0.099691845 -0.1562845 0.01613042 -0.095623605 -0.041424114
-0.04677934 -0.0416844 -0.06087039 0.0015836932 0.15094166 -0.094909966 -0.1469294 -0.055212997
-0.051774733 0.06622605 -0.014384238 -0.054767024 0.12399442 0.017789142 -0.043562833 0.034232926
0.27523568 0.028320596 -0.21944663 0.09071108 -0.06413937 -0.118829206 -0.058709875 -0.08126818
0.039850693 0.03261316 -0.0149168 -0.07051566 -0.08614108 -0.0149829285 -0.041109327 -0.10292341
-0.16420761 -0.0072555547 -0.0989261 -0.0008315519 -0.028490834 -0.109218344 -0.02645636 -0.09554192
-0.116383225 0.0033106287 -0.023743456 0.0028271577 0.05587689 -0.15748514 -0.13720912 0.044325612
-0.02355661 -0.12693524 -0.02523171 0.05274293 -0.027688712 -0.03788136 0.0025489149 -0.12859587
-0.0628452 -0.015266308 0.00469585 -0.106927976 -0.042806618 -0.068171754 0.12931944 -0.07576272
00000000: 7b37 c4bc aeae 3bbe c314 973c 4fe0 8fbb
00000010: c5cd 853d b603 883b efcb 5e3d aca9 903d
00000020: d7b5 2bbd 3563 ac3d 67b6 58bc 658e 88bc
00000030: 4ec1 5cbd 8c43 08be 8d83 81bc 02fb 893c
00000040: a79b 9d3d 4f11 66bd 0b61 febc 5748 a0ba
00000050: ce95 e3bd ae4f 9d3d 1615 86bd 86bf 7a3c
00000060: be1c 21bd 7f62 da3d f630 f53d e678 05be
00000070: 1c14 92bd 75b5 1cbd 0d38 91bd a70b 533d
00000080: ef64 51bc 3fb3 533b 7813 e3bd 743e 0d3e
00000090: cc90 c03d d2fe 5cbd 6167 67bb 52db 51be
000000a0: 80a2 7f3c d342 36be ae20 1fbe 0bc2 53be
000000b0: 1c1b 04bd 9918 e2bd a2a7 6e3d b49e 79bd
000000c0: c3ce 00be ce61 d5bb f94b 593d 2db7 68bd
000000d0: a8d6 4bbd 4c0a d0bc 025f d7bd 6e12 1abd
000000e0: b942 e5bd c240 a5bd ca6b 7bbc 109d 83bd
000000f0: aadd 62be b0cb 0a3d 57cb d2bd 7f50 603c
00000100: 932c 08be 737d a3bd dd69 d2bd b3a6 f8bd
00000110: ad2a 9abd 4dff 273d 993b 71bc f377 0dbe
00000120: eff6 65be 3756 b83c 49dc 45bd 0371 54b9
00000130: acd2 b9bd 0997 63bc fd95 cd3d 7171 943d
00000140: 2371 d4bd b466 15bc 7f50 a93c 4476 be3c
00000150: 5101 06be 5bd4 b13d 10f7 233d be3a ddbc
00000160: 91d8 83bd 05a1 e5bd f8b8 b1bd 3638 5d3c
00000170: 31c0 a9bd 6374 a6bd f097 af3d 0d3b b7bd
00000180: a963 0bbc 1e32 d9bc 674b 2c3e 108f e9bd
00000190: 0f1d 58be 82f1 0d3d 6abf 13be af04 d5bd
000001a0: ccae a2bd ae74 b23c f530 a7bd 1e2f 05bd
000001b0: 2244 27be 987c 363c a1fb 1dbe bdc7 edbd
000001c0: fd8f 85bd b9c9 22bd 6fdb 3b3d 83f1 47bd
000001d0: 37ea e9bd e18b b83d 3778 3e3d 383e 22bc
000001e0: 8307 15be ef0d f6bb 544f 61bd d6ca c8bd
000001f0: 55e3 48bd 2bc2 15be 11cb 75bd 8a00 de3d
00000200: d721 27bd 558a c43d 54fa e7bd 4e5d 60bd
00000210: 62e2 80bd 5e37 aa3c 7006 a1bd d432 c8bd
00000220: 382d 053e 27ed 31bd e0a7 6abd b615 083c
00000230: f9a2 5fbd b93c 15bd 5d8b 44bd df29 c7bc
00000240: 7135 ea3d fbe9 40bd 62a6 fc3b d168 053e
00000250: 22ea 223c f10b 2cbc e479 3d3d 286e 2f3e
00000260: 8232 133a 33fa a6bd 830e 20bd e3e0 773d
00000270: 6c54 d4bd ded5 0b3c 080d 8e3d c028 6ebd
00000280: b299 923d b4d1 e33d f4f8 80bd 636d cebd
00000290: 58a7 8e3b 7ed2 b4bd 33bf c8bd 7d12 db3c
000002a0: 33e8 dabb b499 12be c174 8bbd 02ff 3abd
000002b0: 6362 2d3d 5029 06be ff71 2c3b 9d3d 09be
000002c0: c16b f6bd e4d0 b9bd 4522 a8bd cb56 45be
000002d0: 77fe 0bbe fe0d 65bd 25e7 86bd 0f01 bcbd
000002e0: 1464 ffbd ee8a a2bd 48cd 6dbb 3d2b ccbd
000002f0: 0b09 20be f123 843c 4fd6 c3bd 55ac 29bd
00000300: b19b 3fbd 43bd 2abd 3b53 79bd ed93 cf3a
00000310: 7390 1a3e 2860 c2bd a974 16be 0627 62bd
00000320: be11 54bd 86a1 873d deab 6bbc 6353 60bd
00000330: c9f0 fd3d 89ba 913c f16e 32bd d337 0c3d
00000340: b1eb 8c3e 9800 e83c 9eb6 60be bbc6 b93d
00000350: 815b 83bd ba5c f3bd c479 70bd ee6f a6bd
00000360: 7b3a 233d 6095 053d 9865 74bc 846a 90bd
00000370: bc6a b0bd f57a 75bc 4162 28bd 82c9 d2bd
00000380: 0a26 28be 01c0 edbb c499 cabd 81fc 59ba
00000390: 9c65 e9bc dead dfbd 02bb d8bc 7bab c3bd
000003a0: 545a eebd 22f7 583b a381 c2bc d647 393b
000003b0: 2adf 643d c943 21be 8c80 0cbe c68e 353d
000003c0: cbf9 c0bc 50fb 01be bbb2 cebc f808 583d
000003d0: 70d3 e2bc 7c29 1bbd b20b 273b a3ae 03be
000003e0: fcb4 80bd 891f 7abc a5df 993b 0efd dabd
000003f0: fe55 2fbd a29d 8bbd 516c 043e 7c29 9bbd

network_body.linear_encoder.seq_layers.0.weight f4 [256, 266]
-0.24362595 -0.0113440845 0.09207015 -0.010014882 -0.18121251 0.06760727 -0.322646 -0.043239936
0.024383316 -0.07150479 -0.051473387 -0.28473917 -0.06705816 0.020541728 0.047212202 0.0060664606
-0.20868112 -0.15189576 -0.31708494 -0.16202761 -0.34299552 -0.1448119 -0.12042043 -0.11555049
0.0076503516 -0.090933494 -0.12427919 -0.009350233 0.14743607 -0.101597905 0.1615564 -0.12129494
0.03539829 0.09060762 0.113925256 -0.08783742 -0.06893077 0.08761905 -0.21594708 -0.11780296
-0.14564358 0.05578556 -0.10238791 0.11020758 -0.30172816 -0.013615515 0.08584207 -0.0032513891
-0.06495744 -0.0069544245 0.07635807 -0.09378571 -0.16494751 0.0116153415 0.041417323 -0.0016797133
-0.12424427 0.03329138 -0.024860812 -0.3124224 0.19723338 -0.117762595 -0.017513873 -0.0067302836
-0.072308615 -0.26728046 -0.3051829 -0.07278592 -0.0075926287 0.02777092 0.1572208 -0.099983014
0.1467935 -0.23716795 -0.0042626616 -0.07983192 -0.19033028 -0.23286188 -0.15293744 0.087289415
-0.052105576 -0.016256653 -0.31758267 0.04754005 0.0031301037 -0.37169686 0.051090833 -0.2702003
-0.11195853 -0.020801056 0.03415454 -0.078571476 -0.044025917 -0.17836843 0.11447707 -0.18983756
-0.11905368 0.11241183 -0.04556547 0.056252893 -0.10970455 -0.18200602 -0.019592075 -0.030987741
-0.15737672 -0.01932026 -0.13693483 -0.021078283 -0.2891874 -0.03503534 -0.21743006 0.06069739
-0.07051763 -0.07696697 -0.047039986 0.060357563 -0.0028158268 0.107870564 0.13700536 -0.22530968
-0.0705453 0.006382726 -0.103174604 -0.11383631 -0.22133164 -0.1403279 -0.09948515 0.08658835
-0.026765814 -0.12468928 0.07192549 -0.2541304 -0.08383682 -0.06963823 0.03744377 0.07464111
-0.004331117 -0.22629271 -0.120478764 -0.08462864 -0.16439214 0.16758847 -0.15800908 -0.2704926
-0.09029962 0.042076856 -0.02943034 0.12301187 -0.04921279 -0.12610653 -0.036418047 0.14837343
0.1071205 -0.23558925 -0.014630375 -0.12147654 -0.06635728 -0.07299148 -0.0027034418 0.016984213
0.14887461 -0.44006968 -0.33503348 -0.28771672 0.02303507 -0.04741372 -0.08209061 -0.050005805
0.038686354 0.0427267 -0.020936638 -0.11436213 -0.0509908 0.0937659 -0.088809974 -0.010776722
0.02666358 -0.03344506 0.05490969 -0.17058218 0.17761073 0.12166758 -0.19228677 -0.3492928
-0.045108672 -0.0129171545 -0.32991812 0.119829945 -0.082353175 0.020152245 -0.082594946 -0.10625544
-0.036949754 0.15234134 0.0057221293 -0.08712752 -0.24187881 0.06372125 -0.1880735 0.09328611
-0.100564964 -0.20299478 -0.061156657 0.0017790217 -0.25178173 -0.090563886 -0.33583978 -0.38964114
0.18597633 -0.3043106 -0.1091613 -0.25093877 0.1357306 0.015453677 0.09153634 0.11964981
-0.13291939 -0.14442705 0.073392384 -0.13142717 -0.12081966 -0.015342188 -0.037205707 -0.14079797
0.08896733 0.10145091 -0.06566375 0.12000664 0.068439774 -0.008639504 0.039192 -0.043576546
-0.14337754 0.02524343 0.110986516 -0.2163579 0.060237084 -0.20108844 -0.015320419 -0.16755985
-0.150046 -0.16838248 0.1638788 -0.11458928 0.228326 0.21360402 -0.12986769 -0.20749219
0.07695102 -0.2263572 0.09537911 -0.030482098 0.022098297 0.1918688 -0.15571597 -0.073432274
00000000: 1579 79be 8adc 39bc 468f bc3d 7615 24bc
00000010: c68f 39be ae75 8a3d db31 a5be 5c1c 31bd
00000020: 85bf c73c 1a71 92bd c2d5 52bd 55c9 91be
00000030: ca55 89bd 2047 a83c 9561 413d 29c9 c63b
00000040: 81b0 55be 908a 1bbe f558 a2be 91ea 25be
00000050: 1c9d afbe 9249 14be fd9e f6bd bca5 ecbd
00000060: cdaf fa3b 573b babd 1786 febd b831 19bc
00000070: 7bf9 163e 9012 d0bd 0a6f 253e 7b69 f8bd
00000080: ccfd 103d 7d90 b93d a551 e93d 1be4 b3bd
00000090: 932b 8dbd 9e71 b33d 3b21 5dbe ae42 f1bd
000000a0: 9723 15be 667f 643d c1b0 d1bd 83b4 e13d
000000b0: 1d7c 9abe 9c13 5fbc f8cd af3d 4215 55bb
000000c0: 6808 85bd f1e1 e3bb 9f61 9c3d b912 c0bd
000000d0: 00e8 28be 464e 3e3c 36a5 293d d329 dcba
000000e0: c873 febd 8b5c 083d e7a8 cbbc d4f5 9fbe
000000f0: 8cf7 493e 842d f1bd 4179 8fbc b689 dcbb
00000100: 8a16 94bd fcd8 88be ef40 9cbe c910 95bd
00000110: 96cb f8bb d77f e33c 7dfe 203e e5c3 ccbd
00000120: 0951 163e 28dc 72be ccad 8bbb eb7e a3bd
00000130: f1e5 42be 5873 6ebe a29b 1cbe cbc4 b23d
00000140: a86c 55bd ac2c 85bc 329a a2be 5bb9 423d
00000150: 6d22 4d3b 0d4f bebe 9f44 513d b257 8abe
00000160: 844a e5bd fa66 aabc a2e5 0b3d 15ea a0bd
00000170: 8554 34bd 37a6 36be f472 ea3d c764 42be
00000180: 6ad2 f3bd 2c38 e63d dca2 3abd 6f69 663d
00000190: c7ac e0bd c95f 3abe 8f7f a0bc 01da fdbc
000001a0: 5d27 21be 8645 9ebc a538 0cbe 5dac acbc
000001b0: 5f10 94be 3781 0fbd fca5 5ebe d49d 783d
000001c0: 8c6b 90bd dca0 9dbd 00ad 40bd 7e39 773d
000001d0: bc89 38bb 3eeb dc3d 224b 0c3e 95b7 66be
000001e0: 0e7a 90bd 3026 d13b 354d d3bd 0323 e9bd
000001f0: c3a4 62be 1eb2 0fbe dfbe cbbd 3c55 b13d
00000200: fb43 dbbc 185d ffbd ac4d 933d 611d 82be
00000210: a4b2 abbd 7d9e 8ebd a35e 193d 70dd 983d
00000220: 0bec 8dbb 47b9 67be 92bd f6bd c851 adbd
00000230: 6a56 28be 509c 2b3e 22cd 21be 027e 8abe
00000240: 02ef b8bd c858 2c3d e517 f1bc a6ed fb3d
00000250: 5a93 49bd 1222 01be 172b 15bd 34ef 173e
00000260: fe61 db3d 4f3e 71be 3eb4 6fbc b1c8 f8bd
00000270: 53e6 87bd 8f7c 95bd 3a2c 31bb 7a22 8b3c
00000280: 9672 183e d050 e1be 8289 abbe 9b4f 93be
00000290: 0bb4 bc3c e434 42bd 1f1f a8bd e3d2 4cbd
000002a0: 9575 1e3d 3102 2f3d 5083 abbc b136 eabd
000002b0: bbdb 50bd 5608 c03d 01e2 b5bd d990 30bc
000002c0: 956d da3c b0fd 08bd fce8 603d 18ad 2ebe
000002d0: 96df 353e da2c f93d d3e6 44be 82d6 b2be
000002e0: dfc3 38bd 79a2 53bc 07eb a8be 6769 f53d
000002f0: c8a8 a8bd 5216 a53c 8a27 a9bd 749c d9bd
00000300: a058 17bd 5eff 1b3e b380 bb3b ea6f b2bd
00000310: 14af 77be 4980 823d 5796 40be ca0c bf3d
00000320: 01f5 cdbd dddd 4fbe 677f 7abd 102e e93a
00000330: 89e9 80be 8f79 b9bd 31f3 abbe 0b7f c7be
00000340: 9470 3e3e 99ce 9bbe f68f dfbd 0c7b 80be
00000350: f6fc 0a3e 6b31 7d3c 6877 bb3d f60a f53d
00000360: 051c 08be afe4 13be bf4e 963d d894 06be
00000370: 4c70 f7bd cd5d 7bbc 0365 18bd 582d 10be
00000380: 8134 b63d 7fc5 cf3d b77a 86bd 0bc6 f53d
00000390: 272a 8c3d b58c 0dbc ca87 203d 527d 32bd
000003a0: 90d1 12be 4fcb ce3c e64c e33d ed8c 5dbe
000003b0: 29bb 763d 21ea 4dbe 7f02 7bbc cf94 2bbe
000003c0: a9a5 19be 756c 2cbe d8cf 273e c9ad eabd
000003d0: 4ace 693e 03bb 5a3e 09fc 04be d578 54be
000003e0: 7f98 9d3d 2fca 67be 1f56 c33d 98b5 f9bc
000003f0: 7d07 b53c 4179 443e 0274 1fbe a963 96bd

network_body.linear_encoder.seq_layers.2.bias f4 [256]
-0.01965349 -0.088337734 -0.11265394 0.031222325 -0.07932721 -0.09128292 -0.105946705 -0.045377593
-0.03432265 -0.046002038 -0.032751985 -0.09048977 -0.084826 -0.14828475 -0.11635467 0.0009586012
-0.033355556 -0.1109781 -0.031064149 -0.14054394 -0.076493315 -0.05018599 -0.07336064 -0.19761276
0.043579686 -0.010095885 -0.04646092 -0.09899202 -0.06354288 -0.012204331 -0.1725569 -0.043195635
-0.0113306865 -0.07996798 -0.0038710372 -0.012862164 0.019932836 -0.11889629 0.024841605 -0.103971235
-0.11275419 0.021694781 -0.1325392 0.047227737 -0.15146887 -0.02983078 0.08458949 -0.049569137
-0.019133938 -0.16766359 -0.020050468 -0.07292467 -0.0009866115 0.034232363 -0.09849645 0.012691227
-0.0054459595 -0.08443116 -0.010720206 -0.10629079 -0.11878279 -0.20112738 -0.08355852 -0.15100837
-0.10700664 -0.16001481 -0.09590079 -0.0888211 -0.0037412585 0.0017644373 -0.09015026 -0.15741153
0.010469445 -0.054439846 -0.026651654 -0.09924654 -0.09520061 -0.13569309 -0.13062757 -0.048174098
-0.09526011 -0.019509505 -0.07606367 0.25947315 -0.104663774 -0.067655765 -0.12900428 0.054678872
-0.0999361 -0.17719622 -0.16804795 -0.059241973 2.213029e-05 -0.17520054 -0.1057315 -0.11256103
-0.081559606 -0.030940901 0.0079316525 -0.03683 -0.1637982 0.06045926 0.022745855 -0.020281322
-0.08539346 -0.011598487 0.025542531 -0.17661124 -0.17516914 -0.08291235 -0.15801501 0.24863525
-0.07562264 -0.04363921 -0.1754545 -0.07882941 0.18316378 -0.04430049 -0.019346023 -0.117491916
-0.00366185 -0.08890285 -0.04145198 -0.03820737 -0.13317086 -0.15877064 -0.060807824 -0.08417134
0.22104004 0.018533044 -0.13324867 -0.17199503 0.1063031 -0.12762304 -0.04219899 -0.030578079
-0.08751624 -0.1308604 -0.19403408 -0.1273825 -0.0609893 -0.114283115 -0.0916191 -0.055559795
-0.06320443 0.004296299 -0.114962235 0.10825425 -0.102008566 -0.09037799 -0.08458469 -0.10736037
-0.19295157 -0.020996638 -0.037429217 0.051312033 -0.19077425 -0.05701316 -0.13294756 -0.15741774
-0.10439101 -0.026613772 -0.016346939 0.022577982 0.039426543 -0.15751445 -0.16111264 0.08001826
0.06576654 -0.09674648 -0.094553135 -0.060239505 -0.13993016 -0.15352738 -0.020291444 0.0030154448
-0.17555463 -0.03265184 -0.019924207 -0.13745339 0.13396107 -0.095023006 -0.019820187 -0.16103037
-0.1300124 -0.057385605 -0.08272343 -0.012489162 -0.1863718 -0.15936992 0.0048280107 -0.036885712
-0.2513011 -0.15896367 0.08315008 -0.051187206 0.09699764 -0.0835059 -0.07411875 -0.0764497
-0.1807511 0.18691899 -0.06134258 -0.08789748 -0.042279847 -0.12077001 -0.013722164 -0.031170435
-0.18792877 -0.030934887 -0.12581564 0.04804498 -0.110916466 -0.1323766 -0.09973722 -0.07450279
-0.08829698 -0.1295498 -0.121100105 -0.11627427 0.05899291 -0.09781915 -0.1519952 -0.06597549
-0.074672386 -0.044697464 -0.14396414 0.027614934 0.13146864 -0.14354314 -0.12518384 -0.007895421
-0.07740851 0.019677985 -0.040288284 -0.18731901 -0.036261387 -0.08902779 -0.013987213 -0.18328811
-0.08339479 -0.054515075 -0.20968291 -0.038272064 -0.074690565 -0.07229179 -0.03825774 -0.15036218
-0.17585155 -0.16940472 -0.13879922 -0.052272756 -0.22587621 -0.1460867 -0.104257084 -0.15215294
00000000: 5b00 a1bc 6aea b4bd 1cb7 e6bd f6c5 ff3c
00000010: 4e76 a2bd 8af2 babd 96fa d8bd dbdd 39bd
00000020: e895 0cbd a26c 3cbd f226 06bd b352 b9bd
00000030: 41b9 adbd f5d7 17be 5b4b eebd a34a 7b3a
00000040: d69f 08bd 7c48 e3bd 3e7a febc c0ea 0fbe
00000050: 87a8 9cbd d38f 4dbd 1a3e 96bd 005b 4abe
00000060: 9d80 323d 3669 25bc ce4d 3ebd 54bc cabd
00000070: c522 82bd adf4 47bc c2b2 30be e8ed 30bd
00000080: 58a4 39bc 41c6 a3bd 3ab1 7dbb d3bb 52bc
00000090: 304a a33c e67f f3bd 9f80 cb3c dfee d4bd
000000a0: abeb e6bd 41b9 b13c 5bb8 07be df71 413d
000000b0: a81a 1bbe ae5f f4bc 413d ad3d 0209 4bbd
000000c0: c7be 9cbc 01b0 2bbe e140 a4bc 8859 95bd
000000d0: 3051 81ba 3c37 0c3d 82b8 c9bd ddee 4f3c
000000e0: 0574 b2bb 3eea acbd cea3 2fbc fcae d9bd
000000f0: 6444 f3bd 56f4 4dbe bb20 abbd f0a1 1abe
00000100: 4c26 dbbd ecda 23be a267 c4bd d6e7 b5bd
00000110: e72f 75bb b144 e73a b3a0 b8bd 7d30 21be
00000120: 0988 2b3c 51fc 5ebd 9254 dabc c541 cbbd
00000130: 8af8 c2bd 21f3 0abe 3cc3 05be 3452 45bd
00000140: bc17 c3bd 66d2 9fbc 45c7 9bbd aad9 843e
00000150: f659 d6bd 1b8f 8abd b319 04be f4f6 5f3d
00000160: 4cab ccbd ed72 35be c314 2cbe b6a7 72bd
00000170: 70a4 b937 c567 33be c289 d8bd 6686 e6bd
00000180: b908 a7bd c677 fdbc c3f3 013c 0edb 16bd
00000190: b7ba 27be 21a4 773d 8455 ba3c 0425 a6bc
000001a0: c4e2 aebd 9507 3ebc 923e d13c 94d9 34be
000001b0: 8a5f 33be f3cd a9bd b0ce 21be 3d9a 7e3e
000001c0: 0be0 9abd 07bf 32bd 58aa 33be 5071 a1bd
000001d0: 498f 3b3e 6e74 35bd 8d7b 9ebc 9a9f f0bd
000001e0: a6fb 6fbb b312 b6bd 8dc9 29bd 557f 1cbd
000001f0: f15d 08be c594 22be a011 79bd 0662 acbd
00000200: 5258 623e 9cd2 973c 5772 08be 771f 30be
00000210: 71b5 d93d 9daf 02be d9d8 2cbd e17e fabc
00000220: b73b b3bd 4500 06be dfb0 46be 8f70 02be
00000230: ebcf 79bd 440d eabd cba2 bbbd ab92 63bd
00000240: 5371 81bd f8c7 8c3b 5271 ebbd 67b4 dd3d
00000250: dee9 d0bd 1818 b9bd bd3a adbd c1df dbbd
00000260: 1995 45be 2401 acbc 614f 19bd 912c 523d
00000270: 535a 43be a286 69bd 6823 08be 1e32 21be
00000280: f4ca d5bd 2005 dabc 04ea 85bc 76f5 b83c
00000290: ba7d 213d 784b 21be b6fa 24be 9de0 a33d
000002a0: 9cb0 863d 0523 c6bd 13a5 c1bd b3bd 76bd
000002b0: da49 0fbe 4836 1dbe 3e3a a6bc c59e 453b
000002c0: 98c4 33be f0bd 05bd 1738 a3bc 95c0 0cbe
000002d0: 172d 093e 6c9b c2bd f25d a2bc 25e5 24be
000002e0: f821 05be 2b0d 6bbd e76a a9bd 589f 4cbc
000002f0: 40d8 3ebe de31 23be 4a34 9e3b 7915 17bd
00000300: 8aaa 80be 5fc7 22be 974a aa3d ada9 51bd
00000310: b3a6 c63d 2405 abbd 92cb 97bd a991 9cbd
00000320: d116 39be b167 3f3e 5b42 7bbd 9803 b4bd
00000330: a22d 2dbd 4456 f7bd edd2 60bc 2459 ffbc
00000340: 6670 40be 296b fdbc d1d5 00be d0ca 443d
00000350: 2c28 e3bd bb8d 07be 0743 ccbd eb94 98bd
00000360: 0cd5 b4bd b4a8 04be 5503 f8bd 3421 eebd
00000370: 8da2 713d 6855 c8bd a1a4 1bbe 281e 87bd
00000380: d6ed 98bd b014 37bd 566b 13be b738 e23c
00000390: b79f 063e f9fc 12be 3130 00be cc5b 01bc
000003a0: 5a88 9ebd ba33 a13c 5405 25bd 8ed0 3fbe
000003b0: d286 14bd 3454 b6bd a02a 65bc e1af 3bbe
000003c0: e3ca aabd 334b 5fbd 1eb7 56be 2bc3 1cbd
000003d0: 5ef7 98bd b80d 94bd 26b4 1cbd 8bf8 19be
000003e0: 6e12 34be 6e78 2dbe 6221 0ebe f51b 56bd
000003f0: 184c 67be c097 15be bd84 d5bd fbcd 1bbe

network_body.linear_encoder.seq_layers.2.weight f4 [256, 256]
-0.09294762 0.080705166 0.07497337 -0.026263846 -0.12123315 0.08506538 -0.009393004 0.03317732
0.093988866 -0.12384338 0.07768948 -0.20873712 -0.060155556 0.026513273 -0.06762651 -0.076277204
-0.073312774 -0.027498608 0.087651595 -0.024648435 -0.10439537 0.111836664 0.09249883 0.0062191994
0.145517 -0.02499784 -0.11639049 0.002692357 -0.095399514 0.02664391 0.122082554 -0.010339152
-0.119020976 -0.071174204 0.08243078 0.09636012 -0.005401286 -0.01190101 -0.029209746 0.07865587
-0.098143324 -0.0006495389 0.09337205 -0.15307647 -0.026144793 0.03158656 0.020801894 -0.057984892
-0.008447823 -0.10947885 -0.07945123 0.0084831305 0.06868604 -0.036352124 -0.084139846 0.048959628
-0.043083385 -0.0645973 -0.007729604 0.07783711 0.048737973 0.14121017 0.11242382 0.13602556
0.021148724 -0.06557639 -0.059107866 -0.14358602 -0.060074892 0.17555042 0.12183696 0.009085722
0.060803603 -0.217277 0.15073727 -0.08252093 0.16885343 -0.14598836 -0.015330089 -0.005876295
-0.04844135 -0.047768712 -0.084906116 -0.011486239 0.25753778 -0.20407596 0.010697284 0.0783076
0.12726146 -0.08484418 -0.055389978 -0.06764871 -0.0049472786 -0.02532281 -0.044598255 0.0797832
0.038840983 -0.09382633 -0.04413826 0.054361187 -0.08861415 -0.010331003 0.1215833 0.027326126
0.048611857 0.021817604 0.2758377 0.07457715 0.043898005 -0.03833221 0.04533133 0.022695582
0.014648179 0.093920104 -0.17476296 0.06882693 0.058928322 -0.109410286 -0.17576215 -0.050185848
0.002441161 -0.11287722 0.073733784 0.10017679 -0.043500666 -0.02394992 -0.07102899 -0.21231839
-0.07227028 -0.12329483 -0.03739728 0.0025928316 -0.10118508 -0.1938419 -0.15536755 -0.1967847
0.036964912 -0.112646125 -0.017771663 0.07431299 -0.08496535 0.089446515 0.052475546 -0.01816245
-0.11992855 -0.076569736 0.09356673 0.009196435 -0.0324808 -0.089126505 -0.025319986 -0.016378235
-0.14723848 0.0636307 0.026878035 0.059858784 -0.00865397 0.00707927 -0.012051636 -0.0673908
-0.1486563 -0.105315626 0.030153295 -0.006284725 0.12866732 -0.05819912 -0.030452823 -0.042994324
-0.055265978 0.09235508 0.116082 0.061443757 -0.10711284 0.23076396 -0.10734599 -0.037960567
-0.049881935 -0.12451373 -0.07054245 -0.0083835805 0.03887815 -0.13169281 -0.028351149 -0.11005997
0.15964091 -0.027304005 0.061518207 0.058062237 -0.09170482 0.0021282544 -0.07577274 -0.130067
-0.013113112 -0.0074087135 0.1460175 -0.19581203 0.023343775 0.15975675 0.07383003 -0.0021103816
0.053564355 0.001814822 0.035233736 -0.018528305 -0.05596608 -0.039082598 0.0143201435 0.02020443
-0.058386657 -0.033939075 -0.014962778 -0.09807941 -0.030900037 0.06976921 -0.11048673 0.04577448
-0.17250735 -0.0544206 -0.18397233 0.0016681879 0.03125056 -0.07101746 0.1591405 -0.095387794
-0.15039283 0.010556545 0.042103328 -0.019880436 0.10084129 0.00436132 0.013241945 -0.08744483
0.220366 0.039468244 0.09410035 0.014689737 -0.0077067837 0.025492422 -0.009052058 0.06641324
0.16640683 -0.17133561 0.06613378 -0.18114124 -0.0138139995 0.040632505 -0.03807537 0.08877374
-0.06828379 -0.004742761 -0.1824377 0.009046544 -0.042727113 -0.07781267 0.06125197 0.0380904
00000000: 525b bebd c048 a53d a38b 993d 4727 d7bc
00000010: 1649 f8bd c236 ae3d 1de5 19bc f1e4 073d
00000020: 3c7d c03d 99a1 fdbd a91b 9f3d 2fbf 55be
00000030: ac65 76bd 5d32 d93c c57f 8abd 3937 9cbd
00000040: 0225 96bd c344 e1bc ae82 b33d 84eb c9bc
00000050: 3dcd d5bd 9f0a e53d 0770 bd3d 6dca cb3b
00000060: 6902 153e 45c8 ccbc 235e eebd 4172 303b
00000070: d260 c3bd 5444 da3c 6b06 fa3d 8c65 29bc
00000080: 45c1 f3bd c8c3 91bd 78d1 a83d 7458 c53d
00000090: 45fd b0bb 74fc 42bc 4749 efbc 5416 a13d
000000a0: 5eff c8bd d145 2aba d839 bf3d 14c0 1cbe
000000b0: 9b2d d6bc e960 013d bc68 aa3c 9181 6dbd
000000c0: bd68 0abc 7336 e0bd 54b7 a2bd d4fc 0a3c
000000d0: 44ab 8c3d f7e5 14bd 8351 acbd e489 483d
000000e0: 3478 30bd 974b 84bd 9e48 fdbb 1069 9f3d
000000f0: 78a1 473d 6699 103e 763e e63d 494a 0b3e
00000100: 1740 ad3c ea4c 86bd 171b 72bd 3708 13be
00000110: 1711 76bd 7dc3 333e a885 f93d 48dc 143c
00000120: 330d 793d dd7d 5ebe df5a 1a3e bc00 a9bd
00000130: eae7 2c3e f97d 15be 0e2b 7bbc ef8d c0bb
00000140: 706a 46bd 20a9 43bd 42e3 adbd c730 3cbc
00000150: fedb 833e 4af9 50be a943 2f3c bc5f a03d
00000160: d450 023e c9c2 adbd 9ae0 62bd 688b 8abd
00000170: c81c a2bb c871 cfbc a9ac 36bd 6065 a33d
00000180: b917 1f3d 0528 c0bd 52ca 34bd d6a9 5e3d
00000190: 567b b5bd 5e43 29bc aa00 f93d 0adb df3c
000001a0: 3a1d 473d d5ba b23c 993a 8d3e e8bb 983d
000001b0: 65ce 333d 3c02 1dbd 58ad 393d 16ec b93c
000001c0: eafe 6f3c 2f59 c03d 10f5 32be 22f5 8c3d
000001d0: d35e 713d 8012 e0bd fefa 33be ad8f 4dbd
000001e0: e3fb 1f3b 2c2c e7bd bd01 973d 7d29 cd3d
000001f0: c12d 32bd 9f32 c4bc a677 91bd fe69 59be
00000200: 7102 94bd 0082 fcbd e42d 19bd 7fec 293b
00000210: 203a cfbd 7e7e 46be ac18 1fbe ee81 49be
00000220: 8568 173d 03b3 e6bd e195 91bc 6931 983d
00000230: 5002 aebd bc2f b73d 99f0 563d 6bc9 94bc
00000240: 1a9d f5bd 98d0 9cbd ea9f bf3d a5ac 163c
00000250: 960a 05bd f587 b6bd dc6b cfbc a62b 86bc
00000260: afc5 16be d050 823d 532f dc3c 7c2e 753d
00000270: 62c9 0dbc 39f9 e73b 3a74 45bc 3004 8abd
00000280: 5b39 18be b8af d7bd 0b04 f73c 18f0 cdbb
00000290: 5ec1 033e 3362 6ebd 3378 f9bc d11a 30bd
000002a0: 945e 62bd a924 bd3d 66bc ed3d 73ac 7b3d
000002b0: fa5d dbbd 634d 6c3e 37d8 dbbd 8a7c 1bbd
000002c0: 0051 4cbd 0e01 ffbd 8f78 90bd 495b 09bc
000002d0: b23e 1f3d 7bda 06be ab40 e8bc 1f67 e1bd
000002e0: e878 233e a6ac dfbc 84fa 7b3d abd2 6d3d
000002f0: bdcf bbbd 2f7a 0b3b bd2e 9bbd 4930 05be
00000300: 61d8 56bc cbc4 f2bb 9d85 153e f382 48be
00000310: 723b bf3c 4697 233e 3334 973d 544e 0abb
00000320: 4c66 5b3d 52df ed3a 4051 103d acc8 97bc
00000330: b03c 65bd 1315 20bd 099f 6a3c c383 a53c
00000340: d926 6fbd b303 0bbd 7126 75bc dcdd c8bd
00000350: 1322 fdbc 29e3 8e3d de46 e2bd 057e 3b3d
00000360: c4a5 30be 23e8 5ebd 3e63 3cbe 19a7 da3a
00000370: 9600 003d 9a71 91bd baf5 223e ad5a c3bd
00000380: 9400 1abe 5cf5 2c3c 8a74 2c3d 4cdc a2bc
00000390: e185 ce3d 67e9 8e3b bef4 583c 4616 b3bd
000003a0: a0a7 613e 74a9 213d afb7 c03d 39ad 703c
000003b0: 3089 fcbb 7cd5 d03c 154f 14bc aa03 883d
000003c0: 8d66 2a3e 9a72 2fbe 2671 873d 177d 39be
000003d0: 1d54 62bc 456e 263d ebf4 1bbd 02cf b53d
000003e0: 5fd8 8bbd 2a69 9bbb f3d0 3abe f537 143c
000003f0: a002 2fbd 405c 9fbd 58e3 7a3d ae04 1c3d

network_body.observation_encoder.processors.0.conv_layers.0.bias f4 [16]
-0.019510353 -0.14890724 -0.035703715 -0.035571717 -0.00088316173 -0.06366827 -0.07277291 -0.06906066
-0.00094763446 -0.014904274 -0.022798752 -0.043681428 -0.105857976 -0.013754688 -0.037289705 -0.049882248
00000000: 2dd4 9fbc 247b 18be 0f3e 12bd a6b3 11bd
00000010: fb83 67ba 8364 82bd f709 95bd ad6f 8dbd
00000020: ac6a 78ba 0e31 74bc 73c4 babc 4ceb 32bd
00000030: 11cc d8bd 585b 61bc 17bd 18bd 5451 4cbd

network_body.observation_encoder.processors.0.conv_layers.0.weight f4 [16, 2, 8, 8]
-0.13449155 -0.07448136 0.06155878 -0.21314311 0.17600584 -0.027242327 -0.16951512 -0.08090053
0.15859114 0.10598573 0.05869243 -0.20503402 0.12197896 0.11811342 -0.22878698 0.24243444
0.018335674 -0.0063087363 -0.08774072 0.27775893 0.099013224 0.1231248 0.046921875 -0.12323157
-0.19270562 0.09581572 0.028501708 -0.12995654 0.11086697 -0.020209685 -0.06445153 0.045633033
0.05723934 0.030743698 0.09322587 0.19288014 0.008845055 0.27845556 -0.18918554 0.025169542
0.021919444 0.0062020207 -0.04561678 -0.09306201 0.038331 -0.03602461 0.050934337 -0.08220665
0.022430854 -0.06433916 -0.035656497 0.00043396864 0.049933925 -0.14105764 -0.00063574733 -0.032828745
0.0060760295 -0.0026171822 -0.07355197 -0.12271297 -0.0269776 0.078976296 -0.0027980886 -0.13522044
-0.072159864 -0.06153886 -0.06210693 -0.21154867 -0.11609874 -0.18387437 -0.20764089 -0.15550332
-0.039747197 -0.113779984 -0.08530889 -0.011038204 -0.04787648 0.04271674 -0.0840128 -0.07360097
-0.19285873 -0.025998164 0.03443225 -0.13510981 -0.0923316 0.024247458 -0.2054831 0.115773395
-0.09340241 -0.030930404 0.08425465 -0.11723672 -0.04755539 -0.12104051 -0.0034518118 -0.10248723
0.025537943 0.11143899 0.12824357 0.098968446 0.12184592 -0.0735504 -0.32427207 -0.06900809
-0.036026213 0.0027262764 -0.025152631 -0.11248884 0.0043132696 -0.07856928 -0.17073613 0.050725646
-0.0750556 0.109325714 0.16712266 -0.048382424 0.030088145 0.06858849 -0.12355668 -0.020869454
0.12572762 0.036161534 -0.108597115 0.20902371 -0.1853879 -0.07034048 -0.30678588 -0.10069785
-0.049334742 -0.038363073 -0.063799 -0.044364724 -0.14186254 -0.14168443 -0.10423747 -0.07372438
0.002851333 0.04700446 -0.06373015 0.11903121 -0.042074934 -0.0033503517 0.15357222 0.0064921193
-0.0058839205 -0.18836975 -0.121729046 -0.018451734 -0.13517316 -0.1850176 -0.053460643 0.10675969
-0.26960573 -0.037180025 -0.07284074 -0.30602986 -0.002481519 -0.12456026 -0.2026566 -0.11893652
-0.084011406 0.13163213 -0.03495805 0.05930437 0.08634849 0.17070715 0.028397363 0.23509109
-0.010335799 0.08971754 0.02509643 0.04709963 0.02487004 -0.019366916 0.067869045 0.053164847
0.01065287 -0.056840442 -0.071646124 -0.00888381 -0.060556695 -0.060490433 -0.049907397 0.102500685
-0.041625254 0.11012943 0.11096064 0.02589151 0.06129941 -0.012443643 -0.04617671 -0.0392475
-0.012622273 -0.051306576 -0.16117486 -0.077541925 0.13275361 -0.09662937 0.1581853 0.043225374
-0.14585789 -0.03272564 -0.11835647 0.10184667 0.13570061 -0.0805501 0.04288623 -0.11586989
0.05134602 -0.026772927 0.04941225 -0.15167968 0.02544669 -0.055920575 -0.05507718 0.08990206
-0.05199532 9.86889e-05 -0.1647848 -0.10698358 0.176581 0.046303604 0.05917637 -0.15695965
-0.0055906484 -0.12900662 0.06474599 -0.06443036 0.017178392 -0.039248798 0.059221387 0.05510311
0.06812899 0.04063516 -0.043310415 -0.016080532 0.27890962 0.04333015 0.15597649 0.17646784
-0.16303584 -0.19127169 -0.13071981 -0.17738757 0.14239326 -0.016781634 -0.09604036 -0.18875338
0.006175005 -0.011508251 0.0029383518 -0.1284394 0.19061789 0.23397487 0.12203891 0.101501174
00000000: 27b8 09be af89 98bd 0f25 7c3d 3042 5abe
00000010: e03a 343e 4d2b dfbc 5f95 2dbe 2daf a5bd
00000020: b765 223e 0c0f d93d 7967 703d 70f4 51be
00000030: 1bd0 f93d 73e5 f13d 2247 6abe bc40 783e
00000040: b234 963c 84b9 cebb 68b1 b3bd 6b36 8e3e
00000050: 72c7 ca3d db28 fc3d 2731 403d d560 fcbd
00000060: 9f54 45be 083b c43d 6a7c e93c 5413 05be
00000070: 390e e33d c88e a5bc 2aff 83bd b4e9 3a3d
00000080: cc73 6a3d 35da fb3c 34ed be3d 5f82 453e
00000090: d9ea 103c ba91 8e3e dbb9 41be 5b30 ce3c
000000a0: 6890 b33c 523a cb3b a9d8 3abd 4c97 bebd
000000b0: f700 1d3d 8b8e 13bd 86a0 503d f65b a8bd
000000c0: e9c0 b73c 40c4 83bd 8c0c 12bd 4986 e339
000000d0: 8487 4c3d 6a71 10be 48a8 26ba 6f77 06bd
000000e0: 6e19 c73b 0885 2bbb 6aa2 96bd f050 fbbd
000000f0: 2100 ddbc 53be a13d 2360 37bb 3a77 0abe
00000100: 8dc8 93bd 2c10 7cbd d663 7ebd 37a0 58be
00000110: 2dc5 edbd 9049 3cbe d09f 54be 433c 1fbe
00000120: f5cd 22bd 7b05 e9bd 6db6 aebd 95d9 34bc
00000130: 211a 44bd c0f7 2e3d e70e acbd 1bbc 96bd
00000140: c27c 45be 1afa d4bc d508 0d3d 3a5a 0abe
00000150: 5a18 bdbd 9ba2 c63c 296a 52be 9a1a ed3d
00000160: c349 bfbd c261 fdbc b48d ac3d ce19 f0bd
00000170: 71c9 42bd 16e4 f7bd cb37 62bb d3e4 d1bd
00000180: f334 d13c 203a e43d 4852 033e f8af ca3d
00000190: 5b8a f93d 98a1 96bd fd06 a6be 1d54 8dbd
000001a0: 3990 13bd 54ab 323b e40c cebc 8d60 e6bd
000001b0: 5456 8d3b eee8 a0bd 74d5 2ebe b2c5 4f3d
000001c0: c0b6 99bd 29e6 df3d 3422 2b3e a62c 46bd
000001d0: 6a7b f63c 1f78 8c3d 490b fdbd 6bf6 aabc
000001e0: bebe 003e 1e1e 143d 2a68 debd 500a 563e
000001f0: 53d6 3dbe ab0e 90bd 0a13 9dbe ad3a cebd
00000200: 3a13 4abd 9922 1dbd 0da9 82bd c9b7 35bd
00000210: 6a44 11be b915 11be 747a d5bd cffc 96bd
00000220: 6edd 3a3b c087 403d f484 82bd a3c6 f33d
00000230: c456 2cbd 9391 5bbb 0942 1d3e d8bb d43b
00000240: e7cd c0bb 00e4 40be 144d f9bd 1728 97bc
00000250: d56a 0abe 4175 3dbe 8cf9 5abd d3a4 da3d
00000260: c309 8abe 154a 18bd 872d 95bd f2af 9cbe
00000270: fba0 22bb 7319 ffbd 3685 4fbe fd94 f3bd
00000280: 2c0e acbd 93ca 063e 2c30 0fbd 24e9 723d
00000290: 7ad7 b03d dbcd 2e3e 96a1 e83c b8bb 703e
000002a0: 7c57 29bc d4bd b73d 0797 cd3c 8beb 403d
000002b0: 41bc cb3c 5ea7 9ebc edfe 8a3d 62c3 593d
000002c0: 6089 2e3c 86d1 68bd 34bb 92bd 668d 11bc
000002d0: 4c0a 78bd d1c4 77bd b36b 4cbd e1eb d13d
000002e0: 3e7f 2abd 8a8b e13d 553f e33d 6f1a d43c
000002f0: 1715 7b3d 6ce0 4bbc ca23 3dbd fdc1 20bd
00000300: a6cd 4ebc d826 52bd 060b 25be 4dce 9ebd
00000310: 90f0 073e 9ee5 c5bd 54fb 213e 170d 313d
00000320: c55b 15be 520b 06bd e064 f2bd fd94 d03d
00000330: 1af5 0a3e 73f7 a4bd 79a9 2f3d 314d edbd
00000340: 3450 523d e652 dbbc 8064 4a3d eb51 1bbe
00000350: 9475 d03c f90c 65bd 9c98 61bd 921e b83d
00000360: 0bf9 54bd 33f7 ce38 59bd 28be 351a dbbd
00000370: a6d1 343e d9a8 3d3d ec62 723d 08ba 20be
00000380: c231 b7bb 501a 04be 8c99 843d 11f4 83bd
00000390: b3b9 8c3c 59c3 20bd 2092 723d ccb3 613d
000003a0: 3687 8b3d 0e71 263d 4366 31bd 52bb 83bc
000003b0: 3ecd 8e3e f57a 313d 4db8 1f3e fcb3 343e
000003c0: def2 26be badc 43be 6adb 05be 16a5 35be
000003d0: 8acf 113e a379 89bc cfb0 c4bd 9148 41be
000003e0: b257 ca3b 1a8d 3cbc 5d91 403b 9e85 03be
000003f0: 5631 433e 1c97 6f3e 89ef f93d d9df cf3d

network_body.observation_encoder.processors.0.conv_layers.2.bias f4 [32]
-0.0066309297 -0.0044677947 -0.029367471 -0.07943356 -0.002787712 0.029190475 0.04112677 -0.045787398
-0.105738565 -0.033247095 -0.044867173 -0.05334675 -0.052584544 0.046314646 -0.12678778 -0.03260566
-0.012502614 0.011237571 0.044056468 -0.005251162 0.03202328 0.0056836833 -0.018041544 -0.097593635
-0.15553236 0.021482414 -0.0035768512 0.021745078 -0.038811725 -0.054160453 -0.017059907 0.0049553853
00000000: 4548 d9bb 9466 92bb 0d94 f0bc 10ae a2bd
00000010: 0cb2 36bb dd20 ef3c 8b74 283d 918b 3bbd
00000020: 768d d8bd 1b2e 08bd a4c6 37bd 1f82 5abd
00000030: e462 57bd 6db4 3d3d a8d4 01be 838d 05bd
00000040: c4d7 4cbc ca1d 383c 8e74 343d f111 acbb
00000050: d82a 033d 313e ba3b dccb 93bc 2cdf c7bd
00000060: e043 1fbe e3fb af3c 9b69 6abb bc22 b23c
00000070: 0bf9 1ebd 5ad7 5dbd 38c1 8bbc c960 a23b
