Config/results/PPO_02/PlatformerBehavior/PlatformerBehavior-3999976.onnx (onnx, 652848 bytes, 15 tensors)

action_model._continuous_distribution.log_sigma f4 [1, 2]
-0.21981011 -0.91122574
00000000: e715 61be 1746 69bf

action_model._continuous_distribution.mu.bias f4 [2]
-0.0014705438 -0.2256855
00000000: 43bf c0ba 1a1a 67be

action_model._continuous_distribution.mu.weight f4 [2, 256]
-0.035976257 0.02415739 0.07840236 -0.09997098 -0.018445766 0.002007135 -0.002169961 -0.052237563
-0.04429269 -0.029547961 -0.024234522 0.0051444652 0.13365304 -0.01446037 0.021429563 0.029693777
0.049703993 0.025919588 -0.06691979 0.07853789 -0.06723605 -0.037932474 0.027672369 0.035830535
-0.13272642 -0.04699439 -0.04691685 -0.03520751 0.02651462 -0.04572629 0.03572506 -0.020006401
-0.019432243 -0.0063355565 0.2249369 0.020367064 0.0030490814 0.13624714 -0.08799452 0.035194196
0.001528681 -0.09841926 0.014111822 -0.010987642 0.016748091 -0.017371757 -0.18652527 -0.04196562
-0.005233023 0.015312107 -0.020995645 0.0010235093 -0.05481185 -0.06816843 0.061564617 -0.009207144
-0.003344626 0.02501413 0.08325075 -0.017584845 -0.0049707247 0.022664012 0.067152895 -0.06299681
-0.0012821418 0.010492193 -0.006160563 0.004455535 -0.097384125 -0.00632498 -0.044328332 -0.106592774
-0.006305375 -0.010314684 -0.0211178 0.050868 -0.0031998504 0.026470255 0.010256638 -0.019685773
-0.10642249 0.0035155083 0.04269575 0.02320543 -0.012512131 0.01491386 -0.023607654 0.00092139404
0.010990822 -0.0004594433 0.09334412 -0.0729029 -0.0105149485 0.09325157 0.07075493 0.009451927
-0.038391925 -0.084653266 -0.086184315 0.00016743332 0.008771177 0.04948253 -0.01176309 0.01573076
0.06335359 -0.045508545 -0.03995995 0.008662976 0.04415134 -0.012968611 -0.056643803 0.0211328
0.057988353 0.04564659 -0.0017633255 -0.023691066 -0.049833935 -0.0466273 -0.009251364 -0.0095726885
0.11051632 -0.04695837 0.029874772 -0.040889636 0.015065551 0.105174564 -0.023277652 0.12444034
0.013950611 -0.013656364 0.028829567 0.016235618 -0.14591599 0.008486438 -0.014131686 0.031241685
-0.01710978 0.030299535 -0.040305693 0.12976259 -0.020512883 -0.000887918 -0.0012428768 -0.039584283
0.028586801 -0.05933102 0.055361483 -0.064830035 0.10556347 0.04443474 0.103795536 -0.024403024
0.13400054 -0.0201681 0.10607673 -0.078864224 0.030377949 -0.0962955 0.035488468 0.011330802
0.008892845 -0.024400912 -0.02349584 -0.050914582 -0.011812976 0.034942884 0.13136898 -0.15672699
-0.006949 0.10414201 0.08692687 0.101001665 0.021110797 0.02120719 -0.037652537 -0.08622862
-0.031331927 -0.038577523 -0.014995021 -0.042880777 0.0019886075 -0.006586246 -0.0005218488 -0.09108839
-0.0026278829 0.07511339 0.014840533 -0.063232236 0.16081375 0.084715866 0.00086896797 -0.05422696
0.19348067 0.14431857 0.1378712 -0.044697527 -0.17921868 -0.022902323 -0.01465393 -0.00067371246
0.095704265 0.012983225 0.07064638 0.01555806 -0.0397883 -0.03256606 0.0074399584 -0.00965581
0.030420316 -0.058047883 0.019479081 -7.736221e-05 0.0552964 0.04558763 -0.07486327 0.0011447367
-0.021594338 0.017494611 -0.008947023 0.0014006466 -0.013929687 0.006764279 0.033215046 0.03949331
0.085677 -0.02776847 0.0438485 0.0527106 0.12977417 -0.00770419 0.016429203 -0.004253238
0.04749117 0.18042992 -0.030624093 0.024073824 0.03608262 0.10608731 -0.044916064 0.0025529093
0.015043008 0.010847986 -0.10023937 0.004221757 -0.0325925 0.005961201 0.034721192 0.12185995
-0.015756508 0.015334836 -0.009774444 0.095167845 0.008549626 0.16251482 -0.104214825 -0.0061084186
00000000: d75b 13bd b8e5 c53c 6b91 a03d 96bd ccbd
00000010: 931b 97bc 238a 033b e835 0ebb 0ef7 55bd
00000020: 406c 35bd 910e f2bc 7a87 c6bc e792 a83b
00000030: 58dc 083e 30eb 6cbc 0d8d af3c 5d40 f33c
00000040: 6a96 4b3d 5155 d43c 3e0d 89bd 79d8 a03d
00000050: 0eb3 89bd 155f 1bbd 2ab1 e23c 0ac3 123d
00000060: 6fe9 07be 317d 40bd e22b 40bd c035 10bd
00000070: 3035 d93c 7e4b 3bbd 7154 123d 77e4 a3bc
00000080: 5e30 9fbc 809a cfbb dc55 663e d4d8 a63c
00000090: 19d3 473b 5f84 0b3e 7936 b4bd ca27 103d
000000a0: 065e c83a 0990 c9bd 4535 673c 8305 34bc
000000b0: 4b33 893c 374f 8ebc 7b00 3fbe 24e4 2bbd
000000c0: c779 abbb a2df 7a3c 0fff abbc 4627 863a
000000d0: 6482 60bd e49b 8bbd 2e2b 7c3d 90d9 16bc
000000e0: 8331 5bbb 6fea cc3c 5f7f aa3d 180e 90bc
000000f0: 76e1 a2bb e1a9 b93c 7587 893d 7904 81bd
00000100: 8a0d a8ba 72e7 2b3c 8cde c9bb bdff 913b
00000110: 5471 c7bd c741 cfbb a091 35bd 504d dabd
00000120: 529d cebb ecfe 28bc 3dff acbc f75a 503d
00000130: 95b4 51bb 26d8 d83c 750b 283c 0f44 a1bc
00000140: 09f4 d9bd 7164 663b bde1 2e3d 5019 be3c
00000150: aeff 4cbc 4359 743c d764 c1bc b589 713a
00000160: d912 343c 70e1 f0b9 342b bf3d 1e4e 95bd
00000170: e446 2cbc aefa be3d f6e7 903d 41dc 1a3c
00000180: da40 1dbd b15e adbd 6781 b0bd 0a91 2f39
00000190: fcb4 0f3c 32ae 4a3d fab9 40bc cbdd 803c
000001a0: 87bf 813d 2b67 3abd 0bad 23bd 28ef 0d3c
000001b0: 09d8 343d 4c7a 54bc 5503 68bd b21e ad3c
000001c0: 3285 6d3d ebf7 3a3d 631f e7ba c413 c2bc
000001d0: ab1e 4cbd 45fc 3ebd 0893 17bc c4d6 1cbc
000001e0: 6156 e23d 6b57 40bd f0bb f43c e47b 27bd
000001f0: 80d5 763c c365 d73d c6b0 bebc 94da fe3d
00000200: 1b91 643c f1be 5fbc fc2b ec3c 8f00 853c
00000210: 006b 15be b30a 0b3c 9688 67bc 90ee ff3c
00000220: cf29 8cbc bb36 f83c 9517 25bd 7ce0 043e
00000230: a20a a8bc 2bc3 68ba 06e8 a2ba 2123 22bd
00000240: de2e ea3c 1505 73bd b9c2 623d 9cc5 84bd
00000250: a931 d83d 3401 363d c192 d43d dae8 c7bc
00000260: 7037 093e 9237 a5bc c23e d93d 9183 a1bd
00000270: 2ddb f83c 9336 c5bd 5b5c 113d d4a4 393c
00000280: 4cb3 113c 6ce4 c7bc 597a c0bc cf8b 50bd
00000290: 368b 41bc 4520 0f3d 9785 063e 0a7d 20be
000002a0: 70b4 e3bb 6848 d53d b706 b23d f6d9 ce3d
000002b0: 8df0 ac3c b3ba ad3c 8c39 1abd a198 b0bd
000002c0: e855 00bd 7703 1ebd adad 75bc c1a3 2fbd
000002d0: 4c53 023b 70d1 d7bb aecc 08ba 8d8c babd
000002e0: 8f38 2cbb 0dd5 993d b525 733c e77f 81bd
000002f0: 5cac 243e 837f ad3d 74cb 633a 171d 5ebd
00000300: cc1f 463e 3fc8 133e 1c2e 0d3e c114 37bd
00000310: 1a85 37be a79d bbbc 0a17 70bc 149c 30ba
00000320: 9900 c43d 98b7 543c 0daf 903d 3ce7 7e3c
00000330: 0ef9 22bd fd63 05bd e5ca f33b 6733 1ebc
00000340: 0734 f93c 9ec3 6dbd 9892 9f3c 853d a2b8
00000350: 7a7e 623d 18ba 3a3d ea51 99bd fd0a 963a
00000360: 9ce6 b0bc dc50 8f3c 8996 12bc e795 b73a
00000370: 5839 64bc e3a6 dd3b 800c 083d bdc3 213d
00000380: 6c77 af3d b47a e3bc 7c9a 333d 12e7 573d
00000390: 85e3 043e 6e73 fcbb 8996 863c bf5e 8bbb
000003a0: 1a86 423d 9fc2 383e 61df fabc 7836 c53c
000003b0: 5fcb 133d 4e44 d93d e8f9 37bd b64e 273b
000003c0: f376 763c c0bb 313c 4c4a cdbd aa56 8a3b
000003d0: b77f 05bd 2e56 c33b cf37 0e3d b691 f93d
000003e0: cb13 81bc f73e 7b3c fd24 20bc 5ce7 c23d
000003f0: bb13 0c3c 496a 263e 956e d5bd 2129 c8bb

action_model._discrete_distribution.branches.0.bias f4 [2]
-0.01771815 0.017718187
00000000: a725 91bc bb25 913c

action_model._discrete_distribution.branches.0.weight f4 [2, 256]
-0.014882418 -0.019457625 0.040001236 0.024973042 0.039037265 0.023262644 0.033958632 0.042138044
0.07481002 0.04716019 0.054597374 0.013535437 0.0021025785 0.008034897 0.0318483 0.3806411
-0.23750861 -0.029581238 0.049562976 0.03708545 0.03256353 -0.0025966235 -0.0538844 0.0064264336
0.009458895 0.010073152 0.0006867526 0.0469962 0.037021775 -0.026333164 0.041801002 0.0593671
0.06339573 -0.022687549 0.0050214655 0.03373618 -0.0287267 -0.01791718 0.083171666 -0.011397356
0.03798042 0.06504294 0.03016348 -0.019162774 0.018789161 0.045143545 -0.0062702326 0.08792791
-0.01954516 0.12035339 0.0673005 -0.023453962 0.06293382 0.018390758 0.04756227 -0.03141032
-0.03738952 0.04581845 0.0057121967 0.02493586 0.039870292 0.054399118 0.010965526 -0.0054305205
0.0033526847 0.008649696 -0.009421112 0.013094214 -0.06739717 0.32493216 -0.020471008 0.063158184
-0.26231962 -0.027259959 -0.01975806 2.7797418e-05 -0.05218949 0.042363103 -0.0043575875 -0.001293622
0.054107662 -0.15900466 -0.05000979 -0.024885884 0.13376664 0.042968147 -0.023261787 -0.004216488
-0.009811042 0.054639403 -0.016448041 0.034840282 -0.14117374 -0.00025922497 -0.025808925 0.049448516
0.060500793 0.032441724 0.064277865 -0.1459357 0.01332192 0.2830208 -0.31079707 0.26881796
-0.035636716 0.034481153 0.018431703 0.024121454 0.026231362 0.03784134 0.05396429 0.0137384925
0.037742164 0.041697357 0.021833515 -0.014366806 0.00922705 0.0055700154 0.0015505432 0.025164811
0.043877617 -0.033540573 -0.058292452 0.06734095 0.08117955 0.024242075 0.010068331 -0.028021835
-0.015227167 0.030579211 0.051504467 0.01394619 -0.050640382 -0.0017014588 -0.15741926 0.02301622
0.0050987275 0.087155886 -0.023325184 -0.025011411 0.030189877 0.050079253 -0.03677711 0.039716657
0.038148563 0.048397034 0.0008740232 0.0107708005 -0.056865305 -0.1114957 -0.026129462 0.034524597
-0.02027495 0.013132704 0.029887687 -0.002102073 0.022371083 0.064523235 0.041526824 0.10308625
0.025853151 0.0013331055 0.040122002 0.10001288 0.031167427 -0.013239076 -0.05067272 -0.0641516
0.021738961 0.021153932 -0.042975545 -0.02998459 0.014663216 0.02758344 0.022609511 0.024778007
0.025358276 0.020270085 0.016586488 0.050915916 0.027870001 0.015060113 0.012057435 0.032358464
0.030251583 0.0072956504 0.118719794 0.017377812 -0.037309766 -0.038990863 -0.010074413 0.049105145
-0.008533984 -0.023555297 -0.12656228 -0.0065136445 -0.035616405 0.037217684 -0.024299258 -0.022540536
-0.023876216 0.0036605268 0.0019297902 -0.0021237084 0.064468496 -0.011102546 0.03851159 -0.008656025
0.058683835 0.06290631 0.092146814 -0.007523301 0.008419198 -0.023731766 0.033884868 -0.007680177
-0.027829736 0.016546283 -0.009943421 0.033922035 0.2632233 0.06966074 0.062821135 -0.12330506
0.022832412 0.0091392705 0.052316934 0.28483337 -0.034852635 0.01785624 -0.03967338 0.02241617
-0.014529279 -0.008739737 0.045190874 0.04257716 0.27861902 -0.028816152 0.04435361 0.06937822
0.001809663 0.06902415 0.008642259 0.01457236 0.006537594 0.062392984 -0.016913433 -0.034400877
0.03445749 -0.0016772201 -0.021659635 -0.024238847 0.012029585 -0.043263678 0.0057809907 0.006500322
00000000: 63d5 73bc 9965 9fbc 56d8 233d 4494 cc3c
00000010: 8ae5 1f3d 4d91 be3c 3518 0b3d f198 2c3d
00000020: ff35 993d 0b2b 413d 7fa1 5f3d bdc3 5d3c
00000030: 6acb 093b cda4 033c 5d73 023d 64e3 c23e
00000040: 7535 73be 5a54 f2bc 8c02 4b3d eae6 173d
00000050: 5661 053d 1d2c 2abb e3b5 5cbd d594 d23b
00000060: 7bf9 1a3c dd09 253c 3007 343a 167f 403d
00000070: 25a4 173d a6b8 d7bc 8737 2b3d eb2a 733d
00000080: 9fd5 813d 3ddb b9bc 1b8b a43b f32e 0a3d
00000090: 4254 ebbc 0dc7 92bc e855 aa3d fabb 3abc
000000a0: 5b91 1b3d 3c35 853d 6719 f73c 40fb 9cbc
000000b0: baeb 993c 70e8 383d 8676 cdbb 8c13 b43d
000000c0: 2c1d a0bc d77b f63d d8d4 893d 8622 c0bc
000000d0: 72e3 803d 37a8 963c a8d0 423d 1ca8 00bd
000000e0: c125 19bd 21ac 3b3d 612d bb3b 4a46 cc3c
000000f0: 084f 233d 9cd1 5e3d c0a8 333c 82f2 b1bb
00000100: b7b8 5b3b 74b7 0d3c 025b 1abc 1d89 563c
00000110: 8707 8abd 825d a63e d1b2 a7bc 1459 813d
00000120: c24e 86be 4750 dfbc a8db a1bc 802e e937
00000130: a6c4 55bd ef84 2d3d 18ca 8ebb c08e a9ba
00000140: ff9f 5d3d 1ed2 22be 11d7 4cbd 7bdd cbbc
00000150: 1ffa 083e 5eff 2f3d 818f bebc 772a 8abb
00000160: 7ebe 20bc 91cd 5f3d 0bbe 86bc afb4 0e3d
00000170: d98f 10be 96e8 87b9 3d6d d3bc 878a 4a3d
00000180: aecf 773d 9de1 043d 1da4 833d 2b70 15be
00000190: 2f44 5a3c 1ae8 903e cb20 9fbe 82a2 893e
000001a0: cef7 11bd 1c3c 0d3d 15fe 963c 5b9a c53c
000001b0: 27e3 d63c 85ff 1a3d a909 5d3d 6a17 613c
000001c0: 8797 1a3d d9ca 2a3d 33dc b23c c062 6bbc
000001d0: 0d2d 173c ad84 b63b 993b cb3a 6f26 ce3c
000001e0: 04b9 333d d761 09bd 11c4 6ebd 0dea 893d
000001f0: 7741 a63d 5197 c63c a4f5 243c 0c8e e5bc
00000200: 5e7b 79bc 4181 fa3c 59f6 523d 8f7e 643c
00000210: 4a6c 4fbd 7c03 dfba 8432 21be 838c bc3c
00000220: 3a13 a73b c97e b23d 7514 bfbc bbe4 ccbc
00000230: c350 f73c e71f 4d3d 98a3 16bd efad 223d
00000240: ab41 1c3d f83b 463d b41e 653a 0378 303c
00000250: 98eb 68bd dc57 e4bd 740d d6bc aa69 0d3d
00000260: a717 a6bc 8e2a 573c 06d7 f43c efc2 09bb
00000270: 9043 b73c c224 843d 0818 2a3d e21e d33d
00000280: fdc9 d33c 99bb ae3a f856 243d 8ed3 cc3d
00000290: d552 ff3c b6e8 58bc 338e 4fbd ea61 83bd
000002a0: e815 b23c 034b ad3c 2007 30bd 3ea2 f5bc
000002b0: fc3d 703c abf6 e13c 9537 b93c 3ffb ca3c
000002c0: 29bc cf3c 730d a63c 63e0 873c 358d 503d
000002d0: a14f e43c b1be 763c 8c8c 453c 4f8a 043d
000002e0: 2bd2 f73c 5a10 ef3b 5d23 f33d ea5b 8e3c
000002f0: 20d2 18bd e2b4 1fbd 270f 25bc 7a22 493d
00000300: 20d2 0bbc 0af7 c0bc 8b99 01be 6970 d5bb
00000310: 82e2 11bd 9271 183d 3d0f c7bc eea6 b8bc
00000320: 0e98 c3bc 73e5 6f3b 04f1 fc3a ea2d 0bbb
00000330: 0f08 843d 74e7 35bc 54be 1d3d 00d2 0dbc
00000340: 765e 703d 06d5 803d 78b7 bc3d 0686 f6bb
00000350: adf0 093c 1f69 c2bc dcca 0a3d ffa9 fbbb
00000360: 30fb e3bc 128c 873c bbe9 22bc d5f1 0a3d
00000370: 34c5 863e 4aaa 8e3d 5ea8 803d 5d87 fcbd
00000380: 0a0b bb3c e1bc 153c 484a 563d aed5 913e
00000390: a3c1 0ebd 4047 923c 8e80 22bd 1ea2 b73c
000003a0: 370c 6ebc 1d31 0fbc 111a 393d 6365 2e3d
000003b0: 27a7 8e3e da0f ecbc 22ac 353d 2b16 8e3d
000003c0: 3732 ed3a 895c 8d3d 4398 0d3c e8c0 6e3c
000003d0: 5039 d63b c98f 7f3d 0a8e 8abc efe7 0cbd
000003e0: 4c23 0d3d 2bd6 dbba 8c6f b1bc 8c90 c6bc
000003f0: bd17 453c 4135 31bd 776e bd3b a700 d53b

network_body.linear_encoder.seq_layers.0.bias f4 [256]
-0.02517216 -0.16624603 0.040588733 -0.0016796512 0.07345318 -0.0027173825 0.08326158 0.07935213
-0.038488172 0.07934727 -0.04727992 -0.029243767 -0.04529521 -0.09232294 -0.017626394 0.01076562
0.097468376 -0.048304755 -0.03662097 0.004919134 -0.1029305 0.07861905 -0.059058703 0.022876626
-0.016866246 0.10358274 0.11526036 -0.11006625 -0.054278634 -0.04291407 -0.04818996 0.07137886
-0.0092881825 0.021989543 -0.102352984 0.14455576 0.11119302 -0.027984725 0.026728563 -0.17410985
0.00082714437 -0.14650804 -0.1267569 -0.18513913 -0.023713775 -0.12981613 0.0568052 -0.0617104
-0.11752049 -0.011554282 0.066409774 -0.048148997 -0.046997618 -0.0105626965 -0.10021233 -0.03429971
-0.10135449 -0.078706905 0.008210583 -0.053298984 -0.19229952 0.03195087 -0.083245374 0.009637803
-0.1270503 -0.10459587 -0.089223295 -0.11774297 -0.09470634 0.036190104 -0.028531937 -0.13555607
-0.17850605 0.029338114 -0.030943805 0.0026793845 -0.09948823 -0.02295469 0.085076734 0.072490916
-0.08784027 -0.021816373 0.017649813 0.02568657 -0.14759643 0.09624349 0.03647419 -0.015886387
-0.058127813 -0.10928827 -0.09890825 0.016752714 -0.094736986 -0.086557314 0.07337241 -0.094302356
-0.013532968 -0.01171454 0.16026793 -0.080635265 -0.18506621 0.044392116 -0.12347748 -0.10237032
-0.10004514 0.02305077 -0.07349517 -0.02793204 -0.15846188 0.00668962 -0.1652819 -0.09587453
-0.057873975 -0.041066002 0.0647916 -0.031307947 -0.11717299 0.08211088 0.049130566 -0.013064377
-0.12091352 0.0024729653 -0.05831609 -0.0983253 -0.04392453 -0.15196964 -0.060132753 0.09987
-0.039311104 0.11222389 -0.09548986 -0.041091073 -0.06120366 0.015699724 -0.08057671 -0.09128716
0.13382956 -0.02108746 -0.05436654 -0.032331116 -0.059432555 -0.024642201 -0.035041932 -0.023122167
0.10338518 -0.038387503 -0.0013392094 0.12521541 0.016841477 -0.0027354206 0.0449987 0.15418045
0.012048295 -0.10689167 -0.034009088 0.05722849 -0.08872457 0.01710839 0.06365779 -0.059952922
0.07565587 0.094474636 -0.06795231 -0.11213349 -0.009635288 -0.10845827 -0.09607849 0.020467915
0.0058875503 -0.12257049 -0.06379778 -0.03432351 0.032444768 -0.13586558 0.018764483 -0.11436099
-0.120065875 -0.08791629 -0.080014415 -0.15570271 -0.13041478 -0.048255984 -0.04787635 -0.10279453
-0.112826854 -0.07469794 -0.0070990305 -0.10402414 -0.15402743 0.0067213783 -0.09599904 -0.012406026
-0.022980923 -0.025991354 -0.052360054 -0.0030664112 0.14513423 -0.0917924 -0.11820296 -0.06663342
-0.050765935 0.059294246 0.0054375203 -0.053654797 0.12600718 0.012648622 -0.055036828 0.060898017
0.25245857 0.02176562 -0.20447692 0.092008546 -0.060159247 -0.10952469 -0.000739893 -0.07986199
0.06759744 0.046661187 -0.019068014 -0.05397396 -0.041525707 0.005812477 -0.029938307 -0.075939015
-0.14318977 -0.0038157909 -0.09159924 0.00079794927 -0.032918632 -0.108974 -0.058498863 -0.0932686
-0.122972906 0.01051525 -0.014221908 0.01838865 0.046678394 -0.13632156 -0.11764968 0.03950966
-0.026456874 -0.123206586 -0.024750343 0.04482287 -0.031255983 -0.034602873 0.0064066076 -0.097923055
-0.06572543 -0.011281744 0.028796295 -0.09258822 -0.05998061 -0.075883076 0.12473127 -0.10379181
00000000: d835 cebc 663c 2abe 5f40 263d be27 dcba
00000010: 9f6e 963d 1d16 32bb 0c85 aa3d 5f83 a23d
00000020: c6a5 1dbd d280 a23d 97a8 41bd a090 efbc
00000030: 7887 39bd cf13 bdbd 3a65 90bc 4862 303c
00000040: 809d c73d 35db 45bd dfff 15bd b030 a13b
00000050: 3acd d2bd 0603 a13d 8ae7 71bd c367 bb3c
00000060: 152b 8abc 3023 d43d a00d ec3d 6a6a e1bd
00000070: 4653 5ebd aac6 2fbd d662 45bd 142f 923d
00000080: 762d 18bc 6a23 b43c 719e d1bd 6d06 143e
00000090: 2bb9 e33d 3940 e5bc dcf5 da3c da49 32be
000000a0: b8d4 583a 3406 16be 90cc 01be 1d95 3dbe
000000b0: 6443 c2bc 85ee 04be 92ac 683d 0bc4 7cbd
000000c0: 95ae f0bd 2c4e 3dbc d901 883d e237 45bd
000000d0: 9380 40bd 290f 2dbc 1f3c cdbd da7d 0cbd
000000e0: f192 cfbd 1631 a1bd ae85 063c 0950 5abd
000000f0: 2aea 44be eade 023d 8d7c aabd e0e7 1d3c
00000100: 7919 02be 5c36 d6bd b4ba b6bd 3a23 f1bd
00000110: 66f5 c1bd 133c 143d cfbb e9bc 36cf 0abe
00000120: 4aca 36be 7c56 f03c dd7d fdbc 9d98 2f3b
00000130: 7cc0 cbbd 790b bcbc b63c ae3d 1e76 943d
00000140: 99e5 b3bd 40b8 b2bc 5796 903c a46c d23c
00000150: 8523 17be 4f1b c53d f665 153d 2b24 82bc
00000160: 6e17 6ebd 87d2 dfbd 6990 cabd fd3c 893c
00000170: 7705 c2bd f644 b1bd 4644 963d 9821 c1bd
00000180: 62b9 5dbc 58ee 3fbc 471d 243e 1a24 a5bd
00000190: ff81 3dbe 82d4 353d c3e1 fcbd 88a7 d1bd
000001a0: 77e4 ccbd f8d4 bc3c a384 96bd bcd1 e4bc
000001b0: d543 22be 9a34 db3b a93f 29be de59 c4bd
000001c0: 430d 6dbd d334 28bd 75b1 843d c33c 00bd
000001d0: 65f8 efbd c029 a83d 223d 493d f80b 56bc
000001e0: 82a1 f7bd 7911 223b dadc 6ebd c65e c9bd
000001f0: 35ea 33bd ee9d 1bbe c34d 76bd a488 cc3d
00000200: ae04 21bd a4d5 e53d 3090 c3bd 1d4f 28bd
00000210: b0b0 7abd b59c 803c 6705 a5bd c3f4 babd
00000220: 9e0a 093e 9cbf acbc 73af 5ebd a26d 04bd
00000230: 8d6f 73bd 71de c9bc 2188 0fbd b36a bdbc
00000240: 9cbb d33d 373c 1dbd 6988 afba 7838 003e
00000250: 23f7 893c be44 33bb 8f50 383d 7be1 1d3e
00000260: 3666 453c 05ea dabd 1d4d 0bbd 6c68 6a3d
00000270: 3ab5 b5bd e526 8c3c 045f 823d 3291 75bd
00000280: 77f1 9a3d eb7b c13d 952a 8bbd 3ea6 e5bd
00000290: 54dd 1dbc 5f1f debd cdc4 c4bd 54ac a73c
000002a0: 5aec c03b 3d06 fbbd 69a8 82bd cf96 0cbd
000002b0: cee4 043d 5920 0bbe f9b7 993c 1836 eabd
000002c0: 19e5 f5bd 750d b4bd 99de a3bd 8870 1fbe
000002d0: 748b 05be 11a8 45bd fe19 44bd f085 d2bd
000002e0: c411 e7bd 3cfb 98bd fc9e e8bb 9c0a d5bd
000002f0: 5eb9 1dbe 023f dc3b 259b c4bd a542 4bbc
00000300: 7d42 bcbc d2eb d4bc 7f77 56bd d8f5 48bb
00000310: 119e 143e a7fd bbbd 6514 f2bd 1a77 88bd
00000320: f1ef 4fbd 86de 723d 3a2d b23b 22c5 5bbd
00000330: 0708 013e 2a3c 4f3c 4c6e 61bd 3370 793d
00000340: 4042 813e d04d b23c 6662 51be fa6e bc3d
00000350: 8b69 76bd 7b4e e0bd 61f5 41ba af8e a3bd
00000360: 8770 8a3d cd1f 3f3d 8634 9cbc cd13 5dbd
00000370: dc16 2abd 9776 be3b 2e41 f5bc ea85 9bbd
00000380: 57a0 12be 5912 7abb 6298 bbbd 782d 513a
00000390: b0d5 06bd c32d dfbd 819c 6fbd 9c03 bfbd
000003a0: 38d9 fbbd 2848 2c3c 0103 69bc cba3 963c
000003b0: d831 3f3d e197 0bbe 51f2 f0bd e2d4 213d
000003c0: 16bc d8bc bc53 fcbd 3bc1 cabc 3098 373d
000003d0: 4606 00bd bebb 0dbd 85ee d13b e28b c8bd
000003e0: 0e9b 86bd 10d7 38bc 35e6 eb3c e59e bdbd
000003f0: 3aae 75bd 9668 9bbd 1c73 ff3d cd90 d4bd

network_body.linear_encoder.seq_layers.0.weight f4 [256, 266]
-0.24790922 -0.03559512 0.0759889 -0.007035725 -0.21334343 0.05092489 -0.3377416 -0.065858744
0.053966336 -0.120219015 -0.07137452 -0.2699096 -0.06955145 0.004788844 0.049718305 -0.030364376
-0.19391532 -0.15206951 -0.29640967 -0.15480837 -0.34834936 -0.15440416 -0.092865646 -0.11160624
0.025482878 -0.084388405 -0.1573532 -0.011744302 0.1606254 -0.091354094 0.11883513 -0.075769395
0.05577731 0.053162202 0.08228136 -0.058261532 -0.08722001 0.14305833 -0.13790183 -0.13055035
-0.09705125 -0.04524403 -0.07394227 0.12737848 -0.23928763 0.030664828 0.06299728 -0.05007968
-0.051761825 0.056807715 -0.015993021 -0.06767082 -0.14121419 0.018137977 0.028262729 0.0054517193
-0.09780308 0.033514306 -0.02468231 -0.30456373 0.18229531 -0.049689222 0.019511705 0.0071970937
-0.07671814 -0.2811506 -0.26083454 -0.09191778 0.059721142 0.11213946 0.1663311 -0.053110015
0.07329282 -0.1793198 -0.008276878 -0.07905785 -0.17151555 -0.24140333 -0.14893368 0.038479123
-0.051078957 -0.01586271 -0.32238021 0.003923956 -0.039875783 -0.3817373 0.083151676 -0.27410427
-0.06574058 -0.016135758 0.051814463 0.01762912 -0.07539839 -0.13920048 0.07977424 -0.16237572
-0.115220055 0.073611476 -0.06144704 0.059914324 -0.09006666 -0.16553386 -0.056141693 -0.0058779353
-0.1537673 -0.00023752947 -0.1498043 -0.03672999 -0.28110301 -0.03381535 -0.23654346 0.054708395
-0.026926626 -0.08174106 -0.06349763 0.06934381 -0.059473056 0.14153132 0.13758978 -0.18991615
-0.11207053 -0.039105892 -0.0978788 -0.12290508 -0.2395018 -0.15663141 -0.12042096 0.09802031
-0.043859966 -0.10776921 0.080387525 -0.22241321 -0.08703652 -0.11201571 0.050989922 0.07980832
-0.037016936 -0.20313114 -0.10142263 -0.06443459 -0.17411797 0.15563966 -0.10333355 -0.26491135
-0.06452996 0.039255064 -0.03522721 0.11220379 -0.028398346 -0.12778316 -0.050100412 0.12887909
0.06922655 -0.23511122 0.04426526 -0.1420701 -0.04854746 -0.07367996 -0.018994125 -0.006607031
0.12677383 -0.42417842 -0.3179249 -0.29846266 0.061096914 -0.07717897 -0.0980254 -0.100116044
-5.3804793e-05 0.028047476 0.013483304 -0.12085186 -0.031787526 0.081809364 -0.057851493 0.0072185975
-0.02069138 -0.08137211 0.054215737 -0.1725223 0.17098421 0.13158132 -0.18238363 -0.3183649
-0.04483473 -0.046112508 -0.3249409 0.13121922 -0.025444746 -0.009739938 -0.043908488 -0.082857795
-0.06152029 0.17468438 0.0075608343 -0.11726926 -0.18199305 0.033832837 -0.18100981 0.08529319
-0.011571351 -0.15224928 -0.086800545 -0.0128667 -0.22919157 -0.015629414 -0.34494206 -0.32621938
0.12632503 -0.27673888 -0.1018971 -0.17413148 0.09495876 -0.021694938 0.041557 0.07440073
-0.13304523 -0.1057012 0.09919594 -0.07225529 -0.11994198 -0.012720629 -0.011574944 -0.13719195
0.11650615 0.085150935 -0.062727354 0.10764507 0.090323195 -0.019962693 0.03714095 -0.034918074
-0.11609069 0.046734054 0.0795381 -0.18861982 0.036997776 -0.21346253 -0.0121005345 -0.17956474
-0.12788846 -0.15893142 0.1388563 -0.17360389 0.21259402 0.22303165 -0.14429781 -0.13931063
0.055330105 -0.2595527 0.092283845 -0.032970935 0.010240836 0.1935392 -0.14997768 -0.038037024
00000000: eadb 7dbe 30cc 11bd 12a0 9b3d f08b e6bb
00000010: b376 5abe 9e96 503d 78ec acbe f3e0 86bd
00000020: ce0b 5d3d 6335 f6bd ce2c 92bd 9731 8abe
00000030: fe70 8ebd bceb 9c3b 6ca5 4b3d b6be f8bc
00000040: bd91 46be 1cb8 1bbe 02c3 97be 1686 1ebe
00000050: d95a b2be 201c 1ebe 5830 bebd d091 e4bd
00000060: 78c1 d03c d4d3 acbd 3221 21be 2c6b 40bc
00000070: fc7a 243e db17 bbbd d55f f33d fc2c 9bbd
00000080: c076 643d 9cc0 593d 2183 a83d a5a3 6ebd
00000090: 68a0 b2bd e27d 123e 2336 0dbe feae 05be
000000a0: cec2 c6bd ce51 39bd 0b6f 97bd 816f 023e
000000b0: d107 75be ce34 fb3c b804 813d 5a20 4dbd
000000c0: 3504 54bd 35af 683d cc03 83bc 0097 8abd
000000d0: 749a 10be 1896 943c 3d87 e73c 56a4 b23b
000000e0: fb4c c8bd 4c46 093d 8e32 cabc c7ef 9bbe
000000f0: 9fab 3a3e ed86 4bbd 03d7 9f3c 99d5 eb3b
00000100: 661e 9dbd f9f2 8fbe 1b8c 85be 643f bcbd
00000110: 289e 743d 60a9 e53d b352 2a3e e389 59bd
00000120: 8c1a 963d 9c9f 37be be9b 07bc 15e9 a1bd
00000130: c6a1 2fbe 6f32 77be 1282 18be 499c 1d3d
00000140: 2b38 51bd 84f2 81bc 050f a5be 8794 803b
00000150: ca54 23bd 1273 c3be 6d4b aa3d 6557 8cbe
00000160: ffa2 86bd 232f 84bc 673b 543d f26a 903c
00000170: 796a 9abd 928a 0ebe ad60 a33d d245 26be
00000180: 7ef8 ebbd 9dc1 963d e4af 7bbd b968 753d
00000190: de74 b8bd b581 29be d5f4 65bd b29b c0bb
000001a0: 2d75 1dbe 5511 79b9 4c66 19be 3072 16bd
000001b0: bcec 8fbe f781 0abd 7338 72be e915 603d
000001c0: 3a95 dcbc db67 a7bd 0c0b 82bd 2104 8e3d
000001d0: 059a 73bd 96ed 103e 56e4 0c3e 6179 42be
000001e0: 3c85 e5bd 802d 20bd ae74 c8bd a9b5 fbbd
000001f0: f63f 75be fc63 20be 449f f6bd dfbe c83d
00000200: 82a6 33bd 1bb6 dcbd 37a2 a43d 4ac0 63be
00000210: 3440 b2bd 7e68 e5bd cfda 503d 8b72 a33d
00000220: 129f 17bd 9c01 50be abb6 cfbd 48f6 83bd
00000230: fb4b 32be 0160 1f3e 8aa0 d3bd 76a2 87be
00000240: 4928 84bd ebc9 203d 684a 10bd 1acb e53d
00000250: a6a3 e8bc 97d9 02be 1736 4dbd e1f8 033e
00000260: a6c6 8d3d ffc0 70be 7d4f 353d d37a 11be
00000270: b4d9 46bd 85e5 96bd 9199 9bbc cb7f d8bb
00000280: 00d1 013e ea2d d9be 0dc7 a2be 19d0 98be
00000290: c240 7a3d 0210 9ebd 8ac1 c8bd a409 cdbd
000002a0: 75ac 61b8 d2c3 e53c 13e9 5c3c 2e81 f7bd
000002b0: a333 02bd ab8b a73d b0f5 6cbd fc89 ec3b
000002c0: f880 a9bc 6ca6 a6bd 5211 5e3d b0a9 30be
000002d0: 7c16 2f3e 41bd 063e c6c2 3abe b900 a3be
000002e0: 9fa4 37bd 78e0 3cbd a75e a6be 555e 063e
000002f0: 8071 d0bc 4394 1fbc 63d9 33bd 59b1 a9bd
00000300: b3fc 7bbd 76e0 323e e0c0 f73b de2a f0bd
00000310: 635c 3abe 4d94 0a3d a35a 39be 32ae ae3d
00000320: c495 3dbc 3ce7 1bbe 7cc4 b1bd dace 52bc
00000330: 32b1 6abe 4209 80bc 3f9c b0be 3a06 a7be
00000340: 595b 013e b8b0 8dbe 6daf d0bd 864f 32be
00000350: bd79 c23d 95b9 b1bc ac37 2a3d 695f 983d
00000360: 023d 08be df79 d8bd 3e27 cb3d 95fa 93bd
00000370: 24a4 f5bd 2f6a 50bc d5a4 3dbc 0c7c 0cbe
00000380: c79a ee3d 9d63 ae3d 3377 80bd 0575 dc3d
00000390: 5efb b83d cd88 a3bc 1c21 183d 4106 0fbd
000003a0: f5c0 edbd 356c 3f3d dfe4 a23d 8e25 41be
000003b0: fb8a 173d ec95 5abe 5241 46bc d2df 37be
000003c0: 31f5 02be ebbe 22be 5930 0e3e 38c5 31be
000003d0: 3fb2 593e 6962 643e cec2 13be 72a7 0ebe
000003e0: d2a1 623d 17e4 84be 50ff bc3d 880c 07bd
000003f0: 2ec9 273c 242f 463e c093 19be b6cc 1bbd

network_body.linear_encoder.seq_layers.2.bias f4 [256]
-0.018159403 -0.08713819 -0.09197543 0.03818222 -0.09412062 -0.042326316 -0.078839466 -0.030962037
-0.06188307 -0.05151498 -0.028727572 -0.09262713 -0.07163123 -0.078557 -0.07539335 0.02741483
-0.0030338007 -0.09982572 -0.020215195 -0.12013736 -0.083112195 -0.05554954 -0.07440236 -0.1665489
0.067978404 0.004377081 -0.05692804 -0.118759744 -0.045583155 0.01923114 -0.15624171 -0.03636597
-0.0061652786 -0.06627742 -0.005483475 -0.031224417 0.086384095 -0.09528375 0.023135621 -0.10316783
-0.056079045 0.035698295 -0.13760169 0.08201437 -0.10921623 -0.013531449 0.08271531 -0.06162832
-0.01797644 -0.1326207 -0.009638302 -0.027681127 0.012782746 0.037477728 -0.07974439 0.0069908635
0.026306411 -0.057883225 0.011573519 -0.09534729 -0.10972338 -0.17342708 -0.08375367 -0.16600285
-0.100407586 -0.1667884 -0.049765907 -0.09692481 0.02732272 0.007746726 -0.09846421 -0.14094579
0.029864771 -0.026142966 -0.026647937 -0.072075844 -0.06258571 -0.12217534 -0.14955151 -0.053106725
-0.10030483 -0.010229851 -0.07076901 0.24030201 -0.099980734 -0.022943035 -0.13077578 0.06420454
-0.0948892 -0.157249 -0.14869773 -0.05034032 0.012520081 -0.15926503 -0.09679125 -0.10311168
-0.070114665 -0.027094906 0.018575668 -0.03523878 -0.101457424 0.06873218 0.039396685 -0.024867509
-0.054484136 -0.020992026 0.017552981 -0.15564115 -0.15151164 -0.055394582 -0.15649725 0.23013602
-0.047912024 -0.0049217367 -0.16366577 -0.07971949 0.18205996 -0.041001126 -0.053498063 -0.11083398
0.0014769441 -0.07888377 -0.03607848 -0.026664969 -0.12183952 -0.143543 -0.063675 -0.08797513
0.20516971 0.0075307204 -0.08909471 -0.17363706 0.09273624 -0.104420096 -0.003419959 -0.053490326
-0.08845653 -0.12388401 -0.20117559 -0.12596981 -0.057248887 -0.11098118 -0.06393501 -0.03239279
-0.025747005 0.011109563 -0.106810644 0.12558648 -0.101252794 -0.04708513 -0.07317241 -0.09384745
-0.18452334 -0.021264073 -0.024485918 0.08037193 -0.17839396 -0.04536482 -0.12889624 -0.13754821
-0.05113372 -0.021435346 -0.003355786 0.014000739 0.04530215 -0.1500966 -0.17340998 0.07384137
0.07581581 -0.100064486 -0.10096203 -0.04974455 -0.1438859 -0.15456963 -0.026436469 0.004749591
-0.17596501 -0.016096922 -0.017091857 -0.13093778 0.1625965 -0.10798325 -0.013636054 -0.13147253
-0.119050115 -0.051145792 -0.064858496 -0.031178834 -0.19035752 -0.1569072 0.011255491 -0.02972427
-0.22459893 -0.15033406 0.07527778 -0.048735794 0.0910067 -0.08694655 -0.079984084 -0.06591
-0.1762177 0.18312319 -0.058701146 -0.0904626 -0.03562279 -0.12201645 -0.028811056 -0.019401142
-0.16879332 -0.033947546 -0.09848961 0.056716602 -0.10894999 -0.118595906 -0.10617709 -0.054481808
-0.089437015 -0.1142002 -0.100374125 -0.11863965 0.06569337 -0.035746418 -0.124158345 -0.044674538
-0.05758659 -0.029392572 -0.10915283 0.03753632 0.12536994 -0.12020798 -0.1192854 -0.0023012133
-0.056427825 0.021888945 -0.012772399 -0.17102306 -0.057496924 -0.08095744 0.005132273 -0.14233181
-0.08286231 -0.0646014 -0.1923206 -0.04168448 -0.065769956 -0.033056412 -0.053778198 -0.1312872
-0.16107611 -0.16759528 -0.1112404 -0.037616372 -0.24021573 -0.14788859 -0.076074906 -0.13938133
00000000: 07c3 94bc 8275 b2bd 9d5d bcbd f664 1c3d
00000010: 50c2 c0bd 5c5e 2dbd 9676 a1bd 19a4 fdbc
00000020: 1a79 7dbd 5f01 53bd 1656 ebbc 4bb3 bdbd
00000030: 65b3 92bd 7ee2 a0bd d467 9abd 1195 e03c
00000040: bbd2 46bb 6d71 ccbd 569a a5bc 940a f6bd
00000050: ba36 aabd ea87 63bd 4460 98bd cb8b 2abe
00000060: 4338 8b3d 9e6d 8f3b 602d 69bd 4f38 f3bd
00000070: 67b5 3abd a08a 9d3c d4fd 1fbe 7cf4 14bd
00000080: 1b06 cabb 75bc 87bd b9ae b3bb 59ca ffbc
00000090: 25ea b03d 2024 c3bd ea86 bd3c a849 d3bd
000000a0: 24b3 65bd 6038 123d 75e7 0cbe 26f7 a73d
000000b0: c2ac dfbd 03b3 5dbc a566 a93d fa6d 7cbd
000000c0: 5443 93bc b9cd 07be f8e9 1dbc 88c3 e2bc
000000d0: b96e 513c 3f82 193d 0751 a3bd 9d13 e53b
000000e0: 8b80 d73c f616 6dbd db9e 3d3c 7145 c3bd
000000f0: a7b6 e0bd de96 31be 0b87 abbd a7fc 29be
00000100: 7ea2 cdbd 94ca 2abe 56d7 4bbd 8480 c6bd
00000110: e6d3 df3c 3fd8 fd3b 9ba7 c9bd 1854 10be
00000120: f7a6 f43c c629 d6bc c64c dabc 809c 93bd
00000130: f02c 80bd 1137 fabd 0824 19be 7086 59bd
00000140: 9e6c cdbd 1b9b 27bc 58ef 90bd bb11 763e
00000150: b3c2 ccbd 08f3 bbbc 16ea 05be ab7d 833d
00000160: 4555 c2bd e205 21be 3844 18be a731 4ebd
00000170: 0721 4d3c 5f16 23be 7e3a c6bd 372c d3bd
00000180: 4798 8fbd 23f6 ddbc 002c 983c 8a56 10bd
00000190: e9c8 cfbd 75c3 8c3d 6b5e 213d f2b6 cbbc
000001a0: c22a 5fbd 78f7 abbc 45cb 8f3c 6560 1fbe
000001b0: de25 1bbe 6ee5 62bd d140 20be c7a8 6b3e
000001c0: 663f 44bd 8546 a1bb 0098 27be f943 a3bd
000001d0: ed6d 3a3e ccf0 27bd c920 5bbd edfc e2bd
000001e0: 0596 c13a d08d a1bd 07c7 13bd 7e70 dabc
000001f0: 0087 f9bd f0fc 12be 0a68 82bd 4e2c b4bd
00000200: 0218 523e 43c4 f63b 4a77 b6bd eacd 31be
00000210: 7fec bd3d 34da d5bd 6421 60bb ac18 5bbd
00000220: b228 b5bd e6b6 fdbd f900 4ebe 3bfe 00be
00000230: cf7d 6abd 1a4a e3bd 5cf0 82bd 4dae 04bd
00000240: 62eb d2bc e204 363c 8abf dabd be99 003e
00000250: a05d cfbd 56dc 40bd 6bdb 95bd 1833 c0bd
00000260: b0f3 3cbe fe31 aebc b196 c8bc 0a9a a43d
00000270: e8ac 36be 76d0 39bd 60fd 03be 70d9 0cbe
00000280: 9771 51bd 2e99 afbc bfec 5bbb 5b63 653c
00000290: bf8e 393d ecb2 19be 6392 31be 253a 973d
000002a0: 5245 9b3d 9cee ccbd 2ec5 cebd f1c0 4bbd
000002b0: d356 13be 8047 1ebe 4b91 d8bc 75a2 9b3b
000002c0: 2c30 34be b1dd 83bc 3904 8cbc 8e14 06be
000002d0: b27f 263e 5226 ddbd c169 5fbc bca0 06be
000002e0: 8cd0 f3bd 407e 51bd 88d4 84bd c16a ffbc
000002f0: 15ed 42be 48ac 20be f368 383c 5080 f3bc
00000300: 43fd 65be 2cf1 19be 3d2b 9a3d 2f9f 47bd
00000310: b961 ba3d 0811 b2bd b2ce a3bd d2fb 86bd
00000320: 6a72 34be a584 3b3e 9d70 70bd 7544 b9bd
00000330: 34e9 11bd c3e3 f9bd 2a05 ecbc 25ef 9ebc
00000340: 28d8 2cbe 950c 0bbd ecb4 c9bd ab4f 683d
00000350: 2c21 dfbd 69e2 f2bd 6073 d9bd 5128 5fbd
00000360: c12a b7bd cbe1 e9bd f390 cdbd 58f9 f2bd
00000370: 3f8a 863d d66a 12bd bb46 febd a6fc 36bd
00000380: ebdf 6bbd b1c8 f0bc 858b dfbd afbf 193d
00000390: fa60 003e 9a2f f6bd e74b f4bd f4cf 16bb
000003a0: dd20 67bd 7250 b33c 5343 51bc ab20 2fbe
000003b0: e581 6bbd 04cd a5bd a02c a83b 6ebf 11be
000003c0: b7b3 a9bd bd4d 84bd b1ef 44be 58bd 2abd
000003d0: 66b2 86bd 2966 07bd 8746 5cbd 2770 06be
000003e0: 23f1 24be 199e 2bbe 02d2 e3bd a013 1abd
000003f0: 1dfb 75be 1b70 17be 29cd 9bbd fbb9 0ebe

network_body.linear_encoder.seq_layers.2.weight f4 [256, 256]
-0.11284391 0.04011664 0.06756005 -0.03297034 -0.07307461 0.06073318 0.0015567646 0.018249555
0.0880758 -0.10583136 0.04571728 -0.20667334 -0.076559536 0.012299342 -0.04458609 -0.09576534
-0.05864928 -0.006429283 0.08871871 -0.015894795 -0.095771134 0.069052815 0.07639304 0.01966482
0.1939308 -0.030826075 -0.12621349 0.00065518625 -0.08277447 0.028273532 0.1287538 0.0063562216
-0.10306916 -0.05293955 0.07129866 0.11738533 0.009412706 0.03320191 -0.0054581277 0.09077606
-0.08201053 5.366129e-05 0.08494987 -0.14744411 -0.030668342 -0.003568567 0.050461456 -0.08635158
-0.03271497 -0.12520969 -0.048266567 0.038912885 0.06103948 -0.031960208 -0.043940157 0.030037167
-0.050112035 -0.055329278 0.054394405 0.09739985 0.0150173735 0.093906865 0.10253286 0.10691397
0.018314268 -0.09485995 -0.038969602 -0.13003023 -0.07583174 0.18813287 0.12562406 -0.011581573
0.07756231 -0.17346554 0.13459519 -0.057381026 0.15777442 -0.11279899 -0.08828578 0.019424189
-0.04911714 -0.035213176 -0.07014612 -0.043855418 0.24404638 -0.19567813 -0.05541769 0.060973674
0.13916257 -0.099187516 -0.035406142 -0.04068838 0.005045311 -0.01597222 -0.041459836 0.02915851
0.046595573 -0.09305448 -0.02466779 0.048377875 -0.10283555 -0.022727482 0.12536444 0.011596906
0.036583923 0.043090217 0.23050104 0.03492326 0.026163641 -0.027633999 0.049647044 0.029595478
0.03203761 0.04943656 -0.13978375 0.07593874 0.04368276 -0.088827394 -0.121054366 -0.033552393
0.007390062 -0.07404308 0.09461561 0.08299057 -0.045447797 -0.049236864 -0.096025795 -0.20482571
-0.084965274 -0.13911995 -0.049726814 -0.019446641 -0.09348427 -0.153935 -0.14933416 -0.19472201
0.050391193 -0.10112491 0.0006659867 0.080711275 -0.05021732 0.080134116 0.052313354 -0.036294557
-0.118815385 -0.06621733 0.08267443 0.031402495 -0.046280652 -0.078890465 -0.03820134 -0.00807331
-0.131498 0.04773298 -0.0047295406 0.08025222 -0.03695967 0.0062173526 -0.038831066 -0.069756106
-0.113557614 -0.09116461 0.024869515 -0.021718001 0.107333735 -0.05690113 -0.0014316703 -0.017728575
-0.07319225 0.08784312 0.11063009 0.058604598 -0.08304731 0.21651131 -0.08074208 -0.03173622
-0.042249165 -0.098918505 -0.07566531 -0.016860556 -0.010835776 -0.09391824 -0.020639976 -0.092177756
0.15231419 -0.053822756 0.036891643 0.040126134 -0.105524145 0.021541268 -0.0673888 -0.10060292
-0.022377508 0.004932397 0.1180642 -0.15517117 0.032299884 0.1110976 0.07377424 0.0055565103
0.03533838 0.0038333777 0.00052368926 -0.026701465 -0.050333593 -0.07996718 -0.004907976 0.06735044
-0.050147254 -0.011426992 -0.029732272 -0.090702474 -0.0013202528 0.11034178 -0.11351099 0.08629097
-0.16072825 -0.04086086 -0.16213195 -0.010739554 0.0612734 -0.008951348 0.15663119 -0.08942317
-0.13848089 -0.006438377 0.057131875 -0.05266263 0.11383635 0.019672573 -0.018268345 -0.07964452
0.20469008 0.002792042 0.04838222 0.004761573 -0.0061217225 0.0072469465 0.0033012684 0.07961106
0.14208694 -0.17041668 0.05729024 -0.18265437 -0.030591827 -0.012896036 -0.04396751 0.07685881
-0.07416659 -0.029772246 -0.058182497 -0.028963089 -0.060540527 -0.091530964 0.05111327 0.015009413
00000000: b51a e7bd 5951 243d ec5c 8a3d e80b 07bd
00000010: 24a8 95bd 5bc3 783d 5a0c cc3a 1780 953c
00000020: 1661 b43d 1dbe d8bd 0b42 3b3d 2da2 53be
00000030: 3fcb 9cbd 2e83 493c e79f 36bd 9e20 c4bd
00000040: 3a3a 70bd bcac d2bb 28b2 b53d cd35 82bc
00000050: a823 c4bd 906b 8d3d f473 9c3d 1e18 a13c
00000060: cc95 463e f786 fcbc 1c3e 01be cec0 2b3a
00000070: a985 a9bd e59d e73c 09d8 033e da47 d03b
00000080: ec15 d3bd 24d7 58bd 0805 923d b867 f03d
00000090: c037 1a3c bafe 073d 18da b2bb cde8 b93d
000000a0: 23f5 a7bd 5f12 6138 33fa ad3d 97fb 16be
000000b0: 2d3c fbbc 9fde 69bb acb0 4e3d 19d9 b0bd
000000c0: 2200 06bd f836 00be 2ab3 45bd 1e63 1f3d
000000d0: 8904 7a3d b5e8 02bd 98fa 33bd 8110 f63c
000000e0: 4742 4dbd f4a0 62bd abcc 5e3d 9379 c73d
000000f0: 6e0b 763c 3e52 c03d c0fc d13d b6f5 da3d
00000100: ce07 963c ef45 c2bd 979e 1fbd a526 05be
00000110: ac4d 9bbd e7a5 403e 98a3 003e a3c0 3dbc
00000120: fdd8 9e3d f3a0 31be 52d3 093e 5e08 6bbd
00000130: 9e8f 213e 2803 e7bd 2dcf b4bd 7a1f 9f3c
00000140: 0e2f 49bd b13b 10bd c5a8 8fbd bda1 33bd
00000150: 4be7 793e d95f 48be a9fd 62bd 88bf 793d
00000160: a280 0e3e d322 cbbd 0806 11bd dca8 26bd
00000170: 2353 a53b 2cd8 82bc cad1 29bd d4dd ee3c
00000180: 00db 3e3d 5993 bebd 1b14 cabc e127 463d
00000190: 729b d2bd fc2e babc 895f 003e f300 3e3c
000001a0: 06d9 153d 5e7f 303d 7708 6c3e b10b 0f3d
000001b0: 2255 d63c b260 e2bc b35a 4b3d 3772 f23c
000001c0: de39 033d fe7d 4a3d 7923 0fbe c585 9b3d
000001d0: b2ec 323d 23eb b5bd 5aeb f7bd 3c6e 09bd
000001e0: 5528 f23b e6a3 97bd d4c5 c13d f6f6 a93d
000001f0: 7827 3abd 98ac 49bd 2ca9 c4bd d5bd 51be
00000200: 4602 aebd 7675 0ebe 58ae 4bbd 904e 9fbc
00000210: ae74 bfbd 23a1 1dbe 0eeb 18be 3565 47be
00000220: ff66 4e3d 941a cfbd 9c95 2e3a f44b a53d
00000230: adb0 4dbd 5b1d a43d 8746 563d 9aa9 14bd
00000240: 7b55 f3bd f49c 87bd 3651 a93d e79f 003d
00000250: c890 3dbd 5391 a1bd 0279 1cbd eb45 04bc
00000260: 69a7 06be a883 433d 43fa 9abb 475b a43d
00000270: 0663 17bd efba cb3b 530d 1fbd 4adc 8ebd
00000280: e590 e8bd 83b4 babd 27bb cb3c f3e9 b1bc
00000290: cad1 db3d 2911 69bd e2a6 bbba 843b 91bc
000002a0: d2e5 95bd 18e7 b33d 0792 e23d 600b 703d
000002b0: b514 aabd 24b5 5d3e 1b5c a5bd d7fd 01bd
000002c0: 760d 2dbd c995 cabd 6af6 9abd 261f 8abc
000002d0: 8a88 31bc 3558 c0bd 2b15 a9bc b1c7 bcbd
000002e0: 40f8 1b3e 4075 5cbd b11b 173d 4d5b 243d
000002f0: 0b1d d8bd 5077 b03c 2403 8abd e708 cebd
00000300: 0951 b7bc f29f a13b a5cb f13d 31e5 1ebe
00000310: e24c 043d 2387 e33d f316 973d 6313 b63b
00000320: fabe 103d 6839 7b3b 3148 093a 08bd dabc
00000330: 992a 4ebd d5c5 a3bd 16d3 a0bb 07ef 893d
00000340: 3567 4dbd 4738 3bbc 1891 f3bc 38c2 b9bd
00000350: 550c adba dffa e13d 7378 e8bd 52b9 b03d
00000360: f295 24be b85d 27bd eb05 26be f4f4 2fbc
00000370: d1f9 7a3d ada8 12bc ed63 203e 7f23 b7bd
00000380: efcd 0dbe 05f9 d2bb 1d03 6a3d c5b4 57bd
00000390: 0823 e93d 6028 a13c 7fa7 95bc ab1c a3bd
000003a0: 479a 513e b1fa 363b 6f2c 463d f806 9c3b
000003b0: bb98 c8bb cb77 ed3b 185a 583b 200b a33d
000003c0: 3d7f 113e b681 2ebe 2ca9 6a3d bf09 3bbe
000003d0: b69b fabc e549 53bc 4717 34bd 2768 9d3d
000003e0: a7e4 97bd ede4 f3bc c550 6ebd 0044 edbc
000003f0: 58f9 77bd 9674 bbbd 265c 513d 0aea 753c

network_body.observation_encoder.processors.0.conv_layers.0.bias f4 [16]
-0.043383103 -0.13790452 -0.024572944 -0.03850004 -0.03351084 -0.073173314 -0.040263623 -0.08430209
-0.01468341 -0.007949248 -0.005758937 -0.051359292 -0.10508445 -0.04146337 -0.0037465661 -0.031700276
00000000: 7bb2 31bd d836 0dbe 334d c9bc 38b2 1dbd
00000010: aa42 09bd e4db 95bd 78eb 24bd 93a6 acbd
00000020: af92 70bc 903d 02bc 77b5 bcbb 1f5e 52bd
00000030: 8436 d7bd 7fd5 29bd f388 75bb 26d8 01bd

network_body.observation_encoder.processors.0.conv_layers.0.weight f4 [16, 2, 8, 8]
-0.07231838 -0.036713563 0.055529762 -0.19563061 0.18121806 -0.06581638 -0.22005951 -0.07436526
0.17124648 0.09476607 0.06921117 -0.17047967 0.09249962 0.09685748 -0.17941359 0.19908959
0.072793335 0.042036705 -0.04606568 0.24990413 0.09739797 0.08360189 -0.008438488 -0.16129002
-0.21377482 0.12263112 0.055266023 -0.09795026 0.14833483 0.05682557 -0.023127474 0.09573507
0.07437643 -0.019333364 0.07857911 0.11213371 0.006453715 0.258416 -0.17993629 -0.0031882948
0.021919444 0.0062020207 -0.04561678 -0.09306201 0.038331 -0.03602461 0.050934337 -0.08220665
0.022430854 -0.06433916 -0.035656497 0.00043396864 0.049933925 -0.14105764 -0.00063574733 -0.032828745
0.0060760295 -0.0026171822 -0.07355197 -0.12271297 -0.0269776 0.078976296 -0.0027980886 -0.13522044
-0.10067977 -0.0514925 -0.08028189 -0.15999247 -0.122093365 -0.12537298 -0.14881606 -0.04642063
-0.04895634 -0.10658773 -0.120385125 0.013892213 -0.021600883 0.01653059 -0.10420765 -0.052780963
-0.1899047 -0.0021740845 0.012857416 -0.145174 -0.09723015 0.026617188 -0.19008672 0.08183539
-0.09178448 -0.011152111 0.067438014 -0.10858332 -0.012025145 -0.11419327 -0.0040271822 -0.07317074
0.010635335 0.106952354 0.07033718 0.091460705 0.16215082 -0.030930966 -0.25756446 -0.0010386977
-0.04061016 -0.004303027 -0.03220656 -0.08379713 0.000111383684 -0.03692304 -0.14355974 0.034272015
-0.07613519 0.11901844 0.15024 0.005992872 0.044181768 0.049050666 -0.095422536 -0.094881445
0.119507045 0.038234837 -0.14891158 0.19353703 -0.11313202 0.02271156 -0.27340144 -0.018736357
-0.031260084 -0.028265515 -0.052402332 -0.12969485 -0.08120152 -0.09400415 -0.09767325 -0.11269179
-0.00019377559 0.119005784 -0.03790904 0.09222373 -0.047293283 0.0036702978 0.13491681 0.022616489
0.06767284 -0.1999208 -0.098458625 -0.045253456 -0.163443 -0.16863365 -0.01023894 0.073246635
-0.19959009 -0.059219003 -0.05234991 -0.27787584 -0.03245156 -0.10348571 -0.23518825 -0.14930601
-0.07363678 0.14259654 -0.05674574 0.09799873 0.09816798 0.11998201 0.060947012 0.16113225
-0.010335799 0.08971754 0.02509643 0.04709963 0.02487004 -0.019366916 0.067869045 0.053164847
0.01065287 -0.056840442 -0.071646124 -0.00888381 -0.060556695 -0.060490433 -0.049907397 0.102500685
-0.041625254 0.11012943 0.11096064 0.02589151 0.06129941 -0.012443643 -0.04617671 -0.0392475
0.054855708 -0.08971548 -0.12405311 -0.07064425 0.12294095 -0.10705901 0.1400605 0.035620824
-0.19880861 -0.07748718 -0.08972119 0.1147182 0.14161047 -0.09314354 0.05228772 -0.108092695
0.031732704 -0.07103517 0.04004941 -0.1605113 0.004557135 -0.06787257 -0.07591582 0.072385594
-0.057337508 -0.059934746 -0.092072055 -0.054962695 0.15166496 0.04470168 0.05093268 -0.16135542
0.03261942 -0.12964039 0.08625725 -0.04040358 0.038462218 -0.035992805 0.05205507 0.04488964
0.004989989 -0.01238611 0.002189538 -0.008608204 0.214356 0.01755713 0.12954682 0.14704071
-0.1348584 -0.21179995 -0.08714036 -0.16231376 0.14337038 -0.012869951 -0.08232935 -0.19559957
0.027000055 -0.067865856 0.026656307 -0.080958754 0.16390045 0.20299323 0.100571536 0.09325943
00000000: a91b 94bd f660 16bd 2d73 633d 6453 48be
00000010: 3a91 393e bdca 86bd 4857 61be d04c 98bd
00000020: 3d5b 2f3e b714 c23d 96be 8d3d 3992 2ebe
00000030: 7170 bd3d 375d c63d 32b8 37be 24de 4b3e
00000040: ac14 953d ae2e 2c3d 5eaf 3cbd dee6 7f3e
00000050: 9678 c73d 7837 ab3d 9541 0abc 3629 25be
00000060: c9e7 5abe 0626 fb3d a05e 623d 259a c8bd
00000070: 16e5 173e eec1 683d d475 bdbc c010 c43d
00000080: ab52 983d 0161 9ebc 16ee a03d 5ca6 e53d
00000090: af79 d33b 1a4f 843e 3841 38be b6f2 50bb
000000a0: 6890 b33c 523a cb3b a9d8 3abd 4c97 bebd
000000b0: f700 1d3d 8b8e 13bd 86a0 503d f65b a8bd
000000c0: e9c0 b73c 40c4 83bd 8c0c 12bd 4986 e339
000000d0: 8487 4c3d 6a71 10be 48a8 26ba 6f77 06bd
000000e0: 6e19 c73b 0885 2bbb 6aa2 96bd f050 fbbd
000000f0: 2100 ddbc 53be a13d 2360 37bb 3a77 0abe
00000100: 3231 cebd cde9 52bd d56a a4bd 11d5 23be
00000110: 160c fabd c661 00be 3d63 18be 8f23 3ebd
00000120: 7186 48bd ab4a dabd 7a8c f6bd 2a9c 633c
00000130: 56f4 b0bc 296b 873c d26a d5bd da30 58bd
00000140: 6176 42be 167b 0ebb e9a7 523c 7ea8 14be
00000150: 9a20 c7bd 4a0c da3c 18a6 42be 5099 a73d
00000160: 80f9 bbbd 58b7 36bc f11c 8a3d ef60 debd
00000170: 1d05 45bc 29de e9bd 74f6 83bb 8ada 95bd
00000180: d43f 2e3c d609 db3d f00c 903d c04f bb3d
00000190: dd0a 263e f062 fdbc 7ddf 83be e924 88ba
000001a0: d756 26bd 6800 8dbb 07eb 03bd d49d abbd
000001b0: a996 e938 9d3c 17bd 5301 13be d060 0c3d
000001c0: c4ec 9bbd f1bf f33d 84d8 193e db5f c43b
000001d0: f1f7 343d 5ae9 483d e46c c3bd 3451 c2bd
000001e0: 1cc0 f43d 229c 1c3d 477c 18be 922e 463e
000001f0: c3b1 e7bd 980d ba3c 46fb 8bbe fd7c 99bc
00000200: 930a 00bd 158d e7bc d4a3 56bd bace 04be
00000210: fc4c a6bd 3f85 c0bd ea08 c8bd f4ca e6bd
00000220: 3d30 4bb9 4eb9 f33d 8246 1bbd ccdf bc3d
00000230: 9ab6 41bd 6189 703b a227 0a3e 3746 b93c
00000240: 0f98 8a3d 0ab8 4cbe ada4 c9bd b05b 39bd
00000250: 9a5d 27be 4dae 2cbe 3ac1 27bc 5502 963d
00000260: 5861 4cbe a08f 72bd dc6c 56bd be45 8ebe
00000270: edeb 04bd 51f0 d3bd 30d5 70be ade3 18be
00000280: e1ce 96bd d404 123e 396e 68bd 8fb3 c83d
00000290: 4b0c c93d 21b9 f53d 93a3 793d daff 243e
000002a0: 7c57 29bc d4bd b73d 0797 cd3c 8beb 403d
000002b0: 41bc cb3c 5ea7 9ebc edfe 8a3d 62c3 593d
000002c0: 6089 2e3c 86d1 68bd 34bb 92bd 668d 11bc
000002d0: 4c0a 78bd d1c4 77bd b36b 4cbd e1eb d13d
000002e0: 3e7f 2abd 8a8b e13d 553f e33d 6f1a d43c
000002f0: 1715 7b3d 6ce0 4bbc ca23 3dbd fdc1 20bd
00000300: 61b0 603d c0bc b7bd 8f0f febd efad 90bd
00000310: 77c8 fb3d c141 dbbd 056c 0f3e 24e7 113d
00000320: 7c94 4bbe 99b1 9ebd bebf b7bd 60f1 ea3d
00000330: 5602 113e 0ac2 bebd a62b 563d b45f ddbd
00000340: 27fa 013d e37a 91bd da0a 243d 135d 24be
00000350: 0554 953b c600 8bbd c179 9bbd e63e 943d
00000360: bcda 6abd 237e 75bd 4690 bcbd 9020 61bd
00000370: 0f4e 1b3e 1c19 373d c99e 503d 5b3a 25be
00000380: f19b 053d 73c0 04be a4a7 b03d 397e 25bd
00000390: 8f8a 1d3d 316d 13bd b237 553d 33de 373d
000003a0: 1083 a33b 1cef 4abc 5a7e 0f3b 6d09 0dbc
000003b0: 2480 5b3e f8d3 8f3c eca7 043e d791 163e
000003c0: 5218 0abe 16e2 58be a576 b2bd 9435 26be
000003d0: afcf 123e 7ddc 52bc 4a9c a8bd 414b 48be
000003e0: 382f dd3c 41fd 8abd 545e da3c b4cd a5bd
000003f0: 85d5 273e 75dd 4f3e 73f8 cd3d cdfe be3d

network_body.observation_encoder.processors.0.conv_layers.2.bias f4 [32]
-0.037592 0.014161095 -0.035117798 -0.0755531 0.014974656 0.028852593 0.046436705 -0.027882129
-0.10441774 -0.037150677 -0.024741279 -0.01975071 -0.011920796 0.039424896 -0.09509008 -0.02893456
-0.012241839 0.024210405 0.037363198 -0.012415466 0.050306622 -0.009690724 -0.010143988 -0.1084014
-0.10908232 0.027991174 -0.018905845 0.031328704 0.016170373 -0.033349983 -0.017345697 -0.028926779
00000000: 12fa 19bd f003 683c aed7 0fbd 95bb 9abd
00000010: 4258 753c 465c ec3c 6a34 3e3d 1069 e4bc
00000020: f8d8 d5bd 4f2b 18bd 39ae cabc 3ecc a1bc
00000030: 714f 43bc 007c 213d 96be c2bd 2c08 edbc
00000040: ff91 48bc e654 c63c 270a 193d 3d6a 4bbc
00000050: 510e 4e3d d8c5 1ebc f832 26bc 8e01 debd
00000060: 8d66 dfbd bf4d e53c 6ee0 9abc 8752 003d
00000070: bb77 843c fe99 08bd 9018 8ebc daf7 ecbc
