Config/results/Env_PPO_09/EnvironmentAgentBehavior/EnvironmentAgentBehavior-14499968.onnx (onnx, 912132 bytes, 11 tensors)

action_model._discrete_distribution.branches.0.bias f4 [10]
0	0xbc1b26fb	-0.009469743
1	0x3c7261c1	0.014793814
2	0xbc057a5c	-0.0081468485
3	0xba3613a7	-0.00069456775
4	0x3d6a0037	0.05712911
5	0x3d4b4408	0.049625427
6	0xbc9c3176	-0.019066554
7	0x3ae7bb03	0.0017679635
8	0xbcec8070	-0.028869838
9	0xbd69261a	-0.056921102

action_model._discrete_distribution.branches.0.weight f4 [10, 256]
0	0x3da180bd	0.07885883
1	0x3c9069cc	0.017628573
2	0x3d5aac85	0.053387184
3	0x3cb40cec	0.021978818
4	0x3bdce5e6	0.006741273
5	0xbd8cf6dd	-0.06883023
6	0x3d55add1	0.052167717
7	0x3d163b61	0.036677722
8	0xbd002bdc	-0.031291828
9	0xbe38da1f	-0.18051957
10	0x3dcc4029	0.09973175
11	0xbc845829	-0.01615532
12	0xbc072733	-0.008249092
13	0xbd2a2c91	-0.041546408
14	0x3d3253d7	0.043536987
15	0xbde5aa16	-0.11214082
16	0x3cabb92a	0.020962317
17	0xbcace063	-0.02110309
18	0x3cbacfdc	0.022804193
19	0xbcb58985	-0.022160301
20	0xbc8d8562	-0.017275516
21	0x3c970ff8	0.018440232
22	0x3c1d1c1b	0.00958922
23	0x3d615871	0.055015985
24	0x3b64b141	0.003489569
25	0xbe5f89c7	-0.21829902
26	0x3cdb919d	0.026802832
27	0xbd023129	-0.031785164
28	0xbd8a4d6d	-0.06753049
29	0x3d8bf528	0.06833869
30	0xbd8d5e77	-0.06902783
31	0xbe68d97c	-0.22739214
32	0xbca01165	-0.019539544
33	0x3d498892	0.04920251
34	0x3e3a1ee1	0.18175842
35	0x3d8a2c50	0.06746733
36	0x3b4f9443	0.0031674064
37	0xbdadf8eb	-0.08494743
38	0xbdc318f6	-0.09526245
39	0x3c0066e5	0.007837032
40	0x3d1b1fcc	0.03787212
41	0xbd724575	-0.05914827
42	0xbe352d99	-0.17693175
43	0x3deb040b	0.114753805
44	0x3d2841ee	0.0410785
45	0xbd522243	-0.051302206
46	0xbd871d6f	-0.06597411
47	0x3da39071	0.079865344
48	0x3cf314de	0.029673036
49	0x3d7d7376	0.06187769
50	0xbcd58fe6	-0.026069593
51	0x3ca9e50a	0.020739097
52	0x3e1bbf45	0.15209682
53	0xbddfa75b	-0.109205924
54	0xbd9dfcb0	-0.07714212
55	0x3df2ff5c	0.11865112
56	0x3ce4354d	0.027857447
57	0xbd6248cb	-0.055245202
58	0x3d1e32f6	0.03862282
59	0x3c6c0a84	0.014406804
60	0xbdbf0434	-0.093269736
61	0x3c189441	0.00931269
62	0x3dca4102	0.098756805
63	0x3d82f0f3	0.06393614
64	0x3db6787b	0.089096986
65	0x3d1c3449	0.0381358
66	0x3c199079	0.009372824
67	0x3c51c2eb	0.01280282
68	0xbdadd359	-0.08487577
69	0x3d5d8657	0.054083195
70	0x362c990b	2.571908e-06
71	0xbd2f9aaa	-0.04287211
72	0x3d37599f	0.044763204
73	0x3dac0c5e	0.08400796
74	0xbd2afd8b	-0.041745704
75	0x3dcda29d	0.10040782
76	0xbc9b131f	-0.018930016
77	0x3d4c3164	0.04985179
78	0x3dc74d51	0.09731544
79	0xbbe35463	-0.00693755
80	0xbddce61f	-0.107860796
81	0x3b882d4e	0.0041557914
82	0xbbfe932b	-0.0077690086
83	0xbd4456f8	-0.047934502
84	0xbc98850c	-0.01861813
85	0xbd4a4a18	-0.049387068
86	0x3c934c49	0.017980712
87	0xbcb1c7c9	-0.02170171
88	0x3ca4068d	0.020022655
89	0xbdd0c47f	-0.10193729
90	0x3c83b108	0.016075626
91	0x3c155b05	0.009115939
92	0xbd2ae74f	-0.0417245
93	0xbe026bd4	-0.12736446
94	0xbc9777c9	-0.018489735
95	0x3d814b83	0.06313231
96	0xbd144369	-0.0361971
97	0xbd71a213	-0.058992457
98	0x3d519041	0.051162962
99	0xbdcc02a1	-0.09961439
100	0x3d102a96	0.035196863
101	0x3cfe98ad	0.03107866
102	0x3dabb47c	0.08384034
103	0x3d9c2543	0.076242946
104	0x3d5f4edf	0.054518577
105	0xbd7e8412	-0.06213767
106	0xbb56889e	-0.0032735239
107	0x3d587159	0.05284247
108	0xbce827d9	-0.028339313
109	0x3d87adaa	0.06624921
110	0x3d45c034	0.048279002
111	0x3d7b8680	0.061407566
112	0x3cc6d880	0.024273157
113	0xbd90793a	-0.07054372
114	0x3d43ce15	0.047803957
115	0x3d88938f	0.066687696
116	0x3c15314a	0.00910599
117	0xbd895ea5	-0.06707505
118	0xbd7fe89a	-0.062477686
119	0x3d142c3b	0.036174994
120	0xbdd2f6b8	-0.10300964
121	0x3ccc0140	0.02490294
122	0xbbba7d2e	-0.005691192
123	0x3d83706c	0.06417927
124	0x3d2b6244	0.04184176
125	0x3ba90bdb	0.005158884
126	0x3c70af1b	0.014690186
127	0xbb899495	-0.0041986206
128	0xba9ff563	-0.0012203868
129	0x3d3ee145	0.046601553
130	0xbcfc18c5	-0.03077353
131	0x3c295c8e	0.010337008
132	0xbb9edd6d	-0.0048481734
133	0x3ccf6b46	0.025319707
134	0x3cc0ec81	0.023550274
135	0xbd616f26	-0.05503764
136	0xbda82af0	-0.08211315
137	0xbd8340b9	-0.06408829
138	0x3d3a599d	0.045495618
139	0xbd6667ff	-0.056251522
140	0x3dd24e27	0.102688126
141	0xba115241	-0.0005543568
142	0xbcba2164	-0.022721
143	0xbce4c8de	-0.027927812
144	0xbe10b075	-0.14129813
145	0x3db8c745	0.09022383
146	0xbd82accb	-0.06380614
147	0x3e401bd8	0.18760622
148	0x3c96f72e	0.018428411
149	0xbd0da973	-0.034585427
150	0x3dbfb175	0.09360019
151	0xbdd2926d	-0.10281835
152	0x3dad7644	0.08469823
153	0xbda8fe8d	-0.08251677
154	0xbca3cac8	-0.019994155
155	0xbd0ae729	-0.033911858
156	0x3d9aed71	0.075648196
157	0x3d25458b	0.040349524
158	0xbd626eef	-0.055281576
159	0xbe0fdb1a	-0.14048424
160	0xbc507aab	-0.012724559
161	0x3d9ec886	0.077530906
162	0xbc4fa031	-0.01267247
163	0x3c98f48d	0.018671298
164	0xbcdbf608	-0.026850715
165	0x3c071718	0.008245252
166	0x3cbd4cf6	0.023107987
167	0x3d09fac4	0.033686414
168	0x3c159db4	0.009131838
169	0xbcc8ce61	-0.024512472
170	0xbd72d72b	-0.05928723
171	0xbd099728	-0.03359142
172	0xbd19a1af	-0.03750771
173	0x3b1f19a2	0.0024276753
174	0x3c095092	0.008381026
175	0x3e164687	0.14675342
176	0xbe05a2a9	-0.13050331
177	0x3dbb7786	0.09153657
178	0x3df2bbf5	0.11852256
179	0x3db1efda	0.08688326
180	0xbe0463de	-0.12928721
181	0xbdf0d98e	-0.11760245
182	0xbd44b9b7	-0.048028674
183	0x3d7cec53	0.061748814
184	0xbd6a1997	-0.05715331
185	0x3dee76f6	0.11643784
186	0xbc2d1f94	-0.010566611
187	0xbd2c94d0	-0.042134106
188	0xbdae3e07	-0.085079245
189	0x3dda97e0	0.10673499
190	0xbdb6a79d	-0.089186884
191	0xbdb2fff6	-0.08740227
192	0xbbfb1c5e	-0.0076632937
193	0xbdc8eaa2	-0.09810378
194	0x3d401e48	0.04690388
195	0x3c3bcacf	0.011461928
196	0x3c66b1dd	0.014080492
197	0xbc5df893	-0.013548034
198	0xbdf84ea6	-0.12124376
199	0xbd9af0a3	-0.07565429
200	0x3d361b63	0.04445971
201	0x3d5b1aab	0.05349223
202	0xbd33e63d	-0.043920744
203	0xbe5c21b2	-0.21497229
204	0xbd0a30ef	-0.033738073
205	0x3d134abc	0.035959944
206	0x3dd8e4b9	0.105905004
207	0xbc1460aa	-0.00905625
208	0xbda633d8	-0.08115357
209	0x3da2e87e	0.079545006
210	0xbd2e9f17	-0.04263219
211	0xbda69cad	-0.08135352
212	0xbd0a918b	-0.033830207
213	0xbdb40952	-0.0879084
214	0xbd718f2c	-0.05897443
215	0x3db47b91	0.08812631
216	0x3b38d276	0.0028201616
217	0x3d6a0b1e	0.05713951
218	0x3d5053e7	0.050861266
219	0xbbbc0539	-0.0057379273
220	0x3d8cb5c9	0.0687061
221	0x3c5856a2	0.013204249
222	0x3da50213	0.08057036
223	0x3de46440	0.11151934
224	0x3d63b240	0.055589914
225	0xbd467472	-0.048450895
226	0xbd474b5c	-0.048655853
227	0xbbe9d0ab	-0.007135471
228	0xbc5f77b6	-0.013639381
229	0xbcffbbb2	-0.03121743
230	0x3bbb73a5	0.005720573
231	0xbbf46036	-0.0074577583
232	0xbd5122d3	-0.0510586
233	0x3d5db5bd	0.054128397
234	0xbd1300ad	-0.035889316
235	0x3dd3748b	0.10324963
236	0x3d14e32a	0.036349453
237	0xbc24a616	-0.010049364
238	0xbd95775c	-0.072981566
239	0x3d049cb2	0.032376
240	0x3d2cb8a0	0.04216826
241	0xbcf36fdb	-0.029716423
242	0xbe2a7cdc	-0.16649193
243	0x3cd76eb3	0.026297903
244	0x3bcdaca9	0.006276686
245	0xbd362dd9	-0.044477317
246	0xbe3a9b3e	-0.18223283
247	0x3d965a6a	0.07341464
248	0x3de07bab	0.10961088
249	0xbcda75c8	-0.02666749
250	0xbdbbc1c0	-0.09167814
251	0xbc4296eb	-0.011876802
252	0xbd30023b	-0.042970877
253	0x3c316819	0.0108280415
254	0x3d756577	0.059911218
255	0x3e0e3bb8	0.13889968

action_model._discrete_distribution.branches.1.weight f4 [1, 256]
0	0x3c40270d	0.01172806
1	0x3adc4cf0	0.0016807597
2	0xb982153d	-0.00024811356
3	0xb917fd78	-0.00014494907
4	0x36cb43bb	6.0577563e-06
5	0xbc1da98c	-0.009622943
6	0xbaa4e2ab	-0.0012579759
7	0xbc3bb833	-0.011457491
8	0xb95934cd	-0.00020714402
9	0xbaf9a415	-0.0019046093
10	0x3b8c0f48	0.0042742826
11	0xbc404c97	-0.01173701
12	0x3c0815d3	0.008305985
13	0x3c2b2fe6	0.010448432
14	0x3b282289	0.002565535
15	0xbc03aeac	-0.0080372505
16	0xbcbab44f	-0.022791056
17	0xbc487ccd	-0.012236786
18	0xbba7203d	-0.0051002786
19	0xbb875fd2	-0.0041312957
20	0xbb47698b	-0.0030427899
21	0xbaa88a37	-0.0012858574
22	0xbbdccf22	-0.0067385593
23	0x3bbdc0d7	0.0057908106
24	0xbaf03600	-0.001832664
25	0x3bb7c3a9	0.0056080413
26	0xbc1eb381	-0.009686352
27	0xbb79ef3b	-0.0038136977
28	0x3b1755a3	0.0023091815
29	0x3b197a67	0.0023418905
30	0x3ae5702a	0.0017504741
31	0x3beded55	0.007260958
32	0x3af39942	0.0018585103
33	0xba166549	-0.00057371386
34	0x3bd78a6d	0.006577781
35	0x3c288f6b	0.0102881
36	0xbc384553	-0.011246997
37	0x3b966832	0.004590058
38	0x3a20116a	0.00061061105
39	0x3b556982	0.0032564108
40	0x3b825073	0.0039768755
41	0x3bb3c232	0.0054857964
42	0x3bbd3f9e	0.005775406
43	0xbb9d4dae	-0.00480052
44	0xbc8f4bef	-0.017492263
45	0xbb85909f	-0.004076078
46	0xba2a18f3	-0.0006488703
47	0xbac6186e	-0.0015113482
48	0x3aae9292	0.0013318828
49	0x3bbe2daf	0.0058037858
50	0x3af84928	0.0018942701
51	0x3bcab39e	0.006185963
52	0x3b6886d0	0.0035480745
53	0xbbc4a49d	-0.0060010687
54	0xbb8efe04	-0.004363777
55	0xbc97298b	-0.018452426
56	0xbbafa1f7	-0.005359884
57	0x3bd20f3b	0.006410507
58	0x3a639272	0.0008681185
59	0x3c05ee0c	0.008174431
60	0x3c71de52	0.014762478
61	0xba68c5e7	-0.00088795874
62	0x3b4416fb	0.0029920924
63	0xbbe7c083	-0.0070725097
64	0xbb5f6bd7	-0.0034091377
65	0xbad3a9f0	-0.0016148668
66	0x3bb5289e	0.0055285236
67	0xbbd54665	-0.006508636
68	0xbb5c8f0f	-0.0033654606
69	0xba7e804b	-0.0009708448
70	0x3b63951b	0.0034726325
71	0x3ba5e107	0.0050622257
72	0xbb99c7bf	-0.004693001
73	0xbbbc9db9	-0.0057561067
74	0xba0a46a3	-0.0005274808
75	0xbbd2630b	-0.0064204982
76	0x3b247ca3	0.0025098703
77	0xbb8ac117	-0.004234444
78	0x3c34c5af	0.01103346
79	0xba12da33	-0.0005601972
80	0xbba5766b	-0.005049517
81	0xbc088e3c	-0.008334693
82	0x3bce1b4b	0.0062898747
83	0xbc0afeea	-0.008483628
84	0xbb820d03	-0.0039688363
85	0x3b165330	0.0022937767
86	0xbb27ce37	-0.0025605091
87	0x3b9f9837	0.0048704403
88	0xbb6978bf	-0.0035624949
89	0x3be00405	0.0068364167
90	0x3a3fc0b1	0.0007314785
91	0x3b566670	0.0032714866
92	0xbb6d0413	-0.0036165759
93	0xbc0d9e65	-0.008643721
94	0xbc192638	-0.009347491
95	0xbb75e497	-0.0037520283
96	0x3bd91817	0.006625186
97	0x3afa37c7	0.0019090109
98	0xbb53a595	-0.003229474
99	0xba184ac9	-0.00058094837
100	0xba41694c	-0.0007378056
101	0xbaf71b22	-0.0018852691
102	0xba90b93c	-0.0011041532
103	0x3b3211d7	0.0027171278
104	0xbbcf4d22	-0.0063263336
105	0x3ac5b953	0.0015085138
106	0x3bc8cbb8	0.006127801
107	0xbbb7cd14	-0.005609164
108	0xbb9c1361	-0.0047630523
109	0xbbbec2e6	-0.0058215735
110	0xbb6ce27f	-0.0036145744
111	0xbb41d098	-0.0029573794
112	0xbaab926f	-0.0013089905
113	0x3c04e64d	0.008111549
114	0x3b5ce5f2	0.0033706394
115	0xbb391c37	-0.0028245577
116	0xbbc4056e	-0.0059820926
117	0xbb4ab2c1	-0.00309293
118	0x3b984bea	0.0046477215
119	0xbabe35ad	-0.0014511846
120	0x3c06042a	0.008179704
121	0xbbb7aede	-0.0056055626
122	0x3a1ca5f3	0.0005975656
123	0xbc03bb01	-0.008040191
124	0x3bb22d9d	0.0054375664
125	0x39d367aa	0.00040322292
126	0xbba33f2b	-0.0049818954
127	0x3c1e002e	0.0096435975
128	0x3bc7196b	0.006076028
129	0x3a8f5df7	0.0010938038
130	0xbbf8157d	-0.007570921
131	0xba8e064b	-0.0010835616
132	0xbb61b04b	-0.0034437354
133	0xba9ab33c	-0.0011802684
134	0x3bd247c7	0.006417248
135	0x3c18e524	0.009331975
136	0xbbb979de	-0.0056602797
137	0xbc1286c2	-0.008943262
138	0x3957d4ff	0.00020583345
139	0x3b68733b	0.0035469073
140	0xbb8c33d6	-0.0042786403
141	0xbc572930	-0.013132378
142	0x3bcfd105	0.0063420557
143	0x3b85632f	0.0040706615
144	0xbabc109c	-0.0014348212
145	0xbba0f1bd	-0.00491163
146	0x3b1cfb2e	0.0023953426
147	0x3c59c0df	0.013290613
148	0x3b9b40e2	0.0047379592
149	0xbbb53436	-0.0055299057
150	0xbc1750cb	-0.009235571
151	0x3c417b77	0.0118092215
152	0x3b5b794f	0.0033489054
153	0x3bf0f89b	0.007353855
154	0x3a80d86b	0.0009830123
155	0xb9380b73	-0.00017551873
156	0x3b7ab1b8	0.0038252901
157	0xbb3bb088	-0.0028639156
158	0xbac9dc69	-0.001540077
159	0x39c8910b	0.00038255038
160	0xbae7da33	-0.001768893
161	0x3a4c741b	0.00077992835
162	0x3bbb161d	0.005709423
163	0x3bb32b18	0.0054677837
164	0x3b4024bd	0.0029318773
165	0x3c3cb72b	0.01151828
166	0xbc093b8f	-0.008376016
167	0xbbb8c7d3	-0.0056390553
168	0xba9ad91f	-0.0011813975
169	0xbbb76d3a	-0.0055977376
170	0xbb5b9713	-0.0033506795
171	0x398cec7e	0.0002687908
172	0xbb13c3c2	-0.00225471
173	0x3ba74d18	0.005105626
174	0x3a245830	0.00062692445
175	0xbc00a99b	-0.007852937
176	0x3b94c729	0.0045403433
177	0xbb71de00	-0.0036906004
178	0x3c6a9faa	0.014320293
179	0x3ab11b27	0.001351212
180	0xb8944dcb	-7.07168e-05
181	0x3ae1ac73	0.0017217532
182	0xb9a50ca7	-0.0003148068
183	0xbadf0a50	-0.0017016623
184	0x3bf169ad	0.007367334
185	0x3bf4453b	0.007454542
186	0x3b040d6a	0.0020149597
187	0x3bed71fb	0.0072462535
188	0x3c39914f	0.011326148
189	0xbbd0ddc5	-0.0063740932
190	0xbc439f37	-0.011939815
191	0x3a092ffd	0.0005233286
192	0x3a059c70	0.00050968584
193	0xba7e90c2	-0.00097109016
194	0x3bc1fbb3	0.0059198975
195	0x3b5236e0	0.0032076165
196	0x3c1bb4f5	0.009503593
197	0x3b26e484	0.0025465796
198	0x3c285bf0	0.010275826
199	0xbb933a90	-0.004493065
200	0xbbfeb787	-0.007773343
201	0xbc414807	-0.011796958
202	0xbb9076a5	-0.004408675
203	0x3b60f723	0.0034326992
204	0xbb927717	-0.004469763
205	0x3aa719ba	0.0012748756
206	0x3b9c4557	0.004769008
207	0x3bcfe8e5	0.006344902
208	0xbc007103	-0.007839444
209	0x3a992d65	0.0011686502
210	0xbb8a151c	-0.004213942
211	0xbb9f828c	-0.0048678573
212	0x3ac241ca	0.0014820632
213	0xbb8499fc	-0.0040466767
214	0x3bf9238d	0.007603115
215	0xbb786980	-0.003790468
216	0x3c10493b	0.008806522
217	0xbb14cbea	-0.002270455
218	0xbb3617d3	-0.0027785196
219	0xbc2a5037	-0.010395101
220	0xbb449311	-0.0029994885
221	0xba95b8c3	-0.0011422861
222	0x3b1d5214	0.0024005221
223	0x3b0e1476	0.0021679676
224	0xbb1e69c9	-0.002417194
225	0x3c0ad473	0.008473503
226	0xba8206bb	-0.0009920219
227	0xba98f0c6	-0.0011668436
228	0x3c528680	0.01284945
229	0xbb93aec2	-0.0045069167
230	0xbb25043e	-0.002517953
231	0xbad97020	-0.0016589202
232	0x3b2e1eed	0.0026568726
233	0x3b82e037	0.0039940136
234	0xbc343bdf	-0.0110006025
235	0xbb0882e0	-0.002082996
236	0x3b834460	0.0040059537
237	0x3bd783a0	0.00657697
238	0x3aa2ec77	0.0012430091
239	0x3c0d4b75	0.008623947
240	0x3af97015	0.0019030595
241	0x3b3f3a6b	0.0029179107
242	0x3bf6d733	0.007532978
243	0x3af5007f	0.0018692164
244	0xbc0f858b	-0.0087598665
245	0xba60ea08	-0.0008579795
246	0x3c12d7c7	0.008962578
247	0x3c408a7c	0.011751767
248	0xba026233	-0.0004973739
249	0x3c05cafa	0.008166069
250	0xbac0e536	-0.0014716748
251	0xbbd1e3dd	-0.0064053372
252	0xb986a623	-0.00025682253
253	0x3a4a283a	0.00077116827
254	0x3bd5bf9b	0.0065230853
255	0x3b014bbb	0.0019728977

action_model._discrete_distribution.branches.2.bias f4 [10]
0	0xbd997922	-0.074938074
1	0xbd6f16d5	-0.058371384
2	0x3bd70039	0.006561306
3	0x3ad096ba	0.0015914061
4	0x3d012cfe	0.03153705
5	0x3c332896	0.010934969
6	0x3d896cf5	0.06710235
7	0x3c18f9ce	0.009336902
8	0xbc6f8679	-0.014619463
9	0x3d1dc390	0.03851658

action_model._discrete_distribution.branches.2.weight f4 [10, 256]
0	0xbda508db	-0.0805833
1	0x3d106b5d	0.03525864
2	0xbc0bac92	-0.008525031
3	0xbc1ae4e4	-0.009453986
4	0x3c999b8a	0.018750925
5	0xbdf2733a	-0.11838384
6	0x3d1e3fe9	0.03863517
7	0xbd855602	-0.06510545
8	0x3c7fed44	0.015620533
9	0xbb6f27a7	-0.003649214
10	0xbdf56573	-0.119822405
11	0xbd26c37c	-0.040713772
12	0xbdd2a71c	-0.1028578
13	0xbd03afa1	-0.032149915
14	0x3d2ef6e6	0.04271593
15	0x3e1718dc	0.14755577
16	0x3d22524e	0.039629273
17	0x3d4209d1	0.047372643
18	0xbde8191c	-0.11332914
19	0xbd9b7f0d	-0.075925924
20	0x3d944801	0.07240296
21	0xbbed1d7c	-0.007236181
22	0x3d95e91a	0.07319851
23	0x3d2a61ce	0.04159718
24	0x3d4aa0d4	0.049469784
25	0x3d626e3b	0.055280905
26	0x3d261b77	0.040553536
27	0x3c6b80f3	0.014374006
28	0xbd0ba537	-0.034093108
29	0x3dd3b1fc	0.10336682
30	0x3e02b76e	0.12765285
31	0x3d33beff	0.04388332
32	0xbe04e169	-0.12976612
33	0x3decb341	0.115576275
34	0xbd9911d3	-0.07474103
35	0x3dd23014	0.102630764
36	0xbd23e197	-0.04001006
37	0xbba55282	-0.005045236
38	0xbdb1582e	-0.08659397
39	0xbc79cddc	-0.015246835
40	0xbd8bfb6f	-0.068350665
41	0xbdbbcf17	-0.09170359
42	0xbd93ba8f	-0.072133176
43	0xbc098030	-0.008392379
44	0xbe0330ce	-0.12811586
45	0xbe039a53	-0.12851839
46	0x3d3012ed	0.0429868
47	0x3d00d4ab	0.031452816
48	0x3d6591e5	0.05604734
49	0x3d47eb02	0.048808105
50	0xbc40f00f	-0.011775984
51	0xbd7bb837	-0.061454978
52	0x3dc128e1	0.09431625
53	0x3d15deed	0.03658955
54	0xbd598aa2	-0.053110726
55	0xbc9580e0	-0.018249929
56	0x3be7e859	0.0070772585
57	0xbc184368	-0.009293415
58	0xbdc01e26	-0.0938075
59	0xbc8c0109	-0.017090337
60	0x3d2519d0	0.04030782
61	0x3d717aee	0.058955126
62	0xbd2d1962	-0.042260535
63	0x3c6e975d	0.014562455
64	0x3c6806c2	0.014161767
65	0x3da48706	0.08033566
66	0x3d9653a4	0.07340172
67	0x3d8a77fb	0.06761166
68	0x3c105a8a	0.008810649
69	0xbd56310c	-0.05229287
70	0xbc0a37a6	-0.008436119
71	0x3d1093a1	0.03529704
72	0x3c169108	0.009189852
73	0xbc6ca3d4	-0.014443357
74	0xbc32a9bd	-0.010904727
75	0x3cf32288	0.029679552
76	0x3e021961	0.12704994
77	0xbd1e31f9	-0.038621876
78	0xbd23ae01	-0.039960865
79	0x3d866b39	0.0656342
80	0x3c35f8d5	0.011106689
81	0xbc7fc222	-0.01561025
82	0xbd5b848a	-0.053593196
83	0x3e1574a0	0.1459527
84	0xbd471949	-0.0486081
85	0x3d729254	0.05922158
86	0x3dda6779	0.10664267
87	0x3e0d8b7e	0.13822743
88	0xbdf43540	-0.11924219
89	0x3dcc38a2	0.09971739
90	0xbd1d2c28	-0.03837219
91	0x3ba11ca1	0.004916743
92	0x3cec7cdc	0.028868131
93	0xbd410666	-0.047125243
94	0xbe0854b6	-0.13313565
95	0xbdab3db0	-0.08361375
96	0x3d974874	0.07386866
97	0xbd960370	-0.073248744
98	0xbccc4c8f	-0.02493885
99	0xbdba65ff	-0.091014855
100	0x3ca0540d	0.019571329
101	0x3caa5c1e	0.020795878
102	0x3c30977d	0.010778305
103	0x3d4e2155	0.050324757
104	0xbd487729	-0.048941765
105	0x3c334955	0.010942777
106	0xbe43f4ee	-0.19136402
107	0xbc89b166	-0.016808223
108	0x3ce9bac3	0.028531438
109	0x3d98dc6a	0.07463916
110	0x3ba3fd0e	0.0050045317
111	0x3e0f4fb2	0.13995245
112	0xbd3ed747	-0.046592023
113	0x3d886cad	0.06661353
114	0x3d4abdd0	0.049497426
115	0x3df13a88	0.11778742
116	0x3ceb9782	0.028758768
117	0x3ace3dea	0.0015735005
118	0xbd1d6382	-0.038424976
119	0xbdbdfd22	-0.09276797
120	0x3dbb20cd	0.09137116
121	0xbdcaa364	-0.098944455
122	0x3de5f16a	0.11227687
123	0x3da31097	0.07962149
124	0xbda282e9	-0.079351254
125	0x3d5bd9cf	0.053674515
126	0x3c27eaf7	0.010248891
127	0x3d5fb264	0.054613486
128	0xbd72439b	-0.059146505
129	0x3c979e7e	0.018508192
130	0x3d33484a	0.043770112
131	0xbd8030e9	-0.06259329
132	0xbd4f3b61	-0.050593738
133	0xbb2045db	-0.00244557
134	0xbb31ca21	-0.0027128535
135	0xbcfdc1fa	-0.030976284
136	0xbe6d90ee	-0.23199818
137	0xbda1aeb5	-0.07894651
138	0xbde7f727	-0.113264374
139	0x3dc61e4b	0.09673747
140	0x3d9ccb7d	0.07656
141	0x3d907648	0.0705381
142	0x3e02ea02	0.1278458
143	0xbd83701e	-0.06417869
144	0x3e2c7370	0.16840911
145	0xbcfa26a2	-0.030536
146	0xbd6eb6ec	-0.058279917
147	0x3d5b975d	0.05361115
148	0xbdee3e9e	-0.11633037
149	0x3e0bce5c	0.13652939
150	0x3e120e0d	0.14263172
151	0xbbe584e2	-0.0070043663
152	0x3caeb078	0.021324381
153	0x3bae331b	0.005316151
154	0xbdbb9eab	-0.09161123
155	0x3d942bbf	0.072349064
156	0x3d93d3be	0.07218121
157	0xbb8b7fc8	-0.004257176
158	0xbda7471b	-0.08167859
159	0xbe06e9a0	-0.13175058
160	0xbe0774b8	-0.13228118
161	0x3bb7ec75	0.0056129047
162	0xbc987536	-0.018610578
163	0x3c10b930	0.008833215
164	0xbbff226d	-0.0077860863
165	0x3d1a08f5	0.0376062
166	0x3cc0530a	0.023477096
167	0xbb4562f3	-0.0030118793
168	0x3cbc79ea	0.023007352
169	0xbdac7ad9	-0.08421869
170	0xbd909bfa	-0.07061
171	0x3daa157d	0.0830488
172	0xbe2eb79b	-0.17062227
173	0x3d842558	0.06452435
174	0xbd6b6dc9	-0.057477746
175	0x3d8c102b	0.06839021
176	0xbe716171	-0.23572327
177	0x3dd64a53	0.10463395
178	0x3d0b7134	0.034043506
179	0xbd112b5c	-0.03544174
180	0x3dfacb7d	0.122458436
181	0xbdb0e0c1	-0.086366184
182	0x3d4a14ef	0.04933637
183	0xbd11ca84	-0.035593525
184	0x3da802aa	0.08203633
185	0xbc6ee8b3	-0.014581847
186	0x3cab4435	0.020906547
187	0xbd91eeb7	-0.07125609
188	0xbdfee1bf	-0.124454014
189	0xbcca2ea3	-0.024680441
190	0x3d038df5	0.032117803
191	0xbd9114cc	-0.07084045
192	0xbcdcfcd4	-0.026976027
193	0xbd9bbdfa	-0.076045945
194	0x3cb1c2eb	0.02169939
195	0x3ce75765	0.028239915
196	0x3cdc886a	0.026920516
197	0xbcd83654	-0.026393093
198	0xbc8d8dbc	-0.017279498
199	0xbc822802	-0.015888218
200	0xbd94993c	-0.0725579
201	0x3d4d96f0	0.050192773
202	0x3da468d9	0.080278106
203	0x3dff95e3	0.124797605
204	0x3bd5ae00	0.0065209866
205	0x3d0f851c	0.035039052
206	0xbc6967aa	-0.014245907
207	0xbe06d68a	-0.13167778
208	0xbd407f08	-0.046996146
209	0x3d999c2b	0.0750049
210	0xbdb51ede	-0.08843778
211	0xbdb11f16	-0.08648507
212	0x3e465c1a	0.19371071
213	0xbc128264	-0.00894222
214	0xbe052377	-0.1300181
215	0x3d60e174	0.05490251
216	0xbd52ee45	-0.051496763
217	0x3cacf305	0.021111974
218	0x3d87bdbd	0.066279866
219	0xbe31db9f	-0.17368935
220	0xbd68e5a4	-0.056859627
221	0xbe1dbc17	-0.15403782
222	0xbb8042a0	-0.0039141923
223	0x3da20960	0.079119444
224	0xbdb12db2	-0.08651294
225	0x3c29774b	0.010343383
226	0x3d417591	0.04723126
227	0x3da3040e	0.07959758
228	0xba08e1ff	-0.00052216643
229	0xbcca56b6	-0.02469955
230	0xbd2a311a	-0.041550733
231	0x3d569260	0.052385688
232	0x3cafcdfa	0.021460522
233	0x3d61efb3	0.055160236
234	0x3dacad15	0.0843145
235	0xbd9552ab	-0.07291158
236	0xbd338c59	-0.043835018
237	0x3e327753	0.17428331
238	0x3dc8e16d	0.098086216
239	0x3d682349	0.056674276
240	0x3b8e0ec6	0.004335257
241	0xbc9a02a6	-0.018800091
242	0x3c11a77c	0.008890029
243	0xbb109e46	-0.0022066995
244	0xbbda3ec8	-0.006660316
245	0xbc94c69a	-0.018161107
246	0x3c4907a4	0.012269888
247	0xbc0a6307	-0.0084464615
248	0x3d80e4d7	0.06293648
249	0x3caec511	0.021334203
250	0xbd215889	-0.039391074
251	0x3da10d84	0.07863906
252	0xbd85100a	-0.064972
253	0xbd4b886c	-0.04969065
254	0xbc626506	-0.013818031
255	0x3d8ad169	0.06778223

action_model._discrete_distribution.branches.3.bias f4 [5]
0	0xbde9cf32	-0.114164725
1	0xbe3b546f	-0.18293928
2	0x3e0dc9d0	0.13846517
3	0x3f9160f5	1.1357714
4	0x3f7a7150	0.9782915

action_model._discrete_distribution.branches.3.weight f4 [5, 256]
0	0x3d905c25	0.07048825
1	0xbd2dcce6	-0.042431735
2	0x3e5a7c36	0.21336445
3	0x3e108c68	0.1411606
4	0x3e5d8c5e	0.21635577
5	0x3c1d9d4f	0.009620025
6	0x3c175631	0.009236858
7	0xbc8e81ea	-0.017395932
8	0xbd5413b5	-0.051776607
9	0x3d2452f5	0.040118176
10	0xb9fcff60	-0.00048255455
11	0xbb7101ae	-0.0036774683
12	0xbceb219b	-0.028702548
13	0xbd1c2f10	-0.03813082
14	0x3e8644e0	0.26224422
15	0x3cd4f7ad	0.025997007
16	0x3cb55d51	0.022139223
17	0x3cca7be7	0.024717284
18	0xbba8f0c7	-0.005155656
19	0x3d3d1de5	0.046171088
20	0x3cbd1ac0	0.023084044
21	0x3e2602bd	0.16211982
22	0x3d3fcead	0.04682796
23	0x3d68d714	0.05684574
24	0x3d93a443	0.07209065
25	0x3d0554a9	0.03255144
26	0x3c919a48	0.017773762
27	0x3d9e4514	0.07728019
28	0x3e231b54	0.15928394
29	0x3e0db9c6	0.13840398
30	0x3da753b0	0.08170259
31	0xbca3d8c4	-0.020000823
32	0x3c26ec11	0.010188119
33	0x3d0d4cf5	0.03449722
34	0x3ce0b5ad	0.02743038
35	0xbaf20dae	-0.0018467212
36	0xbda87ae2	-0.08226563
37	0xbc1550c8	-0.009113498
38	0x3db1871e	0.0866835
39	0x3d8df4c8	0.06931454
40	0x3c304846	0.010759419
41	0x3e4b527c	0.19855684
42	0xbdb2c97b	-0.087298356
43	0x3d8bcdf9	0.068263955
44	0xb9bd4816	-0.00036102597
45	0x3d909a8e	0.07060729
46	0x3cbadd02	0.022810463
47	0xbba75d87	-0.005107585
48	0xbd769bca	-0.060207166
49	0x3e76f853	0.24118166
50	0x3dab2b7f	0.083579056
51	0x3d967ff0	0.07348621
52	0x3d5afc30	0.05346316
53	0xbd95f85c	-0.073227614
54	0x3da9e8c8	0.082963526
55	0x3cb2d3cf	0.021829514
56	0xbd772c82	-0.06034518
57	0x3d9ba97d	0.07600687
58	0x3ddbfea2	0.10741927
59	0x3a0a38c1	0.0005272739
60	0xbd020c80	-0.031750202
61	0x3dc9142c	0.098183006
62	0x3d6ddb8d	0.058070708
63	0x3d5f7333	0.054553222
64	0x3d8a629f	0.06757092
65	0x3cb1dd87	0.021712078
66	0x3dbcc5a2	0.09217383
67	0x3d04215a	0.03225837
68	0xbceb3f56	-0.028716724
69	0x3cd879fa	0.02642535
70	0x3c8fc7da	0.017551351
71	0x3d9ba78a	0.07600315
72	0x3d3f4c78	0.046703786
73	0xbd0ba5a2	-0.034093507
74	0xbbd2b70b	-0.006430512
75	0x3d1e3efe	0.038634293
76	0xbca2da3b	-0.019879451
77	0x3dbc3ab9	0.09190888
78	0xbd671e27	-0.05642524
79	0xbcb24043	-0.021759158
80	0x3d4da33a	0.050204493
81	0x3e37b524	0.17940193
82	0x3d8d6b4d	0.069052316
83	0x3d748363	0.059695613
84	0x3dfb82c6	0.122808024
85	0xbd36fffc	-0.04467772
86	0x3d8b413b	0.06799551
87	0x3d00c67d	0.031439293
88	0x3ddb4706	0.10706906
89	0xbd1455af	-0.036214527
90	0x3d4dee77	0.050276246
91	0x3e3f0d68	0.18657458
92	0xbc00f415	-0.007870694
93	0x3d31c277	0.043398347
94	0x3ddd17a3	0.10795524
95	0xbd456103	-0.04818822
96	0xbcdf2cdf	-0.027243076
97	0xbbe78489	-0.00706536
98	0x3e0275ec	0.12740296
99	0xbd17c291	-0.037050787
100	0xbcb67d69	-0.022276597
101	0x3e201e0e	0.15636465
102	0x3e0f7198	0.14008176
103	0xbcd5a8ab	-0.026081404
104	0xbdc31764	-0.09525946
105	0x3d9a8122	0.075441614
106	0xbda7cc6b	-0.081932865
107	0x3ce762d3	0.028245365
108	0x3cc74ede	0.024329599
109	0xbbd4d5e7	-0.0064952257
110	0xbc346cab	-0.011012237
111	0x3d036598	0.03207931
112	0x3ae60edb	0.0017552035
113	0xbc52df7d	-0.012870667
114	0x3e23eb45	0.16007717
115	0xbd3da399	-0.046298597
116	0x3d029628	0.03188148
117	0x3d7c509e	0.06160032
118	0xbd869c28	-0.06572753
119	0x3dec574f	0.1154009
120	0x3da2839e	0.0793526
121	0xbdc32905	-0.09529308
122	0xbd15f3dc	-0.036609516
123	0x3d9b8223	0.07593181
124	0xbe292cd4	-0.16521007
125	0x3d0d8bd8	0.034557194
126	0x3c911b2c	0.017713152
127	0x3d9dd0a3	0.0770581
128	0xbcebde6c	-0.028792582
129	0x3d4a8561	0.049443606
130	0xbdd0d8b7	-0.10197585
131	0x3de61168	0.11233789
132	0xbdb47725	-0.088117875
133	0x3c34511d	0.011005667
134	0x3e0c6bda	0.13713017
135	0x3cf9882a	0.030460436
136	0x3d33a8ed	0.043862272
137	0x3cfec29b	0.031098654
138	0x3de12642	0.10993625
139	0xbd24eedf	-0.040266868
140	0x3d33bdaa	0.04388205
141	0xbd9fbc26	-0.07799558
142	0x3c9f2117	0.019424958
143	0x3bdae1ee	0.006679765
144	0xbdaf1c72	-0.085503474
145	0x3cb8bfc6	0.022552382
146	0x3d8e9d27	0.06963568
147	0x3da7e439	0.08197827
148	0x3c5de574	0.013543475
149	0x3d19933c	0.03749393
150	0xbd3afea6	-0.045653008
151	0xbd9fa4a9	-0.07795078
152	0xbc394421	-0.011307747
153	0x3cf11a7a	0.02943157
154	0x3bc53cb0	0.0060191974
155	0x3e469d0a	0.19395843
156	0xbcd776fc	-0.026301853
157	0xbbea0750	-0.007141985
158	0x3bdba849	0.0067034108
159	0xbe051317	-0.12995563
160	0xbd0bea9e	-0.034159295
161	0xbd059170	-0.032609403
162	0xbce2d7f4	-0.027690865
163	0xbbd3b67d	-0.0064609633
164	0x3d7e161d	0.062032808
165	0xbd58a8c5	-0.052895326
166	0x3d53b2b3	0.051684093
167	0x3d9b64dc	0.07587597
168	0x3e1fc2a5	0.15601595
169	0xbd183da9	-0.03716818
170	0xbbf8c108	-0.0075913705
171	0x3d41cdb5	0.04731532
172	0x3d82303b	0.063568555
173	0x3ce25a47	0.027630938
174	0x3b920d5a	0.004457158
175	0x3be32ec5	0.0069330656
176	0x3d18b33f	0.037280317
177	0x3c83ea3e	0.016102906
178	0x3c1b876f	0.009492739
179	0xbd2e7b3e	-0.042598
180	0xbc8727e9	-0.016498523
181	0x3e0c5c04	0.13706976
182	0x3d85ea6b	0.06538852
183	0x3d2812c9	0.04103354
184	0x3d9a36b1	0.07529963
185	0xbc0977c0	-0.008390367
186	0x3dab62bd	0.08368442
187	0x3d5314c2	0.051533468
188	0x3d5e849b	0.05432568
189	0xbd00c250	-0.03143531
190	0xbc6c82b8	-0.014435463
191	0x3c790a04	0.015200142
192	0x3ba5f593	0.005064675
193	0x3dedf205	0.11618427
194	0x3b25f020	0.0025320128
195	0xbc2cc7ca	-0.01054568
196	0x3dae5d8a	0.08513935
197	0x3d905463	0.070473455
198	0x3d1768a8	0.036965042
199	0x3e206aae	0.15665695
200	0x3dee2886	0.11628823
201	0x3db1fbb8	0.0869059
202	0x3dbfa050	0.09356749
203	0x3d5f3830	0.054496944
204	0xbd3dad90	-0.0463081
205	0x3d205f88	0.039153606
206	0xbd4581cc	-0.048219487
207	0xba1510dc	-0.0005686411
208	0xbd82194c	-0.06352481
209	0xbb78c066	-0.0037956475
210	0x3d3b5104	0.04573156
211	0x3d8cf3a3	0.068824075
212	0x3dd77335	0.10520021
213	0x3be18d3f	0.006883293
214	0x3d8b9921	0.068163164
215	0xbc4aa21d	-0.012367752
216	0x3cb0fb81	0.021604301
217	0x3ccb00a6	0.024780583
218	0x3d0a68c7	0.03379133
219	0x3c4d0596	0.012513539
220	0xbc706e4f	-0.014674737
221	0xbd950cb0	-0.072778106
222	0x3c72c08a	0.014816413
223	0x3c05f5cc	0.008176278
224	0x3ddf018b	0.10888966
225	0xbcdf5410	-0.027261764
226	0x3d2e42e7	0.04254427
227	0x3d90b515	0.07065789
228	0xbb89285a	-0.0041857185
229	0xbbffb596	-0.007803629
230	0xbdb6e77c	-0.08930871
231	0x3d19df79	0.037566636
232	0x3d85d3a1	0.06534506
233	0x3cb1f573	0.021723485
234	0x3c9dbef1	0.019256087
235	0x3c9b0285	0.0189221
236	0x3dea261b	0.11433049
237	0x3d9fa0e6	0.07794361
238	0x3cb652b5	0.022256235
239	0x3deecbd7	0.11659973
240	0x3d1c8083	0.038208496
241	0xbdbe7266	-0.092991635
242	0xbd09615f	-0.033540126
243	0x3da0fe19	0.07860965
244	0x3cc754e3	0.02433247
245	0xbd832bf7	-0.0640487
246	0x3d246e36	0.040144168
247	0xbd727f8f	-0.05920368
248	0x3b8f19aa	0.004367073
249	0xbd855fd6	-0.0651242
250	0xbd4adf34	-0.04952927
251	0xbd5d063d	-0.053961027
252	0xbd6d44d9	-0.057926986
253	0xbcc4e580	-0.024035215
254	0xbcb50b84	-0.022100218
255	0x3e37e03d	0.17956634

network_body.linear_encoder.seq_layers.0.bias f4 [256]
0	0xbcba992f	-0.022778122
1	0xbcbd1746	-0.023082387
2	0xbb0f0bce	-0.0021827105
3	0xbd17f141	-0.037095312
4	0xbc08f521	-0.008359225
5	0xbc42ba67	-0.011885262
6	0xbcd77821	-0.0263024
7	0xbce408c0	-0.027836204
8	0xbd0b20fe	-0.03396701
9	0xbc8d311a	-0.017235328
10	0xbda1162b	-0.07865556
11	0x3c8e6b2b	0.017385086
12	0xbc0aee9f	-0.008479743
13	0xbd75bdd6	-0.059995495
14	0xbc54f5dc	-0.012998071
15	0xbc2e864b	-0.010652135
16	0x3c665089	0.014057287
17	0xbcce64d2	-0.02519456
18	0xbd034f95	-0.032058317
19	0xbccadac4	-0.024762519
20	0x3bd025b9	0.006352153
21	0xbd6e6ffb	-0.05821226
22	0xbd812587	-0.06305986
23	0xbd48d28b	-0.049028914
24	0x3c2044d4	0.009782035
25	0xbcbaa837	-0.02278529
26	0xbd10e803	-0.035377514
27	0xbd5b9b66	-0.053614996
28	0xbbe5ef77	-0.007017072
29	0xbb7deb3a	-0.0038744942
30	0xbd1af37b	-0.037829857
31	0xbe30b2d5	-0.17255719
32	0xbbe3d7c6	-0.0069532124
33	0xbada64a9	-0.0016662079
34	0xbd014830	-0.031562984
35	0x3c3e0a36	0.011599114
36	0x3c3d44a8	0.011552013
37	0x3bb95661	0.005656049
38	0xbd7197ed	-0.05898278
39	0x3d3be929	0.045876656
40	0x3c82411a	0.015900183
41	0x3c590ba2	0.013247402
42	0xbc332ba8	-0.010935701
43	0xbb5ee450	-0.0034010597
44	0xbc86f233	-0.016472911
45	0x3d48ea72	0.04905171
46	0x3bb02995	0.0053760507
47	0xbc8b23a7	-0.016984774
48	0xbc60f428	-0.013730086
49	0xbbef3fa1	-0.0073012863
50	0xbd92a709	-0.07160766
51	0x3cf6e227	0.030137135
52	0xbc0d984a	-0.008642266
53	0x3d0e7051	0.034775082
54	0x3a5448bd	0.0008097997
55	0x3b35795d	0.0027690746
56	0xbaffbf8e	-0.0019512044
57	0xbc8a5f19	-0.01689105
58	0xbca626d5	-0.020282188
59	0xbcd8f053	-0.026481783
60	0xbbc7cb69	-0.0060972464
61	0xbc9c615b	-0.019089391
62	0xbca50c98	-0.020147607
63	0xbd1b09f3	-0.037851285
64	0x3c9e7763	0.019344037
65	0xbd14dcea	-0.036343493
66	0x3c0f76ef	0.008756383
67	0xbc45888c	-0.012056481
68	0xbb657c13	-0.003501658
69	0xbb97bd96	-0.0046307547
70	0xbc22d400	-0.00993824
71	0xbd46d6c9	-0.04854468
72	0xbc004d01	-0.007830859
73	0xbd92bbe8	-0.071647465
74	0xbcb870d6	-0.022514742
75	0xbd017610	-0.031606734
76	0xbcbe724a	-0.023247857
77	0xbc6b3d98	-0.014357947
78	0xbcb86553	-0.022509253
79	0xbc91edbf	-0.017813561
80	0x3b639484	0.0034725973
81	0xbe02c39b	-0.1276993
82	0x3c3017b2	0.010747837
83	0x3cc1535a	0.023599315
84	0xbd1191e2	-0.035539515
85	0xbdaa510d	-0.083162405
86	0xbc5bc0f0	-0.013412699
87	0xbd8b293e	-0.06794976
88	0xbce6820b	-0.028138181
89	0x3c9bcabc	0.01901757
90	0xbd7afc37	-0.061275687
91	0xbd80f495	-0.0629665
92	0x3be51d71	0.006992035
93	0x3b981e6d	0.004642299
94	0xbcdb90d8	-0.026802465
95	0xbac4b1f0	-0.0015006643
96	0xbc07bc95	-0.008284708
97	0x3c1e5bbd	0.009665427
98	0xbd7f0485	-0.06226017
99	0xbcbf738e	-0.02337053
100	0xbd1d452c	-0.038396046
101	0x3c805b6c	0.015668593
102	0xba14b689	-0.0005672952
103	0xbc84627b	-0.01616024
104	0xbb4537a6	-0.0030092984
105	0xbc4154c1	-0.011799992
106	0x3a305d83	0.00067278015
107	0x3cf44cc0	0.029821754
108	0x3c798cb1	0.015231297
109	0x3c385e36	0.01125293
110	0xbcebf738	-0.028804407
111	0x3c6b814b	0.014374088
112	0xbc34f164	-0.01104388
113	0x3c157027	0.0091209775
114	0xbd401dd1	-0.046903435
115	0x3c4b15a6	0.012395298
116	0xbcd1a49d	-0.025591189
117	0xbd7390bc	-0.0594642
118	0xbddcdea9	-0.107846566
119	0x3d4d9d5d	0.0501989
120	0x3ca45a9d	0.020062739
121	0xbc193aea	-0.009352425
122	0xbaaa70c7	-0.0013003581
123	0xbcc52e9f	-0.024070082
124	0xbc8850cd	-0.016640091
125	0xbd09acd0	-0.033612072
126	0xbc633d79	-0.013869637
127	0x3bbcc4cd	0.005760765
128	0xbcfe33cd	-0.03103056
129	0xbd7b2d10	-0.06132227
130	0xbc67b6cb	-0.014142702
131	0x3bf79c57	0.007556479
132	0xbb9266a1	-0.0044678007
133	0x3a8a59d3	0.0010555334
134	0xbcec03af	-0.02881035
135	0x3a5844b8	0.0008249986
136	0xbbfcc437	-0.0077138203
137	0x3c23898d	0.009981525
138	0xbcd3fe9a	-0.02587824
139	0x3b41a87f	0.0029549894
140	0x3a38693d	0.00070347247
141	0xbaf86582	-0.001895115
142	0x3d0f1fc3	0.0349424
143	0xbadbe064	-0.0016775248
144	0xbce79ffb	-0.028274527
145	0x3c75bc6f	0.014998539
146	0xb952eba2	-0.0002011494
147	0xbd6fe6a6	-0.058569573
148	0xbcc904f6	-0.024538498
149	0xbceb6613	-0.028735196
150	0x3cc21081	0.02368951
151	0x3c915947	0.017742766
152	0xbdfb1cba	-0.122613385
153	0xbcd24533	-0.025667762
154	0xbc4b063e	-0.012391625
155	0x3c31a0cc	0.01084156
156	0xbc873c1c	-0.016508155
157	0xbc82f13b	-0.015984168
158	0xbbcbfc68	-0.0062251575
159	0x3b97ab69	0.004628588
160	0xbc71963b	-0.01474529
161	0x3bde7a94	0.006789515
162	0x3bc20c7b	0.005921898
163	0x3bc90780	0.0061349273
164	0xbc166b8b	-0.009180914
165	0x3c08d323	0.00835112
166	0xbc34445f	-0.011002629
167	0x3c0804f2	0.00830196
168	0xbdc2e16a	-0.095156506
169	0x3c9065f7	0.017626746
170	0x3ca0cf8b	0.019630214
171	0xbc99bf62	-0.018768016
172	0x3c5f2284	0.013619069
173	0xbcac19a7	-0.021008326
174	0x3c921803	0.017833715
175	0x39c0813b	0.00036717378
176	0x3bdac22a	0.006675978
177	0xbaf6baec	-0.0018824018
178	0x3c8f6226	0.017502856
179	0xbda3dbc0	-0.08000898
180	0xbb903592	-0.0044009173
181	0xbd12d5fd	-0.035848606
182	0xbd80204c	-0.0625616
183	0xbc20506a	-0.009784797
184	0xbc57cba8	-0.013171114
185	0xbc836580	-0.01603961
186	0xbc5bd987	-0.013418562
187	0x3d89d813	0.06730666
188	0x3ac77d6f	0.0015219877
189	0xbc6673e9	-0.014065721
190	0x3cfa0fd0	0.030525118
191	0xbd0a97d5	-0.033836205
192	0xbcc68d6d	-0.024237359
193	0xbc1d253f	-0.0095914
194	0x3c381178	0.011234634
195	0xbcb956a0	-0.022624314
196	0xbc46444e	-0.012101246
197	0xbdd5c949	-0.10438783
198	0x3c09ec1c	0.008418109
199	0xbd1295b0	-0.035787284
200	0xbbbd8807	-0.005784038
201	0xbd0f8e22	-0.035047658
202	0x3c50d846	0.012746876
203	0xbc8c6eef	-0.017142741
204	0xbc983ed4	-0.018584646
205	0x3d051d09	0.032498393
206	0xbda7b837	-0.08189433
207	0xbc33d1a2	-0.010975273
208	0x3c081cf9	0.008307689
209	0xbc54626a	-0.012962917
210	0xbe03e43c	-0.12880033
211	0xbd0a1a06	-0.033716224
212	0xbcf280d1	-0.02960244
213	0xbd80c62e	-0.062878
214	0x3c2e3737	0.010633281
215	0xbd4a3448	-0.049366266
216	0x3b49e91f	0.0030809117
217	0x3c9da14b	0.01924195
218	0xbc3b184a	-0.011419365
219	0xbd483b20	-0.04888451
220	0xb8e479e2	-0.0001089459
221	0x3bd0ed81	0.006375969
222	0xbb99a3a5	-0.0046886974
223	0xbdc3990d	-0.095506765
224	0x3a35cde4	0.0006935282
225	0xbc1d1a90	-0.0095888525
226	0xbd53e1d5	-0.051729042
227	0xbc75b296	-0.0149961915
228	0x3b1444d6	0.0022624037
229	0xbdeb4e80	-0.11489582
230	0x3cb30386	0.021852266
231	0xb9fac513	-0.00047830548
232	0x3c4ae9b4	0.012384821
233	0xbbe32e64	-0.0069330204
234	0x3d2ab006	0.041671775
235	0xbd849305	-0.06473354
236	0xbd497eea	-0.0491933
237	0x3c5350b5	0.01289766
238	0x3c631a4c	0.01386125
239	0xbcff4d29	-0.031164723
240	0x3bdba715	0.0067032673
241	0xbc4372e7	-0.01192925
242	0xbdb932be	-0.090428814
243	0xbc59d75c	-0.013295975
244	0xbc1d47b4	-0.009599615
245	0xba87fa4a	-0.0010374275
246	0xbd09d3d8	-0.033649296
247	0xbc008de6	-0.007846331
248	0xbc522f2e	-0.012828631
249	0x3cb1c992	0.021702562
250	0xbc2e366f	-0.010633095
251	0x3aa8abc8	0.0012868578
252	0xbdc6d257	-0.09708088
253	0x3bf6e087	0.00753409
254	0xbc8d2239	-0.017228233
255	0xbcc39f3d	-0.023879642

network_body.linear_encoder.seq_layers.0.weight f4 [256, 602]
0	0xbe307a30	-0.17234111
1	0x3d5137c1	0.05107856
2	0x3b4dfa44	0.0031429688
3	0xbc8d9555	-0.017283121
4	0x3d892b85	0.06697754
5	0x3d622d6e	0.055219106
6	0xbe7ddb5c	-0.2479071
7	0x3db78267	0.08960419
8	0x3c4d00a0	0.012512356
9	0x3c36b21f	0.011150866
10	0x3cb7a6be	0.022418376
11	0x3cd76f2d	0.02629813
12	0xbe5dae32	-0.21648481
13	0x3de7f754	0.11326471
14	0x3cb76d20	0.022390902
15	0x3c25bc3b	0.010115678
16	0x39776ceb	0.0002359633
17	0xbc905b39	-0.017621623
18	0xbe404e4e	-0.18779871
19	0x3d55cb1b	0.05219565
20	0xbcca1e36	-0.024672609
21	0xbd03a4a8	-0.03213945
22	0x3da4eb82	0.08052732
23	0x3d9d21cc	0.07672462
24	0xbdd6ae6a	-0.104824856
25	0x3dc974da	0.09836741
26	0xb90ee3c4	-0.00013627025
27	0xbc875a57	-0.01652257
28	0x3d1c3b67	0.038142588
29	0xbd9267b0	-0.07148683
30	0xbe4ec20e	-0.20191213
31	0x3d1eb2e3	0.03874482
32	0x3d328535	0.043584067
33	0x3ca89678	0.020579562
34	0x3dc77190	0.09738457
35	0xbd19e657	-0.037573185
36	0xbe7586bb	-0.23977177
37	0x3e105eb6	0.1409863
38	0xbc7bd834	-0.015371371
39	0xbca2830c	-0.019837879
40	0x3e2472de	0.16059443
41	0xbd48348f	-0.04887825
42	0xbe37f7ec	-0.17965668
43	0x3e090c72	0.13383654
44	0x3d461c21	0.04836667
45	0xbdbcd6fa	-0.09220691
46	0x3d572272	0.052523084
47	0xbd9308cc	-0.07179412
48	0xbe28fbc7	-0.16502295
49	0x3de13bcb	0.10997733
50	0x3c7e65b7	0.01552718
51	0xbc9bdfe8	-0.019027665
52	0x3d4cde20	0.050016522
53	0xbd73f9dd	-0.05956446
54	0xbe231b09	-0.15928282
55	0x3d6cee48	0.05784443
56	0xbc4afbc3	-0.012389126
57	0x3cda79a1	0.026669325
58	0x3bcfd52b	0.0063425503
59	0xbd26a07b	-0.04068039
60	0x3db9d7a4	0.09074333
61	0xbe2e4096	-0.17016825
62	0xbd4c5df1	-0.049894277
63	0x3d25ee3f	0.040510412
64	0xbda19fd1	-0.07891811
65	0xbc08109b	-0.00830474
66	0x3e3ac551	0.18239333
67	0xbe311981	-0.17294885
68	0xbcff8a71	-0.031193944
69	0xbd9bfd8c	-0.076167196
70	0xbdd8704f	-0.10568296
71	0xba99bfc4	-0.0011730124
72	0x3e31dbbe	0.17368981
73	0xbdaea2af	-0.08527123
74	0xbd4d498e	-0.050118975
75	0x3d782412	0.060581274
76	0xbe0ce3c7	-0.13758765
77	0xbdc1bec1	-0.094602115
78	0x3daeda25	0.085377015
79	0xbe421582	-0.18953517
80	0xbcd12cf4	-0.02553413
81	0xbd0e9629	-0.034811173
82	0xbdc7571f	-0.09733414
83	0xbb30aa03	-0.0026956804
84	0x3dacf52f	0.084452026
85	0xbe38828d	-0.18018551
86	0x3cb85dfb	0.02250575
87	0x3d30eda6	0.04319539
88	0xbe2da12d	-0.16956015
89	0xbd4bffa0	-0.04980433
90	0x3d530529	0.051518593
91	0xbe7bf664	-0.2460571
92	0xbcfab2ea	-0.030602891
93	0xbb63afa5	-0.0034742143
94	0xbde78de2	-0.11306359
95	0xbce34899	-0.027744578
96	0x3d88f961	0.0668819
97	0xbd9c8ab6	-0.076436445
98	0xbdd2d7ba	-0.10295053
99	0xbbf215c6	-0.0073878495
100	0xbe4e1c30	-0.2012794
101	0x3d36a5ee	0.044591837
102	0x3dc0a4b7	0.09406417
103	0xbdbf306f	-0.0933541
104	0xbcfe3f48	-0.031036034
105	0xbcb7ec53	-0.022451555
106	0xbdebd3f4	-0.11515036
107	0x3ccc89f5	0.024968127
108	0x3dc14621	0.09437204
109	0xbe2fa973	-0.17154483
110	0xbcfe9b2d	-0.031079853
111	0x3bb8950d	0.0056330026
112	0xbe20da2c	-0.15708226
113	0x3c26973e	0.010167895
114	0x3d0dd1d4	0.034623936
115	0xbe3fa3e3	-0.18714862
116	0xbd71ac9b	-0.0590025
117	0x3cd60564	0.026125617
118	0xbe0c9cb0	-0.13731647
119	0x3c82d669	0.01597138
120	0x3de17967	0.11009484
121	0xbe348598	-0.17629087
122	0x3ba21b22	0.004947082
123	0x3d1e8154	0.038697556
124	0xbdba9a59	-0.09111471
125	0xbb6085ef	-0.0034259518
126	0x3e30797d	0.17233844
127	0xbe0a160b	-0.13484971
128	0xbc952257	-0.018204851
129	0xbc6abd8a	-0.014327416
130	0xbdc4f583	-0.0961714
131	0xbbd4155f	-0.006472274
132	0x3e0ed607	0.13948832
133	0xbdf70ecb	-0.120633684
134	0xbd4bf46b	-0.049793642
135	0x3cae53f7	0.021280272
136	0xbdc4893b	-0.09596487
137	0xbb3cb6ca	-0.0028795474
138	0x3e2a8ef3	0.16656093
139	0xbe3217ee	-0.17391941
140	0xbd1e455a	-0.038640358
141	0x3d86780f	0.06565868
142	0x3c4d0e9b	0.012515689
143	0xbdb439d6	-0.08800094
144	0x3e103581	0.1408291
145	0xbdfce490	-0.12348282
146	0xbd87b1ba	-0.066256955
147	0xbd653661	-0.055960063
148	0xbdc8a8de	-0.09797834
149	0xbd055ba2	-0.03255809
150	0x3dc0135c	0.093786925
151	0xbdd25003	-0.10269167
152	0xbbb0f197	-0.0053998935
153	0x3bebd09d	0.0071964995
154	0xbe08ec88	-0.1337148
155	0xbd438165	-0.047730822
156	0x3ddb684c	0.107132524
157	0xbd1cbbcc	-0.038265035
158	0xbd297881	-0.041374687
159	0xbd20f38f	-0.039294776
160	0xbe1a7676	-0.15084252
161	0xbd637486	-0.055531047
162	0x3de53ed0	0.11193621
163	0xbe3bf4ab	-0.18355052
164	0xbdb7657d	-0.08954904
165	0xbd13b5a5	-0.0360619
166	0xbd8296c1	-0.0637641
167	0x3d6d16cf	0.05788308
168	0x3d75b342	0.059985407
169	0xbe405dba	-0.18785754
170	0xbd09bade	-0.033625476
171	0xbcdc060f	-0.026858358
172	0xbc8e5935	-0.017376522
173	0x3d8ba415	0.068184055
174	0x3dd563a0	0.104193926
175	0xbe041850	-0.128999
176	0x3ca95bb3	0.020673608
177	0xbd2c1b79	-0.042018387
178	0xbd2aa19b	-0.041658025
179	0x3c24a7ca	0.01004977
180	0xbb321d1b	-0.0027177993
181	0x3dd6af28	0.10482627
182	0xbced3b9e	-0.028959092
183	0xbc6e37a1	-0.01453963
184	0xbd6e2ba6	-0.058147095
185	0x3d996c6b	0.07491382
186	0x3d6f6b9a	0.058452226
187	0x3d2d5de3	0.042325865
188	0x3c595d29	0.01326684
189	0xbd0ca3e1	-0.034335975
190	0xbdbe74b2	-0.092996016
191	0xbc4b18ea	-0.012396077
192	0x3e010ab8	0.12601745
193	0x3de0abba	0.10970254
194	0xbd35c99b	-0.04438172
195	0xbc06a5bf	-0.008218228
196	0xbdbce271	-0.09222878
197	0x3d70741a	0.058704473
198	0x3d8ffb0b	0.070303045
199	0x3dca7e71	0.09887398
200	0xbdd4b585	-0.103861846
201	0xbc8244c8	-0.015901938
202	0xbd1c4bd6	-0.03815826
203	0xbd3b2d93	-0.04569776
204	0x3d122868	0.035683066
205	0x3dda5636	0.10660975
206	0xbda1c6fb	-0.07899281
207	0x3b2836bd	0.0025667392
208	0xbcfdbefa	-0.030974854
209	0xbc33580c	-0.010946285
210	0x3d31df1b	0.04342566
211	0xbbb0973d	-0.0053891228
212	0xbac6675a	-0.0015137002
213	0x3a7addb4	0.00095697795
214	0xbe10fffc	-0.1416015
215	0x3d02285e	0.03177678
216	0x3d176680	0.036962986
217	0x3df2b808	0.118515074
218	0xbd2cb3f9	-0.042163823
219	0xbbf9e897	-0.007626604
220	0xbd659f51	-0.05606014
221	0xbc58d1ca	-0.013233611
222	0x3ded454c	0.11585483
223	0x3d689aaa	0.056788124
224	0xbddb871e	-0.10719131
225	0x3cd7a7b7	0.02632509
226	0xbcd03250	-0.025414616
227	0x3d604c26	0.05476012
228	0x3dcbc8d3	0.099504136
229	0x3dbdfe5c	0.09277031
230	0xbd1a8e15	-0.037733156
231	0xbd034562	-0.03204859
232	0xbd93ea07	-0.072223715
233	0xbd4de610	-0.050268233
234	0x3d2031b7	0.03910991
235	0x3d564a6b	0.052317064
236	0x3b89b0b3	0.0042019724
237	0xbd3b64d6	-0.04575046
238	0xbd9ba510	-0.075998425
239	0x3cd6d46d	0.02622434
240	0xbb9f005b	-0.0048523373
241	0x3e124187	0.14282809
242	0xbc560f4f	-0.013065173
243	0x3b51c5dd	0.0032008805
244	0xbb35648f	-0.0027678346
245	0xbcdd29e6	-0.026997518
246	0xbd829852	-0.06376709
247	0x3daf58c5	0.08561853
248	0xbd4ac8d1	-0.04950792
249	0xbdb8a9c4	-0.09016755
250	0x3d2027a1	0.039100293
251	0x3d316fe2	0.04331959
252	0xbd3900e1	-0.045166854
253	0x3e12b200	0.14325714
254	0xbbbfb76f	-0.0058507244
255	0xbca59cd0	-0.020216376

network_body.linear_encoder.seq_layers.2.bias f4 [256]
0	0xbd644959	-0.055734012
1	0xbc6e0885	-0.014528398
2	0xbce9fa53	-0.028561747
3	0xbd6fce39	-0.05854628
4	0xbd10ab95	-0.035319883
5	0xbdbaf741	-0.09129191
6	0xbd37563e	-0.04475998
7	0xbd97789a	-0.0739605
8	0xbda79ff4	-0.081848055
9	0xbd575e24	-0.052580014
10	0xbd81552b	-0.063150726
11	0xbdecc9a6	-0.11561899
12	0x3afe9a6e	0.0019424686
13	0xbd3b3b7b	-0.045711022
14	0xbcc78fcc	-0.02436056
15	0xbd168fa8	-0.036758095
16	0xbdff812b	-0.12475809
17	0xbd0c4dbf	-0.034253832
18	0x3d0af397	0.03392371
19	0xbdb930ef	-0.090425365
20	0xbd754811	-0.05988318
21	0xbc91e91a	-0.017811347
22	0xbd0ef6d7	-0.034903374
23	0xbd0b470f	-0.034003314
24	0xbc666df0	-0.014064297
25	0xbdfd9624	-0.12382153
26	0xbde97e50	-0.11401045
27	0xbe09c3bf	-0.13453577
28	0xbda1dac9	-0.07903058
29	0x3bc0e272	0.0058863694
30	0xbdb3b5ce	-0.08774911
31	0xbcae6308	-0.021287456
32	0xbd7eea35	-0.062235076
33	0xbdbbdde7	-0.09173184
34	0xbd7ec4c0	-0.062199354
35	0xbdab5819	-0.08366413
36	0xbb058985	-0.0020376157
37	0xbd36fad7	-0.044672813
38	0xbd93fa89	-0.0722552
39	0xbd2bd6de	-0.04195296
40	0xbc6709c3	-0.0141014485
41	0xbd994246	-0.07483344
42	0xbcd8b97d	-0.026455635
43	0xbce64c28	-0.028112486
44	0xbcf532db	-0.029931476
45	0xbd99cb7d	-0.075095154
46	0xbd40a706	-0.047034286
47	0xbd3d9865	-0.046287913
48	0xbd13c21b	-0.036073785
49	0xbcada40d	-0.02119639
50	0xbca19b7b	-0.01972746
51	0xbd76d1fb	-0.060258847
52	0xbd6dc31f	-0.05804741
53	0xbc8e08e2	-0.01733822
54	0xbd1d1f18	-0.03835973
55	0xbd2f9836	-0.04286977
56	0xbc8fcf17	-0.017554803
57	0xbc361c66	-0.011115169
58	0xbd4af20e	-0.049547248
59	0xbd4a7751	-0.049430195
60	0xbd544827	-0.051826622
61	0xbe02d788	-0.12777531
62	0xbb4c374a	-0.0031160885
63	0xbc44c2f8	-0.012009375
64	0xba94cda2	-0.0011352787
65	0xbd6b2f17	-0.057417955
66	0xbdb2325d	-0.08701012
67	0xbccd1ccf	-0.025038151
68	0xbda59ec8	-0.08086926
69	0xbdc5c4d9	-0.09656686
70	0xbac6b73f	-0.0015160813
71	0xbc807a6a	-0.015683372
72	0xbd13e491	-0.03610665
73	0xbd76e548	-0.060277253
74	0xbd1203b8	-0.035648078
75	0xbc185c83	-0.0092994
76	0xbcb59d86	-0.02216984
77	0xbd1d3562	-0.038380988
78	0xbce1c379	-0.027559029
79	0x3c7d0f21	0.015445502
80	0xbdbca034	-0.09210244
81	0xbcd7fce9	-0.026365714
82	0xbd1846d0	-0.037176907
83	0xbaa3f597	-0.0012509105
84	0xbc24c93e	-0.0100577455
85	0xbd4df6ff	-0.050284382
86	0xbda26bda	-0.07930727
87	0x3c94e75d	0.018176729
88	0xbca748c7	-0.020420445
89	0xbd88fe07	-0.06689077
90	0xbdcc38e7	-0.09971791
91	0xbd106688	-0.03525403
92	0xbd2414fe	-0.040059082
93	0xbd789a4f	-0.060694035
94	0xbdd4444e	-0.103645906
95	0x3c959411	0.01825908
96	0xbd015669	-0.031576548
97	0xbd4ae75d	-0.04953705
98	0xbdaadd76	-0.083430216
99	0xbd8a10c1	-0.06741477
100	0xbd6cb992	-0.05779416
101	0xbd174f9f	-0.036941167
102	0xbc8d97b4	-0.017284252
103	0xbd533f94	-0.051574305
104	0xbdb9d031	-0.090729125
105	0xbd2e345a	-0.042530395
106	0xbcfcb1c2	-0.03084648
107	0xbde7ba18	-0.113147914
108	0xbc2d23f5	-0.010567655
109	0xbd80d36a	-0.06290324
110	0xbdcb7326	-0.09934072
111	0x3cbe41a3	0.023224657
112	0x3c85cea8	0.016333893
113	0xbdba224d	-0.090885736
114	0x3c2290c0	0.009922206
115	0xbd51934e	-0.05116587
116	0xbd2da5f7	-0.042394605
117	0x3cb5e1a3	0.022202319
118	0xbd5305b9	-0.05151913
119	0xbdc90ff0	-0.09817493
120	0xbde2719d	-0.11056826
121	0xbb2f1970	-0.0026718043
122	0x3c0ad245	0.008472984
123	0xbd5cd384	-0.053912655
124	0xbc434d25	-0.011920248
125	0xbca5b6bf	-0.020228742
126	0xbde231f0	-0.11044681
127	0xbc9bf9f0	-0.019040078
128	0x3b860bda	0.0040907683
129	0xbdd048e1	-0.101701505
130	0xbb351ed3	-0.002763678
131	0xbe1535d9	-0.14571323
132	0xbda93fd2	-0.08264126
133	0xbc8926cb	-0.01674213
134	0xbd44573c	-0.047934756
135	0xbd8467dc	-0.06465122
136	0xbcbea008	-0.023269668
137	0x3ba5913d	0.005052714
138	0xbd40321f	-0.0469228
139	0xbdbf3763	-0.09336736
140	0xbcde6973	-0.027149891
141	0xbd582305	-0.052767772
142	0xbd42fc45	-0.047603864
143	0xbc373375	-0.011181702
144	0x3b2a6335	0.0025999073
145	0xbad03c17	-0.0015887049
146	0xbd5bbb1f	-0.05364525
147	0xbd305c54	-0.0430568
148	0xbda22165	-0.07916526
149	0xbd842e39	-0.06454129
150	0xbc9a15b8	-0.018809184
151	0xbbb91b2e	-0.005648992
152	0xbbc0c821	-0.005883232
153	0xbe00cdfe	-0.1257858
154	0xbe0da1b4	-0.13831216
155	0xbd191f75	-0.037383515
156	0xbda858c8	-0.08220059
157	0xbda73820	-0.08165002
158	0xbd9ad9e5	-0.07561091
159	0x3c565de9	0.013083913
160	0xbbdb7816	-0.006697665
161	0xbd4eceb6	-0.050490104
162	0xbd1b7656	-0.03795465
163	0xbdbf4827	-0.09339934
164	0xbd3cad28	-0.046063572
165	0xbd39e634	-0.045385554
166	0xbd0cc9bf	-0.034372088
167	0xbd1373d9	-0.035999153
168	0xbd075850	-0.033043206
169	0xbd0b3e56	-0.033994995
170	0xbd93f90a	-0.07225235
171	0xbd78fa9c	-0.060785875
172	0xbc9a9062	-0.018867675
173	0xbda7f22f	-0.0820049
174	0xbd17af8a	-0.03703264
175	0xbd962711	-0.0733167
176	0x3d46b4f6	0.04851242
177	0xbd20135a	-0.039080955
178	0xbca0e7dc	-0.01964181
179	0xbcf2fdd9	-0.02966206
180	0xbcf69cf9	-0.030104147
181	0xbd9336d8	-0.07188195
182	0xbda8367f	-0.08213519
183	0xbcba671a	-0.02275424
184	0xbd861a75	-0.06548015
185	0xbd583352	-0.052783318
186	0xbc259735	-0.010106851
187	0xbe0788e5	-0.13235815
188	0xbdebbd7c	-0.11510751
189	0xbd0d9fc7	-0.034576204
190	0xbd2aa133	-0.041657638
191	0xbdc4622c	-0.09589037
192	0x3c4226dd	0.011850086
193	0xbdac8025	-0.08422879
194	0xbd3b2113	-0.04568584
195	0xbdae0694	-0.084973484
196	0xbd7714e2	-0.06032265
197	0xbd81e3d6	-0.063422844
198	0xbd278a03	-0.040903103
199	0xbd46c960	-0.04853189
200	0xbc9b1fad	-0.018936003
201	0xbd683cab	-0.056698482
202	0x3c6ab7de	0.014326064
203	0xbbff7256	-0.0077956123
204	0xbd28a414	-0.041172102
205	0xbdbdac74	-0.092614084
206	0x3d2f3e9c	0.04278432
207	0xbdb5f756	-0.08885066
208	0xbd204626	-0.0391294
209	0xbdf82d57	-0.12118023
210	0xbd9ef27f	-0.07761096
211	0xbbc2ea42	-0.005948336
212	0xbd3b6d7a	-0.0457587
213	0xbe01bb4c	-0.12669104
214	0xbdcf8f18	-0.10134715
215	0xbd1140f6	-0.035462342
216	0xbdbfc239	-0.09363217
217	0xbd59b596	-0.05315169
218	0xbe00c663	-0.12575679
219	0xbcf9c4a3	-0.030489272
220	0xbd25f171	-0.04051346
221	0xbcec3fbb	-0.028838983
222	0xbd279625	-0.040914673
223	0xbdf5fb00	-0.12010765
224	0xbcc69e30	-0.024245352
225	0xbd47693d	-0.048684347
226	0xbdb583c1	-0.08863021
227	0xbd8ec45d	-0.06971047
228	0xbd7dbd52	-0.061948128
229	0xbdd52c20	-0.10408807
230	0xbd801a08	-0.06254965
231	0xbc90d8ef	-0.017681567
232	0xbdd914a2	-0.105996385
233	0xbc9d97a3	-0.019237345
234	0xbce0ce02	-0.027441982
235	0xbc9f2d39	-0.019430744
236	0xbdb48453	-0.08814301
237	0xbd1736e4	-0.036917582
238	0xbd9210aa	-0.07132085
239	0xbd8a8642	-0.06763889
240	0x3d566e9a	0.05235157
241	0x3d3a3673	0.045462083
242	0xbcd7649a	-0.026293088
243	0xbcd85973	-0.02640984
244	0xbdc5f507	-0.09665876
245	0x3b1c72e4	0.002387219
246	0xbdceef04	-0.10104182
247	0xbd148eae	-0.036268882
248	0xbd7ed781	-0.06221724
249	0xbd5b3ba4	-0.053523675
250	0xbd2acefc	-0.041701302
251	0x3bb9d65d	0.005671306
252	0xbd861caa	-0.06548436
253	0xbd3a16b8	-0.045431823
254	0xbe0cb367	-0.13740312
255	0xbd0af606	-0.033926032
