Config/results/Env_PPO_09/EnvironmentAgentBehavior.onnx (onnx, 912132 bytes, 11 tensors)

action_model._discrete_distribution.branches.0.bias f4 [10]
000000 19 ee 8d bc e6 f9 8a 3c f4 36 00 bc 93 60 b4 bb
       -0.017325448 0.016964864 -0.007825602 -0.0055046766
000010 51 63 5a 3d f4 11 67 3d 21 d7 06 bc 02 33 36 3b
       0.05331737 0.056413606 -0.008230002 0.00278014
000020 b6 db 38 bd 5b 56 5d bd
       -0.045131408 -0.054037433

action_model._discrete_distribution.branches.0.weight f4 [10, 256]
000000 90 ad 96 3d 87 dd 50 3c c6 e5 6c 3d 45 bb 00 3d
       0.07357323 0.012748129 0.057836317 0.031428594
000010 84 28 04 3c c9 e5 5a bd 28 2f 5e 3d 7d d3 1f 3d
       0.0080663 -0.053441796 0.05424419 0.03902005
000020 10 22 bd bc de c8 4f be df c9 ed 3d 4e 0e 91 bc
       -0.023087531 -0.20291469 0.116107695 -0.017707016
000030 03 56 35 3c 0c b1 fa bc e1 c3 4f 3d 76 87 ba bd
       0.01106787 -0.030602 0.050723914 -0.091078684
000040 39 8a f4 3c 6a b6 99 bc df 00 cb 3c 84 fa 8f bc
       0.029851066 -0.01876374 0.024780689 -0.01757551
000050 b0 66 91 bc 6f 81 0c 3d 59 fa a9 3c 5b 05 78 3d
       -0.01774916 0.034303125 0.020749258 0.060551982
000060 44 2c 9c bb 18 46 5d be c9 d2 3f 3d 21 b5 8d bc
       -0.004766019 -0.2160877 0.04683188 -0.017298283
000070 72 b9 69 bd 69 65 83 3d 58 10 91 bd 38 7d 6b be
       -0.05706162 0.06415827 -0.070831954 -0.22996986
000080 5b af a3 bc 2f 1d 04 3d ce 25 30 3e f3 5e 68 3d
       -0.019981077 0.032254394 0.17201921 0.056731176
000090 9b 74 f6 3b f3 90 ad bd 4c 15 a5 bd 3a 95 22 3c
       0.0075212247 -0.084749125 -0.08060703 0.009923274
0000a0 d1 28 30 3d 28 79 66 bd 42 88 49 be 93 00 f9 3d
       0.043007676 -0.056267887 -0.19680884 0.12158313
0000b0 01 52 51 3d a3 76 10 bd 74 f3 a0 bd 69 99 86 3d
       0.051103596 -0.03526939 -0.07858935 0.065722294
0000c0 eb bf 49 3d 25 ea a0 3d 32 6f d7 bc c5 9b f7 3c
       0.049255293 0.078571595 -0.02629814 0.030225644
0000d0 ec 02 17 3e ef f0 e0 bd 08 65 82 bd 10 2b 00 3e
       0.14747208 -0.109834544 -0.063669264 0.12516427
0000e0 16 86 f0 3c ca 64 25 bd 1d 2d 7c 3d 6b ab a7 bb
       0.029360812 -0.040379323 0.06156646 -0.00511687
0000f0 48 e2 a1 bd cf 67 a0 3c 9f 04 e2 3d a3 02 20 3d
       -0.07904488 0.01958075 0.11036038 0.039065015
000100 e9 c4 e2 3d 8d 31 30 3d 2d 40 96 3b 26 cb cb 3c
       0.11072714 0.043016005 0.004585287 0.024877142
000110 b8 02 ae bd 1a 72 6e 3d f0 fa 7a bb e6 16 81 bc
       -0.08496612 0.058214284 -0.0038296543 -0.01575799
000120 3a 2b 62 3d 9d 1f ab 3d b4 56 6d bc 31 55 d8 3d
       0.055217005 0.08355639 -0.014486004 0.10563124
000130 99 4c 06 bc 87 7d 60 3d 7e 02 c0 3d 34 17 48 bc
       -0.008196973 0.054807212 0.09375475 -0.012212563
000140 58 67 d0 bd 9e 62 0e 3c 26 3f 9a bc dd 2f 65 bd
       -0.10175961 0.008690504 -0.01882894 -0.05595385
000150 e6 88 75 bc 35 a2 38 bd e9 38 9d 3c a3 b1 aa bc
       -0.014986252 -0.045076568 0.019192176 -0.020836657
000160 e0 3f 91 bb cd b4 c8 bd 35 9e a4 3c 36 13 11 3d
       -0.0044326633 -0.0980011 0.02009497 0.03541871
000170 fd 08 ba bc 6b d5 20 be 5b 12 7d bc 0d 3f 62 3d
       -0.022709364 -0.15706412 -0.015446271 0.05523591
000180 68 d2 04 bd 10 68 8d bd e6 14 77 3d 5c 6c aa bd
       -0.03242722 -0.06904614 0.060322665 -0.08321449
000190 5c f5 41 3d 34 99 43 3d d6 b5 dc 3d 42 2f 9e 3d
       0.047353134 0.047753528 0.1077687 0.077238575
0001a0 19 7d 68 3d 86 9d 6e bd 27 b7 aa 3b f4 2a 92 3d
       0.056759927 -0.058255695 0.0052098217 0.07137099
0001b0 52 5e f2 bc 87 fc 8d 3d dd fe 69 3d 48 3d 74 3d
       -0.029585991 0.069329314 0.057127822 0.059628755
0001c0 e5 ab 07 3d 88 ac 7b bd ee 12 73 3d 07 2f a6 3d
       0.033122916 -0.061443835 0.059344225 0.081144385
0001d0 57 7f 7c 3a a9 1b 8e bd 15 46 7b bd 86 16 1f 3d
       0.0009632012 -0.069388695 -0.061346132 0.03883984
0001e0 a7 2e b8 bd 6a bb 88 3c c5 1c cd bb 8a d4 74 3d
       -0.08993273 0.016690928 -0.006259533 0.059773006
0001f0 9c 71 0d 3d 06 e3 6f bb 8c 44 00 3d 31 18 32 bb
       0.034532174 -0.0036603822 0.03131537 -0.0027175064
000200 f4 77 a0 bb 38 47 8b 3d 5f b4 ff bc 25 c3 d6 3b
       -0.004897112 0.06800693 -0.031213937 0.0065540248
000210 ba 9b bd 3b 03 7e 0e 3d 68 0b 4c 3d ea 21 5f bd
       0.0057863863 0.034788143 0.049815565 -0.054475702
000220 0f aa ac bd c4 5f 93 bd ce f1 6c 3d 0c 7c 59 bd
       -0.084308736 -0.07196 0.05784779 -0.053096816
000230 05 92 cd 3d d2 97 be 3b 60 b5 53 bc 08 b6 20 bd
       0.10037617 0.0058164382 -0.012921661 -0.0392361
000240 06 af 12 be 2e 35 cc 3d b8 bd 6a bd f1 6b 42 3e
       -0.14324579 0.09971081 -0.057309836 0.18986489
000250 e4 e4 42 3b b6 aa 8d bc 73 0c cd 3d d3 16 ee bd
       0.002973848 -0.017293315 0.1001214 -0.11625447
000260 2d 57 c4 3d 4c d8 86 bd 45 15 b0 bc 33 22 02 bd
       0.0958694 -0.06584224 -0.021494517 -0.031770896
000270 c8 bf b1 3d 08 b0 51 3d 72 3c 67 bd 22 24 07 be
       0.086791575 0.051193267 -0.05645413 -0.13197377
000280 74 8a 6e bc 58 06 c1 3d cf fa bd bc 61 93 a9 3c
       -0.014559377 0.09425038 -0.023190884 0.020700159
000290 bc f8 24 bd ca b5 4f 3c 33 4d ea 3c 06 18 5b 3d
       -0.040276274 0.012677619 0.028601265 0.053489707
0002a0 42 14 15 3d 1c cb 43 bd c5 b4 63 bd 30 7a f7 bc
       0.036396272 -0.047801122 -0.055592317 -0.03020963
0002b0 3c 9c 14 bd 95 0d ab 3a cb 29 6e 3b f8 0c 11 3e
       -0.03628181 0.0013050312 0.0036340829 0.14165103
0002c0 00 86 10 be 62 af cb 3d 88 38 db 3d 23 19 d0 3d
       -0.14113617 0.09945561 0.10704142 0.101610444
0002d0 90 fa fd bd 50 b6 da bd d1 97 46 bd bf 67 88 3d
       -0.12401307 -0.106793046 -0.048484627 0.06660413
0002e0 0f 3c 6a bd 61 da d4 3d 07 5d 11 bc 04 60 13 bd
       -0.057186183 0.10393215 -0.008872277 -0.03598024
0002f0 6e 0a a4 bd 0a a2 ff 3d 7f c8 b5 bd 15 e3 a7 bd
       -0.08009802 0.124820784 -0.08876132 -0.08197609
000300 f9 6f 0a bc 54 fb d1 bd 36 2b 3e 3d b7 89 86 3c
       -0.008449548 -0.10253015 0.046427928 0.01642309
000310 c8 63 9c 3c f8 0a a0 bc 2f 03 f9 bd 4d c2 ab bd
       0.019090548 -0.01953648 -0.1215881 -0.08386669
000320 88 03 36 3d 39 a9 a9 3d db 0a 14 bd 21 82 55 be
       0.04443696 0.0828423 -0.036143165 -0.20850421
000330 2a 96 3c bd 87 da 5a 3d 7a f5 c8 3d c0 a8 dd bb
       -0.046041645 0.05343106 0.09812446 -0.0067645013
000340 4e 99 9a bd f6 09 bf 3d fc 3d d8 bc 11 c2 49 bd
       -0.07548772 0.09328072 -0.026396744 -0.04925734
000350 64 c7 90 bc a8 bf a2 bd cc 66 77 bd aa 2a d1 3d
       -0.017673202 -0.07946712 -0.06040077 0.10213216
000360 9c a7 e7 bb 6f 7c 45 3d 00 fd 6f 3d b3 03 af bc
       -0.007069541 0.048214372 0.05859089 -0.021364069
000370 b5 60 c6 3d 2b f5 2f 3c 0d 61 a0 3d 70 d0 f5 3d
       0.09686414 0.010739605 0.07831011 0.12002647
000380 16 59 8c 3d b3 ae 64 bd 61 50 32 bd 51 69 93 3c
       0.06852929 -0.05583067 -0.043533687 0.017994555
000390 11 c3 57 bc 3f f6 88 bc d4 31 a2 3a ef a8 37 3c
       -0.013169066 -0.016718982 0.0012374469 0.0112097105
0003a0 e3 6c 3f bd d6 cc 68 3d 40 9f fa bc 9c 9c d9 3d
       -0.0467347 0.05683597 -0.030593514 0.10625574
0003b0 83 30 35 3d bf 07 60 3b 68 1c 90 bd d4 ba 1a 3d
       0.044235718 0.0034184305 -0.07036668 0.03777583
0003c0 82 92 60 3d 89 e5 0d bd 7e f4 2f be 37 e4 05 3d
       0.05482722 -0.03464273 -0.1718311 0.032688346
0003d0 80 9d 0e 3c 97 dc 48 bd 1f 75 3b be 19 c1 8f 3d
       0.008704543 -0.049038496 -0.18306397 0.07019252
0003e0 75 bf c7 3d e2 95 a6 bc 87 03 a3 bd da 47 4a bc
       0.097533144 -0.020335142 -0.07959657 -0.012346232
0003f0 ab 57 51 bd 64 42 84 ba 02 65 8a 3d 49 b6 23 3e
       -0.051108997 -0.0010090587 0.06757547 0.15987505

action_model._discrete_distribution.branches.1.weight f4 [1, 256]
000000 0d 27 40 3c f0 4c dc 3a 3d 15 82 b9 78 fd 17 b9
       0.01172806 0.0016807597 -0.00024811356 -0.00014494907
000010 bb 43 cb 36 8c a9 1d bc ab e2 a4 ba 33 b8 3b bc
       6.0577563e-06 -0.009622943 -0.0012579759 -0.011457491
000020 cd 34 59 b9 15 a4 f9 ba 48 0f 8c 3b 97 4c 40 bc
       -0.00020714402 -0.0019046093 0.0042742826 -0.01173701
000030 d3 15 08 3c e6 2f 2b 3c 89 22 28 3b ac ae 03 bc
       0.008305985 0.010448432 0.002565535 -0.0080372505
000040 4f b4 ba bc cd 7c 48 bc 3d 20 a7 bb d2 5f 87 bb
       -0.022791056 -0.012236786 -0.0051002786 -0.0041312957
000050 8b 69 47 bb 37 8a a8 ba 22 cf dc bb d7 c0 bd 3b
       -0.0030427899 -0.0012858574 -0.0067385593 0.0057908106
000060 00 36 f0 ba a9 c3 b7 3b 81 b3 1e bc 3b ef 79 bb
       -0.001832664 0.0056080413 -0.009686352 -0.0038136977
000070 a3 55 17 3b 67 7a 19 3b 2a 70 e5 3a 55 ed ed 3b
       0.0023091815 0.0023418905 0.0017504741 0.007260958
000080 42 99 f3 3a 49 65 16 ba 6d 8a d7 3b 6b 8f 28 3c
       0.0018585103 -0.00057371386 0.006577781 0.0102881
000090 53 45 38 bc 32 68 96 3b 6a 11 20 3a 82 69 55 3b
       -0.011246997 0.004590058 0.00061061105 0.0032564108
0000a0 73 50 82 3b 32 c2 b3 3b 9e 3f bd 3b ae 4d 9d bb
       0.0039768755 0.0054857964 0.005775406 -0.00480052
0000b0 ef 4b 8f bc 9f 90 85 bb f3 18 2a ba 6e 18 c6 ba
       -0.017492263 -0.004076078 -0.0006488703 -0.0015113482
0000c0 92 92 ae 3a af 2d be 3b 28 49 f8 3a 9e b3 ca 3b
       0.0013318828 0.0058037858 0.0018942701 0.006185963
0000d0 d0 86 68 3b 9d a4 c4 bb 04 fe 8e bb 8b 29 97 bc
       0.0035480745 -0.0060010687 -0.004363777 -0.018452426
0000e0 f7 a1 af bb 3b 0f d2 3b 72 92 63 3a 0c ee 05 3c
       -0.005359884 0.006410507 0.0008681185 0.008174431
0000f0 52 de 71 3c e7 c5 68 ba fb 16 44 3b 83 c0 e7 bb
       0.014762478 -0.00088795874 0.0029920924 -0.0070725097
000100 d7 6b 5f bb f0 a9 d3 ba 9e 28 b5 3b 65 46 d5 bb
       -0.0034091377 -0.0016148668 0.0055285236 -0.006508636
000110 0f 8f 5c bb 4b 80 7e ba 1b 95 63 3b 07 e1 a5 3b
       -0.0033654606 -0.0009708448 0.0034726325 0.0050622257
000120 bf c7 99 bb b9 9d bc bb a3 46 0a ba 0b 63 d2 bb
       -0.004693001 -0.0057561067 -0.0005274808 -0.0064204982
000130 a3 7c 24 3b 17 c1 8a bb af c5 34 3c 33 da 12 ba
       0.0025098703 -0.004234444 0.01103346 -0.0005601972
000140 6b 76 a5 bb 3c 8e 08 bc 4b 1b ce 3b ea fe 0a bc
       -0.005049517 -0.008334693 0.0062898747 -0.008483628
000150 03 0d 82 bb 30 53 16 3b 37 ce 27 bb 37 98 9f 3b
       -0.0039688363 0.0022937767 -0.0025605091 0.0048704403
000160 bf 78 69 bb 05 04 e0 3b b1 c0 3f 3a 70 66 56 3b
       -0.0035624949 0.0068364167 0.0007314785 0.0032714866
000170 13 04 6d bb 65 9e 0d bc 38 26 19 bc 97 e4 75 bb
       -0.0036165759 -0.008643721 -0.009347491 -0.0037520283
000180 17 18 d9 3b c7 37 fa 3a 95 a5 53 bb c9 4a 18 ba
       0.006625186 0.0019090109 -0.003229474 -0.00058094837
000190 4c 69 41 ba 22 1b f7 ba 3c b9 90 ba d7 11 32 3b
       -0.0007378056 -0.0018852691 -0.0011041532 0.0027171278
0001a0 22 4d cf bb 53 b9 c5 3a b8 cb c8 3b 14 cd b7 bb
       -0.0063263336 0.0015085138 0.006127801 -0.005609164
0001b0 61 13 9c bb e6 c2 be bb 7f e2 6c bb 98 d0 41 bb
       -0.0047630523 -0.0058215735 -0.0036145744 -0.0029573794
0001c0 6f 92 ab ba 4d e6 04 3c f2 e5 5c 3b 37 1c 39 bb
       -0.0013089905 0.008111549 0.0033706394 -0.0028245577
0001d0 6e 05 c4 bb c1 b2 4a bb ea 4b 98 3b ad 35 be ba
       -0.0059820926 -0.00309293 0.0046477215 -0.0014511846
0001e0 2a 04 06 3c de ae b7 bb f3 a5 1c 3a 01 bb 03 bc
       0.008179704 -0.0056055626 0.0005975656 -0.008040191
0001f0 9d 2d b2 3b aa 67 d3 39 2b 3f a3 bb 2e 00 1e 3c
       0.0054375664 0.00040322292 -0.0049818954 0.0096435975
000200 6b 19 c7 3b f7 5d 8f 3a 7d 15 f8 bb 4b 06 8e ba
       0.006076028 0.0010938038 -0.007570921 -0.0010835616
000210 4b b0 61 bb 3c b3 9a ba c7 47 d2 3b 24 e5 18 3c
       -0.0034437354 -0.0011802684 0.006417248 0.009331975
000220 de 79 b9 bb c2 86 12 bc ff d4 57 39 3b 73 68 3b
       -0.0056602797 -0.008943262 0.00020583345 0.0035469073
000230 d6 33 8c bb 30 29 57 bc 05 d1 cf 3b 2f 63 85 3b
       -0.0042786403 -0.013132378 0.0063420557 0.0040706615
000240 9c 10 bc ba bd f1 a0 bb 2e fb 1c 3b df c0 59 3c
       -0.0014348212 -0.00491163 0.0023953426 0.013290613
000250 e2 40 9b 3b 36 34 b5 bb cb 50 17 bc 77 7b 41 3c
       0.0047379592 -0.0055299057 -0.009235571 0.0118092215
000260 4f 79 5b 3b 9b f8 f0 3b 6b d8 80 3a 73 0b 38 b9
       0.0033489054 0.007353855 0.0009830123 -0.00017551873
000270 b8 b1 7a 3b 88 b0 3b bb 69 dc c9 ba 0b 91 c8 39
       0.0038252901 -0.0028639156 -0.001540077 0.00038255038
000280 33 da e7 ba 1b 74 4c 3a 1d 16 bb 3b 18 2b b3 3b
       -0.001768893 0.00077992835 0.005709423 0.0054677837
000290 bd 24 40 3b 2b b7 3c 3c 8f 3b 09 bc d3 c7 b8 bb
       0.0029318773 0.01151828 -0.008376016 -0.0056390553
0002a0 1f d9 9a ba 3a 6d b7 bb 13 97 5b bb 7e ec 8c 39
       -0.0011813975 -0.0055977376 -0.0033506795 0.0002687908
0002b0 c2 c3 13 bb 18 4d a7 3b 30 58 24 3a 9b a9 00 bc
       -0.00225471 0.005105626 0.00062692445 -0.007852937
0002c0 29 c7 94 3b 00 de 71 bb aa 9f 6a 3c 27 1b b1 3a
       0.0045403433 -0.0036906004 0.014320293 0.001351212
0002d0 cb 4d 94 b8 73 ac e1 3a a7 0c a5 b9 50 0a df ba
       -7.07168e-05 0.0017217532 -0.0003148068 -0.0017016623
0002e0 ad 69 f1 3b 3b 45 f4 3b 6a 0d 04 3b fb 71 ed 3b
       0.007367334 0.007454542 0.0020149597 0.0072462535
0002f0 4f 91 39 3c c5 dd d0 bb 37 9f 43 bc fd 2f 09 3a
       0.011326148 -0.0063740932 -0.011939815 0.0005233286
000300 70 9c 05 3a c2 90 7e ba b3 fb c1 3b e0 36 52 3b
       0.00050968584 -0.00097109016 0.0059198975 0.0032076165
000310 f5 b4 1b 3c 84 e4 26 3b f0 5b 28 3c 90 3a 93 bb
       0.009503593 0.0025465796 0.010275826 -0.004493065
000320 87 b7 fe bb 07 48 41 bc a5 76 90 bb 23 f7 60 3b
       -0.007773343 -0.011796958 -0.004408675 0.0034326992
000330 17 77 92 bb ba 19 a7 3a 57 45 9c 3b e5 e8 cf 3b
       -0.004469763 0.0012748756 0.004769008 0.006344902
000340 03 71 00 bc 65 2d 99 3a 1c 15 8a bb 8c 82 9f bb
       -0.007839444 0.0011686502 -0.004213942 -0.0048678573
000350 ca 41 c2 3a fc 99 84 bb 8d 23 f9 3b 80 69 78 bb
       0.0014820632 -0.0040466767 0.007603115 -0.003790468
000360 3b 49 10 3c ea cb 14 bb d3 17 36 bb 37 50 2a bc
       0.008806522 -0.002270455 -0.0027785196 -0.010395101
000370 11 93 44 bb c3 b8 95 ba 14 52 1d 3b 76 14 0e 3b
       -0.0029994885 -0.0011422861 0.0024005221 0.0021679676
000380 c9 69 1e bb 73 d4 0a 3c bb 06 82 ba c6 f0 98 ba
       -0.002417194 0.008473503 -0.0009920219 -0.0011668436
000390 80 86 52 3c c2 ae 93 bb 3e 04 25 bb 20 70 d9 ba
       0.01284945 -0.0045069167 -0.002517953 -0.0016589202
0003a0 ed 1e 2e 3b 37 e0 82 3b df 3b 34 bc e0 82 08 bb
       0.0026568726 0.0039940136 -0.0110006025 -0.002082996
0003b0 60 44 83 3b a0 83 d7 3b 77 ec a2 3a 75 4b 0d 3c
       0.0040059537 0.00657697 0.0012430091 0.008623947
0003c0 15 70 f9 3a 6b 3a 3f 3b 33 d7 f6 3b 7f 00 f5 3a
       0.0019030595 0.0029179107 0.007532978 0.0018692164
0003d0 8b 85 0f bc 08 ea 60 ba c7 d7 12 3c 7c 8a 40 3c
       -0.0087598665 -0.0008579795 0.008962578 0.011751767
0003e0 33 62 02 ba fa ca 05 3c 36 e5 c0 ba dd e3 d1 bb
       -0.0004973739 0.008166069 -0.0014716748 -0.0064053372
0003f0 23 a6 86 b9 3a 28 4a 3a 9b bf d5 3b bb 4b 01 3b
       -0.00025682253 0.00077116827 0.0065230853 0.0019728977

action_model._discrete_distribution.branches.2.bias f4 [10]
000000 e6 c6 8e bd e4 28 6c bd 3a d4 84 3b 4a a9 44 3c
       -0.069715306 -0.057656184 0.0040536197 0.012003252
000010 20 17 07 3d bf d3 8d 3c be 30 8c 3d 24 26 bb bb
       0.032981038 0.017312882 0.06845234 -0.005711334
000020 3b df 9a bc e8 bc 09 3d
       -0.018905273 0.03362742

action_model._discrete_distribution.branches.2.weight f4 [10, 256]
000000 ff 9d a7 bd 44 4e 18 3d 81 af 12 bb 33 ba 0a bc
       -0.08184432 0.037184015 -0.002238244 -0.008467245
000010 74 55 18 3d a9 dc 06 be 9a bc ff 3c db 2f 80 bd
       0.03719087 -0.13170113 0.031217862 -0.06259128
000020 2a c2 8b 3b 06 a9 84 bc 6e 7c f9 bd 60 e2 46 bd
       0.0042650895 -0.016193878 -0.12181936 -0.04855573
000030 75 58 c8 bd f3 4b d9 bc d5 ab 66 3d a2 47 0a 3e
       -0.09782497 -0.026525473 0.056316216 0.13503888
000040 ce e5 30 3d 4e b0 4e 3d 38 42 e7 bd 8b b9 a1 bd
       0.04318791 0.050461106 -0.11291927 -0.07896718
000050 d0 7f 8a 3d 1a 51 32 bb ad b3 90 3d c3 da 1b 3d
       0.067626595 -0.0027208985 0.070655204 0.038050424
000060 8a 3a 90 3d 27 33 87 3d 50 1f 13 3d 46 99 2c 3c
       0.070424154 0.066015534 0.035918534 0.01053459
000070 c8 22 63 bd 94 1a 06 3e 35 1a 08 3e 81 ff f3 3c
       -0.05545309 0.13096076 0.13291247 0.02978492
000080 92 a0 07 be f0 bc f1 3d 48 51 a8 bd cf 1b e5 3d
       -0.13244846 0.11803615 -0.08218628 0.11186945
000090 04 57 32 bd 7f 2e 23 bc 7b 9b a4 bd 07 f8 47 bd
       -0.043540016 -0.009959816 -0.08037468 -0.04882052
0000a0 3a 44 aa bd ce 6a bc bd 9b b7 94 bd a9 dd 69 bc
       -0.083137944 -0.09200059 -0.072615825 -0.014274039
0000b0 e4 4d 0e be bb 8a 04 be 9c 8a 1e 3d 6d 31 be 3c
       -0.138969 -0.12943546 0.038706407 0.023216927
0000c0 7d 41 6e 3d d9 50 67 3d b7 f3 35 bc 66 c1 53 bd
       0.058167923 0.056473587 -0.011105469 -0.05169811
0000d0 44 f7 eb 3d 15 05 01 3d 7c 69 4b bd 9f 17 fb bc
       0.115217716 0.031498987 -0.049661145 -0.030650912
0000e0 c0 f7 26 3c 92 aa 67 bc c0 f1 ec bd b3 e8 17 bd
       0.010190904 -0.014139788 -0.11569548 -0.037087154
0000f0 1d 44 d7 3c b0 4b 60 3d ca 26 59 bd d4 38 b6 3c
       0.026277596 0.05475968 -0.053015508 0.022243895
000100 46 df 52 3c 7b 1c 8b 3d 9e 02 b1 3d ef 79 84 3d
       0.012870615 0.067925416 0.08643077 0.064685695
000110 ed 75 09 bc 08 11 84 bd 3d 8c 04 bc 5c 66 20 3d
       -0.008389932 -0.06448561 -0.008090076 0.039160118
000120 c4 9e 26 bc 9e eb b7 bc 22 9b ad bc a9 71 82 3c
       -0.010169689 -0.022451218 -0.021192137 0.015923338
000130 b8 7a 03 3e 3e cf 10 bd 46 24 16 bd ae 6b 8e 3d
       0.12839782 -0.03535389 -0.036655687 0.06954132
000140 3b 21 ac 3a 55 e5 d0 bb e7 2d 75 bd 40 23 10 3e
       0.0013132462 -0.0063749948 -0.05985823 0.14075947
000150 5c 30 d8 bc e1 e3 7e 3d c1 77 00 3e 3e 46 11 3e
       -0.026390247 0.06222904 0.12545682 0.14186952
000160 db d2 fa bd c0 97 b4 3d 65 42 e3 bc c1 dc 63 bc
       -0.12247249 0.088180065 -0.02774162 -0.013907612
000170 b9 cc 14 3d 3b 36 92 bd 55 16 18 be d4 90 9a bd
       0.03632805 -0.0713925 -0.14852269 -0.07547155
000180 81 6f 8c 3d db cb 94 bd f3 29 b4 bc 76 68 a7 bd
       0.06857205 -0.07265445 -0.02199266 -0.08174221
000190 0a c0 0b 3c 9a 24 41 3c 2f 28 2f 3c 49 f3 58 3d
       0.008529672 0.011788512 0.010690733 0.05296639
0001a0 4f 80 55 bd 6f b0 3e 3a 53 ed 39 be 68 ad b7 bc
       -0.052124318 0.00072742155 -0.18156938 -0.022421554
0001b0 1b 91 ea 3c 24 f9 94 3d 2a 00 6f bc ac 0c 1b 3e
       0.028633645 0.07274082 -0.014587441 0.15141553
0001c0 71 5f 3b bd ff ad 87 3d 38 54 33 3d 29 32 e9 3d
       -0.045745317 0.06624984 0.04378149 0.113865204
0001d0 1e 2d 01 3d 85 e0 59 bc a7 94 1a bd 39 20 bd bd
       0.031537168 -0.0132981585 -0.037739422 -0.092346616
0001e0 18 b9 a4 3d 6d 8e bf bd 0f 91 de 3d d4 6c 8b 3d
       0.08043116 -0.093533374 0.108675115 0.06807867
0001f0 b5 0a bd bd 9e 4d 4c 3d e3 12 99 3c 8e 3d 61 3d
       -0.09230558 0.04987871 0.018685764 0.054990344
000200 15 c1 6b bd 31 a2 89 3c 22 50 11 3d e7 31 96 bd
       -0.057557184 0.016800972 0.03547681 -0.07333737
000210 3f 1f 53 bd 73 95 ec bb 1a d5 ee bb ae 80 26 bd
       -0.05154347 -0.007219964 -0.0072885873 -0.040650062
000220 9b 73 71 be 5a eb 93 bd 0f db ce bd 84 fc c6 3d
       -0.23579256 -0.07222624 -0.10100376 0.09716132
000230 9d fa a8 3d 42 de 98 3d 22 f4 01 3e 15 29 82 bd
       0.08250926 0.07464267 0.12690786 -0.06355492
000240 ec 90 25 3e 4d 95 1a bd 4e 79 94 bd 24 b1 71 3d
       0.16168565 -0.03774004 -0.072496995 0.059006825
000250 ea 91 ee bd c8 89 06 3e 9e f9 12 3e 05 e0 4b bc
       -0.11648925 0.13138497 0.14353034 -0.012443547
000260 9a f4 de 3b 5f f9 5c 3c 98 1d dc bd e2 3c 8a 3d
       0.006804061 0.013487189 -0.10747832 0.06749894
000270 3b d5 a9 3d b8 f7 42 bc fa 7d bc bd 5e d6 0a be
       0.082926236 -0.011899881 -0.092037156 -0.13558337
000280 dd 56 fa bd bb c8 8d bb 1d fe bd bc 8f d9 21 3b
       -0.12223599 -0.0043269075 -0.02319246 0.0024696325
000290 de a2 3a bc 09 02 23 3d 74 2b ba 3c 74 43 35 3c
       -0.01139137 0.039796863 0.022725798 0.011063445
0002a0 d6 d1 00 3d a9 6d c7 bd 7a be 8f bd 03 a4 b5 3d
       0.031450115 -0.09737713 -0.070187524 0.088691734
0002b0 2d fc 21 be 3b e8 71 3d 38 d1 66 bd 3e a8 6d 3d
       -0.15818854 0.059059363 -0.05635187 0.058021776
0002c0 b9 c2 5f be 6e e7 b5 3d fc 18 20 3d 63 15 c6 bc
       -0.21851625 0.08882032 0.039086327 -0.02418012
0002d0 65 17 fd 3d 6d 9d a1 bd b5 67 43 3d da 0f 21 bd
       0.12357978 -0.07891355 0.047706325 -0.039321758
0002e0 e2 29 90 3d 81 f1 d8 bc 3b 4f fd 3c 43 f7 a2 bd
       0.070392385 -0.026482346 0.03092157 -0.07957318
0002f0 a2 5e 10 be f9 66 f1 bc 5e b8 40 3d bd 40 8e bd
       -0.140986 -0.029468047 0.047050826 -0.069459416
000300 b9 1a 2a bd 97 c3 55 bd 34 3c db 3c 9c 48 10 3d
       -0.04152939 -0.052188482 0.026762106 0.035225496
000310 f7 3a ed 3c 07 72 20 bd de ee c0 bc 0a f1 92 bc
       0.02895878 -0.039171245 -0.0235514 -0.017937202
000320 57 7c 9c bd 39 d4 44 3d fc 12 ce 3d a4 a4 e3 3d
       -0.076409034 0.048053954 0.10062215 0.11115387
000330 99 8f 02 3c 5d 42 3c 3d fa 67 ab bc 4d 70 0b be
       0.007968807 0.045961726 -0.020923603 -0.13617058
000340 e9 45 27 bd 63 1f 97 3d 22 f7 d4 bd be 8b a5 bd
       -0.040838156 0.073790334 -0.10398699 -0.08083294
000350 0d 55 4b 3e 9b 21 bf bb 17 03 05 be 6b a8 69 3d
       0.19856663 -0.0058328635 -0.1298946 0.05704538
000360 a2 c1 6a bd f7 8a de 3c 11 63 95 3d e5 98 1f be
       -0.05731357 0.027165873 0.07294286 -0.15585668
000370 d2 09 a7 bd ba 06 21 be bc a2 80 bc 75 77 9c 3d
       -0.0815617 -0.15725222 -0.015702598 0.07639972
000380 59 37 aa bd 88 97 fb 39 dd 7f 39 3d a8 95 a6 3d
       -0.08311338 0.0004798735 0.045287956 0.081340134
000390 af 69 70 bc e3 92 0e bd 88 96 ee bc c0 9d 81 3d
       -0.014673634 -0.03480805 -0.029124513 0.063289165
0003a0 5b d3 9b 3c b0 57 54 3d 4c c0 93 3d f8 68 80 bd
       0.01902168 0.051841438 0.07214412 -0.06270021
0003b0 5f 86 57 bd ff 1e 33 3e 1d 64 d2 3d 1b a7 27 3d
       -0.05261838 0.17492293 0.10273001 0.04093085
0003c0 f5 27 b4 3b eb d0 a0 bc a1 f5 26 3b 45 17 f0 3b
       0.0054979273 -0.01963087 0.0025475996 0.0073269927
0003d0 b7 c3 26 bc d1 ff 5e bc 21 29 c2 3c 02 c9 94 3b
       -0.010178498 -0.013610796 0.023701252 0.0045405636
0003e0 50 d2 41 3d 4a c1 a5 3c 78 19 17 bd 8a b9 a6 3d
       0.04731971 0.020233769 -0.036889523 0.081408575
0003f0 a3 c0 81 bd 05 f6 fe bc 07 11 b4 bc 31 18 8d 3d
       -0.06335571 -0.03112317 -0.021980776 0.0688938

action_model._discrete_distribution.branches.3.bias f4 [5]
000000 28 c9 00 be 3c 0d 39 be c7 ef 11 3e f6 fc 93 3f
       -0.12576735 -0.18071455 0.14251624 1.1561573
000010 86 8a 7f 3f
       0.99820745

action_model._discrete_distribution.branches.3.weight f4 [5, 256]
000000 a4 07 9b 3d 3c 85 59 bd 78 42 5c 3e e2 50 09 3e
       0.07569817 -0.053105578 0.21509731 0.1340976
000010 74 3e 66 3e 9e 61 f4 3b 8c 35 ab 3c d0 e3 1e bc
       0.22484761 0.007457926 0.020899557 -0.009697869
000020 2e 34 84 bd 3b c6 d1 3c 89 3a 3d bb db 81 e8 bb
       -0.06455265 0.025607219 -0.0028874 -0.007095558
000030 69 ae c8 bc ab 45 fd bc df 25 89 3e 33 2b 2a 3c
       -0.024497228 -0.03091701 0.26786706 0.010386276
000040 dd c7 cc 3c 85 23 66 3c 43 5f 24 3b ce 25 29 3d
       0.024997646 0.014046554 0.0025081194 0.04129582
000050 62 aa d6 3c 2d f0 3a 3e 97 76 37 3d 20 a8 63 3d
       0.026204292 0.18255682 0.04479083 0.05558026
000060 b7 4a bd 3d 8c 4c 10 3d a9 aa 06 3d 44 64 ac 3d
       0.09242766 0.03522925 0.032877598 0.08417562
000070 71 40 20 3e ae 3e 0d 3e 95 b3 c5 3d 74 97 a1 bc
       0.15649582 0.13793442 0.09653393 -0.019725539
000080 a9 65 be 3b 91 cc 32 3d 55 61 d1 3c 23 ff 43 b9
       0.0058104587 0.04365212 0.025559107 -0.00018691695
000090 a5 68 a6 bd e9 e4 dd bc c6 48 a7 3d f9 ed 40 3d
       -0.08125428 -0.027086692 0.08168177 0.04710195
0000a0 db 10 87 3c a1 00 5c 3e a5 f8 b2 bd d6 cb 7d 3d
       0.01648753 0.21484615 -0.087388314 0.06196197
0000b0 8c bc 83 bc a3 d6 95 3d 7d d9 3b 3b 7a 1e 97 bb
       -0.016081117 0.07316329 0.0028663569 -0.0046117874
0000c0 9c f2 6e bd e5 ef 7a 3e 64 ed 92 3d 40 b7 b5 3d
       -0.05833684 0.24505575 0.07174185 0.08872843
0000d0 1b 30 90 3d 92 36 77 bd c2 74 a0 3d 91 55 b4 3c
       0.070404254 -0.060354777 0.0783477 0.022013457
0000e0 cc 63 83 bd ca 17 87 3d a2 5d e1 3d 04 97 b2 bc
       -0.06415519 0.06596334 0.11004187 -0.021800525
0000f0 68 54 ce bc 5a 30 cb 3d d1 fd 4c 3d e4 85 8c 3d
       -0.025186732 0.09921332 0.050046746 0.06861475
000100 b5 d3 77 3d 0d 45 d2 3c d0 d4 b1 3d 60 7e c1 3c
       0.060504634 0.025667692 0.08683169 0.02361983
000110 73 7c 9a bc 56 71 09 3d d0 af cd 3b d9 6d b4 3d
       -0.01885817 0.03355535 0.006277062 0.08810014
000120 82 6c 76 3d de b2 2c bd c8 27 2f 3c 39 b4 0d 3d
       0.060162075 -0.04216277 0.010690637 0.0345957
000130 b4 ba d0 bc ae 46 d6 3d 13 08 6b bd da 0f c1 bc
       -0.025479652 0.104627 -0.057380747 -0.023567129
000140 85 d1 40 3d 87 20 39 3e b2 8e 9b 3d e9 e2 4d 3d
       0.047074813 0.18078814 0.07595576 0.050265227
000150 63 7d ff 3d 03 14 1a bd f3 24 8c 3d e6 09 19 3d
       0.124750875 -0.03761674 0.06842985 0.037362956
000160 ca 20 ee 3d 45 ea 2f bd 45 4b 75 3d 04 13 4e 3e
       0.11627348 -0.042948026 0.059886236 0.20124441
000170 1f 84 99 3b a3 29 dc 3c 22 71 c9 3d cb 41 27 bd
       0.0046849395 0.026875323 0.098360315 -0.04083423
000180 5b 89 31 bd a2 e3 7e ba 74 26 f8 3d 5d aa 4c bd
       -0.043343883 -0.0009723251 0.12116709 -0.04996716
000190 f8 bd ad bc ea 25 1c 3e 92 39 19 3e 05 a1 30 bd
       -0.021208748 0.15248838 0.14963368 -0.04312231
0001a0 88 14 e9 bd 8b b3 8f 3d 15 a6 80 bd 74 47 22 3d
       -0.11380869 0.07016667 -0.06281678 0.039618924
0001b0 8e 57 ee 3b 82 52 8e bc ee da 24 3b a7 a5 e8 3c
       0.007273621 -0.017373327 0.0025154906 0.028399302
0001c0 23 59 80 bc ba 46 8c bc 18 f0 24 3e 8b 19 6e bd
       -0.015667504 -0.017123569 0.16107213 -0.05812983
0001d0 38 25 9b 3c be a4 90 3d d2 8d 42 bd e8 ec fc 3d
       0.018938646 0.07062672 -0.04749853 0.12349874
0001e0 24 65 91 3d 48 31 d5 bd c4 89 f5 bc b3 b3 a1 3d
       0.07099369 -0.1040979 -0.029972918 0.07895603
0001f0 ae bf 2a be bf c7 dc 3c 78 30 d7 3c cb 4d a3 3d
       -0.16674682 0.026950715 0.026268229 0.07973822
000200 3b 2f 0f bd 31 df 6e 3d 37 44 04 be 75 34 ff 3d
       -0.03495715 0.05831832 -0.12916647 0.12461177
000210 f2 e4 ad bd 71 e8 d0 3b 70 3c 09 3e 2f ad e3 3c
       -0.084909335 0.0063753654 0.13401961 0.027792541
000220 e0 b5 3f 3d 99 22 5f 3c 4d 05 e4 3d 68 13 30 bd
       0.04680431 0.013619089 0.111338235 -0.042987257
000230 52 3f 43 3d bf 0f be bd 68 94 2a 3c 3b 5b a5 3b
       0.04766781 -0.09280347 0.010411359 0.005046276
000240 99 62 b1 bd 51 80 e0 3c da ca 84 3d 6c 40 9a 3d
       -0.08661384 0.027404936 0.06484003 0.07531819
000250 96 d8 fd 3c cd 13 21 3d 7b 31 81 bd 1d 75 b1 bd
       0.030987065 0.039325524 -0.06308266 -0.08664916
000260 38 d4 df bc a5 d7 24 3d 78 fd f0 3b 63 29 4a 3e
       -0.027322873 0.040244717 0.0073544346 0.1974235
000270 56 49 9d bc f5 0d 7e bc dd 7d 70 bc 35 f8 05 be
       -0.019200008 -0.015506257 -0.014678446 -0.13082965
000280 84 29 12 bd 70 b2 0e bd b7 99 cf bc 53 af 4d 3c
       -0.035684124 -0.03483814 -0.025341852 0.012554008
000290 07 02 80 3d 5c 4c 6d bd 7d dd 4c 3d c2 9f a4 3d
       0.06250387 -0.05793415 0.050015915 0.08038284
0002a0 85 c0 21 3e 03 46 e6 bc 70 26 73 bb 4b 89 25 3d
       0.15796097 -0.028109556 -0.0037101768 0.040414136
0002b0 6f 86 89 3d 70 5a 25 3d 2d 2f 3e bb 5a d8 d1 3b
       0.06715094 0.04036945 -0.0029019818 0.006403965
0002c0 ba 84 4b 3d d5 c6 c8 3c 5c a0 c4 3c 34 6e 5d bd
       0.049687125 0.024508873 0.024002247 -0.054060176
0002d0 9a 55 75 bc 6d d6 1d 3e 9f 9d 8a 3d 46 81 49 3d
       -0.014974022 0.15413828 0.06768345 0.04919555
0002e0 5b 56 94 3d 73 a9 51 3b da d8 af 3d e4 12 71 3d
       0.072430335 0.0031991869 0.08586283 0.058855906
0002f0 61 c6 7a 3d ce 31 16 bd 0e eb 91 bc 0a 06 cd 3c
       0.061224345 -0.03666859 -0.017812278 0.025027294
000300 21 8f 01 3b 01 1b e3 3d 52 1c 9f bb 41 21 fd 3b
       0.001976915 0.11089135 -0.004855671 0.0077249114
000310 0f 89 b6 3d db fa 39 3d 0e f1 55 3c d7 02 18 3e
       0.089128606 0.04540525 0.01305796 0.14844833
000320 ea d5 e5 3d bd 9c b2 3d aa 22 c6 3d 69 96 75 3d
       0.112224415 0.08721302 0.096745804 0.059957895
000330 d3 98 25 bd 64 2b 39 3d c4 99 27 bd 86 8b 87 3c
       -0.040428948 0.045207396 -0.040918127 0.016546022
000340 d6 63 95 bd c2 f6 b4 3b e0 51 3b 3d 8b 3b 9f 3d
       -0.07294433 0.00552258 0.04573238 0.07775029
000350 e4 ea d4 3d b7 66 8d 3c f8 28 8a 3d a6 72 ca bb
       0.10396364 0.017260892 0.067460954 -0.006178218
000360 a0 2c 2b 3c 09 05 c0 3c 10 5b 46 3d 61 ab 98 3c
       0.010447651 0.023439901 0.048426688 0.018636407
000370 c2 03 ea bb 43 9a 9f bd a3 fa 97 3c 75 76 8e 3c
       -0.0071415612 -0.07793095 0.01855213 0.01739047
000380 50 fa 01 3e 7c be bd bc 7f 41 4f 3d 6c 30 a8 3d
       0.12693143 -0.02316212 0.05059957 0.08212361
000390 c5 22 53 bc 80 e5 2f 3b 27 74 b3 bd e3 e8 ef 3c
       -0.012886708 0.0026839674 -0.08762389 0.029285854
0003a0 1f 4a 92 3d de e1 27 3d 9f 21 c1 3c df 88 11 3c
       0.07143044 0.040986888 0.023575602 0.00888273
0003b0 03 1f ee 3d 10 6f b2 3d be 04 43 3d ce d8 e2 3d
       0.11627009 0.0871259 0.047611944 0.110765085
0003c0 89 19 eb 3c a2 f2 c7 bd 25 b8 3a bd 96 55 b8 3d
       0.0286987 -0.097630754 -0.04558577 0.09000699
0003d0 9b b0 b2 3c 48 a5 8f bd 9f 5a 25 3d dd 92 68 bd
       0.021812728 -0.07013947 0.040369626 -0.056780685
0003e0 5e 45 7d 3c 5d ff 73 bd 96 0e 33 bd 99 05 58 bd
       0.015458433 -0.059569705 -0.043715082 -0.052739713
0003f0 95 18 5a bd bb fc 86 bc 12 61 1e bc 13 4b 45 3e
       -0.0532461 -0.016477933 -0.009666698 0.1926692

network_body.linear_encoder.seq_layers.0.bias f4 [256]
000000 c3 e7 ab bb 4e f0 84 bc a7 0d 09 bc 25 de 6c bb
       -0.005246134 -0.016227867 -0.008365071 -0.003614315
000010 9b 7e d4 bb 5c 99 4f bc 4a 92 f8 bc 9b c0 f2 bc
       -0.006484819 -0.012670841 -0.030343194 -0.029632857
000020 da a8 b8 bc b6 13 a7 bb 01 69 99 bd a4 3b 3c 3c
       -0.022541452 -0.0050987853 -0.07490731 0.011488829
000030 ed 7f cd bb 06 fc 5b bd 1e 27 85 bc a3 0c 5c bb
       -0.0062713535 -0.053707145 -0.016254004 -0.0033576868
000040 96 7c 74 3c 0e d0 d9 bc 2e 97 ee bc f9 34 8d bc
       0.014922282 -0.026588466 -0.029124822 -0.017237173
000050 c9 e0 15 3c d8 3a 9f bd b8 57 9f bd e3 5e 81 bd
       0.009147831 -0.077748954 -0.07780403 -0.06316926
000060 72 eb 12 3b 22 07 28 bd 7a 28 1b bd c9 f8 45 bd
       0.0022418168 -0.041022427 -0.0378804 -0.048332963
000070 c0 83 1f ba c1 d5 58 bb b1 f7 39 bd 4d d6 21 be
       -0.0006085001 -0.0033086392 -0.045402233 -0.15804406
000080 e4 a5 cd bb b1 d7 b7 b9 71 9a ea bc bd 54 87 3c
       -0.006275879 -0.00035065183 -0.028638097 0.016519899
000090 d5 3e 08 3c 7f 5d d6 3b 6f b6 5c bd 0a c9 15 3d
       0.008315762 0.0065419073 -0.05388492 0.03656868
0000a0 6d f1 42 3c 3a 72 50 3c fd 57 41 bc 73 bf d1 3a
       0.011898381 0.012722546 -0.011800763 0.0016002491
0000b0 38 3d 1b bc df d3 41 3d c6 ba 89 3b 3c 93 70 bc
       -0.009475045 0.047321197 0.0042031733 -0.014683541
0000c0 f5 98 00 bc 0f eb ff bb 99 42 93 bd 1b 0a d5 3c
       -0.007848968 -0.0078100036 -0.07190437 0.026005795
0000d0 dd 1a e7 bb 00 e3 e1 3c 27 7d 7d 3b 4a ff 4f 3b
       -0.007052763 0.027574062 0.0038679333 0.0031737857
0000e0 4b e2 87 3a 4a 04 89 bc 48 3c ab bc b6 56 9b bc
       0.0010367123 -0.016725678 -0.020902768 -0.018962245
0000f0 b3 5b 81 3a bf 0e f9 bc dc 3d db bc 02 bc 1e bd
       0.0009869247 -0.03040254 -0.026762895 -0.038753517
000100 80 60 9f 3c 60 fb 02 bd 4c e7 25 3c e4 97 b7 bc
       0.019455194 -0.03197801 0.010125946 -0.022411294
000110 af 28 1d bc 3e a8 38 bc 08 31 00 bb c9 18 5c bd
       -0.009592219 -0.011270581 -0.0019560475 -0.053734574
000120 c2 87 de 3a 3f da 65 bd b1 22 a8 bc b8 03 3c bd
       0.0016977715 -0.05611634 -0.020524355 -0.045901984
000130 1e 93 1a bd e0 89 91 bc 8d 12 8c bc fe a6 ce bc
       -0.037737958 -0.01776594 -0.01709869 -0.025226112
000140 0a 07 a4 3b 41 0f 00 be bf 7f b4 3b 33 63 aa 3c
       0.005005722 -0.12505819 0.0055083926 0.020799255
000150 d8 ba 4b bd 7d a2 c4 bd dc 9d 28 bc ae 1f 61 bd
       -0.049738735 -0.09601305 -0.010291543 -0.054961853
000160 45 ee 13 bd 1c b5 73 3c 16 6b 85 bd f9 d8 7d bd
       -0.036115903 0.014874723 -0.06514566 -0.0619745
000170 bc c1 6d 3a d2 3e 86 ba ea 12 e7 bc 47 b9 8b 3c
       0.0009069701 -0.0010242111 -0.028207261 0.01705612
000180 d8 e0 8b 3b e8 f2 b8 3b ac 2f 4d bd 19 fa fb bc
       0.004268747 0.005644191 -0.05009429 -0.030758904
000190 34 74 12 bd bd c3 82 3c 31 1a c9 3a 29 f7 56 bc
       -0.03575535 0.015962476 0.0015342889 -0.013120451
0001a0 4d ce a2 39 71 f4 5a bc 51 26 ce 3a 5f c1 c6 3c
       0.00031052754 -0.013363943 0.0015727972 0.024262128
0001b0 74 e2 01 3c 60 4c 6b 3c b4 cb 1f bd 0b 56 9a 3c
       0.007927526 0.014361471 -0.039012626 0.018839857
0001c0 ce ff 66 bc 58 02 d0 3b 34 0f 61 bd 8a c1 48 3c
       -0.0140990745 0.0063479356 -0.05494614 0.012253175
0001d0 18 b5 fb bc 32 ec 78 bd 2d d8 e7 bd bd 73 49 3d
       -0.030726 -0.06077213 -0.11320529 0.049182642
0001e0 98 36 a3 3c c2 c3 20 bc b5 29 b2 3b a2 ce e2 bc
       0.019923493 -0.009812297 0.005437101 -0.02768642
0001f0 ed 12 e5 bc fb ce d1 bc da 88 97 bc 30 99 ad 3b
       -0.027963126 -0.025611391 -0.018497873 0.0052978024
000200 21 33 e7 bc db 76 24 bd 66 97 9d bc 5d cb 56 3c
       -0.028222622 -0.040152412 -0.019237231 0.013110009
000210 6b 8d 22 bb 4e 8b 95 bb 1a 9f a0 bc 7c 56 50 bc
       -0.002480353 -0.0045637256 -0.019607116 -0.012715932
000220 0a 4e 49 bc 96 cb 01 3c ed e5 cc bc 0e 5c 01 3c
       -0.012286672 0.007922074 -0.02501198 0.007895483
000230 0f fe 70 bb 51 c5 1a bb 18 a8 ed 3c d5 6d 2a bc
       -0.0036772524 -0.0023616145 0.029010817 -0.010402163
000240 ac 6a d7 bc d0 ad d3 3b 93 e7 75 bb fa 02 7c bd
       -0.026295982 0.006459929 -0.0037522062 -0.061526276
000250 60 07 c6 bc 4d 4d a0 bc bf 0a 98 3c d2 fb 5d 3c
       -0.024173439 -0.01956811 0.018559812 0.013548808
000260 f7 c1 fb bd 38 bf b9 bc 4b 88 ef bb dc da d3 3b
       -0.12292855 -0.022674188 -0.0073099486 0.006465299
000270 2c 3c b8 bc 0f d8 be bc e3 8b f1 bb ff 04 69 3b
       -0.02248963 -0.023296384 -0.007371412 0.0035555956
000280 0a be 17 bc a8 d7 5f 3b 72 34 55 bb 4a 1f 00 3c
       -0.009261617 0.003415564 -0.003253248 0.00781996
000290 61 93 c5 bb 1b 13 5a 3b 8b b2 04 bc 82 cb ca 3b
       -0.006029532 0.0033275548 -0.008099209 0.006188811
0002a0 9e e6 d9 bd 15 cf c1 3c 51 68 53 3c 65 37 99 bc
       -0.1063969 0.023658315 0.012903289 -0.018703172
0002b0 61 43 59 3c 46 26 00 bd ca 72 bc 3c db 29 8a 3a
       0.013260693 -0.0312865 0.023003954 0.0010541038
0002c0 2a d0 b7 3b 85 82 9d 3a 53 98 56 3c 31 08 9e bd
       0.005609532 0.0012017047 0.01309784 -0.07716406
0002d0 ca a8 e2 bb ae ea 89 bc 4a 00 74 bd 2a 8a 48 bc
       -0.006917094 -0.016835537 -0.05957059 -0.012239972
0002e0 2e 41 d2 bc 76 4c 21 bc 01 a5 83 bc 84 be 73 3d
       -0.025665846 -0.00984489 -0.01606989 0.05950786
0002f0 9a 58 3a 3c 1b 19 90 bc 63 98 00 3d 38 86 11 bd
       0.011373663 -0.017590096 0.031395327 -0.03552839
000300 c9 59 b6 bc ae 77 38 bc 6d cb f8 3b 19 10 b7 bc
       -0.02225961 -0.011259003 0.0075926096 -0.022346543
000310 a5 29 dd bb c6 1a ed bd 60 c8 bd 3b aa fb 24 bd
       -0.006749349 -0.11577372 0.005791709 -0.040279068
000320 a2 4e ab bc 09 8b 13 bd dd 6a 3c 3c 20 09 d5 bc
       -0.020911518 -0.036021266 0.011500088 -0.026005328
000330 47 ea 24 bc e8 ac db 3c 81 5a a0 bd b8 ed 73 bc
       -0.010065622 0.026815847 -0.07829762 -0.01488822
000340 1f c3 d7 3b 61 a4 95 bb ba e1 0e be c0 24 04 bd
       0.0065845395 -0.0045667146 -0.13953295 -0.03226161
000350 4f 19 05 bd ff b2 3e bd 17 21 35 3c 50 c7 20 bd
       -0.03249484 -0.046557423 0.0110552525 -0.03925258
000360 9d 11 d0 3a 4e 78 8d 3c b5 6d 21 bc 80 07 28 bd
       0.001587439 0.01726928 -0.009852816 -0.041022778
000370 23 f2 3c 3b 21 81 dc ba b0 6d eb bb 70 9c cb bd
       0.0028830848 -0.0016823151 -0.0071847066 -0.099419475
000380 8a 4e db 3a 2f e9 40 bc 1b 70 75 bd e3 8e 63 bc
       0.001673178 -0.011774345 -0.059921365 -0.013889047
000390 ea 90 c4 3b b8 ad f2 bd f8 e9 a3 3c 6b 91 a4 3b
       0.0059987204 -0.118495405 0.020009026 0.005022218
0003a0 eb 6d 6a 3c 04 0f d7 bb ef 32 2c 3d 57 2a 90 bd
       0.014308433 -0.0065630693 0.04204076 -0.07039326
0003b0 b8 5a 25 bd 0d cb 4e 3c 0c c1 64 3c 18 ad c6 bc
       -0.04036972 0.012621653 0.013962042 -0.02425246
0003c0 a6 03 34 bc 23 7a 90 3b 88 38 d2 bd e2 d8 cc bc
       -0.010987198 0.004409091 -0.10264689 -0.025005762
0003d0 c2 23 fe bb 21 b0 fd ba 9a cb ea bc 29 2e a7 bb
       -0.0077557275 -0.0019354859 -0.028661538 -0.0051019383
0003e0 3b de 99 bb b9 be e2 3c fa c6 59 bc ef 27 b2 3a
       -0.0046956814 0.027678834 -0.013292069 0.0013592223
0003f0 21 94 c7 bd 78 d0 23 3c 4b 34 2e bb d6 24 73 bc
       -0.0974505 0.009998433 -0.0026581462 -0.014840325

network_body.linear_encoder.seq_layers.0.weight f4 [256, 602]
000000 26 9c 39 be 8a f6 0e 3d 76 2d 9e ba 55 95 8d bc
       -0.18125972 0.034903087 -0.0012067992 -0.017283121
000010 81 21 b5 3d 6e 2d 62 3d bf 7e 83 be 7a 61 96 3d
       0.08844281 0.055219106 -0.25682637 0.07342811
000020 49 bc 05 3c 1f b2 36 3c 4d bf 33 3d 2d 6f d7 3c
       0.008162566 0.011150866 0.04388361 0.02629813
000030 28 d0 66 be 67 d6 c6 3d df ca 93 3c 3b bc 25 3c
       -0.22540343 0.09708863 0.018041072 0.010115678
000040 b7 c6 b1 3c 39 5b 90 bc 44 70 49 be e4 89 13 3d
       0.0217012 -0.017621623 -0.19671732 0.036020175
000050 f6 bf ed bc a8 a4 03 bd 76 e1 d0 3d cc 21 9d 3d
       -0.029022198 -0.03213945 0.10199253 0.07672462
000060 e6 f2 e8 bd ed 53 a8 3d fd ff 92 bb 57 5a 87 bc
       -0.11374454 0.082191326 -0.0044860826 -0.01652257
000070 7b 27 74 3d b0 67 92 bd 04 e4 57 be 4b e3 b8 3c
       0.059607964 -0.07148683 -0.21083075 0.02256932
000080 7f b4 20 3d 78 96 a8 3c 84 67 f3 3d 57 e6 19 bd
       0.039234634 0.020579562 0.118849784 -0.037573185
000090 b1 a8 7e be d0 9c ff 3d 47 8e a1 bc 0c 83 a2 bc
       -0.24869038 0.124810815 -0.019721163 -0.019837879
0000a0 d3 6d 3a 3e 8f 34 48 bd e2 19 41 be 64 f8 f0 3d
       0.18205957 -0.04887825 -0.1885753 0.11766127
0000b0 67 4b 34 3d fa d6 bc bd 2d 87 97 3d cc 08 93 bd
       0.04401722 -0.09220691 0.073988296 -0.07179412
0000c0 bd 1d 32 be de 1a c0 3d 82 21 37 3c e8 df 9b bc
       -0.17394157 0.093801245 0.0111774225 -0.019027665
0000d0 01 65 92 3d dd f9 73 bd ff 3c 2c be 11 ad 2a 3d
       0.07148171 -0.05956446 -0.16820143 0.041668955
0000e0 00 20 89 bc a1 79 da 3c 0f cd e3 3c 7b a0 26 bd
       -0.016738892 0.026669325 0.02780774 -0.04068039
0000f0 0d fc e6 3d 46 3b 2d be 1a 75 2f bd 3f ee 25 3d
       0.112785436 -0.16917142 -0.042836286 0.040510412
000100 2b 01 af bd 9b 10 08 bc 77 57 51 3e 31 14 30 be
       -0.08545145 -0.00830474 0.20443521 -0.17195202
000110 da b8 c5 bc 8c fd 9b bd a9 d1 e5 bd c4 bf 99 ba
       -0.024135996 -0.076167196 -0.1122163 -0.0011730124
000120 e4 6d 48 3e f7 97 ac bd b7 60 30 bd 12 24 78 3d
       0.1957317 -0.084274225 -0.043060984 0.060581274
000130 60 94 13 be c1 be c1 bd 8e fe db 3d 32 10 41 be
       -0.1441207 -0.094602115 0.10741912 -0.18853834
000140 5a 5b 97 bc 29 96 0e bd 79 b8 d4 bd 03 aa 30 bb
       -0.018476177 -0.034811173 -0.10386748 -0.0026956804
000150 98 19 da 3d 3d 7d 37 be cf 2f f2 3c a6 ed 30 3d
       0.10649413 -0.17918868 0.029563813 0.04319539
000160 c6 51 34 be a0 ff 4b bd e7 a6 96 3d 14 f1 7a be
       -0.17609319 -0.04980433 0.07356053 -0.24506027
000170 52 e1 c0 bc a5 af 63 bb fd ee f4 bd 99 48 e3 bc
       -0.023544941 -0.0034742143 -0.11959646 -0.027744578
000180 cd 1d b6 3d fe 7f 9a bd 69 63 c4 bd c6 15 f2 bb
       0.08892403 -0.07543944 -0.095892735 -0.0073878495
000190 c9 cc 54 be ee a5 36 3d 20 c9 ed 3d b7 25 bd bd
       -0.20781244 0.044591837 0.11610627 -0.09235709
0001a0 b0 6d c4 bc 53 ec b7 bc 0f 35 f9 bd f5 89 cc 3c
       -0.023978084 -0.022451555 -0.12168323 0.024968127
0001b0 8a 6a ee 3d 23 a4 2e be 96 c9 c4 bc 0d 95 b8 3b
       0.116414145 -0.170548 -0.024021905 0.0056330026
0001c0 c5 8a 27 be 3e 97 26 3c 5e 1a 68 3d 93 9e 3e be
       -0.1636153 0.010167895 0.05666577 -0.18615179
0001d0 9d c3 54 bd 64 05 d6 3c 49 4d 13 be 69 d6 82 3c
       -0.051944364 0.026125617 -0.1438495 0.01597138
0001e0 a2 76 f8 3d 6d 94 1d be eb a1 aa 3c 54 81 1e 3d
       0.121320024 -0.15388651 0.020829162 0.038697556
0001f0 43 d3 9f bd ef 85 60 bb 11 f8 3b 3e dc 49 e6 bd
       -0.07803967 -0.0034259518 0.18356349 -0.11244556
000200 bd 39 18 bb 8a bd 6a bc 6d 2e aa bd 5f 15 d4 bb
       -0.0023227774 -0.014327416 -0.08309636 -0.006472274
000210 9b 54 1a 3e 91 2c c9 bd b2 e6 0a bd f7 53 ae 3c
       0.15071337 -0.098229535 -0.033911414 0.021280272
000220 25 c2 a9 bd ca b6 3c bb 87 0d 36 3e c3 26 1b be
       -0.08288983 -0.0028795474 0.17778598 -0.15151505
000230 96 6f ba bc 0f 78 86 3d ec a3 d1 3c d6 39 b4 bd
       -0.022758286 0.06565868 0.02559086 -0.08800094
000240 15 b4 1b 3e 56 02 cf bd b4 55 4e bd 61 36 65 bd
       0.15205415 -0.101078674 -0.0503747 -0.055960063
000250 c8 e1 ad bd a2 5b 05 bd 97 10 d7 3d c9 6d a4 bd
       -0.0849033 -0.03255809 0.10501211 -0.08028752
000260 88 bd 2b 3c 9d d0 eb 3b c9 11 f7 bd 65 81 43 bd
       0.0104821995 0.0071964995 -0.12063939 -0.047730822
000270 87 65 f2 3d d8 ed 81 bc df d5 d0 bc 8f f3 20 bd
       0.11835771 -0.015860483 -0.025492607 -0.039294776
000280 c8 12 0d be 86 74 63 bd 07 3c fc 3d 80 03 25 be
       -0.13776696 -0.055531047 0.12316137 -0.16114616
000290 80 de 96 bd a5 b5 13 bd 1f 9f 4f bd cf 16 6d 3d
       -0.07366657 -0.0360619 -0.05068886 0.05788308
0002a0 e7 d6 91 3d 8f 6c 29 be b2 5a 91 bc 0f 06 dc bc
       0.071210675 -0.16545318 -0.017743442 -0.026858358
0002b0 43 f2 8c bb 15 a4 8b 3d db 60 ec 3d 66 4e da bd
       -0.004301341 0.068184055 0.11541911 -0.106594846
0002c0 8e bb 15 3d 79 1b 2c bd 5b 26 ea bc ca a7 24 3c
       0.03655582 -0.042018387 -0.028582742 0.01004977
0002d0 74 b1 20 bb 2e 36 e4 3d a1 8c 10 bd a1 37 6e bc
       -0.0024519833 0.111431465 -0.035290364 -0.01453963
0002e0 66 0f 27 bd 6b 6c 99 3d 5f 82 70 3d e2 6b 48 3d
       -0.04078617 0.07491382 0.05871808 0.04893101
0002f0 11 44 e3 3b e1 a3 0c bd 84 e6 9a bd ea 18 4b bc
       0.0069356044 -0.034335975 -0.075634986 -0.012396077
000300 40 50 01 3e c0 32 ee 3d 79 b8 4f bd bf a5 06 bc
       0.12628269 0.116307735 -0.050713036 -0.008218228
000310 43 54 99 bd 1a 74 70 3d 2b 86 90 3d 77 05 d8 3d
       -0.07486775 0.058704473 0.070568405 0.10547917
000320 ff ac e1 bd c8 44 82 bc de 5e aa bc 93 2d 3b bd
       -0.110193245 -0.015901938 -0.02079719 -0.04569776
000330 2e 3f 13 3d 3c dd e7 3d 75 be ae bd bd 36 28 3b
       0.035948925 0.11321494 -0.085324205 0.0025667392
000340 03 0d 5f bc 0c 58 33 bc de f5 32 3d 02 66 9f 3a
       -0.013613942 -0.010946285 0.04369151 0.0012161138
000350 36 88 00 bc b4 dd 7a 3a 05 72 fe bd 5e 28 02 3d
       -0.007844975 0.00095697795 -0.12424091 0.03177678
000360 43 7d 18 3d 79 1f 00 3e d7 a2 46 bd 97 e8 f9 bb
       0.037228834 0.12512006 -0.04849514 -0.007626604
000370 11 83 1e bd ca d1 58 bc 76 d0 ed 3d 48 d4 81 3d
       -0.038699213 -0.013233611 0.116120264 0.063393176
000380 98 7e e8 bd b7 a7 d7 3c bd f3 03 bc 26 4c 60 3d
       -0.11352271 0.02632509 -0.008053717 0.05476012
000390 fd 53 cc 3d 62 85 cb 3d f3 7c 34 bd 62 45 03 bd
       0.09976957 0.0993755 -0.044064473 -0.03204859
0003a0 15 b8 60 bd 10 e6 4d bd 8d 48 21 3d 6a 58 71 3d
       -0.054863054 -0.050268233 0.03937583 0.05892221
0003b0 68 8b 0b bb d6 64 3b bd e7 2d 70 bd 6d d4 d6 3c
       -0.002129281 -0.04575046 -0.058637526 0.02622434
0003c0 bc 56 d8 bb a8 f3 09 3e 7b d7 fc bc dd c5 51 3b
       -0.0066021364 0.13471854 -0.030864468 0.0032008805
0003d0 02 be 92 3c e6 29 dd bc cd 2d 86 bd 7d bc 9e 3d
       0.017912868 -0.026997518 -0.065517046 0.07750795
0003e0 62 d8 89 bd c4 a9 b8 bd c9 dc 74 3d e2 6f 31 3d
       -0.06730725 -0.09016755 0.05978087 0.04331959
0003f0 a2 2b 40 bd 21 64 0a 3e 97 bd c1 bc d0 9c a5 bc
       -0.04691661 0.13514759 -0.023649974 -0.020216376
