Config/results/Env_PPO_19/EnvironmentAgentBehavior/EnvironmentAgentBehavior-8499955.onnx (onnx, 482236 bytes, 8 tensors)

action_model._discrete_distribution.branches.0.bias f4 [100]
0	0x38e972c5	0.00011131683
1	0xbb697aff	-0.003562629
2	0xb9c0b72d	-0.0003675757
3	0x3ce7eae2	0.028310243
4	0xbbefbf91	-0.0073165377
5	0x3c404899	0.011736059
6	0xbc3bea4f	-0.011469438
7	0x3c95e44a	0.018297333
8	0x3c72518a	0.014789948
9	0xbc063b9e	-0.008192925
10	0xbd175a69	-0.036951456
11	0x3cdfff3c	0.027343385
12	0x3bcb3440	0.006201297
13	0xbbd69d09	-0.006549482
14	0xbcbabefb	-0.022796145
15	0x3d162e4b	0.036665242
16	0xbcbfe258	-0.023423359
17	0x3c5818fc	0.0131895505
18	0x3ce081e0	0.02740568
19	0x3c6c9357	0.014439425
20	0xbb2fdf10	-0.0026835836
21	0xbc2af8d8	-0.010435306
22	0x3c3b8db6	0.011447361
23	0x3c379091	0.011203901
24	0x3bfc44e3	0.0076986416
25	0xbbf9057a	-0.00759953
26	0xb938f561	-0.00017639018
27	0x3d1baeda	0.03800855
28	0x3b6882ab	0.0035478275
29	0x3c1f070e	0.009706272
30	0xbc255e9d	-0.010093358
31	0xbcd0ea78	-0.025502428
32	0x3c852475	0.016252736
33	0x3c00e70f	0.007867589
34	0x3c833753	0.016017592
35	0x3bedf074	0.0072613303
36	0xbadca3cf	-0.0016833487
37	0x3c4adb63	0.012381407
38	0xbcefd415	-0.029275933
39	0xbc6e9cce	-0.014563752
40	0xbc2b478d	-0.010454071
41	0x3c8743ce	0.016511824
42	0x3cc9a1d1	0.024613293
43	0xbc886496	-0.016649526
44	0x3caf6e73	0.021414971
45	0x3cdc66ac	0.026904427
46	0xbc9107f0	-0.01770398
47	0xbb8704ba	-0.0041204365
48	0xbd52ad05	-0.051434536
49	0xbba88c54	-0.0051436815
50	0xbd0c0207	-0.03418162
51	0x3c53f3d2	0.012936549
52	0x3d2230b2	0.03959722
53	0xbb6a539b	-0.00357554
54	0xbb5d6ead	-0.0033787892
55	0xbccf15f0	-0.025279015
56	0xbc5ea436	-0.013588956
57	0xbc214978	-0.0098441765
58	0x3bdce557	0.0067412066
59	0x3bad599a	0.0052902224
60	0xbcba698f	-0.022755412
61	0xbb8d2464	-0.0043073166
62	0x3b35b3f8	0.0027725678
63	0x3bbe197e	0.0058013787
64	0xbcba6fbf	-0.022758363
65	0x3cce49dd	0.025181705
66	0x3d0518d2	0.032494374
67	0xbb6e149c	-0.0036328202
68	0xbbe1456b	-0.0068747303
69	0x3cdb2976	0.026753169
70	0x3bbd3560	0.005774185
71	0xbcf30625	-0.029666016
72	0x3c105dae	0.0088113975
73	0xbb9f4869	-0.004860927
74	0x3c6c5345	0.01442415
75	0x3cca00a0	0.024658501
76	0x3cae959f	0.02131158
77	0x3b8a467a	0.0042198272
78	0x3b4ee38b	0.0031568732
79	0x3a38dfda	0.00070523995
80	0xbc7f8f10	-0.015598074
81	0x3c084bfa	0.0083188955
82	0xbbd77a4d	-0.0065758587
83	0xbb01659d	-0.0019744404
84	0xbb97ff5b	-0.004638595
85	0xbc56694f	-0.013086631
86	0xbc1ba289	-0.009499201
87	0xbc95ea03	-0.018300062
88	0x3b88c44f	0.0041737924
89	0x3c8dc188	0.017304197
90	0x3bcc9a0c	0.0062439498
91	0x3c467c0c	0.012114536
92	0x3be78e57	0.007066529
93	0x3c621827	0.013799704
94	0xbbad676b	-0.0052918694
95	0x3c8aec07	0.01695825
96	0xbbe276c1	-0.006911129
97	0x3c4f4857	0.0126515245
98	0x3ce2799a	0.027645875
99	0x3b890a76	0.0041821552

action_model._discrete_distribution.branches.0.weight f4 [100, 128]
0	0xbbfb12f9	-0.007662174
1	0x39fd55ac	0.0004831975
2	0x3cee4a9e	0.029088315
3	0x3d167686	0.036734127
4	0x3bf92d4b	0.0076042763
5	0x3d6d8973	0.05799241
6	0x3c542b61	0.012949795
7	0x3d766e77	0.06016394
8	0x3ccd1c92	0.025038037
9	0xbc538bd3	-0.012911755
10	0x3bafca96	0.0053647263
11	0xbc698be7	-0.014254547
12	0x3d4780a1	0.048706654
13	0x3c516692	0.012780802
14	0xbcd5421c	-0.0260325
15	0x3c5c44c5	0.01344413
16	0x3c24598e	0.010031117
17	0x3cee32bf	0.029076932
18	0xbc2fa294	-0.010719914
19	0xbd282d45	-0.041058797
20	0xbb0113b9	-0.0019695594
21	0x3b2066e7	0.0024475397
22	0x3cce03f8	0.025148377
23	0x3ca27028	0.01982887
24	0x3c9a7e1a	0.018858958
25	0x3d097797	0.033561315
26	0xbc08a7b2	-0.008340763
27	0xbd31c879	-0.043404076
28	0x3d853755	0.06504694
29	0x3d68ed2c	0.05686681
30	0xbd25b642	-0.040457018
31	0x3d875725	0.066084184
32	0x3d9c9e0c	0.076473325
33	0x3c741402	0.014897348
34	0xbd2d2b15	-0.042277414
35	0x3d93b427	0.07212096
36	0xba9e5e8a	-0.0012082618
37	0x3c1dfdf1	0.009643064
38	0xbccdd131	-0.025124164
39	0x3d999b51	0.075003274
40	0x3d72efc1	0.05931068
41	0x3bed50db	0.0072423047
42	0x3cc0e0c3	0.023544675
43	0xbcbace11	-0.022803338
44	0x3d31b5a2	0.04338611
45	0xbc18c5db	-0.009324516
46	0x3d1eba96	0.03875216
47	0xbc234165	-0.009964322
48	0xbd0e0262	-0.03467024
49	0xbbafcd8e	-0.00536508
50	0x3c9e8cde	0.01935428
51	0xbc31e940	-0.010858834
52	0x3c90afbd	0.017661924
53	0xbc55ab88	-0.0130413845
54	0x3be89ed5	0.0070990124
55	0x3ceedeed	0.029159034
56	0x3ceff1f5	0.029290179
57	0xbb9538ad	-0.0045538754
58	0xbcb41308	-0.021981731
59	0xbc20a425	-0.00980476
60	0xbc6fa16c	-0.014625888
61	0xbca1e4d9	-0.019762443
62	0xbbfcdb7c	-0.0077165943
63	0xb92d838d	-0.00016547572
64	0xbcdf4148	-0.027252808
65	0x3c4f8457	0.01266583
66	0xbbd683fb	-0.006546495
67	0x3c8fd263	0.017556375
68	0xbbaafa8c	-0.005217856
69	0xbd06c40d	-0.032901812
70	0xbcdaa7a7	-0.026691271
71	0xbbc4c24e	-0.0060046082
72	0x3cbe04e0	0.023195684
73	0x3d24c15f	0.040223476
74	0x3a9b5e47	0.0011853658
75	0x3c0f4078	0.008743398
76	0xbcd5e28e	-0.026109006
77	0xbb4712a1	-0.0030376094
78	0x3c584fab	0.013202588
79	0x3d9edc0e	0.07756816
80	0x3cb30f63	0.021857923
81	0x3d158d4c	0.036511704
82	0x3d1dab4c	0.03849344
83	0x3d4338c4	0.047661558
84	0x3d568d74	0.052380994
85	0x3bdac686	0.006676498
86	0x3d01e254	0.031709984
87	0x3d52c3bf	0.05145621
88	0xbc4e51a4	-0.012592707
89	0x3d3135d3	0.04326422
90	0xbd248c30	-0.040172756
91	0x3da9c826	0.082901284
92	0x3c87499f	0.016514597
93	0x3cf2a07c	0.02961754
94	0xbc591e6c	-0.013251882
95	0x3d5956ab	0.05306117
96	0x3c887532	0.016657446
97	0x3c845242	0.016152505
98	0xbcc12e3a	-0.023581613
99	0xbc9f257b	-0.019427052
100	0x3c85b4c0	0.01632154
101	0x3a8e47e5	0.0010855166
102	0x3c945320	0.018106043
103	0x3c0b3c8b	0.008498321
104	0xbab031ab	-0.0013442537
105	0xbb336669	-0.0027374274
106	0xbc004e09	-0.007831105
107	0x3c91b814	0.01778797
108	0x3def6ea2	0.116910234
109	0x3d022f78	0.03178355
110	0x3c54c4f6	0.012986412
111	0x3d40c54b	0.047063153
112	0xbd3b39fa	-0.045709588
113	0xbc0c4afa	-0.008562798
114	0x3d38f866	0.045158766
115	0x3cf1318f	0.029442577
116	0x3caacdcb	0.020850083
117	0x3d56ed19	0.052472208
118	0xbd115f51	-0.03549129
119	0x3d5e26fc	0.054236397
120	0x3cb669e3	0.022267288
121	0xbba5c37c	-0.005058704
122	0xbcb6c5ee	-0.022311177
123	0xbc96c213	-0.018403089
124	0xbd927a8e	-0.07152282
125	0x3cffd85b	0.031231096
126	0xbc513ed9	-0.012771332
127	0x3c7d5637	0.01546245
128	0x3c930d2c	0.017950617
129	0xbcd0ba7b	-0.025479546
130	0x3d0b57c3	0.034019243
131	0x3d06c4be	0.03290247
132	0x3d67137b	0.056415062
133	0x3c032635	0.008004715
134	0xbb0820f5	-0.0020771597
135	0x3d3fe11e	0.046845548
136	0x3c763633	0.015027571
137	0xb91ba549	-0.00014843525
138	0x3ca9c0a7	0.020721747
139	0xbd1bef11	-0.03806979
140	0x3ca8ff6e	0.02062961
141	0x3ca3e961	0.020008745
142	0x3c4306a9	0.011903443
143	0x3cb777ea	0.022396047
144	0x3d08c474	0.033390477
145	0xbb932212	-0.0044901455
146	0xbb391506	-0.002824129
147	0xbc9a63ef	-0.01884648
148	0x3c8cfd74	0.0172107
149	0xbccabb50	-0.02474752
150	0xbc70ca25	-0.0146966325
151	0x3cb9f09f	0.022697745
152	0xbc5fd643	-0.013661924
153	0xbc8c9b03	-0.01716376
154	0xbd009ab9	-0.031397555
155	0xbb3fe89b	-0.002928293
156	0x3c0d3bbd	0.0086202
157	0xbc6602da	-0.014038766
158	0x3a9a49a3	0.0011771213
159	0x3d7b84d0	0.061405957
160	0x3cfa41e7	0.030549003
161	0x3d01c39c	0.03168069
162	0xbd2fd9a5	-0.04293217
163	0xbd517274	-0.05113454
164	0x3cbf03eb	0.023317298
165	0x3d4c5da9	0.04989401
166	0xbcb5aaba	-0.022176135
167	0x3d196ae0	0.03745544
168	0x3d0c7bcd	0.034297753
169	0xbda8a43f	-0.082344525
170	0x3bec19af	0.00720521
171	0x3d13f362	0.03612078
172	0xbc741b07	-0.014899022
173	0x3c40d5bf	0.011769711
174	0x3d0d2401	0.034458164
175	0x3ccb53e7	0.024820281
176	0xbbc8a6c1	-0.0061233942
177	0x3a722957	0.00092377275
178	0x3cd42741	0.025897624
179	0xb9ff1ebc	-0.0004866029
180	0x3c6079fb	0.013700957
181	0x3d211a1d	0.039331544
182	0xbb8ea940	-0.0043536723
183	0xbbed22f8	-0.0072368346
184	0x3cb744d6	0.02237169
185	0xbc5b07dc	-0.013368573
186	0xbc8ed96e	-0.017437663
187	0x3d45ab1b	0.048258882
188	0xbc8b7fee	-0.017028775
189	0x3c5e346b	0.013562302
190	0x3ce3db57	0.02781455
191	0x3d3ff0f3	0.046860646
192	0x3c4e2bf9	0.012583726
193	0xbc20bd57	-0.009810767
194	0x3c7b5ad9	0.015341484
195	0xba2bedcb	-0.0006558566
196	0xbba84957	-0.005135696
197	0xbd051a70	-0.032495916
198	0xbd7adff0	-0.06124872
199	0x3b33f312	0.0027458114
200	0x3d4ee10d	0.050507594
201	0x3cafc070	0.021454066
202	0xbbad5227	-0.0052893343
203	0x3d4a9cb5	0.049465854
204	0x3c82f847	0.015987528
205	0x3d1bfd12	0.038083144
206	0x3d13a7c6	0.036048673
207	0xbd3cfa8a	-0.04613737
208	0x3cf13e5e	0.029448684
209	0x3d3534a9	0.044239674
210	0x3cb7ce8e	0.02243736
211	0x3d27fe9a	0.04101429
212	0x3cfe4041	0.031036498
213	0x3c98c7f0	0.018650025
214	0x3d2c6044	0.042083994
215	0xbd040506	-0.032231353
216	0x3cfbcf65	0.030738542
217	0x3cf0a332	0.029374693
218	0xbd3ac28f	-0.0455957
219	0x3d113662	0.035452254
220	0x3d68b214	0.056810454
221	0x3ce5e08f	0.02806118
222	0x3c7b2e92	0.015330927
223	0x3d43c2c6	0.047793172
224	0x3d421930	0.047387302
225	0x3c8a8764	0.016910262
226	0xbbc49d59	-0.0060002026
227	0x3cdf1ebf	0.02723634
228	0x3c1a5f27	0.0094221
229	0x3cc7a54f	0.024370817
230	0x3d36b2cf	0.04460412
231	0x3d025ff2	0.03182978
232	0xbd7bd112	-0.06147868
233	0x3bd3e637	0.0064666527
234	0xb88f768b	-6.840852e-05
235	0xbb158d28	-0.0022819731
236	0xbbaf809f	-0.005355909
237	0xbc478b49	-0.012179204
238	0xbce0e59d	-0.027453238
239	0x3d0312de	0.032000415
240	0x3c7809a4	0.015139017
241	0xbb8cb06b	-0.0042934916
242	0x39bfcfb8	0.0003658512
243	0x3cf298bd	0.029613847
244	0x3d109eb6	0.03530761
245	0x3d543601	0.051809315
246	0xbc213c83	-0.009841087
247	0x3d455ffe	0.04818725
248	0xbb521d43	-0.0032060898
249	0x3cbcebac	0.023061596
250	0x3d2b5af0	0.04183477
251	0x3c8b2ffb	0.016990652
252	0xbca70d8a	-0.020392198
253	0x3d2369c5	0.03989579
254	0xbcc3bc3c	-0.023893468
255	0x3cfff364	0.031243987

action_model._discrete_distribution.branches.1.bias f4 [2]
0	0xbc9defc0	-0.01927936
1	0x3c9defca	0.01927938

action_model._discrete_distribution.branches.1.weight f4 [2, 128]
0	0xbca82c2c	-0.020528875
1	0x39cf14cd	0.00039497614
2	0xbcac3a6b	-0.02102395
3	0xbd52a00f	-0.051422175
4	0xbc4d5065	-0.012531375
5	0x3d6347c0	0.055488348
6	0xbd764f1f	-0.06013405
7	0xbd596c8d	-0.053082038
8	0xbda738a5	-0.08165101
9	0xbd12c671	-0.03583378
10	0xbd64bfe5	-0.055847067
11	0x3c26ef59	0.010188901
12	0xbd226fbb	-0.039657336
13	0xbd6c2614	-0.0576535
14	0x3b92a378	0.0044750534
15	0xbcd7e0a0	-0.026352227
16	0xbc9ae2f2	-0.018907044
17	0x3bb9f751	0.0056752344
18	0x3b6a0997	0.0035711282
19	0xbd31dac2	-0.043421514
20	0xbd877c61	-0.0661552
21	0x3ce5712d	0.028008068
22	0xbc621cac	-0.013800781
23	0xbd91f811	-0.07127393
24	0xbce8ce88	-0.028418794
25	0xbc8ce4df	-0.017198978
26	0x3c259963	0.010107371
27	0x3d7ff1ac	0.062486336
28	0x3cc9e5d9	0.024645733
29	0xbd46eaf4	-0.048563913
30	0xbcabf841	-0.0209924
31	0xbd63b75e	-0.055594794
32	0xbd499d0c	-0.049222037
33	0xbd71a512	-0.058995314
34	0xbc04e1ea	-0.008110503
35	0x3a10f82b	0.0005530144
36	0xbd80aee7	-0.0628336
37	0xbca33e2e	-0.01992711
38	0x3d3e6dfb	0.046491604
39	0xbcd67d37	-0.026182754
40	0xbdaf944e	-0.08573209
41	0x3d97df52	0.07415642
42	0xbd83e646	-0.064404055
43	0x3b2bee38	0.0026234519
44	0x3d2aa609	0.04166225
45	0xbd81342c	-0.06308779
46	0xbd070539	-0.032963965
47	0x3bf32367	0.007419992
48	0xbcd068ce	-0.0254406
49	0xbd624288	-0.05523923
50	0xbb689a96	-0.003549253
51	0x3d6a2a04	0.057168975
52	0x3d28b0c6	0.04118421
53	0x3cdfac54	0.027303852
54	0x3d5aedcc	0.053449437
55	0x3db7f3cf	0.0898205
56	0x3b3b11c6	0.002854453
57	0x3b6b3154	0.0035887556
58	0x3d74888a	0.059700526
59	0xbd9f7fd3	-0.077880524
60	0x3d795ea0	0.060881257
61	0x3bd236c3	0.0064152195
62	0x3b02b09b	0.001994169
63	0xbc163867	-0.009168721
64	0xbd2a42ea	-0.04156772
65	0xbc84b4b0	-0.01619944
66	0xbcbf5f4d	-0.023360873
67	0xbd248525	-0.04016604
68	0x3cba9716	0.022777122
69	0xbb377995	-0.0027996053
70	0x3ccb98bc	0.024853103
71	0xbc83196e	-0.016003337
72	0xbd84b319	-0.06479473
73	0x3bca597a	0.006175217
74	0xbc2cdff4	-0.010551441
75	0x3bb62887	0.0055590305
76	0xbcfd3e85	-0.0309136
77	0xbd47eae6	-0.048808
78	0xbd765c45	-0.06014659
79	0x3d41d1ea	0.04731933
80	0xbc9538bb	-0.018215528
81	0xbd1250e8	-0.03572169
82	0xbc3cc12d	-0.011520666
83	0xbd449690	-0.04799515
84	0xbd11e438	-0.035618037
85	0xbcdcbe46	-0.026946198
86	0xbceddffd	-0.02903747
87	0x3c8110a0	0.015754998
88	0xbd1833be	-0.03715872
89	0xbc285ba3	-0.010275754
90	0xbbc4eaae	-0.0060094213
91	0xbd6cf715	-0.057852823
92	0xbd35a171	-0.044343416
93	0xbce4474a	-0.027866025
94	0x3bb6b839	0.0055761603
95	0xbc3211fc	-0.010868546
96	0xbd1aac4e	-0.03776198
97	0xbdb879d4	-0.09007612
98	0xbc976973	-0.0184829
99	0xbd01c096	-0.031677805
100	0xbd112993	-0.03544004
101	0xbc83fcf8	-0.016111836
102	0xbcef2b27	-0.029195381
103	0x3d661156	0.056168877
104	0x3d368e17	0.0445691
105	0xbcd4e246	-0.025986802
106	0x3b040b90	0.0020148493
107	0xbbfff236	-0.007810856
108	0xbcaea6a2	-0.021319691
109	0x3d2ffb2c	0.042964146
110	0x3c40646c	0.011742692
111	0xbd9295d8	-0.07157487
112	0x3bc3936f	0.005968503
113	0xbc91318e	-0.017723825
114	0xbcf7a3a8	-0.030229405
115	0xbd8a58ca	-0.067552164
116	0x3a2f0733	0.0006676793
117	0xbca44a69	-0.020055013
118	0x3ce4106b	0.02783986
119	0xbc19461a	-0.009355092
120	0xbd501c92	-0.050808497
121	0x3a90233d	0.001099683
122	0xbd4ca034	-0.04995747
123	0x3c55ca15	0.013048668
124	0x3dbf043d	0.0932698
125	0x3a47a3ef	0.00076156756
126	0xbd2aa5a9	-0.041661892
127	0xbd6d1ca5	-0.057888646
128	0x3cb73c18	0.022367522
129	0xbb998838	-0.004685428
130	0x3c22d29c	0.0099379085
131	0x3d58ed62	0.05296076
132	0x3c730a22	0.014833959
133	0xbd63f0c4	-0.055649534
134	0x3d77238e	0.060336642
135	0x3d82bc72	0.06383599
136	0x3d6a2c18	0.057170957
137	0x3d2d519e	0.042314164
138	0x3d5873cb	0.052844804
139	0x3c1dedcf	0.0096392175
140	0x3d116099	0.035492513
141	0x3d976523	0.07392337
142	0xb9eb3fe7	-0.00044870304
143	0x3cf664bb	0.030077329
144	0x3d3d3729	0.046195183
145	0xbb0270e0	-0.0019903705
146	0xbb878162	-0.0041352967
147	0x3d6546e6	0.055975817
148	0x3d8671c5	0.065646686
149	0xbcce6d74	-0.025198676
150	0x3b767bc1	0.0037610384
151	0x3dc428e6	0.09578113
152	0x3c212062	0.009834381
153	0x3c150202	0.009094717
154	0xbc2a0d1b	-0.010379101
155	0xbd92d65c	-0.07169792
156	0xbcb57a0f	-0.022152929
157	0x3d18845d	0.037235606
158	0x3bb32399	0.00546689
159	0x3d8a1ba4	0.06743553
160	0x3d79ee4a	0.061018266
161	0x3d3a846a	0.045536436
162	0xbb9a71a2	-0.004713253
163	0x3ab186d5	0.0013544211
164	0x3d26f9ba	0.0407655
165	0x3ce78306	0.028260719
166	0xbd88f2bb	-0.06686922
167	0x3cd717f4	0.026256539
168	0x3d594099	0.05304012
169	0xbd969594	-0.073527485
170	0x3d90eab2	0.070760146
171	0xbb8a836d	-0.004227093
172	0xbccece11	-0.025244744
173	0x3d199e28	0.037504345
174	0x3c439362	0.011936994
175	0x3b578e1f	0.0032891107
176	0x3d43b902	0.04778386
177	0x3d167d1b	0.036740404
178	0xbb128692	-0.0022358042
179	0xbd6cb444	-0.057789102
180	0xbce8cf45	-0.028419146
181	0xbcec1e45	-0.028823027
182	0xbd9fefcc	-0.078094095
183	0xbd9bb8e7	-0.07603627
184	0xbc7712df	-0.015080183
185	0x3beba730	0.007191561
186	0xbd8de173	-0.06927767
187	0x3d9c1394	0.07620922
188	0xbd89d4ec	-0.06730065
189	0x3b643cd6	0.00348263
190	0xb99495d5	-0.00028340393
191	0x3bfe8fcc	0.0077686068
192	0x3d4bdbf2	0.049770303
193	0x3ca1be2f	0.019744007
194	0x3bf8c1e3	0.0075914725
195	0x3d2802d6	0.04101833
196	0xbd1db46d	-0.038502146
197	0x3cd8b885	0.026455173
198	0xbc7e5449	-0.015523025
199	0x3c20d599	0.009816551
200	0x3d80daa1	0.062917
201	0xbb1f4aee	-0.0024306136
202	0xbafec9f9	-0.0019438855
203	0x3b3fe0e7	0.002927834
204	0x3d007904	0.03136541
205	0x3cd04756	0.02542464
206	0x3d4d39c1	0.050103907
207	0xbd76a111	-0.0602122
208	0x3c8d53b5	0.017251829
209	0x3d0126aa	0.031531014
210	0x3c2294c5	0.009923165
211	0x3d152a12	0.036417075
212	0x3d0c5542	0.034260996
213	0x3d0b54e0	0.03401649
214	0x3cdd953f	0.027048705
215	0xbcb08aeb	-0.021550616
216	0x3cae18a9	0.021251993
217	0x3ab78e08	0.0014004121
218	0x3b6b2f32	0.0035886285
219	0x3d60eaa1	0.05491126
220	0x3d1ebbc1	0.038753275
221	0x3cc72b1e	0.024312552
222	0xbca65922	-0.020306174
223	0x3c25e681	0.010125757
224	0x3d18f93e	0.03734707
225	0x3da2bf95	0.079466976
226	0xbcae777d	-0.02129721
227	0x3d376815	0.044776995
228	0x3d2f16ff	0.04274654
229	0x3d0e412b	0.034730118
230	0x3d3f4b25	0.046702523
231	0xbd94902b	-0.0725406
232	0xbd2f2035	-0.042755324
233	0x3d2bae69	0.041914377
234	0x3c1c1808	0.009527214
235	0x3c9b3335	0.018945316
236	0x3d1af5c2	0.03783203
237	0xbd2ddc03	-0.042446148
238	0xbcdd9f52	-0.027053509
239	0x3d8c0e84	0.06838706
240	0xbc7283ff	-0.014801978
241	0xbb004f2b	-0.0019578438
242	0x3c97ca0f	0.018528966
243	0x3d99dec7	0.075131945
244	0xba8712c8	-0.001030528
245	0x3cb958f8	0.022625431
246	0xbd458a08	-0.04822734
247	0x3be756fb	0.0070599294
248	0x3d8eb310	0.06967747
249	0xb8804233	-6.115846e-05
250	0x3d374967	0.044747736
251	0xbbc7f76f	-0.0061024944
252	0xbdb0e01d	-0.08636496
253	0x3cac255d	0.02101391
254	0x3d2d71d2	0.042344876
255	0x3d8c8447	0.068611674

network_body.linear_encoder.seq_layers.0.bias f4 [128]
0	0xba0c9000	-0.0005362034
1	0xbae3524e	-0.0017343254
2	0x3ca193f8	0.019723877
3	0xbb95f13f	-0.004575878
4	0x3cd24c94	0.02567128
5	0x3b2f320b	0.0026732709
6	0x3c258af5	0.010103931
7	0xbc7251aa	-0.014789978
8	0xb8cb3af2	-9.690774e-05
9	0x3c8c39d9	0.017117428
10	0x3c81e248	0.01585497
11	0x3c8b5da2	0.017012421
12	0x3b221d0c	0.0024736552
13	0x3ab80875	0.0014040606
14	0x3c739621	0.0148673365
15	0x3cd6f672	0.026240561
16	0x3b716f21	0.003683992
17	0x3c9a595b	0.018841436
18	0x3c813ed3	0.015777027
19	0x3c27f028	0.010250129
20	0x3cc5e8ed	0.02415892
21	0x3ad4adf9	0.0016226164
22	0x3c283e17	0.01026871
23	0x3ba186dc	0.0049294066
24	0x3c38490f	0.011247887
25	0x3cb6e042	0.022323731
26	0x3c42faa4	0.011900578
27	0x3be49b9d	0.0069765584
28	0x3c857016	0.016288798
29	0x3c9953f1	0.018716784
30	0x3d058c6f	0.03260463
31	0x3bedada3	0.007253365
32	0x3c8e2f55	0.017356554
33	0x3c3c3cd2	0.01148911
34	0x3c76c43c	0.015061434
35	0x3c8439ee	0.016140904
36	0x3bf8861a	0.0075843455
37	0x3cb2528f	0.021767883
38	0x3c30ea31	0.010798023
39	0xbae97afd	-0.0017813143
40	0x3cc0a93d	0.0235182
41	0x3c317ee7	0.0108334785
42	0x3c0c678e	0.008569611
43	0x3c42c683	0.011888149
44	0x3cb4ea84	0.022084482
45	0xbadf0b97	-0.0017017004
46	0x3c94c9e3	0.018162673
47	0x3cbee367	0.023301793
48	0x3c4d26b4	0.012521435
49	0x3cab1130	0.02088222
50	0x3b80181a	0.003909123
51	0x3ae825c7	0.0017711454
52	0x3c535e24	0.012900863
53	0xbcafef32	-0.021476362
54	0x3ba6545b	0.005075974
55	0x3c08906d	0.008335215
56	0x3bfc8f88	0.00770754
57	0xbc01fdda	-0.007934058
58	0x3c8d0321	0.017213406
59	0xbc8a05a9	-0.016848402
60	0x3cb8cf9d	0.022559935
61	0x3ca77763	0.02044267
62	0x3c13ef7b	0.009029265
63	0x3bf8ac78	0.0075889193
64	0x3bd30545	0.006439837
65	0x3cae3efa	0.021270264
66	0x3c2557b0	0.010091707
67	0x3c0666cc	0.00820322
68	0x3c55707d	0.013027308
69	0x3bb81ee9	0.005618919
70	0xbc1d5ac8	-0.0096041635
71	0x3c16cf4e	0.009204699
72	0x3ca8b32d	0.02059325
73	0x3c0b738b	0.008511434
74	0x3cc84e3c	0.024451368
75	0x3c81ecd9	0.015860008
76	0x3bee66b7	0.007275428
77	0x3ca8c594	0.020602025
78	0x3cad804b	0.021179339
79	0x3c270f4c	0.010196518
80	0x3c3cae68	0.011516191
81	0x3c24da6a	0.01006184
82	0x3c7678bc	0.015043434
83	0x3af371ba	0.0018573322
84	0x3cc3151a	0.023813773
85	0x3c9cc98d	0.019139076
86	0x3998b43f	0.00029125993
87	0x3be61f3e	0.0070227673
88	0x3c5216f1	0.0128228525
89	0x3bfac873	0.00765329
90	0x3c57cc81	0.013171316
91	0x3bebd048	0.00719646
92	0xb958e403	-0.00020684306
93	0x3c72fb33	0.014830398
94	0x3c15c8c3	0.009142104
95	0x3c9b898d	0.018986488
96	0x3c225ac9	0.00990934
97	0x3c985719	0.018596219
98	0x3c0ee3ec	0.008721333
99	0x3c09e077	0.008415333
100	0x3bb93a79	0.0056527224
101	0x3c739cd3	0.014868933
102	0x3ba57981	0.005049885
103	0x3cac3775	0.021022538
104	0x3c77f56e	0.015134199
105	0x3be94201	0.007118464
106	0x3c87b670	0.016566485
107	0x3c650a39	0.013979488
108	0xba9481d3	-0.0011330195
109	0x3cadbf77	0.021209462
110	0x3ccd386e	0.025051322
111	0xbb239f4b	-0.0024966772
112	0x3cb7e54b	0.022448203
113	0x3c525cea	0.012839535
114	0x3c557850	0.013029173
115	0xb93bdb1f	-0.00017915339
116	0x3cc9cbc4	0.024633296
117	0x3c782f69	0.015148022
118	0xbb8a7d9b	-0.004226399
119	0xba6cae80	-0.0009028688
120	0x3c7fd167	0.01561389
121	0x3c084b4e	0.008318735
122	0xbbbada84	-0.0057023186
123	0xbcc530bd	-0.024071092
124	0x3ccc87ea	0.024967153
125	0x3c81c31f	0.015840111
126	0x3cc905af	0.024538843
127	0x3c46d0f0	0.0121347755

network_body.linear_encoder.seq_layers.0.weight f4 [128, 703]
0	0x3c84ed81	0.016226532
1	0xbcb0aa52	-0.02156559
2	0x3d173da6	0.036924027
3	0x3c6fcc4e	0.014636112
4	0x3d4ee963	0.050515544
5	0xbd2afea5	-0.041746754
6	0xbb9e9c32	-0.0048403973
7	0x3bb27bfc	0.005446909
8	0xbd1fef81	-0.039046768
9	0x3d070cbc	0.03297113
10	0x3d54814b	0.051881116
11	0x3d00e8dc	0.031472072
12	0x3b028851	0.0019917677
13	0xbd43a4f5	-0.047764737
14	0xbb9c3be7	-0.004767883
15	0xbd98c877	-0.07460111
16	0x3d0cdd68	0.034390837
17	0x3ce2c560	0.027682006
18	0x3a8fa6a0	0.0010959692
19	0x3d631076	0.05543562
20	0x3d4c6d56	0.04990896
21	0xbd219f1f	-0.03945839
22	0x3b21c2d3	0.0024682775
23	0xbcc4b63f	-0.024012683
24	0x3dc62d2f	0.09676587
25	0xbd899614	-0.06718078
26	0xbc67287a	-0.014108771
27	0xbd5ed4b5	-0.054402072
28	0xbd6b28b3	-0.05741186
29	0xbdd565fc	-0.104198426
30	0xb9bfd05d	-0.00036585602
31	0x3dedd2f3	0.11612501
32	0x3b9866df	0.004650935
33	0x3d4abe94	0.049498156
34	0xbce9db61	-0.02854699
35	0xbb9b9b71	-0.0047487547
36	0xbcb5d6d8	-0.022197172
37	0x3d3c6b30	0.04600066
38	0x3d8eac06	0.069664046
39	0x3d30d933	0.043175887
40	0x3afe547b	0.0019403839
41	0xbca4abe4	-0.020101495
42	0x3cf79509	0.030222433
43	0xbb6eeb35	-0.0036456112
44	0x3bdda381	0.006763876
45	0x3d489376	0.048968755
46	0xbd92c2d7	-0.07166069
47	0x3c146076	0.009056201
48	0x3d763ff4	0.060119584
49	0x3b0eafb6	0.0021772212
50	0xbc9836b2	-0.018580768
51	0xbd6582fe	-0.056033127
52	0x3d22d03f	0.03974938
53	0x3d3c607f	0.045990463
54	0xbc607201	-0.013699056
55	0xbbaf87f4	-0.005356783
56	0x3d176ec6	0.036970876
57	0xbc385bbd	-0.011252341
58	0x3c5be0f9	0.013420337
59	0x3d9fb241	0.07797671
60	0x3c1530e2	0.009105893
61	0x3d5ab978	0.053399533
62	0xbd0316c5	-0.032004137
63	0x3b36b3c5	0.0027878147
64	0x3d452d71	0.04813904
65	0x3e1226bd	0.1427259
66	0x3d5e9df3	0.05434985
67	0x3bf1979f	0.007372811
68	0xbb509f61	-0.0031833278
69	0xbd140b8f	-0.036143836
70	0x3d1981f2	0.03747744
71	0x3cf32b0a	0.029683609
72	0x3d8f85af	0.0700792
73	0xbd99d344	-0.07510999
74	0xbd8a462e	-0.06751667
75	0x3d6cec8f	0.057842787
76	0xbc02cf0b	-0.007983933
77	0xbd3951c2	-0.045243986
78	0x3c9d8457	0.019228144
79	0xbc3ae7f5	-0.011407842
80	0xbd1aefd8	-0.03782639
81	0xbc3df204	-0.011593346
82	0x3cc75865	0.024334142
83	0xbdb5d9bb	-0.088794194
84	0x3983f0cb	0.00025165672
85	0x3d3021aa	0.043000855
86	0x3d328c25	0.043590683
87	0xbbf7d3e7	-0.0075631025
88	0x3c135552	0.00899251
89	0x3d109aef	0.035304006
90	0xbd246328	-0.040133625
91	0x3c952946	0.018208157
92	0xbd935b15	-0.07195107
93	0xbd1dcf06	-0.03852751
94	0xbb5e2ea8	-0.003390232
95	0x3d4fa624	0.050695553
96	0x3d081e4b	0.033232015
97	0xbbbd06fe	-0.005768656
98	0xbe091b37	-0.13389288
99	0xbd12cc47	-0.035839345
100	0xbc8d47ba	-0.017246116
101	0x3d3e5317	0.04646596
102	0x3d1acac4	0.03779103
103	0x3d102078	0.035187215
104	0xbd16a7c2	-0.03678108
105	0xbd8634d6	-0.065530464
106	0xbc0fd830	-0.00877957
107	0x3b847d1d	0.004043235
108	0xbd5bf828	-0.053703457
109	0xbbcbaf2f	-0.006215952
110	0x3bc54db2	0.006021225
111	0xbd2b2212	-0.04178054
112	0xbba6d0ed	-0.005090824
113	0xbca8d630	-0.020609945
114	0xbd9cb50a	-0.07651718
115	0x3cd10735	0.025516132
116	0x3c3cb5b6	0.011517933
117	0xbca407ed	-0.02002331
118	0xbd459d43	-0.04824568
119	0x3d57a2a6	0.052645348
120	0x3ce9198b	0.028454563
121	0xbc0b7084	-0.0085107125
122	0xbd6c03b2	-0.05762071
123	0xbd6cd561	-0.05782068
124	0x3c52015c	0.012817707
125	0xbcaf6db7	-0.02141462
126	0xbd646d82	-0.055768497
127	0x3d93c78f	0.07215797
128	0x3be17b6b	0.0068811676
129	0x3d18f1d1	0.03733999
130	0xbab28687	-0.0013620415
131	0x3c011b5c	0.007880058
132	0x3c808b76	0.0156915
133	0x3d0cb2d4	0.03435023
134	0x3c41661f	0.011804133
135	0x3ca63f7d	0.020293945
136	0xbd155997	-0.036462393
137	0xbbff434f	-0.007790006
138	0xbd0e2c36	-0.03471013
139	0xbc92730b	-0.017877122
140	0x3c965edb	0.018355777
141	0xbce9ff98	-0.02856426
142	0x3c9b392e	0.018948164
143	0x3ccc3add	0.024930412
144	0x3cdfc147	0.027313842
145	0x3dc94972	0.09828462
146	0xbdbde9dc	-0.09273121
147	0x3ddf3fd0	0.10900843
148	0x3d6d8d79	0.057996247
149	0x3c795ae0	0.01521942
150	0x3bcf82e8	0.006332744
151	0xbd6b577a	-0.05745647
152	0xbbd205bf	-0.0064093764
153	0x3d6bb2dc	0.05754362
154	0x3d96d5e1	0.07365013
155	0x3c2f1b66	0.010687685
156	0xbcd0a497	-0.025469108
157	0xbc749a26	-0.01492933
158	0xbd1997db	-0.037498336
159	0xbd1e71fb	-0.03868292
160	0xbcb2f179	-0.021843659
161	0x3e075006	0.1321412
162	0x389ec07a	7.569879e-05
163	0x3d18f014	0.03733833
164	0x3e1a06f9	0.15041722
165	0xbc2173c3	-0.00985426
166	0xbcf43a09	-0.02981283
167	0x3c85979b	0.016307643
168	0xbd84395a	-0.064562514
169	0x3c8fd86f	0.017559258
170	0x3e108c7a	0.14116088
171	0x3d6f8d83	0.058484565
172	0x39f0e9d2	0.00045950577
173	0xbbc0b329	-0.0058807326
174	0xbd4939ef	-0.049127515
175	0xbd7a6d7a	-0.06113956
176	0x3aa451aa	0.0012536545
177	0x3d220aea	0.03956119
178	0xbb2c41eb	-0.0026284407
179	0x3ad22c0a	0.0016034853
180	0x3d01835a	0.031619407
181	0xbc44ae15	-0.012004395
182	0x3d90d160	0.07071185
183	0x3d54911b	0.051896196
184	0x3de84f36	0.11343233
185	0xbd00e298	-0.031466097
186	0xbc7cb0a6	-0.015422976
187	0x3d86841b	0.06568166
188	0xbc125dee	-0.008933527
189	0xba0941a5	-0.0005235917
190	0x3d299070	0.041397512
191	0x3d81b298	0.06332892
192	0xbd2a8cca	-0.041638173
193	0xbd33e11f	-0.043915864
194	0xbc87e16c	-0.016586982
195	0xbdcd5881	-0.100266464
196	0x3d997276	0.07492535
197	0xbba88783	-0.0051431074
198	0x3d203af3	0.03911872
199	0xbb49d0be	-0.0030794586
200	0x3c98d45a	0.018655945
201	0xbd217f4a	-0.039428033
202	0xbd8a071e	-0.06739639
203	0xbc49ed43	-0.012324634
204	0xbd339605	-0.04384424
205	0x3d832b95	0.06404797
206	0xbcd919c4	-0.026501544
207	0x3d23cd85	0.03999092
208	0xbd7ec1ef	-0.06219667
209	0xbd139325	-0.036029
210	0x3d8515a6	0.0649827
211	0x3d73ba84	0.059504047
212	0x3beacd6e	0.0071656024
213	0xbc6ba648	-0.014382906
214	0xbc86262b	-0.016375622
215	0xbdaa879b	-0.08326646
216	0xbcc44b70	-0.023961753
217	0xbd9349c8	-0.07191807
218	0x3dafad06	0.085779235
219	0xbd801d11	-0.06255544
220	0xbbb7f5f8	-0.0056140386
221	0x3c858fb3	0.016303873
222	0xbdd14987	-0.10219102
223	0xbca4a103	-0.020096308
224	0x3c9f8b08	0.019475475
225	0x3d9c5f63	0.07635381
226	0xbd118fe7	-0.035537627
227	0x3b0bbf97	0.0021323913
228	0x3a886728	0.001040672
229	0xbd69b246	-0.05705478
230	0x3c603beb	0.013686161
231	0xbd0977ad	-0.033561397
232	0x3e27335d	0.16328187
233	0xbd7aed69	-0.06126157
234	0x3d5997dd	0.053123344
235	0x3cf1b535	0.029505352
236	0x3b004728	0.0019573662
237	0xbd2baa4c	-0.041910455
238	0x3c85104e	0.016243126
239	0x3dd23128	0.10263282
240	0xbd34791f	-0.044060823
241	0x3ccff63e	0.025385972
242	0x3c3a116b	0.011356692
243	0xbd966572	-0.07343568
244	0x3c1d08c3	0.0095846085
245	0x3d7db96d	0.061944414
246	0x3d2da202	0.04239083
247	0xbd538b3e	-0.051646464
248	0xbbe37602	-0.006941558
249	0xbad03f3c	-0.0015887986
250	0xbd8dd2a7	-0.06924944
251	0xbb8ed022	-0.0043583075
252	0xbd934742	-0.07191326
253	0x3d6a2154	0.05716069
254	0xb9dee4e3	-0.00042513674
255	0xbb881bd7	-0.0041537094

network_body.linear_encoder.seq_layers.2.bias f4 [128]
0	0x3c2bb2f7	0.01047968
1	0x3d209dc1	0.039212946
2	0x3ccccf9a	0.025001336
3	0xbb8889aa	-0.0041668015
4	0x3c0776f3	0.008268106
5	0x3c9a9f87	0.018874897
6	0x3c2839dc	0.010267701
7	0x3ac7df91	0.0015249123
8	0x3b9b8afe	0.004746794
9	0xbc32d9d5	-0.010916193
10	0x3c2e2ebb	0.010631259
11	0x3d69099a	0.056893922
12	0x3c485c53	0.012229043
13	0x3b7589c1	0.003746614
14	0x3b5d4259	0.003376147
15	0x3c12c236	0.008957436
16	0xbb79fc93	-0.003814493
17	0x3b1bcba4	0.0023772502
18	0x3d1dd186	0.038529895
19	0xbb360eb6	-0.0027779764
20	0xba8a5c10	-0.0010556001
21	0x3c46f205	0.012142663
22	0xbb685302	-0.0035449867
23	0x3c749642	0.014928402
24	0xbc899aa5	-0.016797373
25	0x3cbd9b87	0.02314545
26	0xbc8380dc	-0.016052656
27	0x3bc683dc	0.0060581993
28	0x3b4469d1	0.0029970298
29	0x3c9137d0	0.017726809
30	0xbb130c4a	-0.0022437745
31	0x3bd6aeb2	0.006551587
32	0x3c1dc395	0.00962915
33	0x3ca53698	0.020167634
34	0x3c8fa305	0.017533788
35	0x3cbdb953	0.023159659
36	0x3c59754b	0.013272594
37	0x3ba7b144	0.0051175673
38	0x3c2c59fe	0.010519503
39	0x3c10c90a	0.008836994
40	0x3ca4dd0a	0.02012493
41	0xbbfde554	-0.0077482853
42	0x3b2d45c5	0.002643929
43	0x3b0b286f	0.0021233817
44	0x3c5c9f99	0.013465785
45	0x3c8bcb2c	0.017064653
46	0x3bea7067	0.0071545127
47	0x3c8bc5d4	0.017062105
48	0x3c3d2dd3	0.01154657
49	0x3cf50194	0.02990798
50	0x3b33a763	0.0027413003
51	0x3ba776a4	0.0051105786
52	0x3cfa5474	0.030557849
53	0x3c559c3b	0.0130377365
54	0x3cda4eb4	0.026648857
55	0x3c8a145b	0.01685541
56	0xbccef111	-0.025261434
57	0xbd0bd30f	-0.034136828
58	0x3cc4a907	0.02400638
59	0x3cc4be67	0.024016572
60	0x3d0461f6	0.032319985
61	0x3bd77c47	0.0065760943
62	0xbd4e5cf0	-0.0503816
63	0xbce1598e	-0.027508523
64	0x3b8ac1e7	0.0042345407
65	0xbc4709a2	-0.012148293
66	0xbc16d8e2	-0.009206982
67	0x3d291366	0.041278265
68	0xbd10462c	-0.03522317
69	0x3ae5815a	0.0017509863
70	0xbcaccb43	-0.021093016
71	0x3c0514ae	0.008122606
72	0x3c7b54da	0.015340054
73	0xbcbe0d65	-0.023199746
74	0xbce9c758	-0.028537437
75	0x39fcb086	0.00048196706
76	0xbc26c9da	-0.010179961
77	0x3b46e0d9	0.0030346422
78	0x3a5052cd	0.00079469086
79	0x3d0ae109	0.033906016
80	0xbc9b6da5	-0.018973181
81	0x3a363bf9	0.00069516856
82	0x3b5f1120	0.0034037307
83	0x3ca2a027	0.019851757
84	0x3bd0e6f2	0.006375187
85	0xbcad3548	-0.02114357
86	0x3c73cb63	0.014880034
87	0x3c0422eb	0.008064966
88	0x3c9e237b	0.019304028
89	0xbc61e840	-0.013788283
90	0x3d06cc08	0.032909423
91	0x3c91df5d	0.017806703
92	0x3ccd59c6	0.025067221
93	0x3b910f89	0.0044269008
94	0xbc290f72	-0.010318624
95	0xbc92134b	-0.017831465
96	0x3cfa0c42	0.030523423
97	0x3caf6eab	0.021415075
98	0x3c3d9585	0.011571293
99	0x3c25df55	0.010124047
100	0x3c5b9d94	0.013404269
101	0x3ce00f83	0.027351147
102	0xbcb7d323	-0.022439545
103	0x3cc91db6	0.0245503
104	0x3d27d725	0.040976662
105	0x3cc1ddb7	0.023665292
106	0x3c6e7ab3	0.014555621
107	0x3ca77f17	0.020446343
108	0xba32ebc3	-0.00068252924
109	0xbbbc3204	-0.005743267
110	0x3c95d254	0.018288769
111	0x3ca0f45f	0.019647775
112	0x3bd26a62	0.006421373
113	0x3b5d26b9	0.0033745004
114	0x3c43477b	0.011918898
115	0x3c205b36	0.009787371
116	0xbbb02f20	-0.0053767115
117	0x3bf43e1b	0.0074536926
118	0x3cd26ee1	0.025687637
119	0xb9b8c8d8	-0.00035244855
120	0x3c2483c6	0.010041183
121	0xbcefb6a8	-0.029261902
122	0x3bcb8005	0.0062103295
123	0xbc1cfb62	-0.009581419
124	0x3c98c76b	0.018649777
125	0x3c65e46a	0.014031509
126	0x3c8ac7bc	0.016940944
127	0x3ca5060a	0.020144481

network_body.linear_encoder.seq_layers.2.weight f4 [128, 128]
0	0x3c8d95a1	0.017283263
1	0xbca5ea5d	-0.020253355
2	0xbe4a5ebb	-0.197627
3	0xbe0cad7b	-0.13738053
4	0xbdbe3621	-0.09287668
5	0x3e2b0b68	0.1670357
6	0xbb2edaac	-0.0026680632
7	0xbd5a60c8	-0.053314954
8	0xbcc30ea5	-0.023810694
9	0x3ce5d348	0.028054848
10	0xbd94923f	-0.07254457
11	0x3df6ad37	0.12044757
12	0x3bff7c71	0.007796817
13	0x3dd609c6	0.10451083
14	0x3e6fee90	0.23430848
15	0xbc3474c4	-0.011014167
16	0x3be2eddd	0.006925328
17	0x3c60b9b5	0.013716151
18	0x3d8f7bf7	0.07006066
19	0xbd2e518f	-0.04255825
20	0x3ac1417d	0.0014744248
21	0xbdbbc8cc	-0.09169158
22	0x3d11c9a2	0.035592683
23	0xbdc0fb8a	-0.09422977
24	0xbdd3997e	-0.10332011
25	0x3c1629de	0.009165255
26	0xbd43aa67	-0.04776993
27	0xbddd2dff	-0.10799789
28	0xbe777f56	-0.24169669
29	0xbd5d61f0	-0.05404848
30	0xbdbc3cc5	-0.09191278
31	0x3d214ea3	0.039381634
32	0xbe38eeee	-0.18059894
33	0x3d63da1e	0.055627935
34	0x3e14b8e9	0.14523663
35	0xbda2b09d	-0.079438426
36	0xbd2a0fcf	-0.041518982
37	0x3e21e436	0.15809712
38	0x3da353b8	0.079749525
39	0x3da14708	0.07874876
40	0xbe2b60d0	-0.1673615
41	0x3db75df3	0.08953466
42	0xbde8fd11	-0.113763936
43	0x3e33dd92	0.17564991
44	0xbd70a256	-0.058748566
45	0x3d8f6245	0.07001165
46	0xbe21efbc	-0.15814108
47	0xbd074bee	-0.033031397
48	0xbe161c5c	-0.14659256
49	0x3caeece4	0.021353193
50	0x3e1258b8	0.14291656
51	0xbd7534c4	-0.059864774
52	0x3d1d5298	0.038408846
53	0xbd03d294	-0.032183245
54	0xbd9994ce	-0.07499085
55	0x3e382701	0.17983629
56	0x3d9744b2	0.073861495
57	0x3de3b7da	0.11119051
58	0x3e278842	0.16360572
59	0x3cbfe64b	0.023425242
60	0x3cd805a9	0.026369886
61	0x3cdbf3ea	0.026849706
62	0xbdaf14d8	-0.085488975
63	0x3c46193f	0.01209098
64	0xbd2ef6c3	-0.0427158
65	0x3e019230	0.12653422
66	0x3d125d7f	0.035733696
67	0x3dd0b066	0.10189895
68	0x3c816613	0.015795743
69	0xbd6d9df1	-0.058011953
70	0x3d14151c	0.036152944
71	0x3d80353d	0.062601544
72	0xbe333c30	-0.17503428
73	0x3ad2f205	0.0016093856
74	0xbc3549b3	-0.011064935
75	0x3d84fa14	0.06493011
76	0xbd5621aa	-0.0522782
77	0x3d339207	0.043840434
78	0x3be4ec1c	0.0069861542
79	0x3d958efb	0.07302662
80	0x3d9b6fa4	0.07589653
81	0x3d190fd0	0.037368596
82	0xbd477895	-0.04869898
83	0xbd40b97c	-0.04705189
84	0x3d8c8348	0.068609774
85	0xbd9cf9e7	-0.076648526
86	0x3db6923f	0.08914613
87	0xba188716	-0.0005818469
88	0x3df1bdb8	0.11803764
89	0xbd7305ee	-0.059331827
90	0xbe026c7b	-0.12736695
91	0xbd99f658	-0.075176895
92	0x3cc1b2db	0.023644855
93	0x3dfa3f0e	0.12219058
94	0x3e12957c	0.14314836
95	0xbc893829	-0.016750412
96	0x3d3914b8	0.045185775
97	0xbde0a804	-0.109695464
98	0xbc9d1edb	-0.019179752
99	0xbdf21ea4	-0.118222505
100	0xbcae2dc1	-0.021262052
101	0x3c8fc807	0.017551435
102	0xbcf19411	-0.029489549
103	0xbd60855f	-0.054814693
104	0xbc696348	-0.014244862
105	0xbe399bc8	-0.18125832
106	0x3d5ac113	0.053406786
107	0x3e320fd8	0.17388856
108	0xbbabe6c4	-0.0052460153
109	0xbe2ed639	-0.17073907
110	0xbd6c854e	-0.057744317
111	0x3d125899	0.035729025
112	0x3d7dd671	0.061972085
113	0xbe1e60ce	-0.15466616
114	0x3d86468a	0.06556423
115	0x3da12e53	0.07870164
116	0x3d341aa8	0.043970734
117	0xbe510a75	-0.20414145
118	0xbce92f66	-0.028464984
119	0x3e35ed66	0.17766342
120	0x3c52f878	0.012876622
121	0x3daec0d4	0.08532873
122	0xbde1129b	-0.10989877
123	0xbe07d16d	-0.13263483
124	0x3d20fc4d	0.039303113
125	0xbd311e78	-0.043241948
126	0xbd39c5dc	-0.04535471
127	0x3de1fac7	0.1103416
128	0x3c47b436	0.012188962
129	0xbcc95992	-0.024578843
130	0xbbb23556	-0.005438487
131	0x3e0b20a8	0.13586676
132	0x3dfba4df	0.12287306
133	0xbd4d7735	-0.050162513
134	0xbd22ebf5	-0.039775807
135	0x3ae5b904	0.0017526452
136	0xbd995c05	-0.074882545
137	0x3dd4e06e	0.10394369
138	0x3e5d01c8	0.2158271
139	0x3cc52624	0.024066038
140	0xbd813ada	-0.06310053
141	0x3dd49546	0.10380034
142	0x3cf7b217	0.030236287
143	0xbb8dbc38	-0.004325416
144	0x3cdc3a64	0.026883312
145	0xbd580cc9	-0.052746568
146	0x3c851039	0.016243087
147	0x3c170cff	0.009219407
148	0xbe4713f2	-0.19441202
149	0xbd07416d	-0.03302138
150	0xbe0f9409	-0.14021315
151	0x3deb75b2	0.11497058
152	0xbe1e4062	-0.15454248
153	0x3d4a08d2	0.049324818
154	0x3d9139b5	0.07091085
155	0xbce5a87c	-0.028034441
156	0x3df5543f	0.11978959
157	0x3dbc839c	0.0920479
158	0xbdbe106e	-0.092804775
159	0x3c023d11	0.00794913
160	0xbe0e2454	-0.13881046
161	0x3d85e04a	0.0653692
162	0x3d7022e1	0.058627013
163	0x3df27108	0.11837965
164	0xbc64ef17	-0.013973019
165	0xbdcbf58f	-0.09958946
166	0xbded6142	-0.11590816
167	0xbe2869f1	-0.16446663
168	0xbd28234d	-0.04104929
169	0x3cde817e	0.027161356
170	0xbcf0456f	-0.029329984
171	0xbd703254	-0.058641747
172	0xbbd064aa	-0.0063596563
173	0xbdb84490	-0.08997452
174	0xbde4337a	-0.11142631
175	0x3e287517	0.16450916
176	0xbc465844	-0.012106005
177	0x3d3d3089	0.046188865
178	0x3ac793f0	0.0015226584
179	0xbd2e5d91	-0.0425697
180	0x3e00f3c4	0.12592989
181	0xbd8bc4ff	-0.068246834
182	0xbdb40219	-0.087894626
183	0xbd4a6f40	-0.049422503
184	0xbd072222	-0.032991536
185	0x3e9ba56f	0.30399653
186	0x3c0e8c94	0.008700509
187	0xbdd1a78d	-0.10237036
188	0x3dfff235	0.12497369
189	0xbc845d0e	-0.016157653
190	0xbd634a42	-0.05549074
191	0x3de52c46	0.11190085
192	0xbdae72a3	-0.08517959
193	0x3cb0c1ca	0.02157678
194	0x3e074c79	0.13212766
195	0xbd97f8f8	-0.07420534
196	0xbd6bbd57	-0.057553615
197	0xbe1362f7	-0.14393221
198	0xbb6ee193	-0.003645037
199	0x3de3c58c	0.111216635
200	0xbd85a663	-0.065258764
201	0x3da2d963	0.079516195
202	0xbde2419a	-0.11047669
203	0x3c5f35f1	0.0136237005
204	0x3db1e173	0.08685579
205	0x3bbd0ba5	0.0057692104
206	0xbbe9c515	-0.0071340897
207	0x3da85a88	0.082203925
208	0xbd82edbc	-0.063930005
209	0x3e5e9a5c	0.21738571
210	0x3dd6ae40	0.10482454
211	0xbdac459b	-0.08411714
212	0x3d89ffb5	0.06738225
213	0x3e37791c	0.17917293
214	0xbcb1049d	-0.021608645
215	0xbdbb5aef	-0.091482036
216	0xbe044d26	-0.12920055
217	0xbce58e3d	-0.028021926
218	0xbd70fb34	-0.058833316
219	0xbdb3e0f9	-0.087831445
220	0xbde748a8	-0.11293155
221	0x3c9d7d6a	0.019224841
222	0x3b342620	0.0027488545
223	0xbd393aae	-0.045221977
224	0xbd060a46	-0.03272464
225	0x3ca3a04d	0.019973898
226	0xbcb2d399	-0.021829413
227	0xbc9397d8	-0.01801674
228	0x3c8e31f0	0.017357796
229	0xbd0aefff	-0.033920284
230	0x3e0fb4d0	0.14033818
231	0x3dbaa7b9	0.09114022
232	0x3d40c08e	0.047058634
233	0x3da30fd7	0.079620056
234	0x3cf3647f	0.029711006
235	0x3d9065d0	0.07050669
236	0x3e221c34	0.15831071
237	0x3da863f4	0.082221895
238	0xbd8f3469	-0.06992418
239	0x3d5bcae7	0.0536603
240	0x3da59a9b	0.08086129
241	0x3e4220b9	0.18957795
242	0xbd7c67d3	-0.061622452
243	0xbd1a08cf	-0.037606057
244	0x3d78db62	0.060756095
245	0x3cbe889a	0.023258496
246	0x3d2848d5	0.041085083
247	0xbde39545	-0.11112455
248	0xbdc9d6fb	-0.098554574
249	0x3d890330	0.06690061
250	0x3c425d7d	0.01186311
251	0xbe2f7982	-0.17136195
252	0xbca98db3	-0.02069745
253	0x3d8ce60c	0.068798155
254	0x3d97c67a	0.07410903
255	0x3d8d125c	0.068882674
