Config/results/Env_PPO_19/EnvironmentAgentBehavior/EnvironmentAgentBehavior-9499914.onnx (onnx, 482236 bytes, 8 tensors)

action_model._discrete_distribution.branches.0.bias f4 [100]
0	0x3b12554e	0.0022328678
1	0xbb9339a5	-0.0044929557
2	0xb9066467	-0.00012816639
3	0x3ce92ce7	0.028463794
4	0xbc0e6f8a	-0.008693585
5	0x3c3838cc	0.01124401
6	0xbc22a05d	-0.009925929
7	0x3caa8fe5	0.020820567
8	0x3c3c3662	0.011487575
9	0xbba0df21	-0.0049094115
10	0xbd187a89	-0.037226234
11	0x3cea19e8	0.028576806
12	0x3c0ba9c9	0.008524367
13	0xbbc9ab44	-0.0061544497
14	0xbca87e3d	-0.020568008
15	0x3d1580d5	0.036499817
16	0xbcae411b	-0.02127128
17	0x3c717b25	0.014738833
18	0x3cef3cc5	0.029203782
19	0x3c4b2432	0.012398766
20	0xbaef94ed	-0.0018278636
21	0xbc118356	-0.008881411
22	0x3c36d375	0.011158814
23	0x3c15fa3c	0.009153899
24	0x3bca8024	0.0061798263
25	0xbc00b803	-0.007856372
26	0x3b1b550e	0.002370182
27	0x3d15ce30	0.03657359
28	0x3af59e8e	0.001873927
29	0x3c210438	0.009827666
30	0xbc5a7d51	-0.013335542
31	0xbcdaef2a	-0.02672537
32	0x3c997057	0.018730326
33	0x3c364807	0.011125571
34	0x3c7c43c6	0.015397018
35	0x3c126c69	0.00893698
36	0x3a1a8f64	0.00058960007
37	0x3c5ac28d	0.013352049
38	0xbcf6135b	-0.030038526
39	0xbc92240e	-0.017839458
40	0xbc1eeeaa	-0.009700457
41	0x3c7e58a8	0.015524067
42	0x3cd71dee	0.026259389
43	0xbc84abba	-0.016195167
44	0x3c94d4f2	0.018167946
45	0x3cec51aa	0.028847534
46	0xbc76b20e	-0.0150571
47	0xbb77c683	-0.0037807531
48	0xbd5b71b8	-0.053575248
49	0xbc032cbf	-0.008006274
50	0xbd1b5a9e	-0.037928216
51	0x3c5046db	0.012712206
52	0x3d23f0ff	0.040024754
53	0xb869c615	-5.5736007e-05
54	0xbb2de7a7	-0.002653578
55	0xbcc419f0	-0.02393815
56	0xbc3e92c6	-0.011631673
57	0xbc463497	-0.012097499
58	0x3b8246b9	0.003975716
59	0x3b6f2882	0.003649265
60	0xbcd5c219	-0.02609353
61	0xbbbb6b26	-0.00571956
62	0x3b94b499	0.0045381305
63	0x3b517947	0.0031963156
64	0xbcafd75a	-0.021464992
65	0x3cc8d3ad	0.024514997
66	0x3cfab669	0.030604558
67	0xbb901c6a	-0.0043979185
68	0xbbde2275	-0.00677901
69	0x3cd21770	0.025645941
70	0x3b677621	0.0035318213
71	0xbd083e17	-0.03326234
72	0x3c44f561	0.0120213935
73	0xbb161a31	-0.0022903795
74	0x3c82562f	0.015910236
75	0x3cd32dc0	0.025778651
76	0x3ccdf864	0.025142856
77	0x3bbd2725	0.0057724887
78	0x3b6e9e72	0.0036410359
79	0x39b94da2	0.0003534379
80	0xbc69d356	-0.014271578
81	0x3b967b8a	0.0045923637
82	0xbc223ac9	-0.009901711
83	0x39d1ec63	0.00040039708
84	0xbbb6fd4f	-0.005584396
85	0xbc6fc907	-0.014635331
86	0xbc104c10	-0.008807197
87	0xbc9e5bb7	-0.019330842
88	0x3b1d4ef8	0.0024003368
89	0x3c82a7c8	0.015949145
90	0x3bb4b978	0.0055152737
91	0x3c106cc4	0.008814994
92	0x3c01b62e	0.00791697
93	0x3c72e8ee	0.014826043
94	0xbbe669c0	-0.0070316494
95	0x3caecae3	0.021336978
96	0xbba18922	-0.0049296776
97	0x3c1c98c7	0.009557909
98	0x3cd507c9	0.026004689
99	0x3bd091c8	0.0063650347

action_model._discrete_distribution.branches.0.weight f4 [100, 128]
0	0xbbcc482a	-0.0062341886
1	0x3b7ff36d	0.0039055005
2	0x3cfa2345	0.030534396
3	0x3d258d8e	0.0404182
4	0x3c26bd8d	0.010177028
5	0x3d77742a	0.060413517
6	0x3c7f7ca0	0.015593678
7	0x3d83a446	0.06427817
8	0x3cf29158	0.02961032
9	0xbc375b86	-0.0111912545
10	0x3bbd2b2a	0.005772968
11	0xbc625253	-0.013813573
12	0x3d533b3c	0.051570162
13	0x3c6ffa4f	0.014647081
14	0xbcdbd1d2	-0.026833449
15	0x3c6b92be	0.014378248
16	0x3c5214cc	0.012822341
17	0x3d04915c	0.032365188
18	0xbc0e9086	-0.008701449
19	0xbd1bad66	-0.038007163
20	0x3b1416db	0.002259663
21	0x3b0df815	0.002166276
22	0x3cfd7782	0.030940775
23	0x3cb4c906	0.022068512
24	0x3cd47941	0.025936725
25	0x3d1ccc23	0.038280617
26	0xbc3b878e	-0.011445893
27	0xbd31f333	-0.043444823
28	0x3d8c1f71	0.068419345
29	0x3d7fa61e	0.06241428
30	0xbd2878a0	-0.041130662
31	0x3d910417	0.07080858
32	0x3da65d2b	0.08123239
33	0x3c8ac973	0.016941762
34	0xbd2dd97a	-0.04244373
35	0x3da00a69	0.078144856
36	0x39354325	0.00017286518
37	0x3c3e24df	0.01160547
38	0xbccf2d57	-0.025290174
39	0x3da68707	0.08131223
40	0x3d81cc85	0.06337837
41	0x3bcae9cf	0.006192423
42	0x3ce72f14	0.02822069
43	0xbcbec31e	-0.023286399
44	0x3d3733da	0.044727184
45	0xbbffa768	-0.007801939
46	0x3d302361	0.04300249
47	0xbc0f41e4	-0.008743737
48	0xbd08389f	-0.033257123
49	0xbb620a9e	-0.0034491192
50	0x3ca8643a	0.020555604
51	0xbc512bc6	-0.012766784
52	0x3ca56225	0.0201884
53	0xbc4488c1	-0.011995495
54	0x3c08e84a	0.008356163
55	0x3ce52d91	0.02797583
56	0x3cdfce4e	0.027320053
57	0xbc083a02	-0.008314611
58	0xbcd1980d	-0.025585199
59	0xbbe8ea11	-0.007107981
60	0xbc8aeaee	-0.016957726
61	0xbc95c6be	-0.018283244
62	0xbc35e70e	-0.011102451
63	0xbb458d2d	-0.0030143962
64	0xbcd587a5	-0.026065657
65	0x3c2e9b64	0.010657165
66	0xbbe8d413	-0.0071053593
67	0x3cc07808	0.023494735
68	0xbc111459	-0.008854949
69	0xbd05b6f3	-0.032645177
70	0xbcdce783	-0.026965862
71	0xbabf0523	-0.0014573674
72	0x3cde08d6	0.027103823
73	0x3d32da92	0.043665476
74	0xbab3adf8	-0.0013708463
75	0x3c182a77	0.009287468
76	0xbce6c947	-0.028172148
77	0xbaec3620	-0.0018021502
78	0x3c6c454e	0.01442082
79	0x3da45b77	0.08025258
80	0x3cb34496	0.02188329
81	0x3d227998	0.039666742
82	0x3d28552f	0.041096862
83	0x3d502386	0.050815128
84	0x3d5cbf38	0.053893298
85	0x3b9004c3	0.004395099
86	0x3d11f1c0	0.03563094
87	0x3d56d058	0.052444786
88	0xbc4d70a8	-0.012539066
89	0x3d384c8d	0.04499488
90	0xbd1ba927	-0.038003113
91	0x3db230ce	0.08700715
92	0x3c9a45f1	0.018832179
93	0x3d082c29	0.03324524
94	0xbc78bc3e	-0.015181599
95	0x3d65d8c8	0.05611494
96	0x3c8df1cd	0.017327214
97	0x3ca6d2f8	0.02036427
98	0xbcba53b8	-0.022744998
99	0xbca53c44	-0.020170338
100	0x3ca43c85	0.02004839
101	0x3b2a79bc	0.00260125
102	0x3cd97dee	0.026549306
103	0x3c228233	0.009918737
104	0xbacd428c	-0.0015660091
105	0x3a125029	0.0005581403
106	0xbbe19ac9	-0.006884907
107	0x3cc058b2	0.023479793
108	0x3dfd7884	0.12376502
109	0x3d039c1e	0.032131307
110	0x3c8844e1	0.016634407
111	0x3d50b31b	0.05095206
112	0xbd42c5a7	-0.047551777
113	0xbb915059	-0.004434627
114	0x3d433f23	0.047667634
115	0x3d091ff9	0.033477757
116	0x3cb26830	0.021778196
117	0x3d6dae23	0.058027398
118	0xbd13f3e3	-0.03612126
119	0x3d647ed4	0.055785015
120	0x3cd7a2b1	0.026322694
121	0xbbd71b85	-0.00656456
122	0xbcaacf70	-0.020850867
123	0xbcaa14bb	-0.020761838
124	0xbd96c2dc	-0.07361385
125	0x3d09e8a1	0.033669118
126	0xbc0653f8	-0.008198731
127	0x3c893e18	0.016753241
128	0x3c8d8290	0.017274171
129	0xbcd65229	-0.026162224
130	0x3d02fb9e	0.031978242
131	0x3cfd452e	0.030916777
132	0x3d61d92b	0.05513875
133	0x3bff2036	0.0077858223
134	0xbb71bebe	-0.0036887373
135	0x3d3bb992	0.04583127
136	0x3c55b47e	0.013043521
137	0xba5df2fc	-0.00084666885
138	0x3c96caf1	0.018407317
139	0xbd225409	-0.039630923
140	0x3c9ed1ed	0.01938721
141	0x3c99fc8b	0.01879718
142	0x3c3a6a8b	0.011377941
143	0x3ca97865	0.020687291
144	0x3d031b74	0.032008603
145	0xbbcdf763	-0.0062855943
146	0xbb5f4a76	-0.0034071482
147	0xbc9d0e30	-0.019171804
148	0x3c876cae	0.016531315
149	0xbcc6fe72	-0.02429125
150	0xbc7fc98b	-0.015612016
151	0x3ca95941	0.020672442
152	0xbc590c18	-0.013247512
153	0xbc978ded	-0.018500293
154	0xbcf29e0b	-0.029616376
155	0xbb41e70f	-0.0029587185
156	0x3be0ba5d	0.0068581537
157	0xbc5cefc7	-0.013484902
158	0x3a21667d	0.00061569345
159	0x3d75f4cf	0.06004792
160	0x3cee2555	0.029070536
161	0x3cfbcd4b	0.03073754
162	0xbd2e99e2	-0.042627223
163	0xbd51072d	-0.051032234
164	0x3cb132a4	0.021630593
165	0x3d43472f	0.047675308
166	0xbcb38834	-0.021915533
167	0x3d13e1c0	0.036103964
168	0x3d05789f	0.032585736
169	0xbdaa613f	-0.083193295
170	0x3bb4decd	0.005519724
171	0x3d0de362	0.034640677
172	0xbc76b12f	-0.015056892
173	0x3c270302	0.010193588
174	0x3d048deb	0.032361906
175	0x3cbc0491	0.022951396
176	0xbbec83b5	-0.007217849
177	0xba2457c0	-0.0006269179
178	0x3ccc8509	0.02496578
179	0xba2c40ec	-0.00065709534
180	0x3c500251	0.012695865
181	0x3d1df8a0	0.038567185
182	0xbb8e2ecc	-0.0043390747
183	0xbc1099fa	-0.008825773
184	0x3cb9fed5	0.022704521
185	0xbc53da0e	-0.012930406
186	0xbc93d8df	-0.018047748
187	0x3d41e2bc	0.04733537
188	0xbc9709ff	-0.018437384
189	0x3c439485	0.011937265
190	0x3ce02ae8	0.02736421
191	0x3d40eacf	0.04709893
192	0x3c43e5fb	0.011956687
193	0xbc0fbffd	-0.008773801
194	0x3c9d31d0	0.019188792
195	0xba077581	-0.0005167351
196	0xbba389d4	-0.0049907956
197	0xbd039431	-0.03212375
198	0xbd759416	-0.05995568
199	0x3b60bddb	0.003429285
200	0x3d47b141	0.048753027
201	0x3ca4fca6	0.020140003
202	0xbb87dc1a	-0.004146111
203	0x3d41b845	0.047294874
204	0x3c8a9735	0.016917804
205	0x3d18c794	0.037299708
206	0x3d0b7024	0.034042493
207	0xbd404a38	-0.04694578
208	0x3ce551b1	0.027993055
209	0x3d30ff06	0.04321196
210	0x3cac5b7b	0.021039715
211	0x3d221f9d	0.03958093
212	0x3ceede14	0.02915863
213	0x3c9cee0c	0.019156478
214	0x3d246482	0.040134914
215	0xbd07c4e5	-0.033146758
216	0x3cf13369	0.02944346
217	0x3ce84b62	0.028356258
218	0xbd3b06e8	-0.045660883
219	0x3d0dd8c2	0.034630544
220	0x3d5fd6c7	0.054648187
221	0x3cdf72ea	0.027276475
222	0x3c83afba	0.016075004
223	0x3d3c734e	0.0460084
224	0x3d3d42a0	0.046206117
225	0x3c786ece	0.015163137
226	0xbb969aaf	-0.0045960764
227	0x3cd250b9	0.025673257
228	0x3c03a59b	0.008035089
229	0x3cc124a2	0.023577038
230	0x3d32e79f	0.043677922
231	0x3cfa90f7	0.030586703
232	0xbd7dbbc2	-0.061946638
233	0x3ba871a0	0.0051404983
234	0xba89b410	-0.0010505933
235	0xbbaf9b24	-0.0053590704
236	0xbb817114	-0.0039502475
237	0xbc540b7b	-0.01294219
238	0xbce1f36e	-0.027581897
239	0x3cfb751c	0.03069549
240	0x3c8d6f46	0.017264973
241	0xbba7c430	-0.005119823
242	0xba626b50	-0.00086372066
243	0x3ce3ccd8	0.027807638
244	0x3d0526a9	0.032507572
245	0x3d4c54b8	0.04988548
246	0xbc31541b	-0.010823275
247	0x3d40586e	0.046959333
248	0xbb883c70	-0.0041575953
249	0x3cc3dc84	0.023908861
250	0x3d278160	0.040894866
251	0x3c8732a0	0.016503632
252	0xbcae1c85	-0.021253834
253	0x3d18f6e2	0.03734482
254	0xbcc5534c	-0.02408757
255	0x3cf8cf77	0.030372364

action_model._discrete_distribution.branches.1.bias f4 [2]
0	0xbca13aaa	-0.019681294
1	0x3ca13ab4	0.019681312

action_model._discrete_distribution.branches.1.weight f4 [2, 128]
0	0xbcaf90a0	-0.021431267
1	0xba6a06d3	-0.00089274085
2	0xbca47499	-0.02007513
3	0xbd4e8405	-0.050418872
4	0xbc461395	-0.01208963
5	0x3d6527d7	0.055946197
6	0xbd76a60b	-0.060216945
7	0xbd553250	-0.052049935
8	0xbda942eb	-0.08264717
9	0xbd143d3c	-0.03619121
10	0xbd6159a5	-0.055017132
11	0x3c2dfa47	0.010618753
12	0xbd254e36	-0.04035779
13	0xbd6f7452	-0.05846054
14	0x3b954e83	0.0045564785
15	0xbccde87f	-0.025135277
16	0xbc96ce03	-0.01840878
17	0x3ba9164e	0.0051601296
18	0x3b31ccc8	0.0027130116
19	0xbd34ab0b	-0.04410843
20	0xbd8b1ac5	-0.06792215
21	0x3cea5251	0.028603705
22	0xbc652b63	-0.013987395
23	0xbd91841e	-0.071052775
24	0xbcebbf22	-0.028777663
25	0xbc917247	-0.017754687
26	0x3c2d66b6	0.01058357
27	0x3d7e8a46	0.062143587
28	0x3cd6c927	0.026218964
29	0xbd4d3cfd	-0.05010699
30	0xbca8735d	-0.020562822
31	0xbd659e9f	-0.056059476
32	0xbd490b5f	-0.04908311
33	0xbd761d6d	-0.060086656
34	0xbc1016c7	-0.008794493
35	0xbaa204f0	-0.0012361091
36	0xbd7eef53	-0.062239956
37	0xbca19e0b	-0.019728681
38	0x3d40588e	0.046959452
39	0xbcc24e3c	-0.023718946
40	0xbdaef876	-0.08543484
41	0x3d994b80	0.074851036
42	0xbd84f6fd	-0.06492422
43	0x3b8bb359	0.0042633233
44	0x3d2dbaa3	0.04241432
45	0xbd808749	-0.062758036
46	0xbd07b592	-0.033132143
47	0x3c02c87b	0.007982369
48	0xbccb374d	-0.024806643
49	0xbd6224bf	-0.055210825
50	0xbb07e741	-0.0020737203
51	0x3d6eccb3	0.058300685
52	0x3d2a68d4	0.04160388
53	0x3cdff0d7	0.027336521
54	0x3d5efe58	0.05444178
55	0x3dbac882	0.09120275
56	0x3b59b472	0.0033219126
57	0x3b8c4171	0.004280262
58	0x3d76d4ab	0.06026141
59	0xbd9dd0b4	-0.077058226
60	0x3d7e7fec	0.062133715
61	0x3bebd55b	0.007197065
62	0x3b817f82	0.0039519677
63	0xbc0578bc	-0.008146461
64	0xbd2f15da	-0.04274545
65	0xbc8025fc	-0.015643112
66	0xbcd84904	-0.026402004
67	0xbd2e308a	-0.04252676
68	0x3cc8770f	0.024470834
69	0xbb6c9865	-0.0036101576
70	0x3cc42fef	0.023948638
71	0xbc8ba63b	-0.017047038
72	0xbd847c0e	-0.06468974
73	0x3bbd0049	0.0057678563
74	0xbc1fc14c	-0.009750675
75	0x3bdc2a7e	0.0067189327
76	0xbcfabf0f	-0.030608682
77	0xbd43305f	-0.047653552
78	0xbd721566	-0.05910244
79	0x3d458ad7	0.04822811
80	0xbc9af12c	-0.018913828
81	0xbd11cd45	-0.03559615
82	0xbc367b23	-0.0111377565
83	0xbd43b091	-0.04777581
84	0xbd0d2d4c	-0.034467027
85	0xbcd02888	-0.025409952
86	0xbce35add	-0.027753288
87	0x3c853e45	0.016265044
88	0xbd1749a0	-0.03693545
89	0xbc28809f	-0.010284572
90	0xbbe0020f	-0.006836183
91	0xbd6e0d57	-0.05811819
92	0xbd2e7747	-0.04259422
93	0xbce1b37d	-0.027551407
94	0x3bab92dd	0.0052360133
95	0xbc0e6fe6	-0.008693671
96	0xbd182383	-0.03714324
97	0xbdb92009	-0.09039313
98	0xbca8e233	-0.020615673
99	0xbd0193c8	-0.031635076
100	0xbd1dcf7d	-0.038527954
101	0xbc7fad2f	-0.015605255
102	0xbcfbcabe	-0.030736323
103	0x3d681c22	0.056667455
104	0x3d37e824	0.04489912
105	0xbcdb5444	-0.02677358
106	0x3b260f8e	0.002533886
107	0xbc0ca549	-0.008584329
108	0xbcc3eaf6	-0.023915749
109	0x3d327324	0.043566838
110	0x3c406105	0.011741881
111	0xbd905ce7	-0.0704897
112	0x3bd75140	0.006570965
113	0xbc8b9404	-0.017038353
114	0xbcf58f58	-0.029975578
115	0xbd8a9c84	-0.06768134
116	0x3b3d69d8	0.00289022
117	0xbca38627	-0.01996143
118	0x3ce21403	0.027597433
119	0xbc140be9	-0.009036043
120	0xbd53dc90	-0.051724017
121	0x3ac44c72	0.0014976396
122	0xbd567ff1	-0.05236811
123	0x3c6254c9	0.01381416
124	0x3dbfe33a	0.09369512
125	0x3a8ef708	0.0010907361
126	0xbd33e285	-0.043917198
127	0xbd67862a	-0.056524433
128	0x3cbea08f	0.02326992
129	0xbb5eac07	-0.0033977048
130	0x3c134718	0.008989118
131	0x3d54d162	0.051957496
132	0x3c6bcd61	0.014392228
133	0xbd65d0d9	-0.056107376
134	0x3d777a80	0.06041956
135	0x3d809f6a	0.06280406
136	0x3d6e40b3	0.05816717
137	0x3d2ec86a	0.0426716
138	0x3d550d8b	0.05201487
139	0x3c16e2e6	0.00920937
140	0x3d143f15	0.036192972
141	0x3d990c29	0.074730225
142	0xba0af830	-0.0005301265
143	0x3cec6ca6	0.028860401
144	0x3d3b2cae	0.045696907
145	0xbac15d04	-0.0014752452
146	0xbb56c5e0	-0.0032771751
147	0x3d68172f	0.056662735
148	0x3d8a102d	0.067413665
149	0xbcd34e94	-0.025794305
150	0x3b815b74	0.0039476696
151	0x3dc3b4f3	0.09555998
152	0x3c270188	0.010193236
153	0x3c1e1cba	0.009650404
154	0xbc31da67	-0.010855294
155	0xbd922294	-0.071355015
156	0xbcc25d59	-0.023726152
157	0x3d1ed666	0.038778685
158	0x3ba51015	0.0050373175
159	0x3d8b0f40	0.06790018
160	0x3d795ca1	0.060879353
161	0x3d3efcc2	0.046627767
162	0xbb8407ea	-0.0040292637
163	0x3b4e0418	0.0031435546
164	0x3d248b6b	0.04017202
165	0x3ce5e2e8	0.028062299
166	0xbd89e801	-0.06733704
167	0x3cc2e906	0.023792755
168	0x3d5808f6	0.05274292
169	0xbd9801bf	-0.07422208
170	0x3d91fb6d	0.07128034
171	0xbbc03f9d	-0.0058669583
172	0xbcd4f741	-0.025996806
173	0x3d184449	0.037174497
174	0x3c4654a4	0.012105141
175	0x3b32b33f	0.0027267484
176	0x3d412048	0.047149926
177	0x3d165f58	0.03671202
178	0xbb7339b6	-0.0037113256
179	0xbd7156f0	-0.0589208
180	0xbcec3f36	-0.028838735
181	0xbcec62ca	-0.0288557
182	0xbda1f806	-0.07908635
183	0xbd9e8d98	-0.077418506
184	0xbc7ebb8e	-0.015547646
185	0x3bd4fe5f	0.00650005
186	0xbd8f0788	-0.06983858
187	0x3d9a6478	0.07538694
188	0xbd8c6580	-0.06855297
189	0x3b30ffcb	0.0027007933
190	0xbb12e142	-0.0022412096
191	0x3bdd1044	0.006746324
192	0x3d50aee4	0.05094804
193	0x3c9d2f6b	0.01918765
194	0x3c2e344c	0.010632586
195	0x3d31ae38	0.04337904
196	0xbd24a464	-0.040195838
197	0x3cdf5c60	0.027265728
198	0xbc6f82b5	-0.014618565
199	0x3c31ef45	0.010860269
200	0x3d80a39a	0.062812045
201	0xbb049841	-0.0020232352
202	0xbb33dfdf	-0.002744667
203	0x3ae7ba1f	0.001767937
204	0x3cfe7289	0.031060474
205	0x3cc6d248	0.024270192
206	0x3d48f2e8	0.04905978
207	0xbd7a59fa	-0.061120965
208	0x3c930c25	0.017950127
209	0x3d00a307	0.031405475
210	0x3c1c4ecb	0.00954027
211	0x3d144421	0.036197785
212	0x3d079e5a	0.03311
213	0x3d050a01	0.032480244
214	0x3cd31028	0.02576454
215	0xbcb4b88a	-0.022060651
216	0x3cac4489	0.021028774
217	0x3ab8b63f	0.00140924
218	0x3b90af11	0.004415401
219	0x3d6200ea	0.055176653
220	0x3d17919a	0.03700409
221	0x3cc4975e	0.023997959
222	0xbca38fcb	-0.019966027
223	0x3c02446f	0.007950886
224	0x3d167074	0.036728337
225	0x3da365ca	0.07978399
226	0xbc9cfec1	-0.019164445
227	0x3d373b47	0.044734266
228	0x3d3bbcec	0.045834467
229	0x3d0c2dee	0.03422349
230	0x3d459b00	0.048243523
231	0xbd95959a	-0.07303925
232	0xbd307a41	-0.04308534
233	0x3d2ee778	0.042701215
234	0x3c139706	0.009008175
235	0x3ca1895f	0.019718824
236	0x3d2597eb	0.040428083
237	0xbd3053f9	-0.043048833
238	0xbcdd9d76	-0.027052622
239	0x3d89d598	0.06730193
240	0xbc7c62ef	-0.015404447
241	0xbb2d3b90	-0.0026433207
242	0x3c95b5c9	0.018275158
243	0x3d9a2281	0.07526112
244	0xbb553165	-0.0032530662
245	0x3cb894b4	0.022531845
246	0xbd448bcb	-0.04798488
247	0x3bdce2d3	0.0067409067
248	0x3d909315	0.07059304
249	0xb9f0b6d4	-0.00045912585
250	0x3d412928	0.04715839
251	0xbbe10cca	-0.0068679797
252	0xbdb1bf18	-0.08679026
253	0x3ca9731f	0.020684777
254	0x3d36aeae	0.04460018
255	0x3d89b910	0.06724751

network_body.linear_encoder.seq_layers.0.bias f4 [128]
0	0xba360b87	-0.0006944467
1	0x3a253b16	0.0006303055
2	0x3c9c74cf	0.019098667
3	0xbb9fc28e	-0.0048754876
4	0x3cd21a8f	0.02564743
5	0x3b4a357c	0.0030854633
6	0x3c263198	0.01014366
7	0xbc801bf8	-0.015638337
8	0x3ad27bd0	0.0016058628
9	0x3c8cb566	0.017176341
10	0x3c82c382	0.015962366
11	0x3c8b29dc	0.016987734
12	0x3abb6df9	0.0014299742
13	0x3b033ee1	0.0020026492
14	0x3c6f19bd	0.014593539
15	0x3cd5c0cc	0.02609291
16	0x3b8555e0	0.004069075
17	0x3c9d5beb	0.019208869
18	0x3c6d27db	0.014474834
19	0x3c30cadd	0.010790554
20	0x3cc50329	0.024049358
21	0x3a92f2ce	0.0011211277
22	0x3c2fc85a	0.01072892
23	0x3b7db7ba	0.0038714246
24	0x3c3d96a0	0.011571556
25	0x3cb84b15	0.02249674
26	0x3c494c62	0.0122862775
27	0x3bcfdc00	0.0063433647
28	0x3c824a67	0.015904618
29	0x3c956090	0.018234521
30	0x3d02e47c	0.03195618
31	0x3be3264d	0.006932056
32	0x3c95a621	0.018267693
33	0x3c3f33ea	0.011670092
34	0x3c77da3f	0.0151277175
35	0x3c861ede	0.01637214
36	0x3c14f600	0.009091854
37	0x3caa2fe4	0.02077479
38	0x3c2518ec	0.010076743
39	0xba0023c4	-0.0004888142
40	0x3cbc4a38	0.022984609
41	0x3c40d33b	0.011769111
42	0x3bf7982a	0.007555981
43	0x3c4e285a	0.012582863
44	0x3caeb0aa	0.021324474
45	0xb98a45fc	-0.00026373554
46	0x3c9a58da	0.018841196
47	0x3cc1f1d1	0.023674877
48	0x3c642759	0.013925397
49	0x3cbbeb64	0.022939391
50	0x3ba9c32c	0.005180737
51	0x3ae23e34	0.001726097
52	0x3c653706	0.013990169
53	0xbcac0b46	-0.02100147
54	0x3be962ec	0.007122388
55	0x3c140ffa	0.009037012
56	0x3c187d04	0.00930715
57	0xbc04cf56	-0.008106073
58	0x3c91afb9	0.017783986
59	0xbc8244ea	-0.015902001
60	0x3cb9052b	0.022585472
61	0x3ca765ab	0.020434221
62	0x3c05af23	0.008159432
63	0x3c1509a8	0.0090965405
64	0x3bb6108e	0.0055561727
65	0x3caed5f6	0.021342259
66	0x3c2c7062	0.010524841
67	0x3c044d4e	0.0080750715
68	0x3c62e2f1	0.013848052
69	0x3bddb73c	0.006766228
70	0xbbf44507	-0.0074545178
71	0x3c3403e8	0.010987259
72	0x3cb66c57	0.022268457
73	0x3c101a30	0.008795306
74	0x3cbfe507	0.023424638
75	0x3c5fd757	0.013662181
76	0x3c12b634	0.008954573
77	0x3ca130ca	0.019676585
78	0x3cb22ae4	0.021748967
79	0x3c391d75	0.011298527
80	0x3c442ee1	0.011974067
81	0x3c3db280	0.011578202
82	0x3c92c9be	0.017918464
83	0x3a152c52	0.0005690503
84	0x3cbde128	0.023178652
85	0x3ca3b569	0.019983964
86	0xbaa23184	-0.0012374376
87	0x3bfdda2c	0.0077469554
88	0x3c54c9e3	0.012987587
89	0x3c069c53	0.008215982
90	0x3c6401e4	0.013916466
91	0x3bd58eb1	0.0065172543
92	0xba03f1a6	-0.0005033262
93	0x3c926fb8	0.017875537
94	0x3c2edf27	0.010673321
95	0x3ca6a2ee	0.020341363
96	0x3c33d242	0.010975422
97	0x3c9b4000	0.018951416
98	0x3c1fabeb	0.009745578
99	0x3c283a18	0.010267757
100	0x3bfe4a22	0.007760302
101	0x3c746568	0.014916755
102	0x3bc4e45d	0.0060086683
103	0x3ca9f519	0.020746754
104	0x3c815532	0.015787695
105	0x3c06dcc9	0.00823135
106	0x3c8ec3ed	0.017427409
107	0x3c6d5f54	0.01448806
108	0xbabd590b	-0.0014446093
109	0x3cb0f0d0	0.021599203
110	0x3ccb08a1	0.024784388
111	0xbab5e48a	-0.0013877314
112	0x3cba5ad2	0.022748385
113	0x3c6f816c	0.014618259
114	0x3c573636	0.0131354835
115	0xba7e292b	-0.00096954656
116	0x3cc7e142	0.024399403
117	0x3c800ab9	0.015630113
118	0xbb23287b	-0.0024895954
119	0xba52a9fa	-0.0008036193
120	0x3c7d6085	0.015464907
121	0x3c06e105	0.00823236
122	0xbbcffd9e	-0.006347372
123	0xbcc65ac1	-0.024213197
124	0x3ccae596	0.024767678
125	0x3c8030a4	0.015648194
126	0x3cc9e34b	0.024644515
127	0x3c5e3680	0.0135627985

network_body.linear_encoder.seq_layers.0.weight f4 [128, 703]
0	0x3c6aff79	0.014343136
1	0xbcbd0c2a	-0.02307709
2	0x3d0f4b7a	0.03498409
3	0x3c650830	0.013979003
4	0x3d4ee963	0.050515544
5	0xbd294b4f	-0.041331585
6	0xbb9e9c32	-0.0048403973
7	0x3baa4b1f	0.0051969434
8	0xbd262072	-0.040558286
9	0x3cfe3540	0.031031251
10	0x3d51d042	0.051224
11	0x3d00e8dc	0.031472072
12	0x3b1dbdc8	0.0024069417
13	0xbd43a4f5	-0.047764737
14	0xbb063dd6	-0.0020483634
15	0xbd9be103	-0.07611277
16	0x3d04eb3c	0.0324509
17	0x3cdd6363	0.02702493
18	0x3a8fa6a0	0.0010959692
19	0x3d64c3cc	0.05585079
20	0x3d4c6d56	0.04990896
21	0xbd235b72	-0.03988213
22	0x3a7ad06b	0.00095678
23	0xbcd49a81	-0.02595258
24	0x3dc4d4ad	0.09610877
25	0xbd899614	-0.06718078
26	0xbc605b11	-0.013693587
27	0xbd5ed4b5	-0.054402072
28	0xbd60dbec	-0.054897234
29	0xbdd87e88	-0.10571009
30	0xbb171cd6	-0.002305796
31	0x3dec7a71	0.11546791
32	0x3b9866df	0.004650935
33	0x3d4c71ea	0.049913324
34	0xbce9db61	-0.02854699
35	0xbb98d78a	-0.004664366
36	0xbcc238b0	-0.023708671
37	0x3d347904	0.044060722
38	0x3d8d5384	0.06900695
39	0x3d30d933	0.043175887
40	0x3b1a5fb5	0.002355558
41	0xbca4abe4	-0.020101495
42	0x3cf14538	0.029451951
43	0xbba8fceb	-0.0051571033
44	0x3b9e1215	0.004823933
45	0x3d45e26d	0.04831164
46	0xbd92c2d7	-0.07166069
47	0x3c1b2ddf	0.009471386
48	0x3d763ff4	0.060119584
49	0x3b7b12be	0.0038310732
50	0xbca4988a	-0.020092268
51	0xbd6d752a	-0.057973064
52	0x3d201f36	0.039092265
53	0x3d3c607f	0.045990463
54	0xbc59a498	-0.013283871
55	0xbbaf87f4	-0.005356783
56	0x3d177183	0.036973488
57	0xbc511f70	-0.012763843
58	0x3c3c1836	0.011480382
59	0x3d9e59bf	0.077319615
60	0x3c1530e2	0.009105893
61	0x3d5c6cce	0.0538147
62	0xbd0316c5	-0.032004137
63	0x3b79f0ce	0.0038137916
64	0x3d3efc80	0.04662752
65	0x3e102a3a	0.14078608
66	0x3d5becea	0.053692736
67	0x3bf1979f	0.007372811
68	0xbb3569e2	-0.002768152
69	0xbd140b8f	-0.036143836
70	0x3d169730	0.036765277
71	0x3cfefcc8	0.031126395
72	0x3d917e64	0.07104185
73	0xbd988c51	-0.07448638
74	0xbd8a462e	-0.06751667
75	0x3d693e51	0.056944195
76	0xbc02cf0b	-0.007983933
77	0xbd34d3c3	-0.044147264
78	0x3ca9561e	0.020670947
79	0xbc2b222d	-0.01044516
80	0xbd1861ec	-0.03720276
81	0xbc3df204	-0.011593346
82	0x3cbffc1b	0.023435643
83	0xbdb5d9bb	-0.088794194
84	0xb975bec6	-0.0002343609
85	0x3d360a73	0.04444356
86	0x3d367d96	0.04455336
87	0xbbe36505	-0.0069395327
88	0x3c135552	0.00899251
89	0x3d0cecb1	0.034405414
90	0xbd246328	-0.040133625
91	0x3ca2716a	0.01982947
92	0xbd9066aa	-0.070508316
93	0xbd19dd95	-0.037564833
94	0xbb3550db	-0.0027666602
95	0x3d4fa624	0.050695553
96	0x3d04700d	0.032333422
97	0xbbbd06fe	-0.005768656
98	0xbe0978af	-0.13424943
99	0xbd0ce37e	-0.03439664
100	0xbc8564db	-0.016283443
101	0x3d40e103	0.047089588
102	0x3d1acac4	0.03779103
103	0x3d0c723a	0.034288622
104	0xbd16a7c2	-0.03678108
105	0xbd8046e1	-0.06263519
106	0xbbf06952	-0.007336774
107	0x3ba408c1	0.0050059264
108	0xbd596a3c	-0.05307983
109	0xbbcbaf2f	-0.006215952
110	0x3ba7dc58	0.0051227026
111	0xbd2b2212	-0.04178054
112	0xbba2f66b	-0.004973223
113	0xbc9d0469	-0.019167142
114	0xbd9abc55	-0.07555453
115	0x3cd622f4	0.026139714
116	0x3c3cb5b6	0.011517933
117	0xbcab6437	-0.02092181
118	0xbd459d43	-0.04824568
119	0x3d4dcd90	0.050244868
120	0x3cf4eb52	0.029897366
121	0xbbf7556f	-0.0075480263
122	0xbd6975c6	-0.056997083
123	0xbd6cd561	-0.05782068
124	0x3c4348ad	0.011919183
125	0xbcaf6db7	-0.02141462
126	0xbd615319	-0.05501089
127	0x3d96bbfa	0.073600724
128	0x3c008385	0.007843857
129	0x3d1b7fbd	0.037963618
130	0xbab28687	-0.0013620415
131	0x3be4c55f	0.0069815363
132	0x3c808b76	0.0156915
133	0x3cef3b8b	0.029203197
134	0x3c5909a1	0.013246925
135	0x3cae225c	0.021256618
136	0xbd12cbab	-0.035838764
137	0xbbff434f	-0.007790006
138	0xbd11da74	-0.035608724
139	0xbc92730b	-0.017877122
140	0x3c7319b8	0.014837675
141	0xbce884db	-0.028383663
142	0x3ca007b2	0.01953492
143	0x3cd5ea53	0.026112711
144	0x3cdfc147	0.027313842
145	0x3dc86f9a	0.09786911
146	0xbdbde9dc	-0.09273121
147	0x3ddfb43e	0.1092305
148	0x3d6e4ae9	0.05817691
149	0x3c817bfd	0.015806193
150	0x3bf64098	0.0075150244
151	0xbd6b577a	-0.05745647
152	0xbbdfa43d	-0.0068249987
153	0x3d6bb2dc	0.05754362
154	0x3d993c12	0.07482161
155	0x3c321115	0.0108683305
156	0xbccbd613	-0.024882352
157	0xbc613b4b	-0.013747047
158	0xbd1997db	-0.037498336
159	0xbd2025d3	-0.039098572
160	0xbcb2f179	-0.021843659
161	0x3e0684d6	0.1313661
162	0x398663eb	0.00025632916
163	0x3d1b5762	0.03792513
164	0x3e1b3ce1	0.15159942
165	0xbc2173c3	-0.00985426
166	0xbcf7a1a6	-0.030228447
167	0x3c85979b	0.016307643
168	0xbd868610	-0.06568539
169	0x3c91532c	0.017739855
170	0x3e11263d	0.14174743
171	0x3d746520	0.059666753
172	0x39f0e9d2	0.00045950577
173	0xbbce51a7	-0.006296355
174	0xbd4939ef	-0.049127515
175	0xbd78be2e	-0.060728244
176	0x3abbfe9c	0.0014342847
177	0x3d247238	0.04014799
178	0xbabd8d5b	-0.0014461683
179	0x3ad22c0a	0.0016034853
180	0x3cff9f03	0.031203752
181	0xbc44ae15	-0.012004395
182	0x3d8fba4e	0.07017957
183	0x3d554e8b	0.052076858
184	0x3de982e1	0.11401916
185	0xbcf815e3	-0.030283874
186	0xbc7cb0a6	-0.015422976
187	0x3d85aa43	0.065266155
188	0xbc125dee	-0.008933527
189	0x39753a73	0.00023386795
190	0x3d2a4de0	0.041578174
191	0x3d82e63e	0.063915715
192	0xbd25b52d	-0.040455986
193	0xbd33e11f	-0.043915864
194	0xbc8b4909	-0.0170026
195	0xbdcd5881	-0.100266464
196	0x3d993a79	0.07481856
197	0xbba29c3f	-0.0049624736
198	0x3d22a241	0.03970552
199	0xbaf8ab12	-0.0018971881
200	0x3c98d45a	0.018655945
201	0xbd233322	-0.039843686
202	0xbd8a071e	-0.06739639
203	0xbc14ed3a	-0.009089762
204	0xbd32d895	-0.04366358
205	0x3d845f40	0.0646348
206	0xbccf6a4e	-0.025319245
207	0x3d23cd85	0.03999092
208	0xbd803ada	-0.06261225
209	0xbd139325	-0.036029
210	0x3d8427b0	0.06452882
211	0x3d6c8a3e	0.057749026
212	0x3c068305	0.008209948
213	0xbc4db536	-0.012555411
214	0xbc86262b	-0.016375622
215	0xbda64bed	-0.081199504
216	0xbcc44b70	-0.023961753
217	0xbd93b085	-0.07211403
218	0x3dac14d6	0.08402412
219	0xbd7bf308	-0.06151107
220	0xbb7827d5	-0.0037865539
221	0x3c858fb3	0.016303873
222	0xbdcd0dd9	-0.10012407
223	0xbca4a103	-0.020096308
224	0x3cb8b271	0.022546025
225	0x3d98c733	0.07459869
226	0xbd0d48d5	-0.034493286
227	0x3b81c1d8	0.0039598756
228	0x3a886728	0.001040672
229	0xbd613af9	-0.05498788
230	0x3c603beb	0.013686161
231	0xbd019605	-0.03163721
232	0x3e256745	0.16152675
233	0xbd76a657	-0.060217228
234	0x3d611427	0.05495086
235	0x3cf1b535	0.029505352
236	0x3b83ddfc	0.0040242653
237	0xbd2baa4c	-0.041910455
238	0x3c6bd2f2	0.014393555
239	0x3dce98f8	0.1008777
240	0xbd30320d	-0.043016482
241	0x3cdeeec4	0.027213462
242	0x3c3a116b	0.011356692
243	0xbd9229c4	-0.071368724
244	0x3c1d08c3	0.0095846085
245	0x3d7694b4	0.060200408
246	0x3d2671bc	0.04063581
247	0xbd4f442c	-0.050602123
248	0xbba793f5	-0.0051140734
249	0xbad03f3c	-0.0015887986
250	0xbd8996f9	-0.06718249
251	0xbb8ed022	-0.0043583075
252	0xbd9a0456	-0.07520358
253	0x3d62f10e	0.05540567
254	0x3a22531f	0.00061921956
255	0xbb187398	-0.0023262259

network_body.linear_encoder.seq_layers.2.bias f4 [128]
0	0x3c3e1d0f	0.011603608
1	0x3d2a0959	0.04151282
2	0x3cc42ca7	0.023947073
3	0xbb374592	-0.002796505
4	0x3bddfc61	0.0067744707
5	0x3c9b481d	0.018955285
6	0x3c42c4a1	0.0118877
7	0x3b11e7f8	0.0022263508
8	0x3bc9c779	0.006157812
9	0xbc41fbea	-0.011839846
10	0x3bfd49bd	0.0077297376
11	0x3d641240	0.055681467
12	0x3c49b8f0	0.012312159
13	0x3b327bd2	0.0027234447
14	0x3a1327ba	0.00056135247
15	0x3c23dec9	0.010001847
16	0xbb511bf0	-0.0031907521
17	0x3b36e83a	0.0027909414
18	0x3d191cff	0.03738117
19	0xbac52f65	-0.0015044032
20	0x3a5a46bf	0.0008326582
21	0x3c56774d	0.013089967
22	0xbb1f6b1f	-0.0024325324
23	0x3c63a40a	0.01389409
24	0xbc6d6d17	-0.014491341
25	0x3cd77130	0.02629909
26	0xbc7e3e32	-0.015517758
27	0x3baac05f	0.0052109207
28	0x3b0b70f3	0.002127704
29	0x3ca0d0bb	0.01963078
30	0xbbce6105	-0.0062981867
31	0x3bf541f2	0.007484668
32	0x3c0f2c98	0.008738659
33	0x3ca095f9	0.019602763
34	0x3c926485	0.017870197
35	0x3cc5ea12	0.024159465
36	0x3c57af0b	0.013164292
37	0x3b5a7db6	0.003333909
38	0x3c2e3e5d	0.010634986
39	0x3c4e45a8	0.0125898495
40	0x3ca3c9d5	0.019993702
41	0xbbfddbf9	-0.00774717
42	0x3b3ebb7a	0.0029103444
43	0x3a0f770a	0.00054727553
44	0x3c741947	0.014898605
45	0x3c83979b	0.016063502
46	0x3b9f3fad	0.0048598857
47	0x3c950c55	0.018194357
48	0x3c4c6b97	0.012476823
49	0x3cfe35d8	0.031031534
50	0x3b54615b	0.0032406661
51	0x3bf49bcc	0.0074648615
52	0x3cfb2480	0.030657053
53	0x3c5e01d1	0.013550238
54	0x3ce0a93c	0.027424447
55	0x3c8338fc	0.016018383
56	0xbcb81eef	-0.022475688
57	0xbd0d3e66	-0.034483336
58	0x3cd2569e	0.025676068
59	0x3cd0e57d	0.025500054
60	0x3d066b65	0.032817263
61	0x3c15a852	0.009134369
62	0xbd492ae0	-0.049113154
63	0xbceae7d4	-0.028674997
64	0x3b9cdf26	0.0047873436
65	0xbc0fb56c	-0.008771282
66	0xbae4a759	-0.0017444893
67	0x3d340f89	0.043960128
68	0xbd095bbc	-0.03353475
69	0x3b86571c	0.0040997397
70	0xbcb69169	-0.022286134
71	0x3bebcdcd	0.007196164
72	0x3c801e98	0.015639588
73	0xbc9ac02d	-0.018890465
74	0xbd00f252	-0.031481095
75	0x3ab87800	0.0014073849
76	0xbc084991	-0.008318321
77	0x3b847e41	0.004043371
78	0x3acb35a2	0.0015503655
79	0x3d0e506e	0.034744672
80	0xbca42c49	-0.020040648
81	0xba6e7664	-0.0009096621
82	0x3ba9724d	0.0051710964
83	0x3cac9615	0.021067658
84	0x3bd2378f	0.0064153145
85	0xbca3592c	-0.019939981
86	0x3c828abe	0.015935298
87	0x3c33acfc	0.010966536
88	0x3c812714	0.015765704
89	0xbc5b31b0	-0.013378546
90	0x3d07cd99	0.033155058
91	0x3c94c586	0.018160593
92	0x3ccf64bc	0.025316589
93	0x3bb454fe	0.005503296
94	0xbbfb8d3a	-0.0076767476
95	0xbc939b6e	-0.01801845
96	0x3cf9c753	0.030490553
97	0x3ca82dc0	0.020529628
98	0x3c3ea65e	0.011636345
99	0x3c1fe07d	0.009758112
100	0x3c6c316d	0.014416081
101	0x3cd81906	0.02637912
102	0xbcaf52b1	-0.021401735
103	0x3cc9601f	0.024581967
104	0x3d2c731a	0.042101957
105	0x3cc2551c	0.023722224
106	0x3c7a2e11	0.015269772
107	0x3ca7520b	0.020424863
108	0x3b63cbe2	0.0034758975
109	0xbba73aaf	-0.005103431
110	0x3ca43e78	0.020049319
111	0x3caf411f	0.021393357
112	0x3bb57508	0.005537633
113	0x398e9d5f	0.000272016
114	0x3c587e83	0.0132137565
115	0x3c09b24d	0.008404327
116	0xbbe94a85	-0.007119479
117	0x3c0110cd	0.007877541
118	0x3cda1ca1	0.02662498
119	0xbb8a8093	-0.004226753
120	0x3c1c19fb	0.009527679
121	0xbce20712	-0.027591262
122	0x3c0c55d7	0.008565388
123	0xbc0cc0f7	-0.008590928
124	0x3c9c3078	0.01906608
125	0x3c89dd98	0.016829297
126	0x3c8e7891	0.017391475
127	0x3cab70e9	0.020927863

network_body.linear_encoder.seq_layers.2.weight f4 [128, 128]
0	0x3c8741a1	0.016510786
1	0xbcad686e	-0.02116796
2	0xbe4a0583	-0.19728665
3	0xbe0bfcc2	-0.13670638
4	0xbdbbd504	-0.09171489
5	0x3e2b5670	0.16732192
6	0xbaa5227e	-0.001259878
7	0xbd6c135e	-0.057635657
8	0xbcb68425	-0.022279808
9	0x3ce1cf65	0.027564714
10	0xbd91ca51	-0.07118667
11	0x3dfa1f08	0.1221295
12	0x3c10e759	0.00884422
13	0x3dd6204c	0.10455379
14	0x3e71b20a	0.23603073
15	0xbc1b8f6c	-0.009494644
16	0x3c093fac	0.008376997
17	0x3c7dcba0	0.0154904425
18	0x3d93182a	0.07182343
19	0xbd2bcc21	-0.04194272
20	0x3b47d484	0.003049166
21	0xbdb7b252	-0.08969559
22	0x3d120a53	0.035654377
23	0xbdc5bd0d	-0.09655199
24	0xbdceb2a2	-0.10092665
25	0x3c2d90f3	0.010593641
26	0xbd467bdc	-0.048457965
27	0xbddc2856	-0.10749881
28	0xbe767635	-0.2406853
29	0xbd5ac684	-0.053411976
30	0xbdb960b1	-0.090516455
31	0x3d233bea	0.03985206
32	0xbe38297c	-0.17984575
33	0x3d6f9e31	0.058500472
34	0x3e165331	0.14680173
35	0xbd9f7053	-0.07785096
36	0xbd207a8a	-0.039179362
37	0x3e2263b5	0.15858348
38	0x3da42346	0.080145404
39	0x3da73a05	0.08165363
40	0xbe28dea4	-0.1649118
41	0x3db7740f	0.08957683
42	0xbde1b8b7	-0.1102156
43	0x3e337166	0.17523727
44	0xbd6b6657	-0.057470646
45	0x3d98c3a9	0.07459194
46	0xbe2270dc	-0.15863365
47	0xbd014de8	-0.031568438
48	0xbe16556f	-0.14681028
49	0x3cbf9c30	0.023389906
50	0x3e145602	0.14485934
51	0xbd7dfab9	-0.062006686
52	0x3d1e9096	0.038712107
53	0xbd07b415	-0.033130724
54	0xbd97dde1	-0.07415367
55	0x3e38b172	0.1803644
56	0x3d93fa38	0.0722546
57	0x3ddb0ab1	0.106953986
58	0x3e2885ca	0.16457286
59	0x3cb40dd2	0.021979246
60	0x3ce0af81	0.027427437
61	0x3cd60aa0	0.026128113
62	0xbda9d56f	-0.08292662
63	0x3c3912b7	0.011295966
64	0xbd297805	-0.041374225
65	0x3e041db6	0.12901959
66	0x3d16cc9c	0.036816224
67	0x3dd46a8f	0.10371887
68	0x3c944e8b	0.018103858
69	0xbd6725e5	-0.056432623
70	0x3d172a24	0.036905423
71	0x3d766924	0.060158864
72	0xbe31011d	-0.17285581
73	0x3b459cfd	0.0030153387
74	0xbc29268c	-0.010324132
75	0x3d893082	0.06698705
76	0xbd57b844	-0.052665964
77	0x3d39bb97	0.045344915
78	0x3c0c2afa	0.008555168
79	0x3d979e26	0.07403211
80	0x3d9d5da6	0.07683878
81	0x3d155f33	0.036467742
82	0xbd3b0ee5	-0.0456685
83	0xbd407b19	-0.046992395
84	0x3d8abd99	0.06774444
85	0xbd9cde24	-0.076595575
86	0x3db7dcf7	0.089776926
87	0x3ab95a82	0.0014141353
88	0x3df4bf9d	0.1195061
89	0xbd6ea436	-0.058262073
90	0xbe025a76	-0.1272982
91	0xbd994fc1	-0.07485915
92	0x3cdad2cb	0.026711842
93	0x3df97d59	0.12182111
94	0x3e14be41	0.14525701
95	0xbc8cb386	-0.017175447
96	0x3d431bc1	0.04763389
97	0xbddcf816	-0.10789506
98	0xbcc3c526	-0.023897719
99	0xbdf29bad	-0.11846099
100	0xbca09ba0	-0.019605458
101	0x3c989995	0.018627921
102	0xbce147f6	-0.027500134
103	0xbd5818b3	-0.05275793
104	0xbc564685	-0.013078337
105	0xbe3c2b9c	-0.1837601
106	0x3d5c9a7d	0.05385827
107	0x3e322455	0.17396672
108	0xbbf32528	-0.007420201
109	0xbe2d4851	-0.16922118
110	0xbd689c5e	-0.05678975
111	0x3d25047c	0.04028748
112	0x3d7b2336	0.061312877
113	0xbe1bc3be	-0.15211388
114	0x3d88af79	0.06674094
115	0x3d9fa932	0.07795943
116	0x3d3906b5	0.045172412
117	0xbe4fe507	-0.20302211
118	0xbd0059ab	-0.031335514
119	0x3e354a50	0.17704129
120	0x3c78abbc	0.015177663
121	0x3dab749a	0.08371849
122	0xbde3a49a	-0.1111538
123	0xbe08a347	-0.13343535
124	0x3d27602d	0.040863205
125	0xbd2e0521	-0.04248536
126	0xbd327e7c	-0.043577656
127	0x3de37b75	0.11107532
128	0x3c176b33	0.009241867
129	0xbcc41d0a	-0.023939628
130	0xbb679962	-0.0035339226
131	0x3e0d2104	0.13782126
132	0x3e00e2db	0.12586538
133	0xbd4bfb5b	-0.049800258
134	0xbd1c915a	-0.038224556
135	0x3b230c16	0.002487903
136	0xbd9805c7	-0.07422977
137	0x3ddbe869	0.10737688
138	0x3e609bdf	0.2193446
139	0x3cd96500	0.026537418
140	0xbd81edea	-0.06344207
141	0x3dd9e763	0.10639837
142	0x3cf978f9	0.030453192
143	0xba3d5e40	-0.0007223822
144	0x3ce303dc	0.027711801
145	0xbd47c1f9	-0.04876897
146	0x3c95777b	0.01824545
147	0x3c11aa03	0.008890632
148	0xbe44fe11	-0.19237544
149	0xbd04754d	-0.03233843
150	0xbe0c43b7	-0.13697706
151	0x3df53d70	0.11974609
152	0xbe1d8dea	-0.15386167
153	0x3d5284a5	0.05139603
154	0x3d92ae3d	0.071621396
155	0xbcd1fc3b	-0.025632968
156	0x3dfbc008	0.122924864
157	0x3dc0e740	0.094191074
158	0xbdb68bba	-0.089133695
159	0x3c4a5af9	0.012350791
160	0xbe0aa619	-0.13539924
161	0x3d872f9b	0.06600877
162	0x3d76b27c	0.06022881
163	0x3df81dd3	0.121150635
164	0xbc5f65ca	-0.013635108
165	0xbdc773b2	-0.09738864
166	0xbdeda650	-0.11603987
167	0xbe2b22af	-0.1671245
168	0xbd2332e2	-0.039843448
169	0x3ce80882	0.02832437
170	0xbcdef380	-0.02721572
171	0xbd77db35	-0.060511786
172	0xbb7fec0d	-0.003905061
173	0xbdb64387	-0.088995986
174	0xbde02af6	-0.10945694
175	0x3e2b9d78	0.16759288
176	0xbc08f451	-0.008359031
177	0x3d415463	0.047199618
178	0x3b76f886	0.0037684753
179	0xbd34db22	-0.044154294
180	0x3e02e67b	0.12783234
181	0xbd909e26	-0.070614144
182	0xbdb2919e	-0.087191805
183	0xbd47bc09	-0.04876331
184	0xbcd9b0cb	-0.02657356
185	0x3e99ff0e	0.30077404
186	0x3c146dc3	0.009059372
187	0xbdd4ca4c	-0.103901476
188	0x3e036e47	0.12835036
189	0xbc7a35b3	-0.015271592
190	0xbd585e12	-0.052824087
191	0x3de6473c	0.11244056
192	0xbdac788b	-0.08421429
193	0x3cb867a3	0.022510355
194	0x3e090b73	0.13383274
195	0xbd954910	-0.07289326
196	0xbd6bccd0	-0.05756837
197	0xbe13d604	-0.14437109
198	0xbbd2502f	-0.00641825
199	0x3de35cd4	0.1110169
200	0xbd813b87	-0.06310182
201	0x3da65e1e	0.0812342
202	0xbddea24f	-0.10870802
203	0x3c82068a	0.015872259
204	0x3db6e200	0.08929825
205	0x3be330bd	0.0069333003
206	0xbb970d82	-0.0046097646
207	0x3da91ae9	0.08257086
208	0xbd8200ca	-0.06347807
209	0x3e5f21e8	0.21790278
210	0x3dd49003	0.103790306
211	0xbdade7a4	-0.084914476
212	0x3d8d7d8e	0.06908713
213	0x3e39bd0d	0.18138523
214	0xbc9a3584	-0.018824346
215	0xbdbd5057	-0.09243839
216	0xbe021e43	-0.12706856
217	0xbcd3cc19	-0.025854157
218	0xbd665712	-0.05623538
219	0xbdac4a98	-0.08412665
220	0xbde709e9	-0.11281187
221	0x3c959b98	0.01826267
222	0x3984a565	0.0002530023
223	0xbd3262c2	-0.043551214
224	0xbd02d93b	-0.03194545
225	0x3cb765f2	0.022387479
226	0xbcb1428e	-0.021638181
227	0xbc89f2e2	-0.016839448
228	0x3c99bcbe	0.018766757
229	0xbd0b0f18	-0.03394994
230	0x3e0ea2f9	0.13929357
231	0x3dbc7512	0.09202017
232	0x3d4dc7a2	0.050239213
233	0x3da1dfd8	0.07904023
234	0x3cffb689	0.03121497
235	0x3d94b8e2	0.07261826
236	0x3e1f8457	0.15577827
237	0x3dad68d0	0.08467257
238	0xbd85b3c9	-0.06528432
239	0x3d63c67b	0.055609208
240	0x3da947e7	0.082656674
241	0x3e426188	0.18982518
242	0xbd7995e1	-0.06093395
243	0xbd1467c0	-0.036231756
244	0x3d82bdf2	0.063838854
245	0x3ccc3d36	0.024931531
246	0x3d24e6d7	0.04025921
247	0xbde2d10d	-0.110750295
248	0xbdc6e91f	-0.09712433
249	0x3d882436	0.06647532
250	0x3c54c9e3	0.012987587
251	0xbe311ed4	-0.17296916
252	0xbc97c9df	-0.018528877
253	0x3d8e1c5f	0.06939005
254	0x3d9e37c0	0.07725477
255	0x3d980ff4	0.07424918
