Config/results/Env_PPO_21/EnvironmentAgentBehavior/EnvironmentAgentBehavior-5999997.onnx (onnx, 496923 bytes, 10 tensors)

action_model._discrete_distribution.branches.0.bias f4 [100]
0	0xbc1305a8	-0.0089735165
1	0xbcfca4c0	-0.030840278
2	0x3b96a681	0.0045974855
3	0xbd008fd5	-0.03138717
4	0x3b71dc95	0.0036905159
5	0xbcd6652e	-0.026171293
6	0xbc43db5d	-0.011954156
7	0xbc85601d	-0.016281182
8	0xbcbb9260	-0.022896945
9	0xbd0a1c99	-0.03371868
10	0xbc09abaa	-0.008402744
11	0xbc9015b4	-0.017588474
12	0xbcf562eb	-0.029954394
13	0x3c20c4e9	0.009812572
14	0xbc9633d1	-0.018335255
15	0x3c40d6f7	0.011770002
16	0x3cb4e9a5	0.022084067
17	0xbb2c6ed3	-0.0026311174
18	0xbcf9d1be	-0.03049552
19	0xbc9c4638	-0.019076452
20	0xbc122e2b	-0.00892214
21	0x3be617db	0.0070218868
22	0xbd37dadf	-0.044886466
23	0x3d1660b9	0.036713336
24	0xbc0c454d	-0.0085614445
25	0xbcfc83c2	-0.030824546
26	0x3d0d0005	0.034423847
27	0xba0ac1c2	-0.00052931544
28	0xbcd1ac3e	-0.025594827
29	0xbbff7d42	-0.0077969143
30	0xbd0182b4	-0.03161879
31	0xbc8f64f3	-0.017504191
32	0x3ba34e6f	0.0049837152
33	0xbd13c37a	-0.036075093
34	0x3cbb3e8a	0.02285697
35	0x3c3dc4c0	0.011582553
36	0xbc8c9e4d	-0.017165327
37	0xbc742df7	-0.014903537
38	0x3cb9912c	0.022652231
39	0xbc5544b1	-0.013016866
40	0xbd3261b2	-0.0435502
41	0xb8450d85	-4.698105e-05
42	0xbcb9a85f	-0.022663293
43	0xbc2d2b3e	-0.010569392
44	0x3b4e86aa	0.0031513372
45	0x3d13f721	0.036124352
46	0x3c40126e	0.011723144
47	0xbc24c16f	-0.010055884
48	0xbbd3a9ea	-0.0064594643
49	0x3b8cd075	0.004297311
50	0xbc868665	-0.016421506
51	0xbcbfc1d9	-0.023407863
52	0xbb5df5e9	-0.0033868498
53	0x3bf16514	0.007366786
54	0x3bf6f06b	0.0075359843
55	0xbd189788	-0.037253886
56	0x3c9eff87	0.019408954
57	0x3d1e21ec	0.03860657
58	0xbcbf9980	-0.023388624
59	0xbcc2d636	-0.023783784
60	0xbbb35a03	-0.0054733767
61	0x3b50549a	0.0031788708
62	0x3d34cd05	0.044140834
63	0x3b5ec9c7	0.003399478
64	0x3c0a2652	0.008431988
65	0x3cfc7245	0.030816207
66	0x3c628389	0.013825306
67	0xbc3c98ee	-0.011511071
68	0xbbb12a58	-0.005406659
69	0xbca6f4a4	-0.020380326
70	0xbcb876ba	-0.02251755
71	0xbb75303f	-0.003741279
72	0x3cc3624d	0.023850584
73	0x3d0020dc	0.031281337
74	0x3d31f9b9	0.043451045
75	0xbd0791a5	-0.03309788
76	0x3c1dae84	0.009624127
77	0xbcd59ca1	-0.026075663
78	0xbd000805	-0.031257648
79	0xbd11dedd	-0.03561293
80	0xbcfa4cfd	-0.030554289
81	0xbc9fb2d2	-0.019494448
82	0xbc1f174e	-0.009710146
83	0xbc63e6f3	-0.013910043
84	0xbcc88bcb	-0.024480721
85	0x3cc31993	0.023815906
86	0x3c009880	0.007848859
87	0xbc0dabe6	-0.008646941
88	0xbc7eb806	-0.015546804
89	0xbb8906d6	-0.004181723
90	0xbc96f476	-0.018427115
91	0xbc357556	-0.011075338
92	0xbbdb4d24	-0.0066925455
93	0xbca31adb	-0.019910267
94	0xbca7f565	-0.020502755
95	0xbb4eb3e0	-0.003154032
96	0xbcbb56d7	-0.022868557
97	0xbc1f5b66	-0.009726381
98	0xbc211657	-0.009831986
99	0xbc02efa0	-0.007991701

action_model._discrete_distribution.branches.0.weight f4 [100, 128]
0	0x3c839ed0	0.016066939
1	0x3cc4ffc2	0.024047736
2	0x3cb35571	0.021891328
3	0x3d03905f	0.032120105
4	0x3d0d6a29	0.03452507
5	0xbd15b1c5	-0.036546487
6	0x3c4e5ea8	0.01259581
7	0xbd500805	-0.050788898
8	0xbc2b300f	-0.01044847
9	0xbc5a1cd3	-0.013312536
10	0x3cd00c95	0.025396625
11	0x3c732b4d	0.014841867
12	0x3d60f9a8	0.05492559
13	0x3c793e6a	0.015212635
14	0xbc9a0d76	-0.018805247
15	0x3d31c2f9	0.04339883
16	0xbbf2339a	-0.0073914053
17	0x3d5438cd	0.051811982
18	0x3cf03254	0.029320873
19	0xb7070c05	-8.049426e-06
20	0xbd0d97bc	-0.034568533
21	0xbce32cdf	-0.027731357
22	0x3c8564f2	0.016283486
23	0xbca2386d	-0.019802297
24	0x3bf113a4	0.0073570777
25	0xbe20cd24	-0.15703255
26	0x3ce11ccd	0.027479554
27	0xbdd793b4	-0.10526219
28	0xbc2ce9d3	-0.010553795
29	0xbd2f4779	-0.04279277
30	0x3cee15a8	0.02906306
31	0x3ce8bf23	0.028411454
32	0x3beafc2e	0.0071711754
33	0xbc53e51e	-0.012933044
34	0xbcb1ff75	-0.021728257
35	0x3ce67bb9	0.028135167
36	0x3c2fc1a9	0.0107273245
37	0xbb31f0ff	-0.0027151702
38	0xbc35f128	-0.011104859
39	0x3b563c34	0.0032689692
40	0x3c20d7ef	0.009817108
41	0x3c334545	0.010941808
42	0xbd9e545d	-0.07730935
43	0xbd142c52	-0.03617508
44	0xbe081350	-0.13288617
45	0xbd8077ad	-0.06272826
46	0xbcc1074d	-0.023563052
47	0xbd20c973	-0.039254617
48	0x3cb8a23b	0.022538295
49	0xbc07d207	-0.0082898205
50	0xbbd96db1	-0.0066353907
51	0x3c1f8801	0.009737016
52	0x3c8d5f56	0.017257374
53	0xbd01545e	-0.0315746
54	0xbcc7e641	-0.024401786
55	0x3c18dae0	0.009329528
56	0xbbe87430	-0.0070939288
57	0xbb253105	-0.002520622
58	0x3d138d0e	0.036023192
59	0xbb2af609	-0.002608659
60	0x3c7f74d1	0.015591816
61	0x3caa6633	0.020800686
62	0x3d2b0644	0.041754022
63	0xbb6b3c54	-0.0035894113
64	0x3a51d8fa	0.00080050493
65	0xbcffc1c7	-0.03122033
66	0xbdd75f70	-0.1051625
67	0xbc8072d5	-0.015679756
68	0x3c6320bd	0.013862786
69	0x3cc74405	0.024324426
70	0xbd61f255	-0.055162746
71	0xbd8be378	-0.068304956
72	0xbcb50b1b	-0.022100022
73	0xbca4b2f8	-0.02010487
74	0x3c37f0c9	0.011226841
75	0x3c69e843	0.014276567
76	0xbd74a904	-0.0597315
77	0x3b96b8e2	0.0045996765
78	0x3c064c89	0.008196958
79	0x3d2589ed	0.04041474
80	0xbcb8ec33	-0.022573566
81	0x3b8b721c	0.0042555463
82	0x3804fad2	3.1704847e-05
83	0x3d14452e	0.036198787
84	0xbbc43710	-0.0059880093
85	0x3d06ab54	0.032878235
86	0x3c463b26	0.012099063
87	0xbcdacde4	-0.026709504
88	0x3d53e4d4	0.0517319
89	0xbd071738	-0.032981128
90	0x3cdf3d05	0.027250776
91	0xbc87fd32	-0.016600225
92	0x3cdb3023	0.026756352
93	0x3d6db3ad	0.05803268
94	0xbd71422b	-0.058900993
95	0xbbd0d33b	-0.006372837
96	0xbe0d4a52	-0.13797882
97	0x3c0af630	0.008481547
98	0x3b88f56b	0.0041796467
99	0xbc7bca9e	-0.015368132
100	0x3c2ac358	0.01042255
101	0xbc894e8d	-0.016761089
102	0x3d84a12d	0.06476054
103	0xbdb65f65	-0.08904914
104	0x3cf0cd18	0.029394671
105	0xba66bcb2	-0.00088019215
106	0x3c887862	0.016658965
107	0xbd14c673	-0.03632207
108	0xbd15821f	-0.036501046
109	0xbcac1765	-0.02100725
110	0xbc7a63ec	-0.015282612
111	0x3cb3702f	0.02190408
112	0xbd399ead	-0.04531734
113	0xbcaeda96	-0.021344464
114	0x3bf9eb0e	0.0076268977
115	0x3d0fabff	0.035076138
116	0xbb8fb666	-0.0043857573
117	0x3c3dee19	0.011592411
118	0x3d28e5c4	0.041234747
119	0xbca61ad0	-0.020276457
120	0x3cf9da96	0.030499738
121	0x3d41a325	0.047274727
122	0xbd41380e	-0.0471726
123	0xbb99e9d9	-0.0046970663
124	0x3cc1458b	0.023592731
125	0x3d860b9e	0.065451846
126	0xbcbe95e2	-0.02326483
127	0xbda9bf51	-0.08288444
128	0xbd10aee6	-0.035323046
129	0xbcd6a8ca	-0.026203532
130	0xbbde8334	-0.006790543
131	0xbc73a34f	-0.014870479
132	0xbd26c749	-0.040717397
133	0xbc74b713	-0.014936226
134	0x3cff247e	0.03114533
135	0x3c15d4c5	0.0091449665
136	0xbccfdd7e	-0.02537417
137	0x39f46cd0	0.00046620378
138	0x3a45c14c	0.0007543757
139	0x3c03ab91	0.00803651
140	0xbce832a9	-0.02834447
141	0x3c55a831	0.013040588
142	0x3c8e0ef5	0.017341116
143	0xbcdb612c	-0.026779734
144	0x3c4f0edc	0.01263782
145	0x3aedd023	0.0018143695
146	0xbc12f59f	-0.008969693
147	0x3cc50c63	0.024053758
148	0xbc888156	-0.016663235
149	0x3c3a8c56	0.011385998
150	0xbc947196	-0.018120568
151	0xbcd74119	-0.026276158
152	0x3b808a37	0.0039227265
153	0xbcbf9ba0	-0.023389637
154	0xbc7ecf0e	-0.015552295
155	0xbbf9fc9b	-0.00762899
156	0xbc778c14	-0.015109081
157	0xbcca8938	-0.024723634
158	0xbcb295cf	-0.02179995
159	0xba3ff0cc	-0.00073219533
160	0xbd0b879e	-0.03406488
161	0xbb515327	-0.0031940432
162	0xbcb757ec	-0.022380792
163	0xbb422556	-0.0029624305
164	0xbd06f3d3	-0.032947373
165	0xbc098dee	-0.008395655
166	0x3cee31cf	0.029076485
167	0x3c22e047	0.009941167
168	0x3b419722	0.0029539545
169	0xbca4c119	-0.020111607
170	0xbc7ef82c	-0.0155620985
171	0xbb8a1b31	-0.0042146672
172	0xbd38f45f	-0.045154925
173	0x3cd24846	0.025669228
174	0xbc59cf4b	-0.013294051
175	0xbb9f8dfb	-0.0048692203
176	0xbd24644d	-0.040134717
177	0x3a917097	0.0011096176
178	0x3c49826d	0.012299162
179	0x3bddcb3d	0.0067686127
180	0x3c32fbcd	0.010924292
181	0xbcc76d4d	-0.02434411
182	0x3a399d3f	0.00070806214
183	0xbc912bbd	-0.017721051
184	0xbd08a949	-0.033364568
185	0xbc8b02e7	-0.016969157
186	0xbd2cb4d0	-0.042164624
187	0xbc30bca1	-0.01078716
188	0x3c20e10a	0.0098192785
189	0xbcc2a064	-0.02375812
190	0xbd8aa6cc	-0.06770095
191	0x3c783b5c	0.015150871
192	0xbc3ef948	-0.011656113
193	0x3d4a009e	0.049316995
194	0xbd06f84b	-0.032951634
195	0xbc535466	-0.01289854
196	0xbc906f2d	-0.017631138
197	0x3c155e7c	0.009116765
198	0x3c061f9b	0.008186246
199	0xbc06932c	-0.008213799
200	0xbce565a9	-0.028002577
201	0x3c262a61	0.01014194
202	0x3ce33b45	0.027738223
203	0x3ccd8aee	0.02509066
204	0xbc2f2047	-0.010688848
205	0xbcccb51a	-0.0249887
206	0xbd3468bb	-0.04404519
207	0x3b057f78	0.0020370167
208	0xbba119cc	-0.0049164053
209	0xbc6225ee	-0.013802988
210	0xbb87176e	-0.004122666
211	0xbd03a5bd	-0.032140482
212	0xbb8340c3	-0.004005523
213	0xbc23e2c0	-0.010002792
214	0xbc895419	-0.016763734
215	0xbca4a024	-0.020095892
216	0xbc36f292	-0.011166232
217	0xbccae27a	-0.024766196
218	0xbc9d2451	-0.019182356
219	0xbc044140	-0.008072197
220	0xbd08f045	-0.033432264
221	0xbc1284e3	-0.0089428155
222	0xbcffbb58	-0.031217262
223	0x3c72a970	0.014810905
224	0xbd11aad3	-0.0355633
225	0xbb7c3a25	-0.0038486805
226	0x3cc6a688	0.02424933
227	0x3cabbfe9	0.020965533
228	0xbc9cc7d8	-0.019138262
229	0x3c0ef8ed	0.008726341
230	0xbbc1ca14	-0.005913982
231	0xbd2a5343	-0.04158331
232	0xbc9954a9	-0.018717127
233	0xbd100452	-0.03516037
234	0x3ab3ac67	0.0013707996
235	0xbc92fedf	-0.017943798
236	0xbb5e8489	-0.0033953509
237	0xbbb3ba44	-0.005484851
238	0x3c0fe723	0.008783135
239	0x3c2b1b30	0.010443494
240	0xbc99f038	-0.018791303
241	0xbc03fefe	-0.0080564
242	0xbc567f8d	-0.013091934
243	0xbce0fb66	-0.027463626
244	0x3cd0dfe3	0.025497383
245	0x3c86995e	0.016430553
246	0x3ca9af4f	0.020713476
247	0x3b6aa735	0.003580523
248	0x3abcbc3a	0.0014399358
249	0x3c7d1e80	0.015449166
250	0xbd00d166	-0.031449698
251	0xbc9d588f	-0.019207267
252	0xbd254366	-0.04034748
253	0x3c475ebf	0.012168585
254	0x3c9390a9	0.018013315
255	0xbc2217d1	-0.009893374

action_model._discrete_distribution.branches.1.bias f4 [2]
0	0xbbba3b57	-0.0056833434
1	0x3bba3b55	0.0056833425

action_model._discrete_distribution.branches.1.weight f4 [2, 128]
0	0xbbd38c17	-0.006455909
1	0xbc6c30b9	-0.014415913
2	0x3b4afa57	0.0030971968
3	0xbcbe2089	-0.023208873
4	0x3adfc791	0.0017073025
5	0x3c016142	0.007896723
6	0xbc3d01e5	-0.011536096
7	0x39027d50	0.00012444449
8	0xbc201670	-0.0097709745
9	0xbb15f273	-0.0022880107
10	0x3c214770	0.009843692
11	0x3c00b267	0.007855034
12	0xbbc7adbe	-0.0060937097
13	0x3b152f6d	0.0022763864
14	0x3c9bde1b	0.019026807
15	0x3cf7fcae	0.030271854
16	0xba0e1ffa	-0.0005421635
17	0x3bf3fc72	0.0074458653
18	0x3b86389d	0.0040961043
19	0xba751cce	-0.00093503005
20	0x3a0d407b	0.00053883315
21	0xbc0b8910	-0.008516565
22	0x3cb33c21	0.021879258
23	0x3bcd8871	0.0062723686
24	0xbbb66b17	-0.0055669653
25	0xbc48b8ac	-0.01225106
26	0xbbcc00c5	-0.0062256777
27	0x3babda41	0.0052445238
28	0x3c489023	0.012241396
29	0xbb55ae6d	-0.0032605187
30	0x3c1bbf51	0.009506063
31	0xbc8e6c5e	-0.017385658
32	0x3c19b3a1	0.009381206
33	0x3d2d24b7	0.042271342
34	0x3b0db6af	0.002162378
35	0xbb0e18a4	-0.0021682167
36	0x3c93597b	0.017987004
37	0xbcb0dbd9	-0.021589207
38	0xbbc8b0d0	-0.0061245933
39	0x3c4667b0	0.012109682
40	0x3cb4f18d	0.022087837
41	0x3c0a1713	0.008428353
42	0x3a4528ce	0.0007521034
43	0x3c8875bc	0.016657703
44	0x3c06eb95	0.008234878
45	0xbbc11fd4	-0.005893687
46	0x3c22d146	0.00993759
47	0xbb2a9442	-0.002602831
48	0x3c0b6892	0.008508818
49	0xb9a86982	-0.00032122066
50	0x3ca925d8	0.020647928
51	0xbb465afa	-0.0030266629
52	0x3bc52a10	0.006016977
53	0xbc5b65cc	-0.0133909695
54	0x3c484e96	0.012225768
55	0x3bf9c121	0.0076218997
56	0xbc5b662e	-0.013391061
57	0xbc7eedab	-0.015559594
58	0x3c333c7a	0.010939712
59	0x3a057b22	0.00050918956
60	0xb9c9dde1	-0.0003850302
61	0x3958af7c	0.00020664738
62	0xbb756aa5	-0.0037447598
63	0xbce8fa06	-0.028439533
64	0x3c1751ac	0.009235781
65	0x3c8c88ab	0.017155012
66	0xb9ccd397	-0.0003906756
67	0xbc3d7b34	-0.011565018
68	0xbbbe61f5	-0.005810017
69	0x3bf936ed	0.0076054246
70	0x3c9503f6	0.018190365
71	0xbcb5e74a	-0.022205014
72	0xbc46c92a	-0.012132922
73	0x3c2169a4	0.009851847
74	0x3c1f804f	0.009735181
75	0xbb408c9b	-0.0029380682
76	0x3be596ee	0.0070065176
77	0xbc7fca04	-0.015612129
78	0x3be48434	0.0069737677
79	0x3c8e6be4	0.01738543
80	0xbb0a43ec	-0.0021097613
81	0xbb95c069	-0.004570056
82	0xbc23c052	-0.009994583
83	0xbb5c96e6	-0.0033659278
84	0x3c3aabc1	0.011393488
85	0xbd0afc57	-0.033932056
86	0x3b440bdc	0.0029914295
87	0x3b18aa18	0.0023294743
88	0xbbf1c34f	-0.007378019
89	0xbd11dfda	-0.035613872
90	0x3cc5fd85	0.02416874
91	0xbbeedde8	-0.007289637
92	0x3c39767d	0.011319754
93	0x3ba7c771	0.005120211
94	0x3c28af4d	0.010295701
95	0x3a7729bc	0.0009428521
96	0x3bc913fa	0.0061364146
97	0x3b9c5c78	0.0047717653
98	0xbc37bb57	-0.011214099
99	0xbb9512df	-0.0045493688
100	0x3c089faf	0.008338853
101	0xbb0a54cd	-0.0021107674
102	0x3b91775b	0.004439277
103	0x3a25a86a	0.0006319346
104	0xbb9d0578	-0.0047919117
105	0xb9abad37	-0.00032744717
106	0x3be741e2	0.0070574144
107	0x3c873a47	0.016507281
108	0x3b8f8283	0.004379572
109	0xbc42d19b	-0.011890794
110	0xbc9156c4	-0.017741568
111	0x3a9c54e7	0.0011927158
112	0xbba7d523	-0.0051218434
113	0xba1c80eb	-0.0005970138
114	0x3c457f27	0.012054241
115	0x3c88806f	0.016662804
116	0xbc26abd8	-0.010172807
117	0xbd056bb0	-0.032573402
118	0x3c6fc18d	0.014633548
119	0x3c1a01aa	0.009399811
120	0x3b18c401	0.0023310187
121	0x3c98dde6	0.018660497
122	0xbae71ece	-0.0017633082
123	0x3b8db59d	0.0043246285
124	0x3c83adff	0.016074179
125	0x3b43dc7a	0.0029886053
126	0x3c3b722f	0.011440798
127	0xbccaf727	-0.024776055
128	0xbae82575	-0.0017711358
129	0xbad9d158	-0.0016618175
130	0xbc20513b	-0.009784992
131	0x3c8355fb	0.01603221
132	0x3c28cc14	0.010302562
133	0x3adf2c07	0.0017026671
134	0x3c8ece8d	0.017432475
135	0x3ca69a8c	0.020337366
136	0xbcb39838	-0.02192317
137	0x3b9e09aa	0.0048229294
138	0x3c6986fa	0.014253372
139	0xbc4f857a	-0.012666101
140	0x3a1c9c6e	0.00059742376
141	0x3c3df460	0.011593908
142	0xbb1c2ef8	-0.0023831706
143	0xbc86a341	-0.016435267
144	0x3bd829f8	0.0065968
145	0xba3c223b	-0.00071767316
146	0xbc8c3ede	-0.017119821
147	0x3bf992a4	0.007616358
148	0xbc1ca08f	-0.0095597645
149	0x3a1f7e42	0.00060841825
150	0x3bb42209	0.0054972214
151	0xbb0f7a69	-0.002189303
152	0xbc842fbb	-0.01613604
153	0x38035439	3.1311272e-05
154	0x3c452d9e	0.012034802
155	0x3be80888	0.007081095
156	0xbc7e111d	-0.01550701
157	0x3c90bbe9	0.017667728
158	0xbbab3ac0	-0.0052255094
159	0xbb898b71	-0.004197531
160	0x3bc9ac0a	0.006154542
161	0xbce7208d	-0.028213764
162	0x3c12cc6a	0.008959869
163	0xbca217e0	-0.019786775
164	0xbc7e8e50	-0.01553686
165	0x3c657938	0.014005952
166	0x3bd598e8	0.006518472
167	0xbc78c92d	-0.015184683
168	0xbcb61a09	-0.022229211
169	0xbbb2e1d9	-0.005459052
170	0xbafd79cf	-0.001933867
171	0xbad04efa	-0.0015892677
172	0x3ce24dc7	0.027624978
173	0xbc0df317	-0.008663914
174	0x3ca4c7cb	0.0201148
175	0x3ca829f0	0.02052781
176	0xbb1456f1	-0.002263483
177	0xbc1e8495	-0.009675165
178	0xbc0386ce	-0.008027745
179	0xbc5ec0f3	-0.013595807
180	0xbba5c13a	-0.005058435
181	0xbc02fa31	-0.007994221
182	0xbc3bd73a	-0.011464888
183	0x3b8ab040	0.0042324364
184	0x3b8298bc	0.0039854925
185	0xbc09cf67	-0.008411265
186	0xbc2cd721	-0.010549338
187	0x3c48f030	0.012264296
188	0x3c91e877	0.017811043
189	0x3c2aadad	0.010417384
190	0x3ae1e42d	0.0017234139
191	0x3cc0caa2	0.023534123
192	0xbbe9072c	-0.0071114507
193	0x3c15990b	0.009130727
194	0x3c7331c9	0.014843413
195	0xbc77c276	-0.015122047
196	0xbc2d380a	-0.010572443
197	0xbbbd1f57	-0.0057715583
198	0xbc069392	-0.008213894
199	0x3b6fd414	0.0036594914
200	0x3c779c0a	0.015112886
201	0xbcaac207	-0.020844473
202	0xbc418b3d	-0.011812982
203	0xbcb6df8c	-0.022323392
204	0xbbe48aef	-0.00697457
205	0x3b93d61d	0.0045116083
206	0xbcaea138	-0.02131711
207	0xbc300736	-0.010743907
208	0x3c023713	0.007947701
209	0xba7edba1	-0.00097220583
210	0xbc089b8f	-0.008337869
211	0xbacd834d	-0.001567939
212	0x3c47c9d8	0.012194119
213	0x3cd4f4b9	0.0259956
214	0x3abe05a9	0.0014497536
215	0x3c75571b	0.014974381
216	0x3cc8e3a8	0.024522617
217	0xba6a3878	-0.0008934806
218	0xbadb0062	-0.0016708488
219	0xbcca6764	-0.024707504
220	0xbb99d6c5	-0.004694792
221	0xbc83ceda	-0.016089845
222	0x3c8d53e8	0.017251924
223	0xbc3b645e	-0.011437504
224	0x3c30f4e3	0.010800573
225	0xbc12d1e3	-0.008961174
226	0xbc5b26f0	-0.013375983
227	0x3c6a33b3	0.014294553
228	0xbae24385	-0.0017262554
229	0x3c073d08	0.008254297
230	0xbcf0621e	-0.02934366
231	0xbc46d3b9	-0.01213544
232	0xbbf55de1	-0.007487998
233	0xbb63b819	-0.0034747182
234	0xbc88b77b	-0.016689053
235	0xbb2ca966	-0.0026346087
236	0x3ca9ee8e	0.020743635
237	0x3cadf68e	0.02123573
238	0xbbb45236	-0.0055029644
239	0xbc6dd2d9	-0.014515602
240	0x3a889531	0.0010420439
241	0x3b8fdcba	0.0043903263
242	0xbc5956f6	-0.013265362
243	0xbc950d38	-0.01819478
244	0x3c0e3218	0.0086789355
245	0x3c8cc72f	0.017184822
246	0xbb6eed80	-0.003645748
247	0x3b236454	0.0024931626
248	0xbbf3b444	-0.007437261
249	0xbb74852b	-0.003731082
250	0x3b0271b8	0.0019904207
251	0xbb1d62fc	-0.0024015298
252	0xbcafe6a0	-0.021472275
253	0xbaeeb43b	-0.0018211672
254	0x3a929dec	0.001118598
255	0xbb50adce	-0.0031841877

network_body.linear_encoder.seq_layers.0.bias f4 [128]
0	0x3af891c1	0.0018964336
1	0x3c35c062	0.011093231
2	0xbb5e680f	-0.0033936535
3	0x3cccd8b8	0.025005683
4	0xba18aa5e	-0.00058237265
5	0xbc381603	-0.011235717
6	0xbb98df3b	-0.004665283
7	0xbbd174a4	-0.0063920785
8	0x3ccfe75a	0.025378872
9	0x3ce60819	0.028080033
10	0x3d31c8a7	0.043404248
11	0x3c9a2ee4	0.018821187
12	0x3c79eb36	0.015253833
13	0x3c174a6e	0.009234054
14	0x3ca287e7	0.019840194
15	0x3cde33c0	0.027124286
16	0x3ca5b8be	0.020229694
17	0x3c72a71c	0.01481035
18	0xbc1299da	-0.008947814
19	0xbc025354	-0.007954437
20	0x3bef3b2c	0.007300755
21	0x3b2d6dc2	0.0026463126
22	0x3cb98fec	0.022651635
23	0xbb785046	-0.0037889644
24	0x3ca1a480	0.01973176
25	0x3cc94825	0.024570534
26	0x3d15010f	0.036377963
27	0x3b86118d	0.0040914477
28	0xbc0cef35	-0.008601953
29	0x3b8de4bd	0.0043302462
30	0x3baf9787	0.0053586396
31	0x3cbc14df	0.02295917
32	0x3c03ba2a	0.00803999
33	0xbb356fca	-0.002768504
34	0x3c95d05d	0.018287832
35	0xbcb473bf	-0.022027848
36	0xbc3235cc	-0.010877084
37	0xbc555a5b	-0.013022031
38	0x3ce25673	0.027629113
39	0x3cb85f1c	0.02250629
40	0xbd0be239	-0.03415129
41	0xbb408814	-0.0029377984
42	0x3aafeb5c	0.0013421583
43	0x3c01061f	0.007874995
44	0x3b5fcd2c	0.0034149392
45	0xbafb44b2	-0.0019170253
46	0xbc1ceff4	-0.009578694
47	0xbc30c8e3	-0.010790083
48	0x3d09fb1a	0.033686735
49	0x3ca9c542	0.020723943
50	0x3ce2b2f2	0.027673218
51	0x3b9618d9	0.004580599
52	0x3c40ede3	0.011775467
53	0x3c0df28f	0.0086637875
54	0xbba7d022	-0.005121247
55	0xbc18c9e4	-0.009325478
56	0x3c221a2c	0.009893935
57	0x3c7820e1	0.015144558
58	0x3caf5f90	0.021407872
59	0xbc81284d	-0.015766287
60	0x3c3e4343	0.011612716
61	0xbcaa68fa	-0.02080201
62	0x3c917818	0.01775746
63	0x3b80a761	0.003926203
64	0x3cbb9149	0.022896426
65	0xbb1457ad	-0.0022635267
66	0x3c8edd91	0.017439635
67	0x3b949222	0.004534022
68	0x3c1495a1	0.009068877
69	0x3b8b749f	0.0042558457
70	0x3bf5961c	0.007494701
71	0x3ccd92e0	0.02509445
72	0xbcc70503	-0.024294382
73	0x3a2b4d7e	0.00065346796
74	0x3c7dcaeb	0.015490274
75	0x39463f7f	0.00018906406
76	0xbb42be04	-0.002971531
77	0x3cc727a8	0.024310902
78	0xbc21ca60	-0.00987491
79	0x3c6c30e4	0.014415953
80	0x3bbe09fa	0.005799529
81	0x3cf7dd5f	0.030256925
82	0xbae997c5	-0.001782172
83	0x3d1aef1f	0.0378257
84	0xbc58c128	-0.013229646
85	0xbbd818d7	-0.006594758
86	0x3c5ea84b	0.013589929
87	0x3c7852e6	0.015156483
88	0x3c339e45	0.010963027
89	0xbb137709	-0.002250137
90	0xbbcf43e1	-0.0063252305
91	0x3cec166e	0.028819289
92	0x3cf32e16	0.029685061
93	0xba3f56db	-0.0007299014
94	0xbb921ec3	-0.0044592335
95	0xbb79cba4	-0.0038115764
96	0x3c5ed00e	0.013599409
97	0x3c770cd2	0.01507874
98	0x3b54bd0a	0.003246131
99	0x3bf55998	0.007487487
100	0x3c3eb3e5	0.01163957
101	0xbc54c54d	-0.012986493
102	0x3cc64cec	0.024206601
103	0x3c7c17e4	0.015386555
104	0xbaa74003	-0.0012760166
105	0x3c991f33	0.018691635
106	0x3bf159d1	0.0073654433
107	0x3b3f5311	0.0029193799
108	0x3cb91a4e	0.02259555
109	0x3a54e40e	0.0008121141
110	0x3c6029e2	0.013681861
111	0x3c244cdc	0.01002809
112	0x3ba83c29	0.005134125
113	0x3cacd3a0	0.021097004
114	0x3ca1526f	0.019692628
115	0xbc555447	-0.013020582
116	0x3cefc313	0.029267823
117	0x3c29f039	0.010372215
118	0x3c4d19f3	0.012518394
119	0x3c9d10b5	0.019173006
120	0x3ca5cec2	0.020240191
121	0x3c2eaa09	0.010660657
122	0x3ca99c91	0.02070454
123	0x3c3b6918	0.0114386305
124	0xbaa0bfc5	-0.0012264183
125	0xbb8b1ec3	-0.0042456104
126	0x3c57f61f	0.013181238
127	0x3c37e96e	0.011225088

network_body.linear_encoder.seq_layers.0.weight f4 [128, 602]
0	0x3c87bc8f	0.016569404
1	0x3b4ce54f	0.0031264608
2	0x3bb2719c	0.005445672
3	0x3d918df2	0.07107152
4	0xbcbb074a	-0.022830624
5	0xbd632f3b	-0.055464964
6	0xbcb10cb0	-0.021612495
7	0xba43f143	-0.00074746105
8	0xbdbe7387	-0.09299379
9	0x3e04acd9	0.12956561
10	0xbd92a776	-0.07160847
11	0xbd39af5c	-0.04533325
12	0xbc3c9987	-0.011511213
13	0x3d324fb6	0.04353305
14	0xbd36eda9	-0.044660244
15	0x3e18164a	0.14852253
16	0x3c95eeab	0.018302282
17	0xbc587c95	-0.013213296
18	0xbd7da853	-0.061928105
19	0x3d9b0f96	0.07571332
20	0xbdf844be	-0.121224865
21	0x3d77ae9e	0.060469262
22	0x3d747e96	0.059691034
23	0xbc670b7f	-0.014101862
24	0xbcab636f	-0.020921437
25	0x3db69acd	0.08916245
26	0xbda6e381	-0.08148862
27	0x3dbe7007	0.09298711
28	0xbcd21357	-0.025643988
29	0xbcdb68a4	-0.026783295
30	0xbcf73d4b	-0.030180594
31	0x3c79dd3e	0.015250502
32	0xbdccfcc6	-0.1000915
33	0xbaba8c43	-0.0014232475
34	0xbcebeb29	-0.028798657
35	0x3c88b5cf	0.016688256
36	0x3ce3908a	0.027778883
37	0xbbb278f0	-0.005446546
38	0xbd42d315	-0.047564585
39	0x3ce946dc	0.028476171
40	0xbca292c5	-0.019845376
41	0xbbeae285	-0.0071681165
42	0xbd47f555	-0.04881795
43	0xbc62311f	-0.013805657
44	0xbda50513	-0.080576085
45	0x3cf210d8	0.029549047
46	0x3c2a2602	0.010385038
47	0x3d7d7222	0.061876424
48	0xbd5d7e48	-0.05407551
49	0x3c60cfe3	0.013721439
50	0xbd878b41	-0.066183574
51	0x3dcb2d9c	0.09920809
52	0x3c0c3f61	0.008560033
53	0xbbc4cebf	-0.0060060914
54	0xbd44d0a2	-0.04805053
55	0x3d165148	0.03669861
56	0xbda056e0	-0.0782907
57	0x3d8b54d8	0.06803292
58	0xbc28d5a8	-0.010304846
59	0xbd694b67	-0.056956675
60	0x3c0dd781	0.008657337
61	0xbc906bef	-0.017629592
62	0xbcaaf310	-0.020867854
63	0xbc83aaec	-0.016072713
64	0xbd2e24e5	-0.042515654
65	0xb8f45296	-0.000116502095
66	0x3c5d82a9	0.013519921
67	0x3d4aa9ce	0.049478345
68	0xbd8ebb05	-0.06969265
69	0x3be9b36d	0.007131985
70	0xbba76913	-0.0051089614
71	0x3d602c5f	0.054729816
72	0xbd6d8cbe	-0.05799555
73	0x3d6558e6	0.055992983
74	0x3d89a323	0.06720569
75	0x3c9fe33c	0.019517533
76	0xbcfe27a3	-0.03102476
77	0xbc8fad8c	-0.017538808
78	0xbd95affd	-0.07308958
79	0xbd4db2d4	-0.050219372
80	0x3d35522a	0.04426781
81	0xbd81b6b6	-0.063336775
82	0x3c132d00	0.008982897
83	0x3ce55774	0.027995802
84	0x3ce35da9	0.027754622
85	0xbcca6c78	-0.024709925
86	0xbce6dcde	-0.02818149
87	0xbd84652c	-0.064646095
88	0x3c9e833f	0.019349692
89	0xbb837319	-0.0040115234
90	0x3c1c7c33	0.009551096
91	0x3d0cad0b	0.034344714
92	0xba4adcba	-0.00077385793
93	0x3cf075fd	0.029353136
94	0xbd2d5a84	-0.04232265
95	0xbcd38c24	-0.02582366
96	0x3d3bc2fc	0.04584025
97	0x3ce4f65c	0.027949505
98	0x3bc300a2	0.005951003
99	0xbc8cf994	-0.017208852
100	0xbb0a5da8	-0.0021112952
101	0xbc3879a9	-0.011259475
102	0x3c1d5914	0.009603757
103	0xbc7c3ff1	-0.015396104
104	0x3c99a5bf	0.018755792
105	0xbd97bfb1	-0.07409609
106	0xbc1c92e8	-0.00955651
107	0x3d270e84	0.040785328
108	0x3c5a4ca5	0.013323938
109	0x3d14acf8	0.03629777
110	0x3c858027	0.01629646
111	0xbc84ac04	-0.016195305
112	0x3c26f73b	0.01019078
113	0x3d0907a6	0.03345456
114	0xbd635f33	-0.05551071
115	0xbd717850	-0.05895263
116	0x3d6b5eb5	0.057463367
117	0xbd1587f4	-0.036506608
118	0x3d11e322	0.035617
119	0xbc62c650	-0.013841227
120	0x3d3066d0	0.0430668
121	0xbb72d4b3	-0.0037053048
122	0xbbe5b63f	-0.007010251
123	0x3badc124	0.005302565
124	0xbdbd62d3	-0.09247365
125	0xbcbd7314	-0.023126163
126	0xbd147442	-0.036243685
127	0xbdce957b	-0.10087105
128	0xbd310b30	-0.04322356
129	0xbbdc8b02	-0.006730438
130	0xba92019f	-0.0011139399
131	0x3deb41d6	0.114871666
132	0xbb8719c8	-0.0041229464
133	0xbd19842f	-0.037479576
134	0x3cf95a6c	0.030438624
135	0xbd319b40	-0.04336095
136	0xbd25c007	-0.040466335
137	0x3c32e368	0.010918476
138	0x3dcdda6c	0.10051426
139	0xbd939be9	-0.07207472
140	0xbcfc07f7	-0.030765517
141	0xbbd51c72	-0.006503635
142	0x3d0818e6	0.03322687
143	0x3db7f761	0.08982731
144	0x3cb60abf	0.022221921
145	0x3c8fd7df	0.01755899
146	0x3d7cb8dc	0.061699733
147	0xbd60fb02	-0.05492688
148	0xbd440175	-0.047852952
149	0x3dc2af88	0.09506136
150	0x3b915ddc	0.0044362377
151	0xbdfa2c7c	-0.12215516
152	0x3ccf35a9	0.025294142
153	0xbccb13c1	-0.024789693
154	0xbd17ae3e	-0.037031405
155	0xbd66bb3c	-0.056330904
156	0x3d86cfb6	0.065825865
157	0x3c42ebf3	0.011897075
158	0x3d02b45e	0.031910293
159	0x3b8e1e6f	0.004337124
160	0x3d240af7	0.04004952
161	0x3dbdfb74	0.092764765
162	0x3c2c8f65	0.010532235
163	0xbd0f0c66	-0.034923933
164	0xbd09d0ff	-0.03364658
165	0x3c384076	0.011245837
166	0x3d66e625	0.056371827
167	0x3dc484d4	0.095956475
168	0x3d0b083b	0.033943396
169	0xbd81b6c3	-0.06333687
170	0x3d5abe86	0.053404354
171	0xbc6a3d79	-0.014296883
172	0xbd0d684e	-0.0345233
173	0x3cd8824f	0.026429323
174	0xbc7178bf	-0.014738261
175	0xbdd96f2e	-0.10616909
176	0x3c8717ca	0.016490836
177	0x3b2500f4	0.002517757
178	0xbcbbbdfc	-0.02291774
179	0x3bd1675c	0.006390495
180	0x3ca7110d	0.020393873
181	0xbcddf0f0	-0.027092427
182	0x3bbe3d9a	0.0058056833
183	0x3d400284	0.0468774
184	0x3d5ef720	0.054434896
185	0xbc46fe43	-0.012145582
186	0xbd200dc7	-0.03907564
187	0x3bae7d56	0.005325
188	0xbd83a188	-0.06427294
189	0xbc293f17	-0.010329983
190	0xbcb7e8af	-0.02244982
191	0x3c413ae0	0.011793822
192	0x3d8d0dde	0.068874106
193	0x3cf3459c	0.029696278
194	0xbda8160e	-0.082073316
195	0xbcadaff6	-0.021202069
196	0x3c731e89	0.014838823
197	0x3d02196a	0.031762518
198	0xbda91d25	-0.08257512
199	0x3b5d0fa6	0.003373125
200	0xbd798779	-0.060920212
201	0x3c9be3a1	0.01902944
202	0xbd7f25da	-0.062291957
203	0x3b2b99d3	0.0026184216
204	0xbc5e1f7a	-0.013557309
205	0x3c95aa6d	0.018269742
206	0xbcdcb7d8	-0.026943132
207	0x3cedc371	0.029023858
208	0x3d4eaed8	0.050459713
209	0xbd134e16	-0.03596314
210	0xbb85f03b	-0.0040874756
211	0xbb7c5583	-0.0038503117
212	0xbd761e39	-0.060087416
213	0x3da94f1d	0.08267043
214	0x3ca34ab8	0.01993309
215	0xbd1535b1	-0.036428157
216	0xbc25d71f	-0.01012209
217	0x3cf2e966	0.029652309
218	0xbd0926e0	-0.03348434
219	0x3d2c53fb	0.042072278
220	0xbd68af02	-0.056807525
221	0xbaf51783	-0.0018699024
222	0x3d5ab0eb	0.05339138
223	0xbcca0cad	-0.024664247
224	0xbb36e5b4	-0.002790791
225	0xbd258dd8	-0.040418476
226	0xbd14de5e	-0.03634488
227	0xbd3c393f	-0.04595303
228	0xbca22a70	-0.019795626
229	0x3dac4ac2	0.084126964
230	0xbdba4bc0	-0.090964794
231	0x3d66acb1	0.056317035
232	0x3db3cc15	0.0877916
233	0xbd959560	-0.07303882
234	0xbdae68ed	-0.08516107
235	0x3d697382	0.056994922
236	0x3cee3cde	0.029081758
237	0xbcdac347	-0.026704444
238	0xbb982129	-0.004642625
239	0xbd2c41c9	-0.042054925
240	0x3cf1916f	0.029488293
241	0x3cdf7ebb	0.02728211
242	0xbd33b092	-0.043869562
243	0x3cf104c1	0.029421212
244	0xbd8bc82d	-0.0682529
245	0xbc261f29	-0.010139265
246	0xbd07c6fe	-0.033148758
247	0xbd0b795a	-0.034051277
248	0xbcf8cb08	-0.03037025
249	0xbd31aff5	-0.043380696
250	0xbd963f51	-0.073362954
251	0x3cd6bf89	0.026214378
252	0x3b802d89	0.003911678
253	0xbca11202	-0.019661907
254	0xbdad5ac7	-0.0846458
255	0x3d11efc5	0.035629053

network_body.linear_encoder.seq_layers.2.bias f4 [128]
0	0x3c38a262	0.011269184
1	0xbb2f8f6b	-0.0026788365
2	0x3bf5d7b7	0.007502522
3	0xbbb2a2c0	-0.00545153
4	0x3c6cde2b	0.014457266
5	0x3d4ca105	0.049958248
6	0x3a15f131	0.0005719839
7	0xbbce171b	-0.0062893755
8	0xbbb80774	-0.005616123
9	0xbc6b1a1e	-0.014349489
10	0x3c2fc01c	0.010726955
11	0x3c23d79b	0.010000135
12	0x3b620715	0.0034489085
13	0x3c969a47	0.018384112
14	0xbca55767	-0.020183278
15	0xbc785052	-0.015155869
16	0xbc205a56	-0.009787163
17	0x3d28c84a	0.041206636
18	0x3bcd2872	0.006260925
19	0xbbf5d770	-0.007502489
20	0xbb5551b4	-0.003254992
21	0xbc56c7c2	-0.013109149
22	0xbbd7a99e	-0.0065814992
23	0x3c7313cb	0.014836262
24	0xbb200b90	-0.0024420954
25	0x3b9e7da1	0.0048367535
26	0x3ca4c1d1	0.02011195
27	0xbb83b4b2	-0.0040193433
28	0x3cc75292	0.024331365
29	0x3cfc68d2	0.030811701
30	0x3c68ffc0	0.014221132
31	0xbcac729c	-0.021050744
32	0x3b43b6c3	0.0029863573
33	0x3cf6b8a1	0.030117335
34	0x3c170826	0.009218251
35	0x3bf59cb8	0.007495489
36	0x3cc0dcb0	0.023542732
37	0x3d1a544c	0.037678048
38	0x3a4bc8c8	0.0007773754
39	0x3b189db9	0.002328737
40	0x3c4e0deb	0.0125765605
41	0x3c1ed3fc	0.009694096
42	0xbc98c4d0	-0.018648535
43	0x3ca10175	0.019654015
44	0xbc9a3ce9	-0.018827872
45	0x3caeacf6	0.021322709
46	0x3c3973e2	0.0113191325
47	0xbb21ff0c	-0.002471867
48	0x3be96639	0.0071227816
49	0x3cd09f65	0.02546663
50	0xbc58b629	-0.013227024
51	0xbbb41beb	-0.005496492
52	0x3d3fdcad	0.046841312
53	0x3c236688	0.009973176
54	0x3c1faba0	0.009745508
55	0xbbf8de6f	-0.0075948755
56	0xba3eab61	-0.0007273462
57	0xbce4f71f	-0.027949868
58	0x3ad6dab8	0.0016392088
59	0xbc9b1081	-0.018928768
60	0x3c680129	0.014160433
61	0xbc6f0842	-0.014589371
62	0x3b816408	0.003948692
63	0x3beff9ee	0.007323495
64	0xbc5729e1	-0.013132543
65	0x3b1cc967	0.0023923756
66	0xbc1914c4	-0.00934333
67	0xbbae8576	-0.0053259684
68	0x3d193de1	0.037412528
69	0xbc1d5835	-0.00960355
70	0x3cae05a3	0.021242922
71	0x3c81e0c9	0.015854256
72	0x3c1ca30a	0.009560356
73	0xbc81275c	-0.015765838
74	0x3ca21558	0.019785568
75	0xbb718646	-0.0036853715
76	0x3b40fa79	0.0029446168
77	0x3c8e5e63	0.017378991
78	0x3c7b1bee	0.015326483
79	0xbc001c76	-0.007819286
80	0xbc05f5d9	-0.00817629
81	0x3c15930c	0.009129297
82	0xbc6c4081	-0.014419676
83	0xbc99e96c	-0.018788062
84	0xbc424cb6	-0.01185911
85	0x3c4219e1	0.01184699
86	0x3c9bc3a8	0.019014195
87	0x3c54b47a	0.012982482
88	0x3bf9b15e	0.007620021
89	0x3c60babd	0.013716397
90	0x3d26d915	0.04073437
91	0x3bf45fa4	0.0074576903
92	0x3b329c71	0.002725389
93	0x3a02b658	0.0004986278
94	0xbbe0bd0e	-0.0068584746
95	0x3c9dd92f	0.0192686
96	0xbc32b7d7	-0.010908089
97	0x3c27a4fb	0.0102322055
98	0x3c20d173	0.009815562
99	0x3d202dfc	0.039106354
100	0x3ca35bc6	0.019941222
101	0x3c3e0a49	0.011599132
102	0xbc85ff98	-0.016357228
103	0x3c00f53b	0.0078709675
104	0x3b889b28	0.0041688867
105	0xbcabd168	-0.020973876
106	0x3d6b9caa	0.057522453
107	0x3bc444d2	0.0059896493
108	0xbbc62fc8	-0.0060481764
109	0x3b9a4517	0.004707943
110	0x3c25acff	0.010112046
111	0x3c977aec	0.01849123
112	0xbc240015	-0.010009785
113	0x3c4b32ab	0.012402217
114	0x3c367981	0.011137367
115	0xbc9bb977	-0.019009335
116	0xbaf689f7	-0.0018809427
117	0x3b85d0db	0.0040837354
118	0x3b69ab36	0.0035655028
119	0x3d40f2da	0.0471066
120	0x3ab1b6ff	0.0013558565
121	0xbc843398	-0.016137883
122	0xbb8dcb36	-0.004327203
123	0x3b08aa92	0.002085362
124	0xbc3d8748	-0.011567898
125	0x3ca6058f	0.020266322
126	0xbbbdd504	-0.0057932157
127	0x3c08aae3	0.008341524

network_body.linear_encoder.seq_layers.2.weight f4 [128, 128]
0	0xbd3365b9	-0.043798182
1	0x3d5c0010	0.053710997
2	0xbcd90abe	-0.02649438
3	0xbcc6af22	-0.024253432
4	0xbdd40fd2	-0.1035458
5	0xbd265f36	-0.040618144
6	0x3d5adc32	0.05343265
7	0x3c137893	0.009000915
8	0x3d55262d	0.05203836
9	0xbb85db34	-0.004084969
10	0x3d9053e8	0.07047254
11	0x3d0a0da3	0.03370441
12	0x3d88c81f	0.06678795
13	0x3bdf2687	0.0068100127
14	0xbcf1349d	-0.029444033
15	0x3d8a2fc3	0.06747391
16	0x3cadec98	0.02123098
17	0xbdcb2a19	-0.09920139
18	0x3de70fa9	0.11282284
19	0x3d7a964e	0.061178498
20	0x3b0cb1d8	0.0021468308
21	0x3d141135	0.036149222
22	0x3c685b35	0.014181902
23	0xbd951045	-0.07278494
24	0xbe06844d	-0.13136406
25	0xbdadd296	-0.08487432
26	0xbdeb7016	-0.11495988
27	0x3d58e466	0.052952193
28	0x3d948c70	0.07253349
29	0xbd60a9a1	-0.05484927
30	0x3dc60eb9	0.09670777
31	0x3c0d31b2	0.008617805
32	0xbd7060eb	-0.05868618
33	0xbdbceb5a	-0.09224577
34	0xbc8637cd	-0.01638403
35	0xbc889b1a	-0.01667552
36	0x3da93cd3	0.082635544
37	0x3e0abc48	0.13548386
38	0x3d91e151	0.07123054
39	0x3cd6e5d1	0.026232632
40	0x3dbd0b7d	0.09230707
41	0x3d376897	0.04477748
42	0xbc9f67b5	-0.019458631
43	0x3de382c5	0.11108927
44	0x3dfb2765	0.12263373
45	0x3d54a71d	0.051917184
46	0x3cd39f75	0.025832871
47	0xbca461c3	-0.020066148
48	0x3bd49bc6	0.006488296
49	0xbe6803ae	-0.22657654
50	0x3e24906f	0.16070722
51	0xbe01b58c	-0.12666911
52	0xbcba00e0	-0.022705495
53	0xbca76684	-0.020434625
54	0xbd07b44f	-0.03313094
55	0xbd9b4632	-0.07581748
56	0xbd998fb5	-0.07498113
57	0x3d539534	0.051655963
58	0x3c6ac501	0.014329196
59	0x3d8a9b82	0.06767942
60	0xbdaaab95	-0.08333508
61	0x3d553369	0.05205098
62	0x3d20ac19	0.039226625
63	0x3dd6068d	0.10450468
64	0xbcaade3a	-0.020857919
65	0xbdeca0e2	-0.115541235
66	0xbd810d69	-0.06301386
67	0xbd9aa7ab	-0.075515114
68	0x3e1bf6d7	0.1523088
69	0x3d24b7ae	0.040214233
70	0x3df9a8fe	0.12190436
71	0xbd46e77e	-0.048560612
72	0x3d33261a	0.04373751
73	0x3e804656	0.25053662
74	0x3ca1a98a	0.019734163
75	0x3db77e32	0.08959617
76	0xbe031219	-0.12799872
77	0x3e416736	0.18887028
78	0x3d6502c1	0.05591083
79	0x3e1d846c	0.15382546
80	0x3cb9b63f	0.02266991
81	0x3dbddab9	0.09270234
82	0xbcc81fa1	-0.024429144
83	0x3e2e75a0	0.17037058
84	0xbc7ee549	-0.0155575955
85	0x3d86ace3	0.06575944
86	0x3d936c30	0.071983695
87	0x3ddd2f47	0.10800033
88	0x3de809dd	0.11330006
89	0x3e05879c	0.13040012
90	0xbd142bf0	-0.036174715
91	0x3d10e19a	0.0353714
92	0x3d770b61	0.060313586
93	0x3ccf9845	0.025341162
94	0x3e23eb59	0.16007747
95	0xbc1eeabc	-0.00969952
96	0x3e83791b	0.25678334
97	0x3dd6b90a	0.10484512
98	0x3d9c2123	0.07623508
99	0x3da2970d	0.07938967
100	0xbd30aa51	-0.043131176
101	0xbe3dd9c7	-0.18540107
102	0x3d1adf5e	0.037810676
103	0x3cd468ff	0.025928972
104	0xbdac2a4d	-0.08406506
105	0x3e4a46cc	0.1975357
106	0x3e011582	0.12605861
107	0xbceae2a8	-0.028672531
108	0xbe050ae4	-0.12992436
109	0x3cfa7288	0.03057219
110	0xbcc7cbd3	-0.024389183
111	0xbdf1e79a	-0.118117526
112	0xbc9e3ce7	-0.01931615
113	0x3e285792	0.16439655
114	0xbdca5e36	-0.098812506
115	0xbdb8667e	-0.09003924
116	0x3e014bca	0.12626567
117	0x3d7bf5a4	0.061513558
118	0xbc76cf68	-0.015064098
119	0x3d89a23c	0.06720397
120	0x3ca9c7cd	0.020725155
121	0x3d19ced2	0.037550755
122	0x3defcaac	0.117085785
123	0x3d787f78	0.06066844
124	0xbc33997c	-0.0109618865
125	0x3df97479	0.121804185
126	0x3e10724e	0.14106104
127	0x3d1aa615	0.037756044
128	0xbde870c2	-0.11349632
129	0xbd47f0c6	-0.048813604
130	0xbdb1fa5c	-0.086903304
131	0xbd5ec826	-0.054390095
132	0x3c3e8f49	0.0116308415
133	0x3da50029	0.08056671
134	0xbc9f94de	-0.019480165
135	0x3d9ca32c	0.0764831
136	0x3da63b3a	0.08116765
137	0x3da1a25c	0.07892296
138	0xbcafec75	-0.021475056
139	0xbc9380a8	-0.018005684
140	0xbdd89224	-0.10574749
141	0x3d459d79	0.04824588
142	0xbe240476	-0.16017327
143	0xbe0fce2a	-0.14043489
144	0x3ca78f44	0.020454057
145	0x3de405e1	0.11133934
146	0x3e1bf3ac	0.15229672
147	0x3dbcbe86	0.09216027
148	0x3e24d29f	0.1609597
149	0xbe02e87a	-0.12783995
150	0xbe5ac67d	-0.2136478
151	0xbdd5ba05	-0.10435871
152	0x3e0d04b6	0.13771328
153	0x3dd5da64	0.10442045
154	0xbd11bb78	-0.035579175
155	0xbdd74e48	-0.10512978
156	0xbdf9d1b5	-0.121982016
157	0xbd8234d8	-0.063577354
158	0xbc8ff787	-0.017574085
159	0x3e1f135e	0.15534732
160	0x3dede78b	0.11616429
161	0x3b94eb1f	0.00454463
162	0x3e5bf8f3	0.21481685
163	0xbd193fad	-0.03741424
164	0x3d33a26a	0.043856062
165	0xbe08db60	-0.13364935
166	0xbc0a2319	-0.0084312195
167	0xbc5b490c	-0.013384115
168	0xbde459f2	-0.11149968
169	0x3d09e342	0.033663996
170	0xbe3b3449	-0.18281664
171	0x3dc08e8c	0.09402189
172	0xbdad3884	-0.08458045
173	0xbc727c09	-0.01480008
174	0xbe1f8e33	-0.15581588
175	0x3d11d2c1	0.03560138
176	0x3c32b789	0.010908016
177	0x3d6e36f2	0.05815787
178	0xba8990cb	-0.0010495422
179	0x3d8a4bdc	0.0675275
180	0x3c84005f	0.016113458
181	0xbd16bd2b	-0.0368015
182	0xbe3cad9c	-0.18425602
183	0xbd67857c	-0.056523785
184	0x3c237c3c	0.00997835
185	0x3cc5f14f	0.024162916
186	0xbcc3d2f0	-0.023904294
187	0x3cafc1b0	0.021454662
188	0x3bb70815	0.0055856803
189	0xbde9b02e	-0.11410557
190	0x3db1e37c	0.08685967
191	0x3c0f4440	0.008744299
192	0xbc0fab47	-0.008768863
193	0xbd9f7279	-0.07785506
194	0xbae371f8	-0.0017352691
195	0x3c074dc7	0.00825829
196	0x3e11092e	0.14163658
197	0xbdb3a95b	-0.08772536
198	0x3e4cc5b9	0.199973
199	0xbd96d830	-0.07365453
200	0xbd9e619b	-0.077334605
201	0x3d19c444	0.03754069
202	0xbd7ed050	-0.06221038
203	0xbcc6f0f8	-0.024284825
204	0x3c50e6e1	0.012750358
205	0xbd88f1f8	-0.06686777
206	0x3e323f64	0.17406994
207	0xbc9fbbf1	-0.019498797
208	0x3db0c1cf	0.08630716
209	0xbe278f02	-0.16363147
210	0x3bef29a0	0.0072986633
211	0xbd1f8c8d	-0.0389524
212	0xbd4886d8	-0.048956722
213	0x3cd0af5b	0.025474241
214	0xbe13dcb3	-0.14439659
215	0x3e5e08a7	0.21682988
216	0xbc136f53	-0.00899871
217	0x3e560b05	0.20902641
218	0x3db62525	0.088938035
219	0x3d0441d0	0.032289326
220	0x3e1d660c	0.15370959
221	0x39821799	0.00024813114
222	0x3e1cf90b	0.15329377
223	0x3cb163d3	0.021654045
224	0x3d234332	0.039859004
225	0xbe286c2b	-0.16447513
226	0xbddc6b9e	-0.10762714
227	0x3c36eb78	0.011164539
228	0x3cdb7e97	0.026793761
229	0xbd264f6d	-0.04060309
230	0xbe03772d	-0.1283843
231	0x3c519c7d	0.012793657
232	0x3de4e990	0.11177361
233	0x3c26bebf	0.010177313
234	0x3be88395	0.007095764
235	0xbca2bc6c	-0.019865237
236	0xbcd2a456	-0.025713127
237	0x3d6224ed	0.055210996
238	0x3d4d59e6	0.050134562
239	0x3d3eed47	0.046613004
240	0xbd2006c1	-0.03906894
241	0xbd401a46	-0.046900056
242	0xbde4f668	-0.11179811
243	0xbd16b879	-0.03679702
244	0xbda31fa3	-0.079650186
245	0xbca7071d	-0.020389134
246	0xbe319495	-0.17341836
247	0xbdc13080	-0.09433079
248	0x3ddbb078	0.10727018
249	0xbe7e34b8	-0.24824798
250	0xbd381fd9	-0.044952247
251	0xbd9f8b54	-0.077902466
252	0xbd17642d	-0.03696077
253	0x3cafe9d5	0.021473804
254	0xbd5ed6d2	-0.054404087
255	0xbc922c7f	-0.017843483

network_body.linear_encoder.seq_layers.4.bias f4 [128]
0	0x3cb726b7	0.022357328
1	0x3c9f0375	0.019410828
2	0x3c851956	0.016247433
3	0xbcbefcfe	-0.023313995
4	0x3cbd6a7e	0.023122068
5	0xbbbad6d5	-0.0057018795
6	0xbc4ee4dd	-0.012627807
7	0x3b9e146f	0.004824213
8	0xbc04662b	-0.008080999
9	0xbadf62e5	-0.0017043023
10	0xbc1a050e	-0.009400619
11	0xbc931e1f	-0.017958699
12	0x3d5a35a1	0.0532738
13	0xbcd4c654	-0.025973476
14	0xbc44d15c	-0.012012806
15	0x3c8d371c	0.017238192
16	0xbcc082cd	-0.02349987
17	0xbc9fbe34	-0.019499876
18	0x3c94cd35	0.018164257
19	0xbcbbd122	-0.02292687
20	0x3cae1d6b	0.021254262
21	0x3c0141cd	0.007889223
22	0x3cc055c8	0.023478404
23	0xbcd14ee5	-0.025550315
24	0xb93ff9d6	-0.0001830825
25	0x3d8537d8	0.06504792
26	0xbbe8c449	-0.007103477
27	0x3d014cb4	0.03156729
28	0xba6ebb7c	-0.0009106917
29	0x3d019a91	0.031641547
30	0x3c8552c3	0.016274815
31	0x3c4cdd18	0.012503885
32	0x3a91951e	0.0011107062
33	0xb96ee4ac	-0.00022782636
34	0xbcb70749	-0.022342341
35	0xbcd7f744	-0.026363023
36	0x3c41f6b0	0.0118386
37	0x3ad9386b	0.00165726
38	0xbc682c67	-0.014170743
39	0x3ac1332e	0.0014739984
40	0xbc49d862	-0.012319656
41	0x3be7d19d	0.0070745484
42	0x3a9fd0f9	0.0012193016
43	0x3c942af1	0.018086882
44	0x3d11cf86	0.0355983
45	0xbbf88fef	-0.0075855176
46	0xbbe520c8	-0.006992433
47	0x3c1004cb	0.008790205
48	0xbb1594e5	-0.0022824344
49	0xbca6d156	-0.020363491
50	0xbc5043ab	-0.012711446
51	0xbc684dbe	-0.014178691
52	0x3d106e4d	0.03526144
53	0x3b75653c	0.0037444374
54	0xbbe717a2	-0.007052378
55	0x3c69ecd3	0.014277655
56	0x3c936c3b	0.017995944
57	0xbc23afd6	-0.009990653
58	0x3c9eddff	0.019392965
59	0x3c570a4e	0.013125015
60	0x3c01fbcd	0.007933569
61	0xbc3cde17	-0.01152756
62	0x3d3c78bb	0.046013575
63	0xbadd7d23	-0.0016898256
64	0x3cd59e72	0.02607653
65	0xbc2be71e	-0.010492114
66	0x3d1a2389	0.037631545
67	0x3c8372f0	0.016046017
68	0xbc31d4d1	-0.010853962
69	0xbc2135ee	-0.009839518
70	0x3c80d85a	0.015728164
71	0x3bd3dc45	0.006465467
72	0x3c510f0e	0.012759937
73	0x3c7ae3c7	0.015313095
74	0xbcf4dc57	-0.029890222
75	0xbc64f8cc	-0.013975333
76	0x3d0dc46c	0.03461115
77	0x3d3853f7	0.04500195
78	0x3b8c3c0b	0.0042796186
79	0x3b878258	0.004135411
80	0x3ccfe0fc	0.025375836
81	0xbc1e91ce	-0.009678317
82	0xbc3d34fa	-0.011548275
83	0x3c0dd3b6	0.008656433
84	0x3cd003bb	0.025392404
85	0x3b24e4cb	0.0025160785
86	0x3d485dbc	0.048917517
87	0x3cf90264	0.030396648
88	0x3c3bcb1a	0.011461997
89	0x3ca46900	0.0200696
90	0x3c6926b9	0.014230424
91	0x3bea4fd2	0.0071506286
92	0x3c04baba	0.00810116
93	0x3c60f926	0.013731277
94	0xbc5ae465	-0.013360118
95	0x3a8346dd	0.0010015626
96	0x3d6ad40a	0.057331122
97	0xbc60ddf6	-0.013724795
98	0xbc69643d	-0.01424509
99	0x3c68a506	0.014199501
100	0x3d283739	0.04106829
101	0xbca5e033	-0.020248508
102	0xbb99c99c	-0.004693223
103	0x3d46a2c5	0.048495073
104	0x3d129b36	0.035792552
105	0xbaa043a0	-0.0012227185
106	0x3c2cded4	0.010551173
107	0xbcb2c5f3	-0.021822905
108	0xbc26de64	-0.010184858
109	0xbbc7b9a6	-0.006095129
110	0x3c2945a5	0.010331546
111	0xbb180cfb	-0.0023201096
112	0x3b54d1b9	0.0032473637
113	0xbc15b6d3	-0.009137827
114	0xbcd89aae	-0.026440945
115	0xbc1cb442	-0.009564461
116	0xb98a16e4	-0.00026338466
117	0x3c136e24	0.008998428
118	0xbc548f5f	-0.012973635
119	0xbc522321	-0.012825758
120	0x3addf4af	0.0016933883
121	0xbb7ba6d0	-0.0038398989
122	0x3c858d30	0.016302675
123	0x3cb892ac	0.022530876
124	0x3cc2775f	0.023738561
125	0xbcee0e8c	-0.02905967
126	0xbc3cb84e	-0.011518551
127	0x3d01b15a	0.031663276

network_body.linear_encoder.seq_layers.4.weight f4 [128, 128]
0	0xbd622605	-0.05521204
1	0x3c93fe26	0.018065523
2	0xbd0e01c2	-0.034669645
3	0xbd888853	-0.06666627
4	0x3d3d3575	0.04619356
5	0x3d7beeef	0.06150716
6	0xbd9926bb	-0.074780904
7	0x3d255759	0.040366504
8	0xbac6eda1	-0.001517702
9	0xbd93e75a	-0.07221861
10	0x3e033cf5	0.12816222
11	0x3d6a460f	0.05719572
12	0x3d622675	0.055212457
13	0x3daaaae8	0.08333379
14	0x3dfb089a	0.122575
15	0xbda22310	-0.07916844
16	0xbd39f9e9	-0.04540435
17	0x3cfb22ea	0.030656297
18	0x3ca54ce4	0.020178266
19	0x3d39dbad	0.045375515
20	0xbdf27b08	-0.118398726
21	0x3d19f94e	0.03759127
22	0x3a451c1c	0.0007519142
23	0xbcdd4907	-0.027012361
24	0xbd9017f7	-0.07035821
25	0xbdfd56ca	-0.12370069
26	0x3c3c54df	0.011494844
27	0xbe16296e	-0.14664242
28	0xbb40ff6c	-0.0029449118
29	0xbba1a4f8	-0.004932996
30	0xbda61da7	-0.081111245
31	0xbd89b3a7	-0.06723719
32	0x3d8a95fa	0.06766887
33	0x3da1d55e	0.07902025
34	0xbe2948ff	-0.16531752
35	0xbca23ac4	-0.019803412
36	0x3da5db60	0.08098483
37	0xbbf81c2a	-0.007571717
38	0xbd1deb72	-0.038554616
39	0xbe0594f0	-0.13045096
40	0xbbf32ae2	-0.0074208835
41	0x3e3edb40	0.18638325
42	0xbe1a04f2	-0.15040949
43	0x3e1eef48	0.15520966
44	0x3d1e4aae	0.03864544
45	0x3e068647	0.1313716
46	0x3b7d5272	0.0038653878
47	0x3d85a28f	0.06525146
48	0x3d6e1fcd	0.058135796
49	0x3d1fec42	0.039043672
50	0x3dba8876	0.09108059
51	0x3aeb0ac7	0.0017932289
52	0xbce4aa2b	-0.027913174
53	0x3c3fef28	0.011714734
54	0xbd618af0	-0.05506414
55	0xbe5e31f6	-0.21698746
56	0x3cc03da0	0.023466885
57	0xbcb2918a	-0.021797914
58	0x3e14074c	0.14455909
59	0x3d4745b3	0.048650455
60	0x3df02caf	0.11727273
61	0xbc38a380	-0.01126945
62	0xbe13a66a	-0.1441895
63	0xbd61a334	-0.055087283
64	0x3c1291f9	0.008945935
65	0xbe51e2a6	-0.20496616
66	0xbdc02466	-0.093819425
67	0x3d76e7ad	0.060279537
68	0x3dbc4fa5	0.091948785
69	0xbd3a89a1	-0.04554141
70	0xbe31d601	-0.17366792
71	0x3d5c335b	0.053759914
72	0xbd018178	-0.03161761
73	0x3cd98804	0.026554115
74	0x3dd1f3d0	0.10251582
75	0xbdf12e51	-0.11776412
76	0x3d8a069d	0.06739543
77	0x3cf47b20	0.029843867
78	0xbe15ec35	-0.14640887
79	0xbd4ba0b7	-0.049713816
80	0xbd5827c1	-0.052772287
81	0x3cb23fa6	0.021758866
82	0x3dbb67ee	0.091506824
83	0x3d48e906	0.049050353
84	0x3d392974	0.04520555
85	0x3bbf0aed	0.00583016
86	0x3d612b72	0.054973073
87	0x3dc3068d	0.09522734
88	0x3c1e40b0	0.009658977
89	0x3cf61b75	0.03004239
90	0x3e3880e9	0.18017925
91	0xbd88b57a	-0.06675239
92	0xbe2ceccf	-0.1688721
93	0x3d835c67	0.06414109
94	0x3d50e946	0.051003717
95	0xbd280565	-0.04102077
96	0xbd5b6bf8	-0.053569764
97	0x3d80f321	0.06296373
98	0x3d556e11	0.05210692
99	0xbdb32d48	-0.08748871
100	0x3e0d482a	0.1379706
101	0xbddeecc0	-0.10885
102	0x3e30bf7b	0.17260544
103	0xbda4c39d	-0.08045123
104	0x3d88c05b	0.06677314
105	0xbd1d1a08	-0.038354903
106	0xbd3e02a1	-0.046389226
107	0xbc8fd7e6	-0.017559003
108	0x3d48ef53	0.049056362
109	0xbd866faa	-0.06564267
110	0xbdce77e1	-0.10081459
111	0xbda62181	-0.08111859
112	0xbd8223bf	-0.06354474
113	0xbd08869e	-0.033331506
114	0xbdaf72e6	-0.08566837
115	0x3d02a1fa	0.031892754
116	0x3d4fed6f	0.050763544
117	0x3d29558a	0.041341342
118	0x3e05d2a9	0.13068642
119	0xbccca113	-0.02497915
120	0x3d8e5562	0.06949879
121	0x3c0d8754	0.008638222
122	0x3d22eae5	0.039774794
123	0xbda8a5f1	-0.08234776
124	0x3d5668b2	0.05234594
125	0xbe1a49ae	-0.15067169
126	0x3d49d1d2	0.049272366
127	0xbcbd408b	-0.023102066
128	0x3d86a818	0.0657503
129	0xbd0cb000	-0.034347534
130	0xbdc7bdaa	-0.097529724
131	0xbd9c5411	-0.07633222
132	0x3b147ef4	0.0022658678
133	0x3bac22aa	0.0052531557
134	0xbe637b76	-0.22215065
135	0x3daf76b9	0.085675664
136	0xbda17832	-0.078842536
137	0xbda4ffe0	-0.08056617
138	0x3cb2fc8d	0.021848941
139	0x3d053c0f	0.03252798
140	0xbd843fb2	-0.064574614
141	0x3bc91969	0.0061370623
142	0x3df03d6b	0.117304645
143	0xbc0f1343	-0.00873262
144	0x3e56c758	0.20974481
145	0x3d0adc35	0.033901412
146	0xbda1f634	-0.07908288
147	0xbe27eb3f	-0.16398333
148	0xbd11fc36	-0.035640918
149	0xbbf223d9	-0.0073895273
150	0xbe005c44	-0.12535197
151	0x3d8ae294	0.067814976
152	0xbd43d199	-0.04780731
153	0x3d14f2da	0.036364414
154	0x3dbd0d66	0.09231071
155	0xbd9c0642	-0.07618381
156	0xbd7b8589	-0.061406646
157	0xbe0ecf9e	-0.13946387
158	0xbe4f96e0	-0.20272398
159	0x3dbda748	0.09260422
160	0x3d152dfa	0.0364208
161	0x3d10972d	0.035300422
162	0xbe9fb0b2	-0.31189495
163	0x3d91dcdc	0.07122204
164	0x3da467b2	0.08027591
165	0xbd0066d1	-0.031348053
166	0x3d21717a	0.03941486
167	0xbcad59e0	-0.02116102
168	0xbe3f7eeb	-0.18700759
169	0x3d69a3d7	0.057041015
170	0xbb296923	-0.002585002
171	0xbe0ace22	-0.13555196
172	0xbde78bae	-0.11305939
173	0x3b646312	0.003484909
174	0xbb0c0273	-0.0021363765
175	0x3cecada5	0.028891394
176	0x3da2ba94	0.07945743
177	0x3d9c82a8	0.07642108
178	0x3db7c556	0.08973186
179	0x3d15fdf2	0.036619134
180	0xbe6e9fe1	-0.23303176
181	0x3d862431	0.06549872
182	0x3d1e39a2	0.03862918
183	0xbdc1066f	-0.09425055
184	0xbc404e62	-0.011737438
185	0xbdb7ba95	-0.089711346
186	0x3e12b4f3	0.14326839
187	0xbe29988b	-0.16562097
188	0x3c5888de	0.013216225
189	0xbd997e92	-0.074948445
190	0xbc77452f	-0.015092178
191	0x3c9a9de2	0.018874113
192	0x3d316010	0.043304503
193	0xbde4cf61	-0.11172367
194	0xbdba80f9	-0.09106631
195	0x3e184c1c	0.14872783
196	0x3dd7f235	0.10544244
197	0xbd8145f1	-0.063121684
198	0x3d87ac1b	0.066246234
199	0xbd458875	-0.04822584
200	0x3da88f16	0.082304165
201	0xbd052145	-0.03250243
202	0x3de9dec6	0.11419444
203	0xbde6960d	-0.11259089
204	0x3e27823c	0.16358274
205	0x3de327de	0.110915884
206	0x3b65ec1f	0.0035083366
207	0xbc8bfcaa	-0.017088253
208	0x3c2cde4f	0.010551049
209	0xbde8a775	-0.11360065
210	0x3c3e0ec6	0.011600202
211	0xbe566d52	-0.2094014
212	0x3d5dea47	0.054178502
213	0x3dd53bdb	0.10411807
214	0x3d3f1e4c	0.046659753
215	0xbd0d3768	-0.034476668
216	0x3d4f5098	0.05061397
217	0xbc187fb5	-0.0093077915
218	0xbd8ebb77	-0.0696935
219	0xbd7c5877	-0.061607804
220	0xbac969e2	-0.0015366639
221	0x3cec6612	0.028857265
222	0xbd9958d9	-0.074876495
223	0x3d0d1e3b	0.03445266
224	0xbddd44bd	-0.108041264
225	0xbdf72199	-0.12066955
226	0xbdc8422b	-0.097782455
227	0x3e4260a0	0.18982172
228	0x3e02ba37	0.12766348
229	0xbd412c3a	-0.04716132
230	0x3dcad889	0.09904582
231	0x3ba85ffb	0.005138395
232	0x393d808d	0.00018072333
233	0xbcfa5e83	-0.030562645
234	0x3c40171d	0.011724261
235	0xbadccf77	-0.0016846497
236	0xbcfd36d0	-0.030909926
237	0x3d194f87	0.03742936
238	0xbe22c205	-0.15894325
239	0xbd8632b1	-0.06552637
240	0x3c8b57b6	0.017009597
241	0xbe30c528	-0.17262709
242	0xbd7b521c	-0.061357602
243	0xbe058389	-0.13038458
244	0xbd9d81cf	-0.07690775
245	0x3d7b3f8f	0.06133991
246	0x3de261b7	0.11053794
247	0xbd0284c6	-0.031864904
248	0xbda67f30	-0.08129728
249	0xbe4fd4a4	-0.2029596
250	0xbda5d46a	-0.080971554
251	0xbccb31b4	-0.024803974
252	0xbe851086	-0.2598917
253	0x3e055d93	0.13023977
254	0x3e0dabce	0.1383507
255	0x3c5c1d1b	0.013434674
