Config/results/Env_PPO_21/EnvironmentAgentBehavior/EnvironmentAgentBehavior-6999995.onnx (onnx, 496923 bytes, 10 tensors)

action_model._discrete_distribution.branches.0.bias f4 [100]
000000 e0 12 25 bc 17 3b 02 bd 8b 7f e7 3a 9b 65 0a bd
       -0.010075301 -0.031794634 0.0017661912 -0.033788305
000010 32 1e 05 3b 75 80 d6 bc 72 5d 19 bc 25 f5 87 bc
       0.0020312187 -0.0261843 -0.009360658 -0.016596386
000020 4c 2a be bc 46 d3 07 bd 70 f2 49 bc 0b 72 a6 bc
       -0.023213528 -0.03316047 -0.012325868 -0.020318052
000030 79 50 e7 bc 1b 34 0d 3c 5d 04 ae bc 0b 70 fd 3b
       -0.028236615 0.00861838 -0.021242315 0.007734304
000040 66 b4 87 3c b8 63 e9 bb 8d d8 e0 bc 0a b8 a9 bc
       0.016565513 -0.007122483 -0.02744701 -0.02071764
000050 d1 d6 51 bc 1c 43 b2 3b 30 38 37 bd 9b 53 0c 3d
       -0.012807564 0.005440129 -0.04473132 0.03425942
000060 ec 95 cc ba e9 08 06 bd 25 e2 0f 3d b2 5a bd bb
       -0.0015608645 -0.03272334 0.035127778 -0.005778634
000070 cf 51 d3 bc 6a f5 15 bc 54 7c 12 bd cc 24 9a bc
       -0.025795845 -0.00915275 -0.0357631 -0.018816374
000080 56 94 2d 3b 21 53 30 bd 82 e9 fa 3c 00 f9 b9 3b
       0.002648612 -0.043048028 0.030628923 0.005675435
000090 65 e2 8a bc 01 0d a9 bc fd 1e d0 3c df c5 75 bc
       -0.016953656 -0.020636084 0.025405401 -0.015000789
0000a0 4c 82 36 bd a1 92 06 bb da de 95 bc ce 90 47 bc
       -0.044557855 -0.0020534175 -0.01829474 -0.01218052
0000b0 11 7d d6 3b 02 82 18 3d 22 9f 55 3c f2 f4 5d bc
       0.006545671 0.03723336 0.0130384285 -0.013547169
0000c0 8e 0a d7 bb c9 82 2a ba 2a 33 8e bc 0f 6e ac bc
       -0.0065625375 -0.0006504474 -0.017358381 -0.021048574
0000d0 9e 49 03 bb f8 48 a8 3b f1 e6 b6 3b 7d 46 2b bd
       -0.0020032893 0.0051356517 0.0055817296 -0.04181527
0000e0 cb d6 c7 3c 2e 92 20 3d be a7 c8 bc a1 88 bd bc
       0.024394413 0.039201908 -0.024494048 -0.023136439
0000f0 f0 15 aa bb 98 3d 3c ba b9 aa 33 3d c2 f5 59 3a
       -0.0051906034 -0.0007180809 0.043863986 0.0008314514
000100 49 fd cd 3b 9c 44 fb 3c 99 7b e2 3b a1 98 a7 bb
       0.0062862975 0.030672364 0.0069117066 -0.0051146303
000110 58 60 b8 ba 67 8f ad bc f8 15 ca bc 06 82 13 bc
       -0.0014066799 -0.021186544 -0.024668679 -0.009003168
000120 64 b8 91 3c 81 a1 02 3d 7f 0d 2c 3d 7d 72 fb bc
       0.01778812 0.031892303 0.04200506 -0.03069424
000130 59 94 50 3c a5 1c a3 bc 67 60 f7 bc e2 d0 11 bd
       0.012730681 -0.01991112 -0.030197335 -0.035599597
000140 85 b9 f3 bc 35 0a 84 bc b2 7a 42 bc bf 75 89 bc
       -0.029751549 -0.016118148 -0.011870073 -0.016779779
000150 9c 60 ce bc 05 dc 8a 3c 31 f9 51 3c 63 79 4c bc
       -0.025192551 0.016950617 0.0128157595 -0.012480113
000160 70 fd ac bc 08 83 90 bb 87 a3 b5 bc be 65 27 bc
       -0.021116942 -0.0044101514 -0.022172702 -0.010217128
000170 bb 6e f0 bb e9 73 91 bc 3b ba 80 bc 9a 1a 9a 39
       -0.007337419 -0.017755466 -0.015713802 0.0002939299
000180 9e 11 e3 bc 2a 29 29 bc 26 ec 53 bc 11 da 07 bc
       -0.027718361 -0.010324756 -0.01293472 -0.008291737

action_model._discrete_distribution.branches.0.weight f4 [100, 128]
000000 66 3e 67 3c 6e 4f be 3c 7f d9 a5 3c c7 fb 07 3d
       0.014113998 0.023231234 0.020245312 0.033199098
000010 a1 95 0b 3d 9d a1 0e bd 54 0b 5d 3c 4e 0b 54 bd
       0.034078244 -0.034822095 0.01349147 -0.051768593
000020 db 99 43 bc 5b 9c 0d bc cf 13 d2 3c 12 e4 73 3c
       -0.0119385375 -0.008643235 0.025644211 0.014885919
000030 bf bb 59 3d 4e 3b 7d 3c 4f 78 8e bc a3 b9 31 3d
       0.053157564 0.015456034 -0.017391352 0.043389928
000040 4f 54 b6 bb d3 b3 55 3d 02 7d d7 3c 50 76 37 3a
       -0.0055642496 0.052173447 0.026304726 0.0006998526
000050 42 5e 0c bd bb 38 d8 bc ff 87 86 3c e1 82 9b bc
       -0.03426958 -0.026394239 0.01642227 -0.018983306
000060 49 f0 06 3c b5 98 21 be bf 6f f3 3c 39 19 d4 bd
       0.008235999 -0.1578091 0.02971637 -0.10356373
000070 f0 3b 14 bc 7a 72 32 bd 7c 41 f3 3c 87 0c d2 3c
       -0.009047493 -0.043566205 0.029694311 0.02564074
000080 09 05 03 3c bf 93 4c bc 28 91 99 bc 96 a4 e9 3c
       0.007996806 -0.012486397 -0.018745974 0.028520864
000090 1c de 26 3c 82 5e 99 bb 04 de 23 bc 5a 14 d4 3b
       0.010184791 -0.0046804557 -0.010001663 0.0064721527
0000a0 69 9a 23 3c 25 85 3c 3c 3f 83 9e bd 8e 51 10 bd
       0.009985545 0.0115063535 -0.07739877 -0.035234027
0000b0 86 9c 08 be b4 37 7f bd 33 a9 b9 bc 3a 4d 15 bd
       -0.13340959 -0.062308982 -0.022663688 -0.036450602
0000c0 a5 ef b9 3c 6e c4 f9 bb 06 4f d0 bb 98 c5 3c 3c
       0.02269728 -0.007622293 -0.0063570766 0.011521719
0000d0 2f 36 89 3c 26 ad 10 bd eb 49 c5 bc 0f 34 14 3c
       0.01674947 -0.035321377 -0.024083098 0.009045615
0000e0 2c d9 0e bc 7b b4 bd ba d0 cf 14 3d 4d 80 96 ba
       -0.00871877 -0.0014473343 0.036330998 -0.0011482328
0000f0 b8 c9 81 3c e7 98 a8 3c cc 28 27 3d 10 ab 53 bb
       0.015843257 0.020580722 0.04081039 -0.0032298006
000100 4d a1 b1 b9 3a cc f0 bc 0d 8d d8 bd 9f a3 88 bc
       -0.0003388025 -0.029394258 -0.10573778 -0.016679583
000110 cc b2 69 3c 7a f2 cd 3c ab 4a 62 bd 39 95 88 bd
       0.01426382 0.025140036 -0.05524699 -0.06669087
000120 c9 f4 af bc 79 75 a6 bc 1a 65 43 3c c4 b7 5c 3c
       -0.021479027 -0.020319687 0.01192596 0.0134715475
000130 10 7b 73 bd 48 46 84 3b 0c 18 0f 3c 81 ce 26 3d
       -0.059443533 0.0040366985 0.008733761 0.04072428
000140 27 66 b8 bc b1 71 ad 3b ac 79 15 3a 09 31 12 3d
       -0.022509648 0.005293094 0.00057020294 0.035691295
000150 75 dd e1 bb b3 58 f8 3c 32 40 3e 3c 80 8d da bc
       -0.006892855 0.030315733 0.011611985 -0.0266788
000160 c7 c6 53 3d 9f 0c 25 bd 11 8c df 3c 39 73 84 bc
       0.05170324 -0.04029524 0.027288469 -0.016168224
000170 0b f8 db 3c e6 2c 6b 3d 73 be 6d bd 7e 20 c3 bb
       0.026851675 0.057415865 -0.058042955 -0.005954801
000180 cb 71 0e be 40 23 10 3c e4 b9 9b 3b 33 7d 78 bc
       -0.13910596 0.008797467 0.0047523845 -0.015166569
000190 12 21 1d 3c d4 24 8c bc 46 2b 85 3d 45 9a b8 bd
       0.009590404 -0.017107405 0.065023944 -0.090137996
0001a0 1e 74 ee 3c d6 c3 10 3b 60 f4 88 3c 5d d6 14 bd
       0.029108103 0.0022089384 0.01671809 -0.036337245
0001b0 b6 fa 13 bd 72 2d 90 bc 67 20 95 bc db 90 ad 3c
       -0.03612777 -0.017599795 -0.018203927 0.021187237
0001c0 85 62 39 bd 33 06 ba bc 93 79 ff 3b 43 40 10 3d
       -0.04525997 -0.022708034 0.007796475 0.035217535
0001d0 f3 a6 6e bb f6 be 52 3c b8 e0 31 3d 39 8e a8 bc
       -0.0036415427 0.012862911 0.0434272 -0.02057563
0001e0 3b 5a fb 3c a7 59 42 3d 3b 8b 41 bd 0c b0 af bb
       0.030682674 0.04744878 -0.04725192 -0.0053615626
0001f0 31 32 c3 3c 71 47 89 3d 15 d9 b1 bc 5e 80 ab bd
       0.023827644 0.067030795 -0.021709958 -0.083740935
000200 7b 78 17 bd 20 57 e5 bc 6c f4 00 bc 4e dc 6c bc
       -0.036980134 -0.027995646 -0.007870775 -0.014456822
000210 f2 34 30 bd a4 81 87 bc fd 0f 02 3d d5 a5 00 3c
       -0.043019243 -0.01654131 0.03175353 0.007852037
000220 7d 86 da bc f6 e3 d7 3a 68 f5 80 3a 82 84 11 3c
       -0.026675457 0.0016471136 0.0009838762 0.00888169
000230 db ac f3 bc 95 3a 5b 3c 51 54 8b 3c 72 18 de bc
       -0.02974551 0.013380666 0.017007979 -0.027111266
000240 d1 69 4c 3c 71 0f 03 3b 0e b7 0b bc 44 1e c7 3c
       0.0124764005 0.0019998217 -0.00852753 0.024306424
000250 20 05 98 bc 2d 30 5a 3c ce 9a ac bc ed 2c c9 bc
       -0.018557131 0.01331715 -0.02106991 -0.024557555
000260 91 d3 ab 3b 26 94 ce bc c2 ad 64 bc 70 af 0c bc
       0.0052437265 -0.025217127 -0.013957443 -0.008586749
000270 b0 d2 84 bc 8d 79 cd bc b8 ed bb bc a5 50 52 ba
       -0.016213745 -0.025082374 -0.022940502 -0.0008022881
000280 34 29 13 bd 3a 73 5c bb 03 d3 ac bc 04 39 2a bb
       -0.035927966 -0.0033638016 -0.021096712 -0.0025973925
000290 a6 b0 0d bd 58 dd d9 bb 6f c7 f3 3c e3 a0 2f 3c
       -0.034592293 -0.0066487007 0.029758183 0.010719511
0002a0 12 33 7a 3b 5e f3 b7 bc df c0 92 bc f4 6c ca bb
       0.0038177413 -0.022454914 -0.017914234 -0.006177539
0002b0 10 a4 3c bd 69 9f d5 3c db 55 59 bc bd aa 44 bb
       -0.0460549 0.02607699 -0.013265098 -0.0030008995
0002c0 3c 15 2b bd b9 59 08 3b 2c db 59 3c 70 14 f2 3b
       -0.041768298 0.0020805432 0.013296884 0.0073876902
0002d0 10 79 28 3c b6 a0 cb bc 45 8e ed 3a dd ed 8c bc
       0.01028277 -0.024856906 0.0018124065 -0.017203266
0002e0 74 fd 0c bd 78 3d 7a bc 90 cc 29 bd 1b ec 39 bc
       -0.0344214 -0.015273444 -0.04145485 -0.011347796
0002f0 be a5 22 3c 9f 52 c6 bc 16 7d 8e bd 07 7b 7c 3c
       0.009927211 -0.024209319 -0.06957452 0.015410191
000300 88 b1 4b bc 02 86 49 3d 93 b0 08 bd a1 a1 72 bc
       -0.0124324635 0.049200065 -0.03337152 -0.014809043
000310 b6 9e 83 bc 62 9e 1e 3c 5f 2b e2 3b 7a b5 15 bc
       -0.01606689 0.009681316 0.006902143 -0.009137506
000320 a2 64 fd bc 5c 49 0e 3c b1 86 e4 3c e2 de cd 3c
       -0.030931775 0.008684482 0.027896257 0.025130693
000330 fe 18 50 bc ce 17 d8 bc 5b 3b 30 bd 95 3f 07 3b
       -0.012701271 -0.026378538 -0.043025356 0.0020637263
000340 d7 10 a3 bb fe fd 5b bc 3a c4 6c bb 0e 70 07 bd
       -0.0049763727 -0.013427256 -0.0036127702 -0.033065848
000350 4d a2 86 bb 33 af cb bb 6e ff 91 bc d9 92 af bc
       -0.004108703 -0.0062159537 -0.017821994 -0.021432327
000360 87 d4 2d bc 50 97 c1 bc d7 17 ac bc 64 10 0d bc
       -0.0106097525 -0.023631722 -0.021007461 -0.008609865
000370 ab e9 10 bd 6a e5 18 bc 8f ca 00 bd 39 89 60 3c
       -0.035379093 -0.00933204 -0.031443175 0.013704591
000380 69 cc 16 bd ee d2 7d bb db 61 c6 3c 60 17 ac 3c
       -0.036816034 -0.003873046 0.024216583 0.02100724
000390 a1 b5 a6 bc b2 ed 1c 3c 28 ff a1 bb fc cd 31 bd
       -0.02035028 0.009578155 -0.004943747 -0.043409333
0003a0 6c 33 ab bc e2 07 0b bd ac ce a6 3a 7e 5e 8f bc
       -0.020898543 -0.033943065 0.0012726388 -0.017501112
0003b0 18 ad 3a bb 86 ba eb bb 57 83 d0 3b 75 c6 2e 3c
       -0.002848452 -0.007193866 0.006363313 0.010667433
0003c0 cb 6d a4 bc 6d bb 15 bc 9f df 4d bc 18 9c dc bc
       -0.020071885 -0.009138924 -0.012565522 -0.0269299
0003d0 4e 7a ce 3c 51 55 85 3c 8c a4 ab 3c fd e7 83 3a
       0.025204804 0.016276034 0.020952486 0.0010063645
0003e0 a1 0c c6 3a 95 e7 80 3c c5 58 09 bd bd 57 9e bc
       0.0015109965 0.015735427 -0.033531923 -0.019328946
0003f0 f3 ae 21 bd 38 2b 5b 3c 22 2a 8f 3c 34 54 38 bc
       -0.039473485 0.013377003 0.017476145 -0.011250544

action_model._discrete_distribution.branches.1.bias f4 [2]
000000 ce 19 cb bb cd 19 cb 3b
       -0.0061981445 0.006198144

action_model._discrete_distribution.branches.1.weight f4 [2, 128]
000000 7e 49 a8 bb f2 c3 50 bc 8b a6 72 3b 90 27 b8 bc
       -0.005135714 -0.0127420295 0.0037025537 -0.022479802
000010 2d a8 7d 3b 38 b9 dd 3b 48 5d 25 bc 28 29 80 39
       0.0038704977 0.0067664646 -0.010093041 0.00024444726
000020 5f 75 43 bc e1 93 8d 3b 3a 33 54 3c db ea 26 3c
       -0.011929839 0.004320607 0.0129516665 0.01018783
000030 d1 4d f4 bb 4f 76 37 3a 2a ce a3 3c 1f 54 d9 3c
       -0.0074555655 0.00069985254 0.019995768 0.02652937
000040 a9 22 15 bb 6d 0b 15 3c 8c e1 a1 3b ec b1 ab ba
       -0.0022756255 0.009096962 0.0049402174 -0.001309929
000050 3e 7f 1b 3a 00 3e fe bb f1 9c b7 3c 6d 42 30 3c
       0.00059317413 -0.007758856 0.022413703 0.010758025
000060 e2 79 41 bb f4 92 40 bc 04 b8 46 bb 9d 34 c6 3b
       -0.002952211 -0.011753786 -0.0030322084 0.0060487525
000070 15 54 55 3c e8 5e 69 bb 24 44 36 3c 6c 74 8f bc
       0.013020535 -0.0035609547 0.011124644 -0.017511569
000080 55 e8 3e 3c 07 9d 23 3d 9a 32 d6 3b 26 69 fd ba
       0.011652072 0.039944675 0.006536794 -0.0019333705
000090 f3 44 8a 3c 4c 55 87 bc 08 34 91 bb 45 89 30 3c
       0.01687858 -0.016520165 -0.0044312514 0.010774915
0000a0 ae 86 90 3c c6 2f d4 3b 87 06 0d 3a a9 dc 88 3c
       0.017642345 0.0064754216 0.0005379696 0.016706781
0000b0 04 dd 0a 3c 17 ad 10 bc 12 fa 13 3c 3f ae b6 3b
       0.008475546 -0.00883033 0.009031789 0.005574971
0000c0 a1 fd 00 3c 2f a3 04 3a 3a c7 b7 3c 42 12 6f bb
       0.00787297 0.00050597166 0.022433866 -0.0036479388
0000d0 02 4c 58 3b 96 8c 52 bc 15 62 5c 3c 9c 0c 15 3c
       0.0033004289 -0.012850901 0.013451119 0.009097245
0000e0 18 b9 6e bc 3f ed 0a bc 53 16 25 3c 9e c3 de 3a
       -0.014570497 -0.008479415 0.010076123 0.0016995554
0000f0 85 f2 d7 39 47 b4 6d 3b 9c dc 85 bb fa 74 ef bc
       0.00041188687 0.0036270784 -0.0040851366 -0.029230583
000100 af 0a 8c 3b 45 cb 8b 3c 6c 1e 24 36 5e 8d 35 bc
       0.0042737345 0.0170647 2.4455612e-06 -0.011081068
000110 a4 f2 02 bc b8 36 f7 3b 05 28 59 3c 25 5d 9e bc
       -0.00799242 0.007544365 0.01325417 -0.019331524
000120 d6 ac 17 bc 0f 7a 01 3c 9d 4f 20 3c d6 c7 26 39
       -0.009257516 0.007902636 0.009784606 0.00015905438
000130 cc 3c e1 3b 3e 15 7e bc f2 5a 23 3c 9c bb 94 3c
       0.0068737026 -0.015507994 0.0099704135 0.018155865
000140 f4 36 3d bb c8 a1 b5 bb 49 af ea bb 00 ff 2a bb
       -0.0028871866 -0.0055429675 -0.007162009 -0.0026091933
000150 5b d6 2b 3c 0a d6 dc bc 58 53 3f 3b 00 f0 5d 3b
       0.010488118 -0.02695753 0.0029193964 0.0033864975
000160 99 0e 7c bb 32 aa 22 bd ab f9 c6 3c be 9d 39 bc
       -0.003846085 -0.039713092 0.024288973 -0.011329113
000170 4c ae 1c 3c 9f e5 a7 3a 50 bc 81 3c c9 62 0a 3b
       0.00956304 0.0012809521 0.015836865 0.002111601
000180 d6 f5 d6 3b 13 43 ae 3a 8e 2b 3d bc 17 b1 a1 bb
       0.0065600676 0.0013295136 -0.011546029 -0.004934441
000190 3e 04 f9 3b f5 7e cc ba 58 3d ce 3b d9 0f bb b7
       0.0075993827 -0.0015601801 0.006293934 -2.2299517e-05
0001a0 1a ad b1 bb 2f 6a d7 3b f9 8a fe 3b bc ec 7f 3c
       -0.0054222466 0.0065739374 0.0077680317 0.015620407
0001b0 3a 34 f7 3b 45 98 47 bc 0a 41 96 bc ea 97 d7 b9
       0.0075440677 -0.0121823 -0.01834156 -0.0004112118
0001c0 e1 25 05 bc e1 bd a0 bb c9 e5 52 3c a6 9f 9d 3c
       -0.008126707 -0.004905448 0.012872168 0.019241165
0001d0 23 93 b4 bb 8f e4 02 bd eb ec 7e 3c 66 97 63 3c
       -0.005510704 -0.03195625 0.015559415 0.013891077
0001e0 0d 54 f1 b8 19 60 99 3c ec e9 c2 ba 8e ed 93 3a
       -0.00011507431 0.01872258 -0.001487074 0.0011286007
0001f0 32 96 86 3c a0 61 02 3c 72 9b 49 3c d8 c0 ca bc
       0.01642904 0.007957846 0.012305127 -0.024750158
000200 8f 98 4a bb 71 9c 5a bb 4b 3c 2a bc 0f ba 7a 3c
       -0.0030913686 -0.0033357407 -0.0103903515 0.015303149
000210 e4 5a 05 3c cf a8 39 3b 81 fc 82 3c d4 9e a5 3c
       0.008139346 0.0028329378 0.015989544 0.020217337
000220 dd e8 a1 bc 26 0b ea ba 63 9b 36 3c d1 bd 75 bc
       -0.019764358 -0.0017856106 0.0111454455 -0.014998869
000230 46 66 00 3b ec c8 57 3c bc ae 5b bb 60 f5 4f bc
       0.001959221 0.013170462 -0.0033520898 -0.012692779
000240 e6 7b 08 3c 9b 3c 1b bb 23 29 93 bc e5 ed 02 3c
       0.008330321 -0.0023687247 -0.017963951 0.007991289
000250 a3 84 1d bc 29 81 1c b9 ec 9e a2 3b 78 b9 da bb
       -0.009614143 -0.00014925435 0.0049627926 -0.0066749416
000260 2f 9b 99 bc 14 52 f4 b9 67 db 10 3c 24 ae cd 3b
       -0.018750755 -0.0004660046 0.008841372 0.0062768627
000270 88 6a 85 bc d7 31 93 3c 9a 44 e0 bb a4 6b 85 bb
       -0.01628615 0.017968101 -0.0068441154 -0.0040716697
000280 4c 85 7e 3b 52 11 d4 bc c2 41 96 3b 46 04 a4 bc
       0.0038836775 -0.025887165 0.0045854757 -0.020021569
000290 92 65 6c bc ea 6b 12 3c 3d 1c 9e 3b a4 ea 62 bc
       -0.014428513 0.0089368615 0.0048251436 -0.013849888
0002a0 1b af 91 bc 3c c7 65 bb 6a 69 e1 ba fb bd d6 ba
       -0.017783692 -0.003506138 -0.0017197554 -0.0016383523
0002b0 e4 54 e0 3c ab ab bb bb 8b 33 ac 3c e9 57 4a 3c
       0.027384229 -0.0057272515 0.021020671 0.012350061
0002c0 11 58 d5 ba f8 11 2c bc 59 c9 20 bc e2 92 54 bc
       -0.0016276856 -0.010502331 -0.00981363 -0.012974473
0002d0 d1 7a 19 bb de d3 0b bc a3 ea 4f bc 06 b0 34 3b
       -0.0023419152 -0.0085344 -0.012690219 0.0027570738
0002e0 49 3e a9 3b c0 cf 7d bc 0f b1 1e bc b3 6f 35 3c
       0.0051648957 -0.015491426 -0.009685769 0.011073994
0002f0 46 61 8b 3c 83 46 e5 3b d7 3f 07 3b a0 45 c7 3c
       0.017014157 0.006996931 0.0020637417 0.024325192
000300 99 dd 0c bb 28 14 17 3c bf c0 6c 3c 56 b0 7f bc
       -0.0021494387 0.009221114 0.014450251 -0.015606007
000310 2c 76 09 bc d0 1e bb bb 8b cf 56 bb da 0a 4e 3a
       -0.008389991 -0.0057104602 -0.0032777514 0.00078598934
000320 a1 7f 48 3c 48 ca 9a bc 66 5a 42 bc c4 3e d0 bc
       0.01223746 -0.018895283 -0.011862373 -0.025420554
000330 f3 30 e0 bb 2c 6c 90 3b a8 2d c7 bc 61 a6 3c bc
       -0.0068417727 0.0044074263 -0.024313763 -0.011514277
000340 c3 f3 0e 3c be 0d 4b 35 29 04 37 bc 13 5a 18 bb
       0.0087251095 7.564339e-07 -0.011170425 -0.0023247048
000350 58 9f 56 3c 0c d2 9b 3c 65 75 c7 3a 72 05 64 3c
       0.013099514 0.019021057 0.0015217481 0.013917314
000360 9b f4 ab 3c 39 17 52 3b c8 c3 ea ba 07 50 a9 bc
       0.02099066 0.0032057299 -0.001791113 -0.020668043
000370 c8 8c 40 bb d3 b6 48 bc 93 de 3f 3c 55 8a 4e bc
       -0.0029380787 -0.01225062 0.011710781 -0.012606223
000380 dc 03 2a 3c 0c d8 b4 bb a4 b6 55 bc e6 82 70 3c
       0.010376897 -0.005518919 -0.013044033 0.014679646
000390 ea 58 81 ba 83 6f fc 3b 82 93 ff bc cb 1b 3c bc
       -0.0009868417 0.007703723 -0.031198267 -0.011481236
0003a0 75 b6 e0 bb 75 00 2a bc b0 89 8e bc 05 13 e5 ba
       -0.006857688 -0.0103760855 -0.017399639 -0.0017476982
0003b0 2b 02 90 3c dd 59 b0 3c e9 a9 a0 bb 7a 8b 53 bc
       0.017579159 0.021527225 -0.0049030674 -0.012911672
0003c0 f5 9b 84 3b 12 85 0e 3c 7f bd 66 bc 62 2c aa bc
       0.004046912 0.008698719 -0.014083265 -0.020773116
0003d0 d6 9f 83 3b 02 b9 87 3c ff cc 95 bb e2 f2 02 bb
       0.0040168567 0.01656771 -0.0045715566 -0.0019981195
0003e0 b4 8c a3 bb 38 96 78 bb ab ad e0 3a d8 43 50 3a
       -0.0049911384 -0.0037931334 0.0017141601 0.000794468
0003f0 cb ce b2 bc 75 81 de bb 5c 52 85 39 8f 60 52 bb
       -0.021827122 -0.006790335 0.000254291 -0.003210101

network_body.linear_encoder.seq_layers.0.bias f4 [128]
000000 09 12 c9 ba b9 c6 5b 3c 86 5a 38 bb 54 13 cd 3c
       -0.0015340458 0.013414078 -0.0028130128 0.02503363
000010 60 72 65 3a 78 9d 30 bc 28 eb 16 bb dd 54 05 bc
       0.00087527 -0.010779731 -0.0023028348 -0.008137909
000020 6a 86 e1 3c 86 8f f0 3c 52 d2 44 3d 39 e2 88 3c
       0.027529914 0.029365312 0.04805214 0.016709434
000030 98 b6 82 3c fa 70 37 3c cc 1f 99 3c 18 e4 e7 3c
       0.015956208 0.011196369 0.01869192 0.028307006
000040 54 6a ca 3c 32 b2 66 3c f7 cc 20 bc 11 38 16 bc
       0.024708904 0.014080571 -0.009814492 -0.009168641
000050 7d 74 ae 3b 62 36 38 3a 2d b3 b9 3c 51 1c c3 bb
       0.005323945 0.00070271466 0.022668445 -0.0059543033
000060 90 07 9b 3c fc 9b da 3c af ae 16 3d ae ee a2 3b
       0.018924505 0.026685707 0.036787685 0.0049723005
000070 01 d2 7f bc f2 92 d7 3b cd 09 1f b9 30 da d0 3c
       -0.015614034 0.0065787965 -0.00015167073 0.025494665
000080 24 78 aa 3b bb e0 88 bb dd 18 b0 3c 74 17 c9 bc
       0.00520231 -0.0041771806 0.02149623 -0.024547316
000090 ff 0e 47 bc 3c 8c 44 bc e7 6a e5 3c 2c da ad 3c
       -0.012149571 -0.011996325 0.028005077 0.021222197
0000a0 57 47 0d bd ce a6 9a bb ee 6b 03 bb 95 ae 05 3c
       -0.034491863 -0.0047195917 -0.0020053345 0.008159299
0000b0 d1 2b 5c 3b 30 7b 72 ba 79 08 84 bc 46 1c f0 bb
       0.0033595453 -0.0009249924 -0.016117321 -0.007327589
0000c0 e9 df 0f 3d b5 a9 dd 3c 75 0e dc 3c d3 d3 5f 3b
       0.035125647 0.027058462 0.026862362 0.0034153357
0000d0 be 9a 2d 3c a3 35 20 3c 9a d6 8f bb 88 80 1a bc
       0.010595975 0.009778413 -0.004389596 -0.009430058
0000e0 f2 c0 23 3c 17 50 7b 3c d6 83 cc 3c ec fe 74 bc
       0.009994732 0.015338919 0.024965208 -0.014953356
0000f0 84 7e 3e 3c 81 65 a8 bc 3f 9d 96 3c 74 6e c1 3b
       0.011626843 -0.020556213 0.018385528 0.0059030596
000100 a3 05 cc 3c f5 3f c1 3a b1 cb 98 3c 21 b1 3b 3b
       0.024905032 0.0014743792 0.018651815 0.0028639513
000110 5f b1 e9 3b 68 db 4b 3b eb 11 b9 3b 10 ff d5 3c
       0.00713174 0.0031106118 0.005647888 0.0261226
000120 58 5d d6 bc 01 c8 89 3a 30 2d 8c 3c a5 26 df 3a
       -0.026167557 0.0010511876 0.01711139 0.0017025067
000130 d5 20 4e bb ef 76 c6 3c 23 6b 11 bc 54 3c 67 3c
       -0.0031452675 0.024226634 -0.008875641 0.014113504
000140 1b 81 d4 3b 58 67 eb 3c b8 d3 b3 ba 6d 2b 24 3d
       0.006485117 0.028735802 -0.0013719713 0.040080477
000150 84 7b 8b bc 84 89 1e bc 7b c0 6e 3c 23 3c 8e 3c
       -0.01702667 -0.009676341 0.014572258 0.01736266
000160 6a 73 50 3c f9 fa 8d ba 11 08 0c bc 00 f5 fd 3c
       0.012722829 -0.0010832242 -0.008546845 0.031000614
000170 00 56 fd 3c 38 d0 b9 bb db 79 71 3a 7e 3b e6 bb
       0.030924797 -0.0056705736 0.0009211578 -0.007026135
000180 bb 54 59 3c b1 c5 75 3c 6c 8b 16 3b 15 4b 0d 3c
       0.01326483 0.015000747 0.0022971286 0.008623858
000190 e1 10 1e 3c bd d7 52 bc 26 d7 d1 3c 78 fe 86 3c
       0.009647579 -0.012868819 0.025615286 0.016478762
0001a0 f5 cb 2d b8 8a 80 87 3c 0a d9 dd 3b be 7f a3 3a
       -4.1436364e-05 0.016540784 0.006770258 0.0012473983
0001b0 40 79 bc 3c a1 c4 9c ba f9 79 74 3c 60 9c 17 3c
       0.023007035 -0.0011960455 0.014921659 0.009253591
0001c0 25 15 b3 3b ad 48 b3 3c 98 e4 a4 3c 51 2d 33 bc
       0.005465167 0.02188524 0.020128533 -0.010936097
0001d0 b7 ad f4 3c 0b 73 2a 3c 80 2d 38 3c bc 66 8c 3c
       0.02986799 0.010403405 0.011241317 0.017138831
0001e0 29 33 9c 3c 1b 9f 20 3c bc 7d a1 3c d5 1d 14 3c
       0.019067364 0.009803559 0.019713275 0.009040316
0001f0 ce 32 03 bb 77 fb 20 bc 00 06 5e 3c 36 ff 0d 3c
       -0.0020019296 -0.009825579 0.013551235 0.008666804

network_body.linear_encoder.seq_layers.0.weight f4 [128, 602]
000000 86 a5 0c 3c 7d f3 4d ba a1 f5 52 bb cd 47 8e 3d
       0.008584386 -0.0007856412 -0.0032189863 0.06947289
000010 4a 07 bb bc 4d c7 64 bd bf 2e e6 bc 44 af 98 bb
       -0.022830624 -0.05585413 -0.028098462 -0.004659565
000020 3d 32 d0 bd e9 09 03 3e 76 a7 92 bd 6e 47 3b bd
       -0.10165832 0.12796749 -0.07160847 -0.045722418
000030 90 6d 78 bc 8a 49 22 3d 29 6b 5a bd 5a 73 16 3e
       -0.0151628405 0.039620914 -0.053324852 0.1469244
000040 ab ee 95 3c 04 dd 5e bc 49 86 79 bd 91 0c 93 3d
       0.018302282 -0.013602499 -0.06091908 0.07180131
000050 bb 01 05 be 82 22 71 3d 96 7e 74 3d ee 6b 6d bc
       -0.12988941 0.0588708 0.059691034 -0.0144910645
000060 a3 b8 b6 bc c8 97 ae 3d 37 a2 b8 bd e2 29 bb 3d
       -0.022304839 0.08525044 -0.09015315 0.09138848
000070 57 13 d2 bc d3 98 de bc 2d fb ed bc 9d c4 39 3c
       -0.025643988 -0.027172482 -0.029050434 0.01133838
000080 7c bb de bd dc 08 46 bb 29 eb eb bc a0 85 85 3c
       -0.108756036 -0.0030217683 -0.028798657 0.016299069
000090 59 74 c4 3c 10 55 19 bc 95 50 66 bd 7a 2e dc 3c
       0.02398126 -0.009358659 -0.056229193 0.02687763
0000a0 c5 92 a2 bc 2a a3 f7 bb 7a 9e 38 bd dc 24 91 bc
       -0.019845376 -0.0075572925 -0.04507301 -0.017717771
0000b0 c9 c3 b6 bd 72 f8 e4 3c 02 26 2a 3c 15 da 7b 3d
       -0.08924062 0.0279505 0.010385038 0.061487276
0000c0 44 56 4c bd 41 b7 20 3c f7 49 99 bd 77 e7 c7 3d
       -0.049886957 0.009809316 -0.07484811 0.09760945
0000d0 61 3f 0c 3c 6f 8f d1 bb e7 a4 4b bd 1c 4b 06 3d
       0.008560033 -0.0063952724 -0.04971781 0.032786474
0000e0 96 15 b2 bd b3 0e 88 3d a8 d5 28 bc 79 e3 6a bd
       -0.086955234 0.06643429 -0.010304846 -0.05734584
0000f0 92 6a 64 3c 24 21 c8 bc bd 75 91 bc b5 24 9a bc
       0.013941424 -0.024429865 -0.017756337 -0.018816331
000100 e5 24 2e bd 2a 8b e5 b9 20 fa 6e 3c 32 cf 2e 3d
       -0.042515654 -0.0004378197 0.014586002 0.042678066
000110 ab 5b 88 bd 7f cc 8f 3b 13 69 a7 bb 80 db 5e 3d
       -0.06658109 0.0043883915 -0.0051089614 0.05440855
000120 45 8c 68 bd 4a 7e 49 3d 7d 02 90 3d 73 69 89 3c
       -0.056774396 0.049192704 0.070317246 0.016773915
000130 a3 27 fe bc 5a 4f 92 bc ea 5c 84 bd 70 8d 69 bd
       -0.03102476 -0.017860103 -0.064630345 -0.05701965
000140 b6 10 42 3d 2c 55 87 bd 00 2d 13 3c a5 b5 e2 3c
       0.047379218 -0.06608042 0.008982897 0.027674505
000150 42 9b c4 3c db 10 01 bd 84 5f cd bc a2 03 8a bd
       0.023999814 -0.031510215 -0.02506996 -0.06738974
000160 3f 83 9e 3c 74 fa 8d bb f6 c4 1f 3c e5 a4 e1 3c
       0.019349692 -0.004332835 0.009751549 0.027544448
000170 c8 32 19 3b 34 fc d9 3c 84 5a 2d bd ee 2d d6 bc
       0.0023376215 0.026609518 -0.04232265 -0.026144948
000180 6d f2 3a 3d 27 41 ad 3c ce 7a 14 3c 5d 73 a3 bc
       0.04564135 0.021149231 0.009062482 -0.01995247
000190 a8 5d 0a bb 6b bd 3d bc d8 06 20 3c 2f d5 b5 bc
       -0.0021112952 -0.011580805 0.009767257 -0.02219638
0001a0 19 23 b3 3c 27 5e 9d bd e8 92 1c bc a5 bd 25 3d
       0.021867322 -0.07683974 -0.00955651 0.040464062
0001b0 6f 39 0a 3c cf a4 f1 3c 81 fd 9e 3c cd 25 9b bc
       0.008436545 0.029497532 0.01940799 -0.018938923
0001c0 3b f7 26 3c c7 b6 07 3d 94 57 58 bd 73 a9 86 bd
       0.01019078 0.033133294 -0.052817896 -0.065752886
0001d0 7b 1d 78 3d e9 c4 20 bd 22 e3 11 3d 12 0a 68 bc
       0.06057499 -0.03925029 0.035617 -0.014162557
0001e0 36 fd 2d 3d a7 3f 00 bc 79 00 47 bc 9c 10 51 3b
       0.04247781 -0.007827676 -0.012146109 0.003190077
0001f0 d3 62 bd bd 4c d7 ca bc 0b 74 17 bd b3 06 d7 bd
       -0.09247365 -0.024760865 -0.0369759 -0.10499325
000200 7c 14 46 bd e9 e1 10 bc 9f 01 92 ba be e8 e7 3d
       -0.04835938 -0.008842924 -0.0011139399 0.11323689
000210 6a b5 1c bc c6 66 2a bd b3 47 cf 3c 5d 42 3a bd
       -0.009564737 -0.04160192 0.025302744 -0.045473445
000220 07 c0 25 bd ee 1a 18 3c 60 9b be 3d 21 0d 9c bd
       -0.040466335 0.009283764 0.09306979 -0.07619692
000230 45 0d 13 bd a1 2a 0d bc e6 18 08 3d 49 9e b4 3d
       -0.035901327 -0.008616121 0.03322687 0.08819253
000240 55 ac a0 3c 41 25 5c 3c 90 af 67 3d 1f a2 69 bd
       0.019613424 0.013436616 0.056563914 -0.057039376
000250 75 01 44 bd 70 56 bf 3d 8d 7f d2 3a e1 4e 01 be
       -0.047852952 0.093426585 0.0016059742 -0.12627746
000260 f0 22 a5 3c ea 61 dc bc 3e ae 17 bd 4c 6d 6d bd
       0.020158261 -0.026902158 -0.037031405 -0.05796556
000270 c9 d0 95 3d cc c2 fe 3b fc 55 db 3c 34 cb 11 3b
       0.07315213 0.0077746864 0.026774399 0.0022246363
000280 f7 0a 24 3d 5c a2 ba 3d 58 61 2a 3c fd ee 1f bd
       0.04004952 0.09112999 0.010399185 -0.039046276
000290 4b da 1e bd 13 a4 15 3c 25 e6 66 3d bc 2b c1 3d
       -0.0387824 0.009133357 0.056371827 0.0943217
0002a0 ac b6 09 3d fb 27 8a bd 3a b5 45 3d e4 6c 86 bc
       0.033621475 -0.06745907 0.048268534 -0.016409345
0002b0 4e 68 0d bd 17 1e cb 3c 79 21 8c bc 66 e0 e1 bd
       -0.0345233 0.024794621 -0.017105805 -0.11029129
0002c0 30 0a 3a 3c 78 7a d4 39 fc bd bb bc 6a d6 9b 3b
       0.011354968 0.00040527037 -0.02291774 0.0047557848
0002d0 86 04 6c 3c 60 42 e3 bc 2d b0 dc 3b d0 a2 33 3d
       0.014405375 -0.027741611 0.006734869 0.043856442
0002e0 20 f7 5e 3d a9 09 80 bc df f1 08 bd ab 37 99 3b
       0.054434896 -0.015629606 -0.03343379 0.0046758256
0002f0 4e ba 81 bd df bd 5a bc af e8 b7 bc d2 25 08 3c
       -0.06334363 -0.013350933 -0.02244982 0.008309798
000300 1b ef 83 3d 2f f4 ed 3c d4 2e a6 bd 5d 6f c6 bc
       0.0644209 0.0290471 -0.081144005 -0.024223024
000310 89 1e 73 3c 6f a8 e7 3c 20 0f ab bd 43 84 32 3b
       0.014838823 0.028278558 -0.08352494 0.0027239479
000320 2f b9 75 bd 3a 24 83 3c da 25 7f bd 57 e9 62 ba
       -0.059991058 0.016008485 -0.062291957 -0.0008655986
000330 81 44 60 bc fd 58 90 3c 2f 1b d5 bc 0a 04 d5 3c
       -0.013688208 0.017620558 -0.026013939 0.026002903
000340 d8 ae 4e 3d 4d 93 21 bd 8e 04 cc bb 5c 70 93 bb
       0.050459713 -0.039447118 -0.006226129 -0.0044994783
000350 ef 4f 72 bd 37 1f a3 3d b8 4a a3 3c e8 7a 23 bd
       -0.059158262 0.07964938 0.01993309 -0.039912134
000360 c6 d9 55 bc ff 97 ed 3c 96 58 05 bd 47 f4 1f 3d
       -0.0130524095 0.029003141 -0.032555185 0.03905132
000370 02 af 68 bd 02 70 af bb 59 1e 55 3d 1d 5e cf bc
       -0.056807525 -0.0053539285 0.052030895 -0.025313431
000380 45 01 f4 ba 8c ed 31 bd 5e de 14 bd 76 7e 4a bd
       -0.0018616101 -0.043439433 -0.03634488 -0.04943701
000390 88 e8 c7 bc 71 f6 aa 3d 86 64 b8 bd fd 4c 5a 3d
       -0.024402872 0.08347786 -0.09003548 0.053296078
0003a0 15 cc b3 3d 0e b8 9c bd da 31 b9 bd d1 ca 66 3d
       0.0877916 -0.07652293 -0.090427116 0.056345765
0003b0 87 d9 f5 3c ae 82 f3 bc 29 21 98 bb 00 87 3a bd
       0.030010952 -0.029725399 -0.004642625 -0.045538902
0003c0 15 b5 c9 3c 97 4b a7 3c 95 92 2d bd 91 36 e0 3c
       0.02462248 0.020421786 -0.04237612 0.02736977
0003d0 2d c8 8b bd 67 07 2f bc c2 94 24 bd f1 92 27 bd
       -0.0682529 -0.010682917 -0.04018093 -0.04091162
0003e0 2f 8f ec bc 15 17 3a bd 51 3f 96 bd 48 4b d2 3c
       -0.028876869 -0.04543217 -0.073362954 0.025670663
0003f0 66 1d f1 3b 26 45 d9 bc c0 4b aa bd a7 88 09 3d
       0.007358241 -0.02652223 -0.083152294 0.033577587

network_body.linear_encoder.seq_layers.2.bias f4 [128]
000000 79 2f 48 3c a5 29 f3 ba 88 a1 77 3b b2 35 f6 bb
       0.01221835 -0.001855184 0.003778549 -0.007513725
000010 98 68 5f 3c 77 16 4b 3d 17 e0 93 3a 44 35 0f bc
       0.013635777 0.04958197 0.0011281994 -0.008740727
000020 13 e2 79 bc 04 14 35 bc 9d 1d 0c 3c bf ea 23 3c
       -0.015251654 -0.011052135 0.008551982 0.010004698
000030 6c a1 76 ba ff 6e 87 3c 86 64 95 bc 6e 0b 8d bc
       -0.0009408209 0.01653242 -0.01823641 -0.017217364
000040 c5 54 0d bc 51 a6 2e 3d 6c 27 9a 3b 18 91 e9 bb
       -0.008626168 0.04263908 0.0047044065 -0.007127892
000050 33 d7 23 bc 3d 7e 37 bc e2 77 46 bc ff eb 67 3c
       -0.010000038 -0.011199531 -0.012113543 0.014155387
000060 4c b7 a1 bb 51 8b 90 b9 20 14 a2 3c f5 3b 12 bb
       -0.004935181 -0.0002756962 0.019784987 -0.002231357
000070 0a 99 c6 3c 0d 7c 03 3d ba 13 68 3c 8b f4 bd bc
       0.024242897 0.032100726 0.014164859 -0.023187896
000080 1c 08 fd ba 4c 2a f1 3c 13 56 b5 3b c2 df f0 3b
       -0.0019304785 0.029439114 0.0055339425 0.0073508928
000090 29 86 ac 3c 9e ae 21 3d 23 bd 87 ba 4d b0 e1 ba
       0.021060066 0.03947317 -0.001035605 -0.001721868
0000a0 f9 1b 28 3c 25 f9 67 3c d2 1c 5a bc 02 9d 96 3c
       0.010260575 0.014158522 -0.013312535 0.018385414
0000b0 7c 92 b3 bc d3 bd b8 3c ff 78 98 3c c0 27 8f bb
       -0.021920435 0.022551453 0.018612383 -0.0043687522
0000c0 f9 f5 d2 3b 9b 63 f0 3c 4a b1 29 bc 0f 00 2d bc
       0.0064380136 0.02934437 -0.01035721 -0.010559096
0000d0 5e 2c 39 3d c1 e5 77 3c d3 c8 c7 3b d9 9e 1c bc
       0.045208327 0.015130461 0.006096938 -0.009559357
0000e0 3d 7f 60 bb 34 bf 9a bc ba fc fd 3a 9b 3f a8 bc
       -0.0034255527 -0.01889 0.0019377687 -0.020538142
0000f0 29 69 3f 3c c2 6f 9a bc bb 8b 65 3b 61 40 ff 3b
       0.011682787 -0.018852118 0.0035025913 0.007789657
000100 dd 97 61 bc 39 93 d4 ba 77 50 10 bc 48 25 94 bb
       -0.013769117 -0.0016218192 -0.008808247 -0.004521046
000110 2a bd 24 3d 2d c1 80 bc 00 1f 96 3c bc c7 99 3c
       0.040219463 -0.015717113 0.018325329 0.018771999
000120 2a a5 28 3c ba 83 81 bc 65 b2 b0 3c d0 22 73 bb
       0.010293284 -0.015809882 0.02156944 -0.0037099607
000130 60 7f 9a 3b bd bb a3 3c 02 fb 74 3c ff 97 0d bc
       0.0047148913 0.019986982 0.014952423 -0.008642196
000140 18 dd ec bb 35 2e 66 3c 0e 3f 95 bc 9a 91 bb bc
       -0.007228505 0.014049103 -0.018218543 -0.022896577
000150 88 10 42 bc 8c a1 38 3c bf 9c a5 3c f3 b2 32 3c
       -0.011844762 0.0112689845 0.020216344 0.010906923
000160 9f ed 12 3b cb 43 25 3c 57 9f 14 3d ff 02 de 3b
       0.0022419465 0.010086964 0.03628477 0.0067752595
000170 2c f2 0d 3b e8 49 82 bb 04 68 66 bb 44 6e d2 3c
       0.0021659238 -0.0039760955 -0.0035157213 0.025687344
000180 a6 6d 11 bc 70 fc 67 3c 09 71 1a 3b 10 f1 38 3d
       -0.00887624 0.014159307 0.002356591 0.04515177
000190 a0 5d c3 3c 33 17 39 3c 89 94 a3 bc e1 07 cb 3b
       0.023848355 0.011297035 -0.019968288 0.0061960076
0001a0 3e d3 e5 3b 37 bf a7 bc e5 c4 70 3d c9 86 f6 3b
       0.0070137074 -0.02047692 0.058781523 0.007523392
0001b0 2e 58 91 bb 21 6c 0a 3c 7d 6c ee 3b 7b ae 9e 3c
       -0.0044355607 0.0084486315 0.0072761164 0.019370308
0001c0 17 cf 33 bc d8 ea a1 3b df 85 61 3c 91 e1 a9 bc
       -0.010974667 0.0049413256 0.0137648275 -0.020737441
0001d0 93 c9 fe bb 14 d8 0e 3a 95 55 c7 b9 27 42 47 3d
       -0.0077754944 0.0005449068 -0.0003802 0.048647072
0001e0 de b5 2a 3b ef 6d 8d bc 7e 2c 32 bc c1 db 62 3b
       0.0026048343 -0.017264334 -0.010874866 0.0034615847
0001f0 12 5c 5c bc c5 ea b5 3c 44 fb 3e bc 59 54 38 3c
       -0.013449686 0.022206673 -0.011656586 0.011250579

network_body.linear_encoder.seq_layers.2.weight f4 [128, 128]
000000 56 56 3e bd 58 24 61 3d fb 8a cb bc ce 3c be bc
       -0.046469055 0.0549663 -0.024846544 -0.023222353
000010 95 03 e2 bd 82 9f 26 bd c1 4a 6e 3d 2b 24 0e ba
       -0.110358395 -0.040679462 0.05817676 -0.00054222596
000020 35 90 5d 3d 00 03 1c 3c ce 1a 9a 3d 05 38 e4 3c
       0.054092605 0.0095222 0.07524644 0.027858743
000030 38 81 97 3d 87 e2 20 3b 9e be d6 bc 1b ba 8c 3d
       0.073976934 0.0024549083 -0.02621394 0.06871434
000040 02 3d fa 3c a1 2e c9 bd df 04 e0 3d 68 0d 79 3d
       0.030546669 -0.09823347 0.10938429 0.0608038
000050 63 69 95 3b 8a 52 fe 3c 85 6e 36 3c 35 16 96 bd
       0.004559682 0.031045217 0.011134748 -0.073284544
000060 46 48 05 be 68 0d ab bd 15 06 f0 bd 3b 3b 59 3d
       -0.13015851 -0.083521664 -0.1171991 0.053035002
000070 27 db 87 3d 31 e3 69 bd 93 80 d8 3d e9 d1 8a 3c
       0.06633597 -0.057101432 0.105713986 0.016945796
000080 5f 97 5e bd 99 e8 b9 bd 9c 1d e9 bb 59 5a 85 bc
       -0.054343577 -0.090775676 -0.0071141254 -0.016278433
000090 aa 0e a5 3d 02 1d 0c 3e 4e 37 9d 3d 4d 3d c7 3c
       0.080594376 0.1368294 0.07676564 0.024321223
0000a0 a5 ef c4 3d 16 5d 5a 3d 37 3c bb bc d6 2a e6 3d
       0.09616021 0.05331143 -0.022855861 0.11238639
0000b0 6a 69 f3 3d da 06 85 3d c3 89 02 3d 3f d3 cd bc
       0.118853405 0.064954475 0.03186966 -0.025125144
0000c0 7c c8 32 3c e5 c1 60 be 4b 79 2a 3e 48 cc 06 be
       0.010912057 -0.21948965 0.16647832 -0.13163865
0000d0 c3 5a a1 bc 79 c1 16 bc 29 29 31 bd 3d 98 a1 bd
       -0.019696599 -0.009201401 -0.043252144 -0.07890365
0000e0 bf 68 a5 bd e6 b1 49 3d 15 b5 87 3c e7 ac 88 3d
       -0.08076619 0.049241923 0.016565839 0.066736035
0000f0 1e e4 b5 bd 7a d9 56 3d 3c e0 1e 3d af da e8 3d
       -0.088814005 0.052453496 0.038788065 0.113698356
000100 56 04 96 bc eb 7b ff bd 94 8f 68 bd 16 dc 9b bd
       -0.018312614 -0.12474807 -0.05677755 -0.076103374
000110 63 fb 1c 3e fd 94 28 3d ab 64 ef 3d d1 38 53 bd
       0.15330271 0.04115771 0.11689123 -0.051567856
000120 e6 2f 2e 3d ba b1 7e 3e 86 ed 5c 3c 7e 60 b2 3d
       0.04252615 0.24872485 0.013484364 0.08709811
000130 69 ff 03 be 58 01 45 3e b2 63 63 3d d8 f9 16 3e
       -0.128904 0.19238794 0.055515 0.14743745
000140 7e 8b b0 3c cb 0a be 3d 19 81 a9 bc 57 5f 30 3e
       0.02155089 0.09279402 -0.020691441 0.1722387
000150 04 64 16 bc 90 76 84 3d db 6a 8b 3d 0d ca e4 3d
       -0.009179119 0.064679265 0.068074904 0.11171351
000160 42 f7 ea 3d 3f 62 07 3e 9b 44 12 bd 5a ee 13 3d
       0.11472942 0.13221072 -0.03570996 0.03611598
000170 50 64 74 3d b8 52 a8 3c ad ed 21 3e 0f c6 22 bc
       0.059665978 0.020547256 0.15813322 -0.009934916
000180 3b fd 82 3e 10 34 d4 3d a4 b1 9b 3d 3c 43 ad 3d
       0.25583825 0.10361493 0.07602242 0.084600896
000190 56 e1 24 bd 8d a4 3d be ec da 14 3d f7 80 e4 3c
       -0.04025396 -0.18519802 0.036341593 0.027893526
0001a0 71 89 c2 bd 3b 6f 47 3e 6f 12 fa 3d 66 e8 04 bd
       -0.09498871 0.19476025 0.12210547 -0.032448195
0001b0 b5 ce 07 be 41 a1 f0 3c c9 55 bc bc ca c9 fa bd
       -0.13262446 0.029373767 -0.022990124 -0.122455195
0001c0 16 ae bf bc 7d be 2b 3e 3a 5a c8 bd bf dc c5 bd
       -0.02339844 0.16771884 -0.09782834 -0.096612446
0001d0 fd 80 07 3e 4f 43 70 3d 1d 80 6e bc 73 93 8d 3d
       0.13232799 0.05865794 -0.014556912 0.06912889
0001e0 b0 a6 cd 3c b8 3a 1f 3d f8 44 e6 3d 9d a3 6f 3d
       0.025103897 0.038874358 0.112436235 0.058505643
0001f0 97 b0 35 bc de 9c ed 3d 20 8b 14 3e 20 9b 2e 3d
       -0.011089466 0.11602186 0.14506197 0.042628407
000200 35 fd ed bd 31 d8 44 bd a1 06 aa bd 5c ae 57 bd
       -0.11620561 -0.04805774 -0.083020456 -0.052656516
000210 43 5d 20 3c 64 52 a9 3d af a4 ae bc 6a 05 a3 3d
       0.00978786 0.08267668 -0.021318762 0.07960017
000220 b8 9d a4 3d 22 0b a2 3d f0 42 ae bc 2e bf 9a bc
       0.08037895 0.0791228 -0.021272153 -0.01888999
000230 94 68 e1 bd 29 d0 54 3d c6 ee 26 be f2 d7 13 be
       -0.11006275 0.05195633 -0.16302022 -0.14437845
000240 4e fa d0 3c 05 f0 de 3d d2 b7 1f 3e e8 f9 ba 3d
       0.02550998 0.10885624 0.15597466 0.09129697
000250 88 92 24 3e 62 4a fe bd 88 a3 5a be cf f8 d3 bd
       0.16071522 -0.12416531 -0.21351445 -0.10350191
000260 99 c0 0c 3e 46 f8 da 3d e7 23 18 bd a9 9a da bd
       0.13745345 0.10691886 -0.037143614 -0.1067403
000270 ce 7e 01 be 19 3f 84 bd 26 d9 d0 bc 44 0d 1d 3e
       -0.12646028 -0.064573474 -0.02549417 0.15337092
000280 35 8e f0 3d e9 c1 09 3c 10 92 5c 3e f7 45 25 bd
       0.11745874 0.008408048 0.21540093 -0.040349927
000290 96 6f 36 3d 6a af 07 be 38 05 1d bc 6e 28 88 bc
       0.04454001 -0.13250509 -0.009583764 -0.01662084
0002a0 c4 c1 e7 bd 47 d6 16 3d f2 2a 3b be 0e 48 be 3d
       -0.11316255 0.036825445 -0.18278101 0.09291087
0002b0 96 c6 a9 bd 0e df 2f bc 18 99 1f be a1 3a 18 3d
       -0.082898304 -0.010734333 -0.15585744 0.037165288
0002c0 a4 b8 4b 3c c4 0d 80 3d ff 75 79 bb 2f 35 90 3d
       0.0124341585 0.062526256 -0.0038064716 0.07041394
0002d0 37 f9 86 3c ac aa 1f bd 4f 2e 3d be e4 b7 6a bd
       0.016476257 -0.038981125 -0.18474697 -0.057304278
0002e0 e4 10 50 3c 74 97 e0 3c 1f ff ae bc c9 30 ab 3c
       0.01269934 0.027415968 -0.021361886 0.020897286
0002f0 36 0d a1 3b 63 e1 ec bd 5c 87 af 3d 11 88 e1 3b
       0.004914905 -0.115664266 0.085707396 0.0068826755
000300 2d 8c e4 bb cc 46 99 bd 8f b0 34 bb 3f 33 fa 3b
       -0.006974718 -0.074842066 -0.0027571057 0.0076355035
000310 ec 3c 0e 3e ea 15 ad bd 51 f6 4d 3e 1e f4 8f bd
       0.13890427 -0.084514454 0.20113494 -0.070289835
000320 43 05 9e bd c7 d4 23 3d 75 74 76 bd 35 74 c0 bc
       -0.07715847 0.039997842 -0.060169656 -0.023492912
000330 14 db 8e 3c eb 32 94 bd 79 b2 34 3e cc f9 85 bc
       0.017438449 -0.07236274 0.17646207 -0.016354464
000340 66 04 b4 3d c9 45 28 be a6 88 2f 3c 75 3c 18 bd
       0.087899014 -0.16432871 0.010713732 -0.03716703
000350 b1 a1 46 bd 3c 78 a0 3c bd 9c 14 be 99 58 5e 3e
       -0.048494045 0.019588582 -0.14512916 0.21713485
000360 1b 22 e5 bb ff 49 5b 3e 9c ec b9 3d ad c3 13 3d
       -0.006992591 0.21414946 0.09078333 0.036075283
000370 7c e0 1b 3e 75 5d 0a ba 4d 3e 1c 3e a0 b4 cb 3c
       0.15222353 -0.00052782084 0.15258141 0.024866402
000380 a4 dd 0f 3d cd 7e 29 be 72 a2 d6 bd e5 a8 35 3c
       0.035123482 -0.16552277 -0.10480203 0.011087631
000390 39 f8 c2 3c 04 db 1d bd 9d 28 04 be c3 cb 53 3c
       0.023800002 -0.038538948 -0.12906118 0.012926999
0003a0 78 33 ef 3d 2c 62 01 3c 4e bd bf 3b 23 49 a1 bc
       0.11679739 0.007896941 0.0058514243 -0.019688195
0003b0 ee 46 b3 bc a2 aa 62 3d da c1 4e 3d f6 67 43 3d
       -0.021884408 0.05533851 0.05047784 0.047706567
0003c0 63 d6 16 bd 7b 64 34 bd 05 46 e5 bd 99 a0 0d bd
       -0.03682555 -0.04404114 -0.11194996 -0.034576986
0003d0 98 31 a7 bd a6 71 be bc c2 0d 30 be 6a 04 c2 bd
       -0.08163756 -0.023247551 -0.17192748 -0.09473498
0003e0 a0 50 dc 3d ab 5e 7f be 70 5d 3c bd 55 32 a5 bd
       0.107575655 -0.24938457 -0.045987546 -0.08066241
0003f0 21 c4 1e bd 5e fd c1 3c 29 43 5a bd 7c 1c 79 bc
       -0.03876126 0.023680385 -0.053286705 -0.015204545

network_body.linear_encoder.seq_layers.4.bias f4 [128]
000000 2d d9 a5 3c 0f e6 bf 3c e9 2e 6a 3c 99 99 c0 bc
       0.020245159 0.02342513 0.014293411 -0.023510741
000010 c2 fb c3 3c 21 b3 d6 bb be 26 82 bc 7e 8d bd 3b
       0.023923758 -0.0065521155 -0.015887614 0.0057846894
000020 81 0b cf bb d0 3e 1a bb 3e dd 4f bc ce 26 1f bb
       -0.00631851 -0.0023535974 -0.012687026 -0.0024284604
000030 bb 33 66 3d 3e 15 a9 bc d4 87 d4 bb 92 dd 66 3c
       0.056201678 -0.020640012 -0.0064859185 0.014090912
000040 92 92 cd bc 3a ed a4 bc 30 8d 4d 3c 94 ff de bc
       -0.025094304 -0.02013265 0.012545869 -0.027221479
000050 a8 70 d4 3c 43 66 ac 3b a0 2a a2 3c f4 d2 ef bc
       0.025932625 0.005261214 0.019795716 -0.029275395
000060 cf 6e 79 bb 5d d4 83 3d ea 48 f9 bb 15 c8 fd 3c
       -0.0038060432 0.064369895 -0.007607569 0.030979196
000070 43 44 df bb 58 fb ea 3c 56 f6 5e 3c c8 df 1b 3c
       -0.0068135574 0.028684303 0.013608536 0.009513803
000080 b4 80 43 3b 06 fa 0c ba 24 87 b8 bc d6 09 db bc
       0.0029831352 -0.00053778326 -0.022525378 -0.026738089
000090 9a cc 79 3c fd 57 c6 39 11 ff 78 bc 62 99 38 b8
       0.015246535 0.0003783106 -0.015197531 -4.4011867e-05
0000a0 cd f2 45 bc 1b c3 b6 3b 18 27 1a bb d2 ae a4 3c
       -0.012081814 0.0055774576 -0.0023521837 0.020102892
0000b0 d7 4a 07 3d 64 b6 07 bc 8d 77 1f bc ab 09 e3 3b
       0.033030357 -0.008283231 -0.009733093 0.0069286427
0000c0 64 53 e5 ba 38 47 d4 bc 50 b6 34 bc 0c c9 51 bc
       -0.0017496166 -0.025912866 -0.011029795 -0.012804281
0000d0 03 33 1c 3d c8 e2 2a 3b 36 5a 19 bc 07 c2 39 3c
       0.038134586 0.0026075114 -0.009359887 0.011337764
0000e0 dd 62 5f 3c e2 2f 5a bc 0f cc 91 3c 04 84 eb 3b
       0.013634411 -0.01331708 0.017797498 0.0071873683
0000f0 48 a5 5c 3c 96 ab 19 bc 26 10 54 3d cb 32 74 bb
       0.0134671405 -0.009379288 0.051773213 -0.003726172
000100 2c 05 d2 3c 5a 7f 87 bc c3 bb 10 3d 1b b0 94 3c
       0.025637232 -0.016540218 0.035335314 0.01815038
000110 d4 3e d1 bb 8c 58 20 bc 74 45 63 3c f0 02 12 3c
       -0.0063856635 -0.009786736 0.013871539 0.008911833
000120 ed 38 32 3c 0a 8c 6d 3c 30 fd e5 bc 6c 70 6b bc
       0.01087783 0.01449872 -0.02807483 -0.014370065
000130 e9 6b 14 3d 74 de 48 3d c5 5c 1b 3b e3 f3 2f 3b
       0.036235724 0.049040273 0.0023706418 0.0026848249
000140 d4 e7 04 3d 14 6f 3e bc 8b 1d 70 bc fc bc fa 3b
       0.03244765 -0.011623163 -0.014655481 0.007651923
000150 0c a2 d8 3c e6 57 07 3b c2 55 52 3d a4 96 fe 3c
       0.026444457 0.0020651757 0.051351316 0.03107769
000160 b8 66 50 3c 44 a5 83 3c 8c 93 5c 3c 50 48 c4 3b
       0.012719803 0.016070016 0.013462912 0.0059900656
000170 b5 a1 39 3c 41 cc 5e 3c 59 eb 51 bc 86 60 e1 3b
       0.011330058 0.013598503 -0.012812459 0.0068779616
000180 f0 f6 5f 3d c0 80 74 bc e2 26 70 bc 82 e2 6f 3c
       0.054678857 -0.0149232745 -0.014657708 0.014641406
000190 cc 4d 2f 3d 95 4d a3 bc 59 05 00 bb 44 a1 4c 3d
       0.042798802 -0.019934455 -0.0019534437 0.049958482
0001a0 ee 03 14 3d 2b a9 78 bb a3 a6 c9 3b a2 ac ac bc
       0.03613656 -0.003794263 0.006153898 -0.021078411
0001b0 ef 9b 30 bc fd 0d 11 bc 75 8b 11 3c 00 bc 3f 3b
       -0.010779365 -0.008853433 0.008883347 0.0029256344
0001c0 8b 43 dc ba e6 fe a0 bb 98 fa ed bc f6 c3 14 bc
       -0.0016804797 -0.0049131988 -0.029050156 -0.009079924
0001d0 93 28 00 bb 5a 69 29 3c 9a 11 7a bc 14 2c 03 bc
       -0.0019555434 0.010340059 -0.015262986 -0.0080061145
0001e0 d9 8b 05 bb 04 9a 0a bc e4 07 b2 3c f4 ef de 3c
       -0.0020377545 -0.008459572 0.021732278 0.027214028
0001f0 c9 7c ab 3c b9 9b 14 bd bb c9 8e bc 4f fe 09 3d
       0.020933526 -0.03628132 -0.017430177 0.033689793

network_body.linear_encoder.seq_layers.4.weight f4 [128, 128]
000000 af 45 5e bd 01 d8 86 3c 90 4d f4 bc 02 e0 8f bd
       -0.054265674 0.01646042 -0.029822141 -0.07025148
000010 58 7a 38 3d 47 24 75 3d 3e 69 a0 bd 04 46 20 3d
       0.04503855 0.05984905 -0.07832573 0.039129272
000020 31 66 15 3b 9c 39 98 bd b2 f4 01 3e 10 2f 5a 3d
       0.0022796507 -0.07432863 0.12691 0.05326754
000030 a7 2c 5e 3d 50 e0 a5 3d 7e 41 f6 3d fe 12 9d bd
       0.054241803 0.08099425 0.120242104 -0.07669638
000040 d2 51 50 bd be bc ec 3c 75 7e 7b 3c b2 af 1a 3d
       -0.05085928 0.028898593 0.015349974 0.037765212
000050 ce 75 f1 bd 1d 0c 16 3d 28 75 8a 3b 61 c9 03 bd
       -0.117900476 0.036632646 0.004225392 -0.03217447
000060 be 33 a0 bd 31 94 02 be a5 5f 08 3c 9a 1c 12 be
       -0.07822369 -0.12751843 0.008323585 -0.14268723
000070 c1 cb cc bb ba 76 e3 bb ad 3f ab bd 49 57 85 bd
       -0.0062498753 -0.0069416435 -0.083617546 -0.06510789
000080 00 17 8d 3d 6a 2d a3 3d 2f 70 33 be f7 07 b3 bc
       0.068891525 0.079676464 -0.17523263 -0.021854384
000090 f7 ab 9e 3d 69 d5 08 bc bb 3d 29 bd c8 7e 0c be
       0.077476434 -0.008351662 -0.041318636 -0.13720238
0000a0 59 82 4a bc 1a e9 45 3e 6c fa 11 be f2 17 1c 3e
       -0.012360179 0.19327202 -0.14255685 0.1524351
0000b0 bf 91 30 3d d5 99 05 3e 8c 33 b7 3b da 24 83 3d
       0.043107744 0.13046964 0.0055908617 0.06403513
0000c0 ab f6 79 3d 15 ad 0d 3d e4 73 bc 3d eb eb a5 bb
       0.061026257 0.034588892 0.09201792 -0.005063524
0000d0 0a 21 e4 bc fb ab af 3b d8 d1 7a bd 4e f3 58 be
       -0.027847786 0.005361078 -0.06123528 -0.21186563
0000e0 ab 13 b5 3c ff 73 ab bc 92 ef 11 3e 6b 89 5c 3d
       0.022104105 -0.020929335 0.14251545 0.05384199
0000f0 7a aa f1 3d ea a7 24 bc df 7a 18 be fa 44 66 bd
       0.11800094 -0.010049799 -0.14890622 -0.056218125
000100 e3 31 5f 3c 5d b2 56 be 5d ca b9 bd 9d c3 78 3d
       0.013622734 -0.20966478 -0.09071801 0.060733426
000110 6b f6 ba 3d a6 dd 2e bd 08 21 35 be 47 71 54 3d
       0.09129032 -0.04269185 -0.17688382 0.051865842
000120 fd c2 07 bd c1 1b c6 3c f9 5c ca 3d c3 28 ee bd
       -0.03314494 0.024183156 0.098810144 -0.116288684
000130 b2 9c 86 3d 80 db d9 3c 66 33 15 be 6d 8d 4e bd
       0.06572856 0.026593924 -0.14570388 -0.050427843
000140 f9 ee 50 bd 70 9e c0 3c 4b b4 c3 3d 76 f6 4a 3d
       -0.051009152 0.023513049 0.095558725 0.04955145
000150 46 65 1d 3d 42 f3 93 3b f7 d9 42 3d 24 e1 ba 3d
       0.03842666 0.0045150826 0.04757115 0.091249734
000160 65 8f 09 3c bd 47 09 3d 94 0a 3a 3e b5 81 7c bd
       0.008396004 0.03351568 0.18168098 -0.061647136
000170 0d c8 30 be bf 99 73 3d bf 19 48 3d 2d b6 32 bd
       -0.17263813 0.059472796 0.04885268 -0.043630768
000180 9f 3d 4f bd 59 2a 80 3d 20 38 53 3d 66 0f b5 bd
       -0.050595876 0.06258077 0.051567197 -0.08840828
000190 1f 10 0a 3e ca 21 e2 bd d6 a3 2e 3e 5c 03 a3 bd
       0.13482712 -0.11041601 0.17054686 -0.07959625
0001a0 35 c0 92 3d 5b 4b 16 bd ab 12 47 bd e4 c3 94 bc
       0.07165567 -0.03669296 -0.048601788 -0.018159814
0001b0 ad 79 3c 3d a8 54 88 bd 1c 3f d9 bd da 64 b1 bd
       0.046014477 -0.06656772 -0.1060774 -0.08661814
0001c0 cb e8 75 bd f4 78 0e bd 94 50 bb bd f0 39 ea 3c
       -0.06003646 -0.03478332 -0.091462284 0.02859208
0001d0 31 ce 59 3d 82 d3 13 3d 01 4e 01 3e 1b 14 d0 bc
       0.053175155 0.03609038 0.12627412 -0.025400212
0001e0 9c 1c 70 3d 1a f2 28 3c fc ed 1c 3d f1 ef a2 bd
       0.058621034 0.010311628 0.038312897 -0.079559214
0001f0 b0 4c 2b 3d 80 8e 1c be d1 94 27 3d 72 2d 03 bd
       0.04182118 -0.15288734 0.040913407 -0.032025762
000200 72 c1 92 3d d5 99 23 bd 95 29 bb bd f3 d2 91 bd
       0.07165803 -0.039941628 -0.091387905 -0.071203135
000210 e6 94 48 3a ae a6 f0 3b 9d e8 5f be 0a 66 9e 3d
       0.0007651582 0.0073440885 -0.21866079 0.07734306
000220 83 65 a8 bd e3 fc a0 bd ea ca cc 3c 34 5b f0 3c
       -0.08222487 -0.07860734 0.0249991 0.029340364
000230 d4 6f 80 bd ac 87 34 3c e1 c3 e9 3d 59 6f b0 bb
       -0.062713295 0.011018675 0.11414314 -0.0053843674
000240 d1 57 4e 3e cc d3 23 3d a7 79 94 bd cc 06 1f be
       0.20150687 0.039996907 -0.07249766 -0.15529937
000250 50 66 22 bd e5 f4 3e bc 98 01 01 be 5b ef 84 3d
       -0.039648354 -0.011655067 -0.12598264 0.06490966
000260 2e ce 2a bd 8e 66 0c 3d 46 bc c5 3d d8 8d a3 bd
       -0.041700535 0.03427749 0.09655051 -0.07986039
000270 e5 9d 73 bd f1 64 09 be 08 4f 49 be 8b d1 b5 3d
       -0.05947675 -0.13417412 -0.19659054 0.08877858
000280 12 9c 0c 3d a4 89 24 3d 95 da 9d be 63 ce 94 3d
       0.034328528 0.040170327 -0.30830827 0.07265928
000290 40 f1 a9 3d 07 3f eb bc b7 98 2e 3d 14 69 d0 bc
       0.08297968 -0.028716577 0.04262611 -0.02544073
0002a0 9c 5a 3d be d5 3b 7e 3d f9 43 7b 3b 17 4a 0d be
       -0.18491596 0.06206878 0.0038340075 -0.13797794
0002b0 df 86 ef bd c3 46 d9 3b bc a8 ff 3b aa 77 06 3d
       -0.116956465 0.00663075 0.007802097 0.032828964
0002c0 a7 fd b6 3d d4 59 aa 3d ba 4f ab 3d 8a 1d 1c 3d
       0.08935099 0.083179146 0.08364816 0.03811411
0002d0 19 f4 64 be 01 25 84 3d 38 ff 38 3d fc c3 c9 bd
       -0.22358741 0.064523704 0.04516527 -0.09851834
0002e0 dc ee 55 bc 85 c1 bd bd 28 8d 16 3e 9a 4c 2c be
       -0.013057437 -0.092654265 0.14702284 -0.16826096
0002f0 16 1f 75 3c a8 1d 9b bd d4 58 54 bc 22 1f 85 3c
       0.014961025 -0.07574016 -0.012960631 0.016250197
000300 e6 c4 25 3d a3 a3 d3 bd 8a d8 be bd 9b 15 15 3e
       0.04047098 -0.103339456 -0.09318645 0.14559023
000310 1b 73 e3 3d ef ac 8b bd 1b af 97 3d 0d fe 40 bd
       0.11105939 -0.06820094 0.074064456 -0.04711728
000320 88 d9 b4 3d 94 ff 24 bd 07 52 e9 3d 38 1e eb bd
       0.08830553 -0.0402828 0.113925986 -0.11480373
000330 65 17 24 3e 67 bc ee 3d 1c 98 71 3b 06 57 26 bc
       0.1602455 0.11657029 0.0036864346 -0.010152584
000340 c4 12 34 3c e9 be f2 bd d9 79 f1 3b df 28 54 be
       0.010990802 -0.118528195 0.0073692617 -0.20718716
000350 72 ff 4c 3d 5e c0 e0 3d 0a a4 2f 3d 31 24 10 bd
       0.0500483 0.10974191 0.04288105 -0.035190765
000360 98 26 3d 3d 32 7b 08 bc 43 c1 84 bd c8 9c 5e bd
       0.046179384 -0.008330153 -0.06482174 -0.054348737
000370 a0 ff 5f bb a0 35 19 3d 1e e3 92 bd 1f 14 1c 3d
       -0.0034179464 0.037404656 -0.071722254 0.038105126
000380 89 36 df bd da 2c fd bd cc 9c c9 bd b9 75 45 3e
       -0.10899074 -0.123620704 -0.0984436 0.19283189
000390 c3 b5 fd 3d 11 b1 1d bd 8d 00 c5 3d 23 32 04 3c
       0.12388184 -0.03849894 0.09619246 0.008068594
0003a0 1d 2e 34 3c 67 37 00 bd e0 41 6e 3c bd 51 f4 39
       0.010997322 -0.031302836 0.014542073 0.00046600206
0003b0 80 6e 11 bd 5d 1c 21 3d d3 43 1b be c9 eb 69 bd
       -0.03550577 0.03933369 -0.15162592 -0.057109628
0003c0 f8 01 35 3c 98 b6 2a be 93 fd 66 bd e6 a4 fd bd
       0.011047833 -0.16671216 -0.05639417 -0.123849675
0003d0 c0 1e 9e bd 38 55 66 3d d2 b5 f1 3d e7 54 cd bc
       -0.07720709 0.056233615 0.118022576 -0.025064899
0003e0 78 cb 95 bd ca 21 53 be 6d 29 a2 bd d0 f0 eb bc
       -0.07314199 -0.20618358 -0.079180576 -0.028801352
0003f0 c3 9a 83 be 1c 17 0a 3e b8 9b 04 3e 22 21 2a 3c
       -0.2570401 0.13485378 0.12950027 0.010383876
