Config/results/Env_PPO_21/EnvironmentAgentBehavior/EnvironmentAgentBehavior-7499993.onnx (onnx, 496923 bytes, 10 tensors)

action_model._discrete_distribution.branches.0.bias f4 [100]
000000 87 e9 24 bc f3 0e 0b bd 3f fe f1 b9 f4 89 0a bd
       -0.010065443 -0.033949804 -0.0004615653 -0.03382297
000010 84 75 54 3b e0 8d de bc 48 d4 2f bc d2 fe 76 bc
       0.0032418678 -0.02716726 -0.010731764 -0.015075402
000020 6c 9d b8 bc 22 7e 0f bd 21 e3 6f bc 22 32 b0 bc
       -0.022536002 -0.0350324 -0.014641554 -0.02150828
000030 0a 4f ee bc 06 14 49 3c 85 71 c8 bc 9c 96 d2 3b
       -0.029090423 0.01227284 -0.024468193 0.0064266454
000040 b5 4a 96 3c 69 1b f5 bb f4 be e6 bc f9 12 b0 bc
       0.01834617 -0.007480074 -0.028167225 -0.021493422
000050 f7 ae 73 bc 48 60 44 3b 93 56 33 bd c0 ed 09 3d
       -0.014873258 0.0029964615 -0.043783735 0.033674
000060 56 2f 35 bb 43 65 07 bd 77 b4 11 3d 9d b7 f3 bb
       -0.0027646623 -0.033055555 0.035572495 -0.00743766
000070 18 f1 d6 bc 04 f3 38 bc 8c 21 14 bd 21 8d 9f bc
       -0.02623801 -0.011288408 -0.036164805 -0.019476475
000080 ca 82 0c 3b 40 11 30 bd 27 2a 01 3d 88 0c d5 3b
       0.002144026 -0.0429852 0.03153434 0.006501738
000090 da 52 6a bc c5 a3 b1 bc 1f ac c4 3c 2a 63 91 bc
       -0.01430198 -0.021684537 0.024007855 -0.01774748
0000a0 a3 ec 39 bd 99 1f f0 ba 13 62 96 bc 57 6c 37 bc
       -0.04539169 -0.0018319964 -0.018357312 -0.011195264
0000b0 06 5d 9d 3a 27 a0 11 3d 69 b2 68 3c f1 08 57 bc
       0.0012005873 0.035553124 0.014202693 -0.01312469
0000c0 9d 98 d6 bb e0 7d 22 bb c6 aa 8a bc 9b 80 b4 bc
       -0.0065489546 -0.0024794266 -0.016927134 -0.02203398
0000d0 e4 3f 94 ba 84 a7 ed 3a 68 8d d0 3b 4b 3d 2a bd
       -0.0011310545 0.0018131589 0.006364513 -0.04156236
0000e0 94 20 c8 3c 57 7f 1e 3d 77 75 d9 bc cc 6b c2 bc
       0.024429597 0.03869566 -0.02654527 -0.023733042
0000f0 1a 02 c7 bb 1b b8 63 bb 5e 5d 34 3d 1e 08 8e ba
       -0.0060732486 -0.0034747187 0.044034354 -0.0010836159
000100 a1 91 ac 3b b2 5b 07 3d e6 07 13 3c bd 58 96 bb
       0.0052663838 0.03304643 0.008974051 -0.004588215
000110 62 c1 51 bb 7b 8c ac bc c3 90 d2 bc 82 1a f1 bb
       -0.0032006134 -0.02106308 -0.025703793 -0.0073578963
000120 2f 1f 65 3c c6 2e 03 3d 3d 00 2d 3d 71 80 f1 bc
       0.0139844855 0.03202703 0.042236555 -0.029480191
000130 03 60 42 3c 94 2d 93 bc 1c eb 0b bd ba f7 1a bd
       0.011863711 -0.01796607 -0.034159765 -0.037833907
000140 80 b2 f3 bc aa ea 83 bc f8 10 4e bc 88 f4 91 bc
       -0.029748201 -0.016103107 -0.012577288 -0.017816797
000150 6e fb d5 bc 8e a9 9c 3c 09 8f 6c 3c 95 fc 61 bc
       -0.026120868 0.019123819 0.014438399 -0.01379313
000160 c1 ee c4 bc 19 29 c5 bb 75 ed b9 bc 1a 50 4d bc
       -0.024039628 -0.006016862 -0.022696236 -0.012531305
000170 57 32 0e bc b8 e4 9f bc b4 6d 8d bc 34 b3 ed ba
       -0.008678994 -0.019518241 -0.017264225 -0.0018135072
000180 42 5f e8 bc fa 7a 3d bc 5d fd 67 bc 4e fd 62 bc
       -0.028365735 -0.011564964 -0.014159528 -0.013854338

action_model._discrete_distribution.branches.0.weight f4 [100, 128]
000000 40 86 6c 3c 52 06 bd 3c b5 36 a5 3c f5 be 07 3d
       0.014436305 0.023074303 0.020167688 0.033141095
000010 51 90 0c 3d e7 56 0d bd 2f b0 5e 3c c8 ac 50 bd
       0.03431732 -0.034506705 0.01359181 -0.050946027
000020 d5 b3 42 bc 5f aa f6 bb 6c e3 d0 3c 73 29 76 3c
       -0.011883696 -0.007527634 0.025499068 0.015024531
000030 72 34 59 3d 0b 22 7c 3c de ea 82 bc a1 8e 31 3d
       0.05302853 0.015388976 -0.015981134 0.043348912
000040 56 51 a6 bb 34 b9 55 3d 15 19 ce 3c 1a 3b 94 3a
       -0.005075614 0.052178577 0.025158444 0.0011309118
000050 07 03 0c bd 60 5e d4 bc b8 a5 8b 3c f4 a1 98 bc
       -0.034182575 -0.025923908 0.017046794 -0.018631913
000060 14 3e 0a 3c e9 03 21 be 5f 23 f9 3c e2 35 d2 bd
       0.008437652 -0.15724148 0.030412374 -0.102641836
000070 ef 44 13 bc fc 25 32 bd 62 ad f6 3c 8f e8 c5 3c
       -0.008988603 -0.043493256 0.030111972 0.024158744
000080 2a 20 02 3c 30 ea 43 bc fb 78 93 bc bd 1f eb 3c
       0.007942239 -0.01195769 -0.018002024 0.028701657
000090 03 48 2b 3c 39 47 a6 bb 43 7e 22 bc 9b d9 f8 3b
       0.010454181 -0.0050744084 -0.009917798 0.0075943
0000a0 7f 0b 28 3c a7 a9 3e 3c c5 57 9c bd 76 64 0e bd
       0.010256647 0.011637128 -0.07633928 -0.034763776
0000b0 8a b2 08 be d6 05 7e bd e4 04 b9 bc 1f ce 13 bd
       -0.13349357 -0.062017284 -0.02258534 -0.036085244
0000c0 66 bc bc 3c ac 23 f5 bb 28 aa c8 bb e1 4b 42 3c
       0.023039054 -0.007481059 -0.0061238 0.011858911
0000d0 3c 01 8a 3c a9 b0 12 bd 00 91 c6 bc f9 7d 1a 3c
       0.016846292 -0.035813008 -0.024239063 0.009429448
0000e0 24 53 0d bc 1b 1a d6 ba aa 07 17 3d 1c ad 7d ba
       -0.008625779 -0.0016334684 0.036872543 -0.00096769794
0000f0 3b 30 83 3c 8e f9 a8 3c 49 ec 27 3d 31 d7 4e bb
       0.016014209 0.02062681 0.040996823 -0.003156137
000100 65 cc 6e ba 49 5e f0 bc cb c4 d8 bd 89 06 8b bc
       -0.00091094367 -0.029341834 -0.1058441 -0.01697089
000110 11 c1 6b 3c 5a d0 d0 3c a3 e0 61 bd 95 05 88 bd
       0.014389292 0.025489975 -0.05514587 -0.0664169
000120 0a d6 af bc 16 fe a0 bc 56 82 3f 3c 2d 63 5c 3c
       -0.021464366 -0.019652408 0.011688789 0.01345138
000130 a7 b5 71 bd 01 1c 8e 3b 5c 63 1c 3c 62 cd 26 3d
       -0.059011128 0.0043368344 0.0095451735 0.040723212
000140 b3 c1 bd bc 68 4b b2 3b 5b 6d 03 39 fb 23 13 3d
       -0.023163652 0.005441118 0.00012533872 0.035922986
000150 b3 1b 03 bc ca c9 e7 3c d8 5f 3f 3c ed f8 d7 bc
       -0.0080022095 0.028294463 0.011680566 -0.026363814
000160 91 21 51 3d 3f bc 23 bd 5e c3 e0 3c 58 72 88 bc
       0.051057402 -0.039974447 0.027436908 -0.016656086
000170 94 07 e1 3c 84 a2 6a 3d 6e 9b 6b bd 9b 0a e7 bb
       0.027469434 0.057283893 -0.057521276 -0.007050825
000180 9c 3f 0e be af 30 17 3c 35 7d b1 3b 46 d7 77 bc
       -0.13891453 0.009227916 0.005416537 -0.015127009
000190 d4 45 20 3c 05 ae 8b bc 69 0d 85 3d 21 e3 b7 bd
       0.009782273 -0.017050752 0.064966984 -0.08978868
0001a0 87 2b f1 3c 8e 04 b9 3a 8e ee 88 3c 23 d1 14 bd
       0.0294397 0.0014115737 0.016715314 -0.03633226
0001b0 9e df 13 bd aa 90 9a bc 62 a3 ad bc 5a 85 b0 3c
       -0.03610193 -0.01886781 -0.021196071 0.021547962
0001c0 24 20 39 bd b7 4a b9 bc b1 23 ff 3b 14 b4 10 3d
       -0.045196667 -0.022618635 0.007786237 0.035327986
0001d0 da 71 73 bb db e6 55 3c 45 a4 35 3d 33 d6 9a bc
       -0.0037146718 0.0130555285 0.044346113 -0.018900966
0001e0 0a 6c fb 3c a1 53 42 3d e6 1e 41 bd e0 ff d1 bb
       0.030691165 0.047443036 -0.047148608 -0.0064086765
0001f0 3c 42 c5 3c 8d 0f 8a 3d 79 8b af bc 6e 44 ab bd
       0.024079435 0.06741247 -0.02142881 -0.08362661
000200 d5 1f 20 bd 55 c8 fb bc 04 bf f0 bb e9 24 53 bc
       -0.039092857 -0.030735174 -0.0073469896 -0.012887218
000210 82 91 3a bd 4a 03 85 bc 1f 9d 06 3d 33 99 43 3b
       -0.045548923 -0.01623692 0.032864686 0.0029845953
000220 b9 5a e5 bc a7 cf 35 3b 96 f4 0b 3b 0c 78 1c 3c
       -0.027997361 0.0027742179 0.0021355501 0.009550106
000230 d2 65 03 bd 6c 42 62 3c 8f 26 69 3c 6f 36 e8 bc
       -0.032079525 0.0138097815 0.0142303845 -0.028346268
000240 7c 21 5e 3c ba ee 4b 3b ab 12 08 bc f2 ff cb 3c
       0.013557788 0.0031117634 -0.008305232 0.024902318
000250 ee 3b af bc aa 7a 62 3c af 35 b8 bc 16 7a c6 bc
       -0.021390881 0.013823191 -0.022486536 -0.024228137
000260 e3 47 65 3b e3 1b e5 bc 8e f4 44 bc b8 0c 2d bc
       0.0034985475 -0.027967399 -0.012021197 -0.010562114
000270 de 75 80 bc 88 92 d4 bc 3c 70 cd bc 87 27 3e ba
       -0.015681203 -0.025948778 -0.025077932 -0.0007253815
000280 ac c7 1e bd ab 58 eb ba e2 34 a4 bc 63 a4 bd ba
       -0.03876464 -0.0017955502 -0.020044748 -0.0014468547
000290 e2 0d 18 bd aa 70 bf bb 28 a1 fe 3c 08 71 4c 3c
       -0.037122615 -0.005842288 0.031082705 0.012478121
0002a0 52 0f ab 3b d2 3f cf bc a1 5b 9f bc fc b2 0d bc
       0.005220332 -0.025298987 -0.019452872 -0.00864863
0002b0 fa 42 44 bd 7a 96 d9 3c 44 ea 41 bc fd d3 23 bb
       -0.047915436 0.02656101 -0.011835638 -0.002499818
0002c0 3b a5 33 bd 5c c9 35 3b e8 24 5c 3c f7 31 1f 3c
       -0.043858748 0.0027738428 0.0134365335 0.009716502
0002d0 c0 46 1f 3c e6 b6 d6 bc 27 3d 69 3b 56 11 9a bc
       0.009721458 -0.02621026 0.0035589428 -0.018807095
0002e0 aa f1 12 bd af 7c 73 bc 74 6c 33 bd 67 64 30 bc
       -0.035875 -0.01486127 -0.0438046 -0.010766125
0002f0 36 5b 34 3c 86 8a c1 bc 7f d2 94 bd db 20 84 3c
       0.0110080745 -0.023625623 -0.072667114 0.016128948
000300 6c 67 57 bc 8d 8d 51 3d 96 03 0d bd c6 a3 90 bc
       -0.013147216 0.051160384 -0.034427248 -0.017656218
000310 cd ae 7f bc fb a6 32 3c 61 74 d9 3b 59 18 4b bc
       -0.015605641 0.010904069 0.006636188 -0.012395942
000320 0e 94 f9 bc f2 cc f8 3b b4 4a f2 3c 02 d0 d1 3c
       -0.030466106 0.0075927908 0.029576637 0.025611881
000330 d6 44 81 bc a0 f3 ef bc 2b 56 3a bd dc ca 5c 3b
       -0.015779894 -0.029290974 -0.045492332 0.003369025
000340 2b f9 bc bb 66 87 41 bc c8 1e 41 bb da c8 0f bd
       -0.005767008 -0.011812067 -0.002946781 -0.035103656
000350 6c 7e 4a bb a3 e4 13 bc 24 b9 a3 bc b6 c4 c4 bc
       -0.0030898107 -0.009026679 -0.019985743 -0.02401958
000360 c8 d2 17 bc 39 c6 ca bc fc b4 ba bc 13 98 1a bc
       -0.009266563 -0.024752723 -0.022791378 -0.009435671
000370 49 c7 1f bd 36 2a 1e bc c3 53 fc bc 84 58 64 3c
       -0.039008413 -0.009653619 -0.03080166 0.013937119
000380 4b d8 23 bd 57 71 59 bb fe 7b cf 3c c4 63 af 3c
       -0.040001195 -0.0033179128 0.025327679 0.021409877
000390 91 80 b6 bc 63 a0 2c 3c a0 88 6d bb a8 16 3e bd
       -0.022278102 0.010536286 -0.0036244765 -0.046408325
0003a0 9b 4e bd bc 2e f9 06 bd 82 12 06 3b fe 85 8a bc
       -0.023108771 -0.03295248 0.002045781 -0.016909596
0003b0 e7 1b 19 bb 80 45 19 bc ae 25 aa 3b 8b 16 31 3c
       -0.0023362578 -0.009354949 0.00519248 0.010808597
0003c0 6f d0 98 bc 77 c3 26 bc ca f7 3b bc 50 75 d5 bc
       -0.018654076 -0.010178438 -0.011472652 -0.026056916
0003d0 cc 76 d2 3c 74 f0 8a 3c 43 b0 b2 3c 3b d8 1b 3a
       0.025691412 0.01696036 0.021812564 0.00059450016
0003e0 e2 f3 db 3a 0e fc 86 3c 91 a6 1a bd 98 a4 b5 bc
       0.0016781057 0.01647761 -0.037756506 -0.022173211
0003f0 75 33 24 bd e1 eb 72 3c 9f d6 95 3c da 22 67 bc
       -0.040088136 0.014826746 0.018290816 -0.01410743

action_model._discrete_distribution.branches.1.bias f4 [2]
000000 ac bd 9d bb ac bd 9d 3b
       -0.0048138704 0.0048138704

action_model._discrete_distribution.branches.1.weight f4 [2, 128]
000000 f1 c9 98 bb 93 f0 fb bb 32 ac 7d 3a e9 a1 ab bc
       -0.004662745 -0.007688591 0.0009676843 -0.020951228
000010 25 80 15 3c 84 74 c2 3a 4f 79 43 bc d3 16 7a 3b
       0.00912479 0.001483575 -0.011930778 0.0038160577
000020 8d a5 24 bc 99 9d b7 3b 0c 45 33 3c e4 aa 74 3c
       -0.010049236 0.005603504 0.010941755 0.014933322
000030 07 e8 d6 bb 7f 98 c3 ba a8 71 bb 3c 59 6a d7 3c
       -0.0065584215 -0.0014922767 0.022881344 0.026295828
000040 ea 80 53 bb 8f 17 1f 3c 8b 29 db 3b 9a 55 fb ba
       -0.0032272884 0.009710207 0.006688302 -0.0019175292
000050 d5 dc 37 3b 09 c5 09 bc 8d 63 bf 3c ac 6a 87 3c
       0.002805521 -0.008408793 0.0233629 0.016530357
000060 04 a4 69 3a a3 1c 24 bc 7e 7f 66 bb 95 8e 88 3b
       0.0008912685 -0.010016593 -0.0035171206 0.0041673877
000070 d8 29 38 3c 83 dd b7 bb c0 67 41 3c 33 a2 7b bc
       0.011240445 -0.005611123 0.011804521 -0.0153584955
000080 8d 6f 5b 3c 71 03 22 3d 59 7b e3 3b 8f 6d bb bb
       0.013393295 0.039554063 0.0069421944 -0.0057198475
000090 82 4f 94 3c e7 f6 81 bc 0c 2e 09 bb 6d 92 33 3c
       0.018104319 -0.015864803 -0.0020931987 0.010960204
0000a0 02 df b6 3c a2 16 aa 3b db c4 d2 3a 06 01 92 3c
       0.022323135 0.0051906863 0.0016080396 0.017822754
0000b0 61 1a 17 3c 15 4e 19 bc 14 60 d6 3b 1b 3d 90 3b
       0.009222598 -0.009356995 0.006542215 0.0044018156
0000c0 30 3e 36 3c e0 4c 92 39 6d 79 d5 3c b3 54 94 bb
       0.011123225 0.00027904566 0.026058877 -0.0045266985
0000d0 d5 6b aa 3b dc 00 41 bc 00 22 70 3c b7 53 fa 3b
       0.005200843 -0.01177999 0.014656544 0.007639374
0000e0 9c e1 15 bc a6 95 28 bc 81 57 21 3c a3 09 b5 3a
       -0.009148028 -0.010289585 0.009847523 0.0013812076
0000f0 33 36 bc 38 91 01 6d 3b f8 62 ff ba 76 e7 f9 bc
       8.974634e-05 0.0036164264 -0.0019484451 -0.030505877
000100 05 9e 85 b7 12 ec 83 3c ce 87 8d 38 c3 e7 34 bc
       -1.5928419e-05 0.016103778 6.7486995e-05 -0.011041584
000110 00 b6 b9 bb d1 62 d3 3b 91 c6 56 3c 30 d6 89 bc
       -0.005667448 0.006450989 0.013108865 -0.016825765
000120 5a 29 04 bc 36 4a e0 3b c4 f7 03 3c 26 16 2e 39
       -0.0080665 0.006844784 0.008054677 0.00016602184
000130 dc aa 02 3c ee 96 60 bc 21 24 49 3c 69 cd 8b 3c
       0.007975306 -0.013707859 0.01227668 0.01706572
000140 47 9d f8 b9 18 7f ea bb 80 ae c5 bb 8a 41 21 ba
       -0.00047419427 -0.007156264 -0.006032765 -0.00061514287
000150 1f 26 21 3c 95 3f d2 bc 57 28 8b 3b 77 6b 9e 3b
       0.009835749 -0.025665084 0.0042467522 0.004834588
000160 27 ab b7 bb 15 b5 18 bd e5 ce d9 3c 02 3d 13 bc
       -0.0056051197 -0.03728207 0.026587913 -0.008986713
000170 c1 47 3b 3c b8 66 5a 3b 98 db 7e 3c 40 15 7e bb
       0.011430682 0.0033325385 0.015555285 -0.003876999
000180 9d 54 04 3c 88 26 b3 3a 46 2a 3d bc 24 67 e8 bb
       0.008076814 0.00136681 -0.011545723 -0.0070923734
000190 39 a0 f8 3b 7d 36 7e bb 79 02 3b 3b a5 15 74 3a
       0.0075874594 -0.0038789802 0.002853541 0.00093110866
0001a0 15 68 91 bb a1 10 b4 3b 48 41 b5 3b 9b fb 61 3c
       -0.0044374564 0.0054951464 0.005531464 0.013792898
0001b0 02 91 a9 3b 4b 73 03 bc 31 7a 93 bc 07 4b a9 bb
       0.005174757 -0.008023093 -0.018002601 -0.0051664147
0001c0 53 a8 12 bc 6a 32 0c bc 55 36 40 3c 8c 9f a3 3c
       -0.008951264 -0.0085569415 0.011731704 0.019973539
0001d0 3a c0 c4 bb df 94 fd bc 19 ad 63 3c 8c 07 94 3c
       -0.0060043605 -0.030954776 0.01389625 0.018070005
0001e0 ad 13 1c 3b c0 9e 8a 3c d7 96 48 3a 0b d0 b8 b7
       0.0023815439 0.016921401 0.00076518714 -2.2031387e-05
0001f0 aa 2e b0 3c a6 d9 f2 3b 3e 63 4a 3c dc c8 c8 bc
       0.021506626 0.0074111996 0.012352763 -0.02450984
000200 8d 97 69 bb c0 72 09 bc d0 da fa bb c2 ae 61 3c
       -0.003564331 -0.008389175 -0.007655479 0.013774576
000210 2d 13 3d 3b 48 f8 04 3c 8e 0a 92 3c a4 5c 88 3c
       0.002885054 0.0081158355 0.017827298 0.016645737
000220 c9 50 b1 bc 11 19 49 bb 91 89 57 3c ea be a1 bc
       -0.021644967 -0.0030685107 0.013155357 -0.019744355
000230 6b 35 8b 3a 6e b3 7b 3c 61 65 cc bb e2 21 4c bc
       0.0010620778 0.015362604 -0.0062376712 -0.01245925
000240 7c 13 18 3c 31 6d 43 bb 21 7b a1 bc 53 e2 0c 3c
       0.009281989 -0.0029819722 -0.019712033 0.008598882
000250 e5 c3 41 bc 27 40 03 3a 53 84 83 3b 87 ef 4b bc
       -0.01182649 0.0005006813 0.004013577 -0.0124472445
000260 98 17 b9 bc 74 63 10 bb 4c cd 18 3c 16 aa 05 3c
       -0.022594258 -0.0022031935 0.00932629 0.008158227
000270 cb aa 6d bc 5c fd a3 3c bb 8b f6 bb e0 f8 cb bb
       -0.014506052 0.020018272 -0.0075239814 -0.0062247366
000280 41 68 0c 3b 32 de d0 bc fc f8 88 3b 7a ff 84 bc
       0.0021424445 -0.025496576 0.004180072 -0.016235102
000290 60 3d 80 bc 02 af 07 3c 6f fe 22 3b cd f3 65 bc
       -0.015654266 0.008281471 0.0024870893 -0.014035177
0002a0 72 07 b8 bc c7 94 11 bb 82 d5 36 bb 92 81 34 bb
       -0.022464488 -0.0022213922 -0.0027898257 -0.002754305
0002b0 3d 36 da 3c a4 69 aa bb 91 98 c0 3c 72 90 5d 3c
       0.026637191 -0.0052005816 0.02351025 0.013523208
0002c0 22 d7 9f bb 2b 5a 28 bc be 2d 5c bc 19 2d 46 bc
       -0.0048779408 -0.010275404 -0.01343864 -0.012095713
0002d0 36 03 8b bb 96 5f 1d bc 97 aa 63 bc 6d 1d 8a 3b
       -0.004242326 -0.009605309 -0.013895652 0.0042149336
0002e0 0f 0c 87 b9 57 27 60 bc 41 f2 1a bc e8 a6 3a 3c
       -0.0002575819 -0.013681254 -0.009457172 0.011392333
0002f0 e5 04 8e 3c d1 9f e5 3b 61 fb 98 b8 1f b8 d1 3c
       0.017336318 0.007007577 -7.294748e-05 0.025600491
000300 0c 43 0c 3b 97 d2 26 3c fd af 6b 3c f2 2a 80 bc
       0.0021402268 0.0101820445 0.014385221 -0.015645478
000310 d4 8d 2f bc f1 4a 97 bb ad 49 4d bb 4b 6a e1 ba
       -0.010714967 -0.004617088 -0.0031324432 -0.0017197815
000320 24 fc 34 3c ba 1f 92 bc 99 02 26 bc 60 4d d0 bc
       0.011046443 -0.017837394 -0.010132455 -0.02542752
000330 e7 24 02 bc 0e df 2a 3b 26 12 da bc f4 c9 2a bc
       -0.0079433685 0.0026072892 -0.026619982 -0.010424126
000340 d9 d5 ce 3b b9 8e d3 3a 8b 84 49 bc 52 84 8d bb
       0.0063121137 0.0016140557 -0.012299667 -0.0043187523
000350 87 4f 61 3c 96 3b 91 3c 99 d6 4b 39 c5 4b 4c 3c
       0.013751871 0.017728608 0.00019439532 0.012469237
000360 81 5d ba 3c e8 16 4b 3a c1 05 86 bb 5e 80 bc bc
       0.022749664 0.0007747249 -0.0040900414 -0.023010429
000370 41 79 9d bb c3 53 6a bc 8d 7b 44 3c 9d d8 d8 bb
       -0.0048057144 -0.014302197 0.011992347 -0.006617619
000380 37 2a 11 3c ee 10 b6 bb f3 b7 55 bc f7 ee 89 3c
       0.008860162 -0.0055562174 -0.013044345 0.01683758
000390 e2 91 7f ba 82 35 24 3c 7b 64 e3 bc a4 ba 4b bc
       -0.0009749216 0.010022523 -0.027757874 -0.012434635
0003a0 c2 7d 00 bc b9 53 18 bc 96 6e 78 bc 31 5a a7 38
       -0.007842483 -0.009297305 -0.0151630845 7.97998e-05
0003b0 03 6b a3 3c 6d 47 8e 3c 90 c5 ab bb b3 a2 05 bc
       0.019948488 0.017368043 -0.005242057 -0.008156466
0003c0 da a0 9f 3b 8f 58 4a 3c 07 0e 54 bc 4a 2c b0 bc
       0.00487147 0.012350216 -0.0129427975 -0.021505494
0003d0 ef cc 93 3b 94 09 7f 3c c6 9a 3e bb da 68 ca bb
       0.004510514 0.015566248 -0.0029083951 -0.00617705
0003e0 ce 5b f5 bb 17 8b 02 bb 22 0f 0d ba d9 f2 fe 3a
       -0.0074877506 -0.001991933 -0.0005380978 0.0019451036
0003f0 3e 67 dc bc e2 97 cc bb 04 b2 58 39 56 20 62 bb
       -0.026904698 -0.006243692 0.00020665681 -0.0034504137

network_body.linear_encoder.seq_layers.0.bias f4 [128]
000000 12 18 4d b9 92 45 5d 3c d1 48 c9 ba 45 c8 c6 3c
       -0.0001955929 0.013505356 -0.0015356784 0.024265418
000010 8c d2 3b 3b b0 3c ff bb 0e 07 01 b9 6f 04 00 bc
       0.0028659431 -0.007789217 -0.00012305027 -0.007813557
000020 e8 4a ea 3c d1 01 f4 3c 13 b8 44 3d f7 ed 84 3c
       0.028600171 0.029786022 0.04802711 0.016226752
000030 3e 12 81 3c 53 a8 21 3c 08 05 b3 3c b6 4d e6 3c
       0.015755769 0.009866792 0.021852985 0.028113227
000040 a5 9b cc 3c 2d 90 5f 3c b0 16 50 bc 54 e5 ad bb
       0.02497656 0.013645214 -0.012700722 -0.005306879
000050 bf e6 cb 3b 9c d8 35 39 48 f7 c5 3c 51 b5 bf ba
       0.0062225754 0.00017342198 0.024165764 -0.001462618
000060 45 5b a0 3c 00 4a c9 3c 7c ee 21 3d ed ab e7 3b
       0.01957477 0.024571419 0.039534077 0.0070700557
000070 11 7f 65 bc fb a9 ed 3b de a4 fb ba 35 c7 c9 3c
       -0.014007346 0.0072529293 -0.0019198915 0.024631122
000080 d6 14 02 3c 39 19 c3 bb 2c 33 b2 3c 36 e5 c5 bc
       0.007939538 -0.0059539345 0.021752916 -0.024157148
000090 cf cb 4e bc 6a 79 43 bc 04 f6 e7 3c df 66 a6 3c
       -0.012621834 -0.011930803 0.028315552 0.020312725
0000a0 7f d0 15 bd d8 df 58 bb 1d de af ba 4b b1 eb 3b
       -0.03657579 -0.0033092406 -0.0013417635 0.007192766
0000b0 33 4b 54 3b d4 68 98 3a ab 88 70 bc a0 8a e0 bb
       0.0032393455 0.0011627921 -0.014681022 -0.006852463
0000c0 ea 3f 10 3d eb 28 cd 3c fb 45 d4 3c 99 83 08 3b
       0.035217203 0.025043925 0.025912276 0.0020830391
0000d0 d6 d2 36 3c 94 95 fa 3b 5b 08 d2 bb aa f4 03 bc
       0.011158666 0.0076472256 -0.0064096875 -0.008053938
0000e0 b8 47 fd 3b 15 84 74 3c 64 48 cd 3c 60 03 5f bc
       0.007729497 0.014924069 0.025058933 -0.0136116445
0000f0 e1 fa 47 3c 00 04 a0 bc d2 3d a3 3c 14 fd ff 3b
       0.01220581 -0.019533157 0.01992694 0.0078121517
000100 c6 ac c7 3c 06 46 1d ba 9e 69 99 3c 26 ab 69 3b
       0.024374377 -0.0005999509 0.01872712 0.003565499
000110 ad 59 12 3c f8 0b ae 3b 47 0f 1c 3b 62 50 db 3c
       0.008932513 0.0053114854 0.0023812817 0.026771728
000120 4c f1 e5 bc 7a f7 c1 ba 8b 64 7f 3c 48 90 95 3a
       -0.02806916 -0.0014798485 0.015587936 0.0011410797
000130 10 9e e0 ba a8 4a b9 3c c2 d4 02 bc ab d8 55 3c
       -0.001713695 0.022618607 -0.007985296 0.013052146
000140 cd 9f db 3b d2 b7 e2 3c 37 17 85 3a 7a 40 22 3d
       0.0067023993 0.027675543 0.0010154013 0.03961227
000150 64 1c 87 bc 3a e0 a7 bb 85 c4 6b 3c de 3d 81 3c
       -0.01649303 -0.0051231654 0.014390116 0.01577657
000160 97 83 58 3c 7b e2 e2 ba f2 cd d9 bb 74 db e8 3c
       0.013214967 -0.0017309928 -0.006646865 0.028424956
000170 82 c0 ff 3c d9 0f b5 bb 60 5a 84 3b cf fd a4 bb
       0.031219725 -0.005525571 0.004039094 -0.005035139
000180 1d 53 61 3c d8 92 71 3c 7e ac 68 3b 6b f4 28 3c
       0.013752726 0.014744483 0.0035503204 0.01031218
000190 30 91 25 3c f6 8d 67 bc 4f 06 ce 3c 7b 61 8e 3c
       0.010105416 -0.014132967 0.025149493 0.017380467
0001a0 d4 31 24 b9 aa f8 88 3c cb 83 25 3c 64 70 36 3b
       -0.00015658821 0.016720135 0.010102223 0.0027837986
0001b0 2b d0 b5 3c 5f f6 1d 3b 8f 2e 7a 3c cc f9 f6 3b
       0.022193989 0.0024103147 0.0152698895 0.0075371023
0001c0 e2 4b bf 3b f8 79 c1 3c b3 01 a9 3c 65 01 6f bc
       0.0058379034 0.02361773 0.020630693 -0.014587735
0001d0 4c 01 ed 3c 34 66 2e 3c a3 8c 45 3c a8 33 96 3c
       0.028931282 0.010644484 0.012057456 0.018335178
0001e0 a3 84 97 3c ad e2 1a 3c 95 9f a7 3c c4 3c 1e 3c
       0.018495863 0.009453458 0.020461837 0.009658042
0001f0 8d dd 42 3a 13 6f f5 bb a1 3d 51 3c a2 89 27 3c
       0.00074335263 -0.0074900477 0.012771041 0.010225685

network_body.linear_encoder.seq_layers.0.weight f4 [128, 602]
000000 a3 75 b4 3b ad 91 1b 3b 9c 20 86 bb 3c d6 87 3d
       0.0055071875 0.0023737953 -0.004093243 0.06632659
000010 4a 07 bb bc 77 f9 64 bd 99 36 f5 bc 13 a0 c4 ba
       -0.022830624 -0.05590197 -0.02993326 -0.0015001319
000020 9b fc d1 bd 43 a2 ff 3d 76 a7 92 bd 98 79 3b bd
       -0.10253259 0.12482121 -0.07160847 -0.045770258
000030 e1 6e 7c bc 71 3a 2f 3d df ff 5d bd 92 3a 13 3e
       -0.015407295 0.042780343 -0.054199096 0.14377812
000040 ab ee 95 3c 98 a5 5f bc f4 27 72 bd 07 85 99 3d
       0.018302282 -0.0136503205 -0.059120134 0.07496076
000050 f3 e6 05 be 66 3f 64 3d 96 7e 74 3d 82 34 6e bc
       -0.13076381 0.055724524 0.059691034 -0.014538886
000060 a7 c7 b6 bc 3e 10 b5 3d 95 6c ba bd 51 b8 b4 3d
       -0.022311999 0.088409886 -0.09102742 0.08824218
000070 57 13 d2 bc 1b fd de bc c3 17 ee bc 34 88 6d 3c
       -0.025643988 -0.0272203 -0.029064065 0.014497805
000080 da 85 e0 bd 28 1d ca bb 29 eb eb bc 58 21 85 3c
       -0.1096303 -0.0061680265 -0.028798657 0.016251251
000090 02 75 aa 3c fa 22 cb bb 4b e5 69 bd 48 68 c2 3c
       0.020807747 -0.006199238 -0.057103436 0.023731366
0000a0 c5 92 a2 bc 5e 34 f9 bb af 24 3f bd ee 85 6e bc
       -0.019845376 -0.0076051196 -0.046665844 -0.0145582985
0000b0 27 8e b8 bd 40 32 cb 3c 02 26 2a 3c 0b a8 7b 3d
       -0.090114884 0.024804235 0.010385038 0.061439555
0000c0 9d b3 34 bd d8 7a 54 3c 55 14 9b bd e6 75 c1 3d
       -0.044116605 0.012968741 -0.075722374 0.094463155
0000d0 61 3f 0c 3c a1 20 d3 bb 80 28 4f bd 03 3c 13 3d
       0.008560033 -0.0064430987 -0.050575733 0.035945904
0000e0 f4 df b3 bd 22 9d 81 3d a8 d5 28 bc a3 15 6b bd
       -0.0878295 0.06328799 -0.010304846 -0.05739368
0000f0 9d 67 41 3c 28 f5 c9 bc 83 c7 90 bc e9 98 3b bc
       0.0118044885 -0.024653032 -0.01767326 -0.011450031
000100 e5 24 2e bd 7c 91 8a 39 5c 84 a0 3c 31 e5 2d 3d
       -0.042515654 0.00026429805 0.019594364 0.042454902
000110 29 30 88 bd b9 96 40 3c 13 69 a7 bb b6 bb 61 3d
       -0.06649811 0.011754685 -0.0051089614 0.055110656
000120 0f 46 61 bd 49 94 48 3d ff 2d 90 3d b3 c1 c5 3c
       -0.054998454 0.04896954 0.07040023 0.024140215
000130 a3 27 fe bc e6 8e 8c bc b1 3f 84 bd 71 77 6a bd
       -0.03102476 -0.017157983 -0.06457461 -0.057242814
000140 d4 67 42 3d 30 7e 70 bd 00 2d 13 3c 19 76 e8 3c
       0.0474623 -0.05871409 0.008982897 0.028376626
000150 3d b4 cf 3c dc fa 01 bd 4a b1 cc bc 20 db 75 bd
       0.025354499 -0.03173338 -0.024986882 -0.060023427
000160 3f 83 9e 3c 51 f1 6d bb ac 8d ce 3b e1 d0 df 3c
       0.019349692 -0.0036307166 0.0063035097 0.02732128
000170 78 a4 1e 3b 41 2a 0b 3d 84 5a 2d bd 7a 6d d0 bc
       0.0024206918 0.033975843 -0.04232265 -0.025442827
000180 60 70 3e 3d 23 6d ab 3c 3e d7 15 3c 3a 36 4e bc
       0.046493888 0.020926064 0.009145556 -0.012586171
000190 a8 5d 0a bb 88 3c 32 bc cb 08 69 3c 33 a9 b7 bc
       -0.0021112952 -0.01087869 0.014223288 -0.022419548
0001a0 53 d1 b3 3c 19 48 8e bd e8 92 1c bc db 9d 28 3d
       0.0219504 -0.06947345 -0.00955651 0.041166168
0001b0 48 73 6f 3b cb d0 ef 3c bb ab 9f 3c 19 9b 3d bc
       0.003653722 0.029274365 0.019491067 -0.011572623
0001c0 3b f7 26 3c fd 96 0a 3d 86 bc 5d bd 85 1e 87 bd
       0.01019078 0.0338354 -0.054134868 -0.06597618
0001d0 99 74 78 3d bc 98 02 bd 22 e3 11 3d 2f 89 5c bc
       0.06065807 -0.03188394 0.035617 -0.0134604415
0001e0 2b 84 1e 3d 05 a9 92 bb e5 a5 2e bc 78 f7 bd bb
       0.038700264 -0.004475715 -0.0106596695 -0.005797323
0001f0 d3 62 bd bd 09 09 c3 bc d1 4a 02 bd 50 29 d0 bd
       -0.09247365 -0.02380802 -0.03180963 -0.1016413
000200 d3 fd 3f bd dc 10 92 bc 9f 01 92 ba 4b dc e9 3d
       -0.046872925 -0.017830305 -0.0011139399 0.11418971
000210 b6 80 50 bc f9 ab 1c bd fe 74 db 3c 50 12 5f bd
       -0.012726 -0.038249943 0.026789185 -0.054460824
000220 07 c0 25 bd 6a b7 27 3c e9 b2 bc 3d be 2f 95 bd
       -0.040466335 0.0102366 0.09213812 -0.07284497
000230 9c f6 0c bd 3a 35 90 bc e6 18 08 3d d6 91 b6 3d
       -0.034414873 -0.017603505 0.03322687 0.08914535
000240 f9 4e a5 3c 34 88 89 3c 39 c6 6d 3d 09 39 87 bd
       0.020179259 0.01678858 0.058050368 -0.066026755
000250 75 01 44 bd fd 49 c1 3d ac ad 8d bb 52 c0 fb bd
       -0.047852952 0.0943794 -0.004323682 -0.122925416
000260 3b 50 b1 3c ec 00 13 bd 3e ae 17 bd 2c 86 69 bd
       0.021644702 -0.03588955 -0.037031405 -0.057012722
000270 82 d9 8e 3d 92 4c 36 3c 47 83 e7 3c 2c 9a dd bb
       0.0697508 0.011126654 0.02826084 -0.0067627635
000280 f7 0a 24 3d e9 95 bc 3d ca 03 53 3c 30 34 12 bd
       0.04004952 0.092082806 0.012879321 -0.0356943
000290 a2 c3 18 bd 9e 0b 19 39 25 e6 66 3d 49 1f c3 3d
       -0.037295945 0.00014595545 0.056371827 0.095274515
0002a0 43 ad 15 3d 98 4a 83 bd e3 cb 4b 3d c6 0c d0 bc
       0.03654219 -0.06410712 0.04975499 -0.025396716
0002b0 4e 68 0d bd 5a ec d2 3c a5 7d 94 bc 03 03 db bd
       -0.0345233 0.025747467 -0.018126318 -0.10693934
0002c0 c4 64 52 3c 0b 9c 0c bc fc bd bb bc 63 0f bb 3b
       0.012841407 -0.008582125 -0.02291774 0.0057086213
0002d0 73 2a 56 3c 3c ca f7 bc fc b1 c1 3b 8d f1 25 3d
       0.013071644 -0.0302478 0.00591111 0.040513564
0002e0 20 f7 5e 3d 98 4e 49 bc b2 0a 06 bd 78 30 0e 3b
       0.054434896 -0.012286805 -0.032725044 0.002169637
0002f0 31 6a 83 bd 60 c1 88 bc af e8 b7 bc 8f ea 3e 3c
       -0.06416739 -0.01669377 -0.02244982 0.011652603
000300 e6 d0 8a 3d 53 6c d9 3c b7 de a7 bd c2 d1 e1 bc
       0.067781255 0.02654091 -0.08196776 -0.02756584
000310 89 1e 73 3c 69 85 01 3d a8 26 b1 bd 10 55 64 39
       0.014838823 0.03162137 -0.08649951 0.00021775463
000320 f4 18 79 bd b9 83 4f 3c da 25 7f bd af 58 22 3b
       -0.060814813 0.0126656825 -0.062291957 0.0024772098
000330 1a a2 6a bc 43 a2 77 3c c7 da db bc a5 a1 b9 3c
       -0.014320875 0.01511437 -0.02683772 0.022660086
000340 d8 ae 4e 3d 27 e2 13 bd ab 52 a5 bb d5 8f e5 bb
       0.050459713 -0.036104348 -0.005045255 -0.0070056715
000350 b4 af 75 bd a3 46 9c 3d b8 4a a3 3c c2 c9 15 bd
       -0.059982017 0.076306604 0.01993309 -0.036569364
000360 a2 be 56 bc 23 10 d9 3c 5b b8 08 bd 04 43 12 3d
       -0.013106974 0.026496952 -0.03337894 0.035708442
000370 02 af 68 bd 06 cd 03 bb 9f af 55 3d f9 e5 e3 bc
       -0.056807525 -0.0020111217 0.05216944 -0.02781962
000380 0e fd 2f bb cf 9e 3f bd 5e de 14 bd 50 cd 3c bd
       -0.0026853713 -0.04678231 -0.03634488 -0.04609424
000390 1d 65 d8 bc 7a d4 a5 3d 69 14 ba bd ba 9b 4c 3d
       -0.026415402 0.08097167 -0.09085924 0.0499532
0003a0 15 cc b3 3d 7a df 95 bd 4d 3c b8 bd d6 86 5c 3d
       0.0877916 -0.073180154 -0.089958765 0.053839527
0003b0 ef 19 ef 3c 8d 72 07 bd 29 21 98 bb da d5 2c bd
       0.02918717 -0.03306823 -0.004642625 -0.042196132
0003c0 15 ff c6 3c 4e 33 cd 3c ee 5a 2e bd ec 4d ed 3c
       0.024291554 0.025048878 -0.042567186 0.02896782
0003d0 2d c8 8b bd 74 7c 40 bc 1e 53 29 bd 14 9f 14 bd
       -0.0682529 -0.011748422 -0.041339032 -0.03628452
0003e0 d1 1f ee bc 71 8b 33 bd 51 3f 96 bd c2 90 c9 3c
       -0.029067906 -0.043834154 -0.073362954 0.024605159
0003f0 88 ef 12 3c 6f 5d b3 bc ef af aa bd 4b 14 10 3d
       0.0089682415 -0.021895139 -0.08334338 0.035175603

network_body.linear_encoder.seq_layers.2.bias f4 [128]
000000 f5 e5 57 3c 38 da 0f bb 41 b7 2a 3b 9c 52 f3 bb
       0.013177385 -0.0021950137 0.002604917 -0.0074256193
000010 62 a0 8a 3c 1f a1 4e 3d 2f f8 d6 3a 58 af 3d bc
       0.01692218 0.050446626 0.0016400869 -0.01157745
000020 32 fd 92 bc b9 57 8a bb 77 58 2a 3c 9b 59 fa 3b
       -0.017942999 -0.004221883 0.010397068 0.0076400763
000030 dd f2 eb 3a 7a c7 85 3c c2 43 a7 bc c6 56 92 bc
       0.0018001456 0.01633047 -0.020418052 -0.017863642
000040 c9 a7 06 bc 7a 50 2c 3d 14 db a1 3b 05 7c 05 bc
       -0.008218714 0.042068936 0.004939446 -0.008147244
000050 bc d1 40 bc 02 bf 4a bc aa 87 68 bc 6e 5d 58 3c
       -0.011768755 -0.012374641 -0.014192501 0.013205869
000060 81 cd 51 bb 07 4a be b9 75 5c a6 3c 7b a8 37 bb
       -0.003201336 -0.0003629478 0.020307759 -0.0028024006
000070 47 54 c0 3c 7a 18 02 3d ad c8 41 3c 5f 91 ae bc
       0.023477687 0.031761624 0.01182763 -0.021309553
000080 23 a7 a4 b9 44 93 ff 3c 14 fb 1c 3c 10 ae 1d 3c
       -0.00031405044 0.031198151 0.009581346 0.009624019
000090 44 62 94 3c e6 44 27 3d 8c a1 46 bb 20 ed 40 bb
       0.018113263 0.04083719 -0.0030308692 -0.0029438213
0000a0 a8 4f 38 3c ce f8 81 3c 0b 92 59 bc f8 ef ac 3c
       0.01124946 0.01586571 -0.013279448 0.02111052
0000b0 c1 7e a9 bc fb ee b8 3c 59 b1 a5 3c 28 32 44 bb
       -0.020690324 0.022574892 0.020226168 -0.0029937122
0000c0 5e 65 e8 3b 2b 55 fd 3c 1c 17 46 bc ab fb 31 bc
       0.007092162 0.0309244 -0.012090471 -0.010863225
0000d0 a5 88 3d 3d 02 2a 47 3c 41 c1 17 3c e7 df 49 bc
       0.046272893 0.012156012 0.009262384 -0.012321449
0000e0 0c b7 13 bb ce a2 75 bc b0 c8 6f 3b 4c 99 ae bc
       -0.0022539524 -0.014992429 0.0036588125 -0.021313332
0000f0 1d 40 45 3c 37 46 a4 bc 6c ce 71 3b 61 47 fb 3b
       0.012039212 -0.020053012 0.0036896719 0.007668421
000100 79 a2 3e bc a1 90 56 bb 74 a0 87 bb d6 12 8a bb
       -0.011635416 -0.0032740014 -0.0041390005 -0.004213671
000110 ce 51 25 3d da 51 97 bc 83 fd aa 3c 3f 1d a1 3c
       0.04036122 -0.018471647 0.020872837 0.019667266
000120 e0 d9 4d 3c 00 68 7e bc 0b 3c b0 3c 36 d4 4b bb
       0.0125641525 -0.015527725 0.021513006 -0.003110183
000130 a8 be 85 3b e1 92 a5 3c 96 04 90 3c a7 98 05 bc
       0.004081566 0.020211639 0.017580312 -0.008154071
000140 42 c5 c2 bb 15 97 ab 3c 60 6c 89 bc 16 7b b9 bc
       -0.005943925 0.020946065 -0.01677531 -0.0226417
000150 1d 8d 03 bc ae 3a 3a 3c 8e 90 92 3c 6e e6 0a 3c
       -0.0080292495 0.011366529 0.017891195 0.00847779
000160 c2 07 7f 3b a5 cb 0b 3c 36 8a 10 3d 95 fb 84 3b
       0.0038914536 0.008532439 0.03528806 0.004058311
000170 e1 91 1a ba 58 ad 4e bb be b3 72 ba 8f 08 d1 3c
       -0.00058963714 -0.0031536426 -0.0009258351 0.025516776
000180 4c e9 2c bc db a8 b4 3c 81 f4 de 3a 78 39 34 3d
       -0.010553669 0.022053173 0.0017010124 0.04400012
000190 5c ec b1 3c 47 3e 16 3c e4 67 b5 bc f1 8c d7 3b
       0.02171915 0.0091701215 -0.022144265 0.006578081
0001a0 5a 35 1f 3c ec 32 97 bc e9 99 6b 3d 03 72 e6 3b
       0.00971731 -0.018456899 0.057519827 0.007032634
0001b0 79 89 ff b9 80 1b dc 3b 62 42 0e 3c 8b 86 b3 3c
       -0.00048739815 0.0067171454 0.008682819 0.021914741
0001c0 7c 4e 29 bc 29 26 e0 3b 0c f9 48 3c 21 8f bb bc
       -0.010333654 0.0068404865 0.012266409 -0.022895398
0001d0 4f 4f b7 bb b0 46 d2 39 dd f9 36 ba 92 3c 48 3d
       -0.005594171 0.00040106988 -0.00069799816 0.04888589
0001e0 ba 9e 4c 3a 3a cc 91 bc 06 c8 2f bc 9f 14 7b 3a
       0.00078056345 -0.017797578 -0.010728842 0.0009577963
0001f0 09 75 4e bc 45 f1 b6 3c aa fc 1c bc 27 bd 32 3c
       -0.012601146 0.022331843 -0.009581724 0.010909355

network_body.linear_encoder.seq_layers.2.weight f4 [128, 128]
000000 97 cc 36 bd b7 be 6a 3d 76 43 cd bc 34 5d b7 bc
       -0.044628706 0.057310786 -0.025056582 -0.02238331
000010 b4 3f ec bd ed 37 28 bd 3b 32 67 3d bf 70 4e bb
       -0.11535588 -0.04106896 0.056444388 -0.0031500307
000020 f7 f2 5f 3d b4 e7 6c 3c 8a 23 9d 3d e9 a7 ce 3c
       0.05467507 0.014459539 0.07672794 0.02522655
000030 8c 82 94 3d 15 42 c6 b8 69 2c c6 bc b6 fe 8d 3d
       0.07251462 -9.4536845e-05 -0.024191098 0.06933348
000040 5e 7a fe 3c ed 95 cf bd 23 1b df 3d ca e3 68 3d
       0.031064209 -0.10136018 0.10893848 0.05685786
000050 ba 39 89 3b 5a 88 fe 3c 4b 27 3f 3c 5b c6 99 bd
       0.0041877897 0.031070877 0.011667083 -0.075085364
000060 2c f6 05 be 41 38 a8 bd a2 3b ed bd db 26 52 3d
       -0.13082188 -0.082138546 -0.1158364 0.051306587
000070 4b 43 81 3d 48 84 80 bd 6b 65 d8 3d 5e 3e 8c 3c
       0.06311663 -0.06275231 0.10566219 0.017119583
000080 a8 45 61 bd 35 83 ba bd 14 53 96 bb 11 80 94 bc
       -0.05499807 -0.09107057 -0.0045875404 -0.018127473
000090 ab 8b a3 3d 0e 37 0c 3e 03 3e 9c 3d 7b 98 cf 3c
       0.07985624 0.13692877 0.07629015 0.025341263
0000a0 ba 53 c4 3d f0 e2 5c 3d 41 19 d0 bc a3 03 e1 3d
       0.09586282 0.053927362 -0.025402667 0.10987022
0000b0 7d ef ed 3d 29 e5 88 3d cf 9f 00 3d 47 99 d3 bc
       0.116179444 0.06684334 0.031402405 -0.025829924
0000c0 8f 8b 43 3c c8 be 5d be 8c 53 2a 3e 66 dc 06 be
       0.011935129 -0.21654809 0.16633433 -0.13170013
0000d0 94 57 ac bc c3 3c 17 bc 9c 66 3f bd 6c 56 a8 bd
       -0.021037854 -0.009230795 -0.046728715 -0.08219609
0000e0 26 46 a2 bd 6d e3 4c 3d 83 46 97 3c 2e a3 87 3d
       -0.07923536 0.050021578 0.01846624 0.06622921
0000f0 ae b2 ba bd 87 9e 52 3d b2 63 1d 3d eb ba ec 3d
       -0.09116112 0.051420715 0.038425155 0.11559089
000100 83 da 88 bc 3c ab 00 be 29 7b 67 bd c3 bb a0 bd
       -0.016705757 -0.1256532 -0.05651394 -0.07848313
000110 bd d9 1a 3e c9 34 21 3d 98 74 f0 3d b7 4e 4a bd
       0.15122123 0.03935698 0.117409885 -0.049391475
000120 91 8d 2c 3d 1b 39 7f 3e f5 c3 32 3c 8b 03 b5 3d
       0.042127196 0.24924128 0.010910978 0.088385664
000130 f6 63 07 be 6e a0 44 3e c3 6a 5e 3d d0 9e 16 3e
       -0.13221726 0.19201824 0.054301035 0.1470902
000140 88 2f aa 3c ea 04 bd 3d a2 02 a5 bc c1 40 32 3e
       0.020774618 0.09229453 -0.020142857 0.17407514
000150 60 7d 34 bc 4a bb 85 3d b7 d7 8c 3d a8 dd e4 3d
       -0.01101622 0.06529863 0.06877082 0.1117509
000160 ce 8e f1 3d e8 3c 07 3e 9a 82 15 bd 63 fa 19 3d
       0.11794816 0.13206828 -0.036501504 0.037592303
000170 5c cf 76 3d 95 a0 8c 3c d3 4f 1f 3e ff 13 1a bc
       0.060256347 0.017166415 0.15557794 -0.0094041815
000180 f8 cf 82 3e 9b 4c d4 3d dc a9 9c 3d 6a 32 b3 3d
       0.25549293 0.10366174 0.076495856 0.0874985
000190 0d 6e 16 bd 54 39 3e be e1 58 16 3d d1 8f e8 3c
       -0.036726046 -0.18576556 0.036705855 0.02838889
0001a0 b9 1f c4 bd f0 f6 48 3e c1 f1 f7 3d 1d 31 0e bd
       -0.09576363 0.19625449 0.12106658 -0.034714807
0001b0 44 ac 05 be 98 03 de 3c 87 9b c4 bc 57 79 f7 bd
       -0.13053995 0.027101323 -0.023999942 -0.120836906
0001c0 e8 bd c2 bc 2b 8e 2e 3e ec 7d c7 bd 36 cd c1 bd
       -0.023772195 0.1704642 -0.097408146 -0.09462969
0001d0 af 55 07 3e 50 1d 74 3d 3d 89 4b bc 04 a5 8b 3d
       0.1321628 0.059598267 -0.012422857 0.068185836
0001e0 2b 75 e0 3c a0 22 1c 3d b1 94 e7 3d 84 f9 75 3d
       0.02739962 0.03811896 0.113076575 0.06005241
0001f0 55 24 54 bc 6d fd ea 3d 22 2f 15 3e 8e ba 2f 3d
       -0.012948115 0.114741184 0.14568761 0.04290252
000200 79 9b f1 bd 23 72 44 bd f8 5a b7 bd 5c 46 5a bd
       -0.11797232 -0.04796041 -0.08952898 -0.053289756
000210 af 51 44 3c 5e 0c a8 3d e2 a7 a7 bc 65 90 a5 3d
       0.0119823655 0.08205484 -0.020465795 0.08084182
000220 34 de a5 3d 04 71 9a 3d 94 f3 ab bc 40 e0 9d bc
       0.080990225 0.07541087 -0.02099017 -0.01927197
000230 5f 62 df bd 9a 1f 5a 3d 66 95 2a be fc b0 12 be
       -0.10907435 0.053252794 -0.16658553 -0.14325327
000240 75 43 bd 3c 59 35 e0 3d 9c 0e 1f 3e 42 72 c0 3d
       0.023103455 0.10947675 0.15532917 0.09396793
000250 46 68 24 3e 98 7f 00 be 99 d3 5b be f8 8b d4 bd
       0.16055402 -0.12548673 -0.21467437 -0.103782594
000260 72 f3 0c 3e 5b 24 d6 3d c7 b8 19 bd 49 be d5 bd
       0.13764742 0.10456153 -0.037529733 -0.10436685
000270 27 00 02 be 47 e3 7c bd f9 b4 d4 bc 0c c5 1e 3e
       -0.1269537 -0.061740186 -0.0259652 0.15504855
000280 98 ba f1 3d bb 38 ad 3b cc b7 5a 3e af 3a 20 bd
       0.11803168 0.005286304 0.21359175 -0.039118465
000290 f0 41 35 3d 3e f2 06 be bb af 01 bc cd 48 82 bc
       0.044252336 -0.13178346 -0.007915433 -0.015903855
0002a0 c7 11 e8 bd c7 14 10 3d 1e 53 3b be 35 b4 c2 3d
       -0.11331516 0.035176065 -0.18293425 0.09507028
0002b0 3a e2 af bd 17 e8 5e bc 63 02 1f be 27 95 16 3d
       -0.08588071 -0.013605139 -0.15528254 0.036763337
0002c0 22 be 38 3c 12 b0 74 3d 12 95 37 bb c5 36 8f 3d
       0.0112758 0.059738226 -0.0028012437 0.06992868
0002d0 22 41 88 3c 12 5c 1c bd 3f 4e 3d be 54 fb 73 bd
       0.01663262 -0.038173743 -0.1848688 -0.059565857
0002e0 18 90 47 3c 6b 01 ce 3c e8 ac c0 bc 2d be ae 3c
       0.012180351 0.02514716 -0.023519948 0.021330917
0002f0 f8 1c ae 3b 17 50 e9 bd 59 4d b1 3d 5a 7c e2 3b
       0.005313512 -0.11392229 0.08657331 0.0069117965
000300 36 01 f3 bb c2 8a 99 bd 20 d5 82 bb a2 77 14 3c
       -0.007415916 -0.07497169 -0.0039926916 0.009061726
000310 e4 6e 0f 3e 08 b4 b0 bd 21 2c 4e 3e 7b b1 94 bd
       0.14007145 -0.08628088 0.20134021 -0.07260414
000320 6c 97 9c bd 08 b4 20 3d e5 c9 75 bd bb 2d cc bc
       -0.07646069 0.03923419 -0.060006995 -0.02492415
000330 42 e2 83 3c 2d 1e 8d bd 28 c9 33 3e 33 e4 97 bc
       0.0160991 -0.06890521 0.17557204 -0.018541431
000340 74 f4 b4 3d 8e 9c 2a be cf e9 11 3c 1b a8 18 bd
       0.08835688 -0.16661283 0.008905842 -0.037269693
000350 f8 73 45 bd 8f d8 98 3c 5f 6c 14 be b5 63 5e 3e
       -0.0482063 0.01865795 -0.14494465 0.21717723
000360 c4 b1 0c bc b4 0f 58 3e 1f 19 ba 3d 84 bb 09 3d
       -0.0085873045 0.2109974 0.09086823 0.033626094
000370 01 12 1d 3e b6 78 0f 39 1d c0 1b 3e ed 2b c6 3c
       0.15338899 0.00013682511 0.15210004 0.024190867
000380 9e 25 0d 3d 21 bd 27 be e4 8e db bd f7 0c 06 3c
       0.034459703 -0.1638074 -0.107206136 0.008181802
000390 31 0d 9f 3c 56 0f 1b bd 03 98 04 be 19 ee 55 3c
       0.01941547 -0.037856422 -0.12948613 0.013057255
0003a0 bc 57 e7 3d 54 81 dd 3b 34 46 99 3b 23 d3 a8 bc
       0.11296031 0.006759802 0.0046775583 -0.02060849
0003b0 aa 11 d4 bc 39 7a 60 3d 71 52 55 3d f1 d3 3e 3d
       -0.02588733 0.05480406 0.052080575 0.04658884
0003c0 aa d9 0c bd a2 e2 38 bd 7a d2 e5 bd 32 b9 19 bd
       -0.034387268 -0.04513801 -0.11221786 -0.03753013
0003d0 38 10 a4 bd af 19 ae bc 89 d0 30 be 12 57 c5 bd
       -0.08010906 -0.021252481 -0.1726705 -0.09635748
0003e0 b9 b3 d9 3d 22 81 80 be c9 88 3a bd 6e a6 a0 bd
       0.106299825 -0.2509852 -0.045540605 -0.07844244
0003f0 05 26 17 bd e7 8e aa 3c fa cc 5c bd c3 f1 86 bc
       -0.036901493 0.020820094 -0.05390642 -0.016472703

network_body.linear_encoder.seq_layers.4.bias f4 [128]
000000 1b 64 a7 3c 71 cb b7 3c c8 ef 4c 3c e0 3c b9 bc
       0.020433476 0.022435876 0.01250834 -0.022612035
000010 a6 f9 ca 3c 04 79 5c bb 67 80 8a bc 5c d8 cb 3b
       0.024777245 -0.0033641467 -0.01690693 0.0062208604
000020 31 55 dd bb b1 08 14 3a e3 eb 70 bc 2f ae 89 ba
       -0.0067545404 0.0005647047 -0.014704677 -0.0010504181
000030 5f 2f 5d 3d ac 6e a5 bc b9 96 a6 bb b8 e7 4d 3c
       0.054000255 -0.020194374 -0.0050838855 0.012567453
000040 6c 9a d2 bc 58 38 ab bc 1a b6 4b 3c 5c 8e e6 bc
       -0.0257084 -0.02090089 0.012433553 -0.028144054
000050 59 69 cc 3c 39 be e2 3b c9 20 ad 3c 3f 96 db bc
       0.024952577 0.006919649 0.021133797 -0.026805041
000060 84 2e 0b bb 8d 5f 88 3d 36 52 11 bc a9 00 04 3d
       -0.0021237442 0.0665885 -0.008869698 0.032227192
000070 bf 63 f0 bb 42 96 de 3c 80 64 61 3c ec dc 05 3c
       -0.0073361094 0.027171258 0.013756871 0.008170348
000080 be 91 10 3b c8 de 45 3a 37 a4 9e bc 9a f0 dc bc
       0.0022059525 0.00075481506 -0.019365413 -0.026970197
000090 5c ea 7f 3c d5 a2 4c 3a 79 98 98 bc 31 5f 1f 3b
       0.0156198405 0.0007806246 -0.018627392 0.0024318213
0000a0 18 72 13 bc bb 96 c9 3b 9a 8b ad b9 22 5b a4 3c
       -0.00899937 0.0061520017 -0.00033101143 0.020062987
0000b0 fc 8a 04 3d 9b 5b 13 bc 82 90 2e bc a5 aa fb 3b
       0.03235911 -0.008994008 -0.010654571 0.0076802545
0000c0 a2 ee ac ba b2 31 d4 bc b6 08 1d bc 13 04 65 bc
       -0.0013193677 -0.025902603 -0.009584596 -0.013978022
0000d0 0e 59 24 3d bc 51 63 3a f4 f6 37 bc e1 d3 4c 3c
       0.04012399 0.0008671542 -0.011228312 0.012501688
0000e0 54 ae 66 3c 4b 3c 36 bc 5a d4 8f 3c e4 53 0e 3c
       0.014079649 -0.011122773 0.017557312 0.008686993
0000f0 67 6a 2d 3c 06 32 b5 bb d4 22 51 3d 8d 78 13 bb
       0.01058445 -0.005529645 0.051058605 -0.0022502274
000100 b9 4c c9 3c 67 37 81 bc d1 f0 10 3d 1a 1d 8c 3c
       0.024572717 -0.015773488 0.03538591 0.01710372
000110 27 2b 2a 3a 8b d7 55 bc 00 fa 64 3c 18 58 01 3c
       0.00064914156 -0.013051878 0.01397562 0.007894538
000120 ae 86 02 3c 31 14 6c 3c f5 c7 f9 bc 82 69 4f bc
       0.00796668 0.014409111 -0.030490855 -0.012659432
000130 65 20 13 3d ea fd 4d 3d 81 1f 1d 3b 57 b3 52 3b
       0.035919566 0.05029098 0.0023975077 0.0032150352
000140 1f 95 e1 3c 0c 0f 40 bc 7f d7 5b bc 37 66 05 3c
       0.027536927 -0.011722337 -0.0134180775 0.008142046
000150 f6 91 e4 3c 70 75 91 3b 52 62 59 3d 68 4c fd 3c
       0.02790163 0.0044390485 0.05307228 0.030920222
000160 f8 dc 26 3c d5 ca 83 3c 70 7c 60 3c 34 63 12 3b
       0.010184519 0.016087929 0.013701543 0.0022336962
000170 d9 8a 1a 3c d3 6b 4e 3c e1 e1 4c bc ea 5e e1 3b
       0.009432518 0.0125989495 -0.012505026 0.0068777697
000180 92 82 63 3d 38 c9 65 bc 7f b1 6c bc 86 fe 8e 3c
       0.055544443 -0.014025025 -0.014446615 0.01745535
000190 05 ba 36 3d 33 3e b7 bc d5 fb 48 bb 63 66 52 3d
       0.044610996 -0.022368526 -0.0030667682 0.051367175
0001a0 1c c3 16 3d 72 68 8d bb 05 54 db 3b f3 31 b4 bc
       0.036807165 -0.0043154294 0.0066933655 -0.021996474
0001b0 65 69 10 bc 85 9a 18 bc 7a d9 ba 3b e3 4f 3e 3b
       -0.0088141905 -0.009314184 0.0057021948 0.0029039315
0001c0 09 3d 78 bb 86 9b 58 bb 09 38 dd bc 23 30 01 bc
       -0.0037878177 -0.0033051684 -0.027004259 -0.007885012
0001d0 18 e0 8b bb 4e 7b 65 3c 95 a9 89 bc bc 27 cb bb
       -0.0042686574 0.014006449 -0.016804496 -0.006199805
0001e0 27 20 ff ba 02 17 13 bc 15 5b a5 3c 24 7a c7 3c
       -0.0019464538 -0.008977653 0.020185033 0.024350233
0001f0 68 0a ce 3c 93 9d 1b bd 56 03 87 bc 08 4e 0f 3d
       0.025151446 -0.03799207 -0.016481083 0.034986526

network_body.linear_encoder.seq_layers.4.weight f4 [128, 128]
000000 1b f4 59 bd b6 e6 9f 3c b3 0d da bc f0 cd 91 bd
       -0.053211313 0.019519191 -0.02661786 -0.071193576
000010 1d 4f 3b 3d b1 29 7a 3d 12 32 9f bd 6c d8 23 3d
       0.045729745 0.061074916 -0.07773222 0.040001318
000020 dc 37 49 3b c0 17 8e bd 5b bc 01 3e 0e 68 4b 3d
       0.003070346 -0.06938124 0.12669508 0.04965978
000030 cf fe 62 3d ae 2c a6 3d 39 ef f4 3d c7 5a 9f bd
       0.055418786 0.08113991 0.119596906 -0.07780986
000040 62 ac 48 bd 66 07 f4 3c 6e d0 46 3c 0e c9 1e 3d
       -0.048992522 0.029788684 0.012134654 0.03876596
000050 9b ee f0 bd 95 6f 13 3d fe 19 81 3b 90 af 04 bd
       -0.117642604 0.035995085 0.003939866 -0.032393992
000060 b2 6d aa bd 7d 7f 01 be 57 3f b9 3b 6a 8c 11 be
       -0.08321704 -0.12646289 0.0056533027 -0.1421372
000070 1d b1 f6 bb aa 47 e8 bb 3d c1 ac bd 01 bf 85 bd
       -0.007528438 -0.007088621 -0.08435295 -0.06530572
000080 cc e8 8e 3d d1 36 a3 3d fd af 34 be 85 03 9d bc
       0.06977996 0.0796944 -0.17645259 -0.019166717
000090 ae 2a 9c 3d 58 c5 08 bc 14 ef 23 bd 8a 7c 0d be
       0.07625328 -0.008347832 -0.040022925 -0.13817039
0000a0 2b d8 59 bc 93 d8 44 3e 51 77 12 be ea 93 1a 3e
       -0.013296167 0.19223242 -0.14303328 0.15095487
0000b0 0f 4a 31 3d 19 7f 06 3e b0 8a a5 3b 25 8a 75 3d
       0.04328352 0.13134421 0.005051933 0.059946198
0000c0 2b b3 7c 3d 2f 9b 0c 3d 8d ad be 3d ee ac b5 bb
       0.061694305 0.034327682 0.09310446 -0.0055442965
0000d0 9b 91 ce bc 0e ff b5 3b fd e7 73 bd 9b e0 58 be
       -0.025215914 0.0055540865 -0.059547413 -0.2117943
0000e0 4d c8 a9 3c a8 a6 b1 bc 89 7e 11 3e e2 70 60 3d
       0.020725394 -0.021685913 0.14208426 0.054795153
0000f0 a6 ea ef 3d 7a bf 0e bc bf 14 1a be f4 d2 63 bd
       0.117146775 -0.008712644 -0.15046977 -0.055621102
000100 8e 21 70 3c 28 1b 55 be dc 45 ba bd a9 5b 80 3d
       0.014656438 -0.2081114 -0.09095356 0.06267483
000110 be 06 bc 3d 1b af 2a bd 0a fd 33 be 33 fb 58 3d
       0.091809735 -0.0416709 -0.17576995 0.052973937
000120 3c ce 01 bd 3e e7 de 3c a2 51 c9 3d e9 34 ee bd
       -0.03169082 0.027209874 0.09830023 -0.116311856
000130 d3 cf 87 3d 11 99 e3 3c 12 c9 17 be cc 81 4e bd
       0.06631436 0.027782949 -0.14822796 -0.050416753
000140 12 5a 4b bd 08 f4 ac 3c e8 e1 c4 3d e9 ff 46 3d
       -0.049646445 0.021112457 0.09613401 0.0485839
000150 8b c4 16 3d 07 92 a3 3b 3f 22 43 3d 03 33 bc 3d
       0.03680853 0.004991773 0.04764008 0.09189417
000160 fd d8 1d 3c cb e4 0d 3d 20 31 3c 3e bf de 7c bd
       0.009634254 0.034642022 0.18378115 -0.061735865
000170 2f d7 31 be ea 1a 6d 3d a8 5a 49 3d 15 19 2e bd
       -0.17367242 0.057886995 0.049158722 -0.04250439
000180 78 b7 50 bd a0 1b 85 3d 99 0c 57 3d 20 c3 b2 bd
       -0.05095622 0.0649941 0.05250225 -0.087286234
000190 5b 31 0b 3e da 35 e2 bd 98 81 2d 3e 66 d2 a1 bd
       0.13593046 -0.110454276 0.16943967 -0.079014584
0001a0 39 93 97 3d 96 da 16 bd 89 d1 41 bd ef ba 8e bc
       0.07401127 -0.036829554 -0.04731897 -0.017423121
0001b0 7b f3 3b 3d 43 76 86 bd 4a 1f d5 bd 85 09 ad bd
       0.045886498 -0.065655254 -0.104063585 -0.08449081
0001c0 94 dd 73 bd cc bf 1e bd 30 70 c2 bd 13 65 db 3c
       -0.059537485 -0.03875713 -0.09494054 0.026781594
0001d0 0d 82 48 3d 3c 1f 13 3d c5 1c 01 3e 3a 06 cf bc
       0.04895215 0.03591846 0.12608631 -0.025271524
0001e0 3a 54 7b 3d ed a4 0b 3c 20 08 1b 3d 79 32 9f bd
       0.06135962 0.008523208 0.037849545 -0.07773299
0001f0 eb a2 1f 3d 52 b2 1b be e1 bc 20 3d cd 53 03 bd
       0.03897373 -0.15204743 0.03924263 -0.03206234
000200 3f 3e 90 3d 55 65 0a bd 88 62 b5 bd 51 12 97 bd
       0.070431225 -0.033788044 -0.08856684 -0.073765405
000210 6f 1b 41 3b 30 79 db 3b 8d a1 61 be 41 92 a0 3d
       0.0029465815 0.0066977963 -0.22034283 0.07840396
000220 99 3e a6 bd 2e b9 a5 bd 5e 06 cb 3c a3 96 d9 3c
       -0.08117408 -0.08091961 0.02478331 0.026561087
000230 eb 3d 7e bd 6f 28 1e 3c f1 69 e9 3d 1c 1d 4e bb
       -0.06207077 0.009653195 0.1139716 -0.0031450456
000240 c3 e2 50 3e 02 1f 22 3d 67 38 98 bd 61 14 1b be
       0.20399003 0.039580353 -0.07432633 -0.15144493
000250 4e 0d 1b bd bd 79 46 bc 50 13 00 be e2 55 82 3d
       -0.037854485 -0.012113986 -0.12507367 0.06364037
000260 0a 13 28 bd 69 b3 14 3d 91 8d c0 3d e6 9b 9e bd
       -0.041033782 0.03630391 0.09402002 -0.07744579
000270 0d df 7a bd 60 e8 09 be b3 0b 4b be 05 8d ba 3d
       -0.061247874 -0.1346755 -0.19828682 0.091089286
000280 c6 fe 14 3d 75 1a 26 3d ed 7b 9f be 5d 40 9b 3d
       0.036375783 0.040552575 -0.31149235 0.07580636
000290 ae 5c a4 3d 44 54 f2 bc b1 e0 2d 3d 48 ec d1 bc
       0.0802549 -0.029581197 0.04245061 -0.025625363
0002a0 ad 2c 3b be df 80 84 3d 57 be b1 3b 5d 47 0f be
       -0.18278761 0.06469893 0.0054243016 -0.13992067
0002b0 64 3f ec bd 50 59 eb 3b b1 e7 7a 3b c7 92 07 3d
       -0.11535528 0.0071822777 0.0038285071 0.033098962
0002c0 56 f5 b9 3d 10 d2 a8 3d 6b 29 ac 3d 2a 22 1e 3d
       0.09079997 0.08243191 0.08406337 0.0386068
0002d0 b0 af 65 be 2e 0e 8d 3d 00 f2 43 3d 7e a1 c7 bd
       -0.224303 0.0688747 0.04783821 -0.09747599
0002e0 e9 48 52 bc bb 12 bd bd 12 ef 16 3e 47 26 2b be
       -0.012834766 -0.09232088 0.14739636 -0.1671382
0002f0 a1 19 78 3c 12 2c 9a bd da 5a 48 bc 01 25 90 3c
       0.015142829 -0.07527937 -0.012228692 0.01759577
000300 d9 ea 2d 3d dd 4c d7 bd e2 6b bd bd 48 93 17 3e
       0.042460296 -0.105127074 -0.09249093 0.14802277
000310 42 c7 e1 3d 87 ca 89 bd d6 3e 97 3d b2 61 3b bd
       0.110243335 -0.06728082 0.07385032 -0.045747466
000320 59 bc b0 3d fd d3 1d bd 99 4c e9 3d dd 78 ea bd
       0.086296745 -0.038532246 0.11391563 -0.11448834
000330 46 45 25 3e 0c 56 f1 3d 95 d8 bd ba 2c 23 01 bc
       0.16139707 0.1178399 -0.0014484102 -0.007881921
000340 0f a6 45 3c 00 c8 f7 bd 9d 76 11 3c fa 5e 50 be
       0.012063517 -0.12098694 0.008878377 -0.2034873
000350 3a 21 45 3d cd fb db 3d 85 6e 2a 3d c1 f0 01 bd
       0.04812739 0.107413866 0.041609306 -0.03172374
000360 eb 98 41 3d ae 43 82 bb e1 61 85 bd 3d c5 5e bd
       0.047264975 -0.003975353 -0.065128095 -0.05438732
000370 17 09 77 bb 9b 76 18 3d 86 0b 92 bd ab 21 1a 3d
       -0.0037694627 0.037222486 -0.07131104 0.037629765
000380 20 1d dd bd d7 0a 02 be e9 c1 c5 bd 2c 03 44 3e
       -0.10796571 -0.12699448 -0.09656126 0.19141835
000390 f4 c9 fb 3d f6 90 25 bd df 2b c4 3d 08 8a 53 3c
       0.12294379 -0.04042145 0.0957868 0.012911327
0003a0 65 e3 54 3c 66 12 02 bd 5e 87 5e 3c 19 af 2c 3a
       0.012993668 -0.031755827 0.013582079 0.0006587371
0003b0 bb 04 09 bd a8 3b 1f 3d bc d6 19 be 80 74 79 bd
       -0.033451777 0.038875252 -0.15023321 -0.06090212
0003c0 5d 53 59 3c 9a 23 28 be b3 8e 74 bd 86 7d fe bd
       0.013264504 -0.16419831 -0.0597064 -0.124262854
0003d0 45 59 9e bd 0a 66 63 3d 10 a6 f3 3d b3 eb c8 bc
       -0.077318706 0.055517234 0.11896908 -0.024526453
0003e0 19 87 94 bd 96 c4 52 be cd 4b 9c bd b4 26 f7 bc
       -0.0725233 -0.20582804 -0.07631645 -0.030169822
0003f0 ef 4c 83 be cd 47 09 3e 19 89 04 3e 92 58 31 3c
       -0.25644633 0.13406296 0.12942924 0.010824339
