Config/results/Env_PPO_21/EnvironmentAgentBehavior/EnvironmentAgentBehavior-7659045.onnx (onnx, 496923 bytes, 10 tensors)

action_model._discrete_distribution.branches.0.bias f4 [100]
-0.008393168 -0.035093606 -0.001200133 -0.03343302 0.0024530832 -0.02737555 -0.010639528 -0.014953018
-0.02167169 -0.03608532 -0.014628357 -0.020698965 -0.0282756 0.010760653 -0.024523772 0.005575324
0.019589081 -0.00800518 -0.028466377 -0.021614973 -0.01540091 0.0024958567 -0.044059545 0.034391005
-0.0031031433 -0.032877885 0.034751292 -0.005684107 -0.025658276 -0.011535034 -0.038183436 -0.01930212
0.0028016036 -0.04198821 0.031037614 0.00893553 -0.014154416 -0.022271644 0.022862317 -0.01884568
-0.045328263 -0.0028699802 -0.016833138 -0.0116242 -0.0014353682 0.037054602 0.015080236 -0.013522971
-0.006855287 -0.002580708 -0.016171727 -0.021518696 -0.0023985684 0.0034508198 0.005339825 -0.041366123
0.024799582 0.038395293 -0.02822688 -0.023708267 -0.0065457816 -0.0034042788 0.042690866 -0.00094830734
0.0051212925 0.031623557 0.011299326 -0.0047861165 -0.003969319 -0.0213843 -0.026008457 -0.008127233
0.0129404655 0.03083045 0.043937482 -0.030390248 0.011802243 -0.019924887 -0.03423012 -0.038807515
-0.029313862 -0.0157406 -0.011923817 -0.018857779 -0.025746139 0.01883434 0.014953733 -0.014236286
-0.022398168 -0.0061807283 -0.023016246 -0.0124732135 -0.009185565 -0.020021627 -0.018490963 -0.0015840697
-0.028550802 -0.011816278 -0.014633486 -0.012912925
00000000: 8083 09bc 50be 0fbd c84d 9dba 10f1 08bd
00000010: e8c3 203b b042 e0bc 6a51 2ebc 81fd 74bc
00000020: d488 b1bc 33ce 13bd c7ab 6fbc e090 a9bc
00000030: 3ba2 e7bc 734d 303c 14e6 c8bc 35b1 b63b
00000040: 4879 a03c 2928 03bc 5232 e9bc e211 b1bc
00000050: 1954 7cbc 8791 233b c877 34bd 95dd 0c3d
00000060: 1b5e 4bbb f6aa 06bd 5f57 0e3d bf41 babb
00000070: 4e31 d2bc 70fd 3cbc 3c66 1cbd 7b1f 9ebc
00000080: 1c9b 373b d4fb 2bbd 9842 fe3c 5466 123c
00000090: ece7 67bc 0673 b6bc c149 bb3c 4162 9abc
000000a0: 21aa 39bd 4716 3cbb a6e5 89bc 6e73 3ebc
000000b0: f722 bcba 91c6 173d 1813 773c 748f 5dbc
000000c0: 51a2 e0bb 1821 29bb 927a 84bc fa47 b0bc
000000d0: 4d31 1dbb 2627 623b b3f9 ae3b 866f 29bd
000000e0: 7e28 cb3c 6244 1d3d 0f3c e7bc d737 c2bc
000000f0: ff7d d6bb 521a 5fbb 9edc 2e3d d497 78ba
00000100: 84d0 a73b b487 013d cf20 393c dbd4 9cbb
00000110: 1011 82bb 212e afbc b00f d5bc 1628 05bc
00000120: 3f04 543c 2490 fc3c caf7 333d f8f4 f8bc
00000130: 325e 413c 8439 a3bc e234 0cbd a1f4 1ebd
00000140: a023 f0bc 6ef2 80bc 1d5c 43bc a17b 9abc
00000150: 91e9 d2bc 794a 9a3c 8100 753c 503f 69bc
00000160: 5d7c b7bc b587 cabb 918c bcbc 735c 4cbc
00000170: 0d7f 16bc 6504 a4bc 5c7a 97bc 8fa0 cfba
00000180: 5fe3 e9bc 1099 41bc 4ac1 6fbc bc90 53bc

action_model._discrete_distribution.branches.0.weight f4 [100, 128]
0.014617825 0.024060955 0.019655636 0.03200469 0.035095386 -0.034365658 0.01260302 -0.04784
-0.010695571 -0.009322716 0.025220754 0.015070726 0.053454448 0.015429499 -0.014664853 0.043373626
-0.005839415 0.051787965 0.024979329 0.0007550147 -0.03171927 -0.02628977 0.017466107 -0.017964067
0.008943821 -0.15412441 0.029088784 -0.09896951 -0.008774917 -0.041713357 0.031388424 0.023950003
0.008418754 -0.013128495 -0.019856557 0.028493902 0.0118863685 -0.006569486 -0.0109805465 0.0052235792
0.010505923 0.013104405 -0.07498516 -0.03293431 -0.13030866 -0.06274879 -0.023979008 -0.03677438
0.024013493 -0.007881662 -0.0057873973 0.009995707 0.016962659 -0.03433359 -0.024831291 0.010155889
-0.0051566614 -0.0018484251 0.03894207 -0.0015737541 0.015702467 0.020791411 0.04307947 -0.003718435
-0.0003912013 -0.030718008 -0.102820255 -0.015381365 0.0150447795 0.024886902 -0.056025688 -0.063332014
-0.021784892 -0.019329453 0.010671907 0.013271255 -0.056785252 0.006459422 0.011450337 0.040494148
-0.02336415 0.0044059767 -0.0002011434 0.036706965 -0.009499104 0.028187575 0.01326534 -0.024274945
0.050649952 -0.038006485 0.028902942 -0.016541682 0.0285612 0.057314042 -0.058907453 -0.0063863155
-0.13547033 0.008882074 0.0049684076 -0.015339282 0.011913471 -0.017332777 0.06477242 -0.08649559
0.030350564 0.0013769998 0.01657547 -0.036559507 -0.036463827 -0.016689306 -0.01973385 0.021675058
-0.046344485 -0.022174885 0.0076132487 0.035362456 -0.0041973554 0.012194875 0.043666016 -0.017034901
0.030540405 0.04733201 -0.044557955 -0.0055559105 0.024183476 0.06685032 -0.022890437 -0.08094314
-0.0396204 -0.03176913 -0.006892073 -0.012077103 -0.04675245 -0.015968211 0.03350872 0.001959737
-0.028777536 0.0038034122 0.003055247 0.009642559 -0.033093046 0.014152209 0.013270796 -0.0291883
0.014254908 0.0037674261 -0.008829905 0.02519868 -0.022700937 0.014063735 -0.023083143 -0.024355851
0.0031978735 -0.02908481 -0.0111543 -0.010859304 -0.015787154 -0.026352886 -0.025830911 -0.0012869245
-0.03953387 -0.0008237997 -0.018741917 -0.0015377929 -0.03821284 -0.005230404 0.03184794 0.013715272
0.004550179 -0.026084453 -0.020516498 -0.0095890025 -0.04872354 0.026882734 -0.010867346 -0.002124208
-0.04484053 0.0031443255 0.013004363 0.010897375 0.0094150165 -0.02691915 0.004517819 -0.020140652
-0.037852813 -0.014788391 -0.045201566 -0.010251734 0.011464048 -0.023753883 -0.07400771 0.016526468
-0.013351839 0.052308727 -0.035020612 -0.018284654 -0.01495126 0.011584192 0.0068027154 -0.013160507
-0.030269839 0.007447349 0.030683126 0.025565695 -0.017002223 -0.030471152 -0.04699193 0.0041890834
-0.006312917 -0.0108662965 -0.0027057503 -0.035713635 -0.002558102 -0.0090903705 -0.020799143 -0.024832405
-0.00990141 -0.025348388 -0.02369312 -0.010496299 -0.04088814 -0.009954008 -0.030310696 0.014087189
-0.041121237 -0.0030369088 0.025976485 0.021588268 -0.023024393 0.010920297 -0.002387812 -0.04764591
-0.024026401 -0.033506673 0.002416974 -0.016822465 -0.002037517 -0.010536239 0.004680641 0.010786417
-0.017859535 -0.010673786 -0.010946915 -0.026168214 0.02631064 0.017366372 0.022623006 -0.001048027
0.0018217834 0.016897885 -0.039254166 -0.02320526 -0.04050635 0.015463562 0.01904786 -0.015123761
00000000: 9a7f 6f3c 7b1b c53c db04 a13c 5a17 033d
00000010: 2ec0 0f3d 01c3 0cbd e67c 4e3c e0f3 43bd
00000020: 7a3c 2fbc 4ebe 18bc c19b ce3c 35eb 763c
00000030: 0df3 5a3d 02cc 7c3c da44 70bc 8ba8 313d
00000040: 9058 bfbb 9e1f 543d 73a1 cc3c 2eec 453a
00000050: 11ec 01bd a55d d7bc 1515 8f3c 6129 93bc
00000060: 1b89 123c cad2 1dbe 9a4b ee3c 87b0 cabd
00000070: abc4 0fbc a0db 2abd 2691 003d cc32 c43c
00000080: d0ee 093c e618 57bc 38aa a2bc 0b6c e93c
00000090: 0bbf 423c d844 d7bb c0e7 33bc 8f2a ab3b
000000a0: 0921 2c3c dcb3 563c d291 99bd 21e6 06bd
000000b0: a26f 05be 7082 80bd a06f c4bc bba0 16bd
000000c0: f2b7 c43c 1622 01bc 35a4 bdbb 09c5 233c
000000d0: 46f5 8a3c 61a1 0cbd fe6a cbbc e364 263c
000000e0: 36f9 a8bb db46 f2ba b881 1f3d 6d46 ceba
000000f0: 76a2 803c c052 aa3c 1974 303d fdb0 73bb
00000100: 261a cdb9 55a4 fbbc 6d93 d2bd 1f02 7cbc
00000110: 617e 763c 9edf cb3c 317b 65bd 37b4 81bd
00000120: 3b76 b2bc cd58 9ebc 39d9 2e3c ae6f 593c
00000130: a797 68bd 8fa9 d33b 329a 3b3c 31dd 253d
00000140: 2d66 bfbc 0360 903b 05ea 52b9 0b5a 163d
00000150: 21a2 1bbc a1e9 e63c de56 593c 40dc c6bc
00000160: 5376 4f3d b0ac 1bbd ddc5 ec3c 6c82 87bc
00000170: 2df9 e93c 21c2 6a3d f148 71bd 4c44 d1bb
00000180: bcb8 0abe 1e86 113c 06ce a23b 9d51 7bbc
00000190: b830 433c 78fd 8dbc 67a7 843d 9a24 b1bd
000001a0: bfa1 f83c 727c b43a 48c9 873c 6cbf 15bd
000001b0: 185b 15bd 03b8 88bc e2a8 a1bc e48f b13c
000001c0: b7d3 3dbd 1ba8 b5bc 8f78 f93b 39d8 103d
000001d0: f889 89bb 03cd 473c 23db 323d c78c 8bbc
000001e0: df2f fa3c 36df 413d 6782 36bd 5b0e b6bb
000001f0: 6d1c c63c d2e8 883d ba84 bbbc 84c5 a5bd
00000200: 0049 22bd 5920 02bd e6d6 e1bb 0bdf 45bc
00000210: 7f7f 3fbd c4cf 82bc 7140 093d ee6e 003b
00000220: debe ebbc ab42 793b 8a3a 483b d3fb 1d3c
00000230: 938c 07bd abde 673c c16d 593c 4d1c efbc
00000240: 6b8d 693c ece6 763b 4eab 10bc 766d ce3c
00000250: 51f7 b9bc 946b 663c dc18 bdbc ec85 c7bc
00000260: 6a93 513b 4443 eebc 86c0 36bc 39eb 31bc
00000270: 1054 81bc 02e2 d7bc 599b d3bc 05ae a8ba
00000280: 44ee 21bd 43f4 57ba a688 99bc c48f c9ba
00000290: 1185 1cbd cf63 abbb fc72 023d 05b6 603c
000002a0: ab19 953b 10af d5bc 3712 a8bc 311b 1dbc
000002b0: 5692 47bd 2e39 dc3c f40c 32bc 4c36 0bbb
000002c0: b4aa 37bd 0711 4e3b 4010 553c e78a 323c
000002d0: 7141 1a3c 8d85 dcbc 360a 943b 02fe a4bc
000002e0: 8d0b 1bbd 024b 72bc 4725 39bd e4f6 27bc
000002f0: b4d3 3b3c 8197 c2bc 5b91 97bd 8462 873c
00000300: acc1 5abc ad41 563d c671 0fbd b3c9 95bc
00000310: 21f6 74bc 9fcb 3d3c 50e9 de3b 2b9f 57bc
00000320: 74f8 f7bc e408 f43b 2e5b fb3c 266f d13c
00000330: 3f48 8bbc a39e f9bc 9c7a 40bd 9444 893b
00000340: 96dc cebb 8d08 32bc f552 31bb 7648 12bd
00000350: d4a5 27bb c7ef 14bc f762 aabc 546d cbbc
00000360: 8639 22bc 6ca7 cfbc 1318 c2bc abf8 2bbc
00000370: 537a 27bd 2316 23bc 234e f8bc f4cd 663c
00000380: be6e 28bd e006 47bb a3cc d43c e1d9 b03c
00000390: a79d bcbc 0ceb 323c d67c 1cbb 5c28 43bd
000003a0: 04d3 c4bc 4b3e 09bd 1866 1e3b 44cf 89bc
000003b0: dd87 05bb 30a0 2cbc 1060 993b 83b9 303c
000003c0: 294e 92bc 1ae1 2ebc b05a 33bc b95e d6bc
000003d0: 6989 d73c ec43 8e3c e253 b93c f35d 89ba
000003e0: e8c8 ee3a 6f6d 8a3c fac8 20bd f518 bebc
000003f0: fde9 25bd e15a 7d3c 420a 9c3c a7c9 77bc

action_model._discrete_distribution.branches.1.bias f4 [2]
-0.005984245 0.005984246
00000000: 7c17 c4bb 7e17 c43b

action_model._discrete_distribution.branches.1.weight f4 [2, 128]
-0.0058893985 -0.007528528 0.0019635193 -0.019482609 0.008774798 -0.0008620037 -0.011456868 0.0031096798
-0.011405861 0.0071202195 0.011878159 0.013496971 -0.0070919953 -0.0040347027 0.021664469 0.025922325
-0.0031828969 0.010887357 0.0070148986 -0.0021501184 0.0017598917 -0.008430106 0.021776875 0.016089894
0.00024357933 -0.011646468 -0.0035805164 0.0023139839 0.010035639 -0.007544 0.010248811 -0.015312116
0.012950047 0.03999118 0.007613404 -0.0055421395 0.016893152 -0.015161596 -0.0011733703 0.011554211
0.021301778 0.0037483398 -0.0003760977 0.016447512 0.007798844 -0.00834094 0.0075336793 0.005068151
0.009974677 0.0007145305 0.024517441 -0.0038187017 0.004401775 -0.012593112 0.013981028 0.0054286723
-0.00954376 -0.009148535 0.00783323 0.0027124211 -0.00060014013 0.0021177868 -0.0031845882 -0.029881075
-0.0017332443 0.017585859 -0.0019772549 -0.01167196 -0.0061394176 0.0065865135 0.01336871 -0.017778426
-0.007980382 0.0051474166 0.009514711 -0.0008124815 0.006698495 -0.01510214 0.010621511 0.018173741
-0.00015650247 -0.0066872607 -0.00403421 -0.0016624251 0.01082519 -0.024752894 0.002954782 0.0035053652
-0.0060728653 -0.038136862 0.0252133 -0.009437173 0.009661801 0.0034752549 0.016030207 -0.0056345244
0.006636327 0.00047293017 -0.011607877 -0.005945304 0.005895609 -0.004881169 0.0036737728 -0.0006099401
-0.0057669277 0.0057366285 0.0063858707 0.013178131 0.0054281615 -0.00855173 -0.017003605 -0.00798398
-0.008126693 -0.010740579 0.011475067 0.019118523 -0.005246803 -0.030027645 0.013793633 0.016548742
0.0032819503 0.017926395 -8.474684e-05 0.00010730508 0.019859746 0.007588164 0.0135302665 -0.02583331
-0.0023376863 -0.008549275 -0.008651293 0.01230598 0.003235004 0.010461414 0.017353406 0.017352086
-0.020288352 -0.004585222 0.012218957 -0.018308012 0.0015956543 0.01790494 -0.0050208075 -0.01208574
0.009237599 -0.0041591055 -0.02003864 0.008831472 -0.010780891 0.00052199233 0.0055995863 -0.012006837
-0.021946607 -0.00057335815 0.009389695 0.010011583 -0.013301243 0.021951105 -0.0059683262 -0.0062711164
0.002585682 -0.025933664 0.003508881 -0.016412808 -0.014443147 0.0075782742 0.0015672707 -0.014629181
-0.021443114 -0.0007790703 -0.0008057148 -0.0013790925 0.028060902 -0.006216632 0.02251881 0.012856873
-0.0037294242 -0.010710888 -0.011897233 -0.012803695 -0.003443255 -0.008792196 -0.0132201165 0.0064256317
0.00013813103 -0.014822299 -0.007442938 0.010061118 0.018026225 0.00850621 0.0011631605 0.024975695
0.0038575388 0.008699991 0.016429912 -0.015015135 -0.010243027 -0.0047526066 -0.0033922833 -0.0007671477
0.0109603405 -0.016140047 -0.011592473 -0.024448983 -0.0066665877 0.0040015425 -0.024964876 -0.01153213
0.0059944293 0.0011450745 -0.014298197 -0.0032714948 0.012762458 0.01681643 0.0014863318 0.013798414
0.023217406 0.0016295302 -0.0027154747 -0.02255997 -0.0030368748 -0.014444911 0.011517442 -0.004860137
0.010300611 -0.0046623354 -0.012982191 0.015690539 0.000716883 0.011024713 -0.02857812 -0.010893627
-0.0065130363 -0.009538782 -0.016017474 0.0006945811 0.019695096 0.017896656 -0.006241036 -0.00533889
0.004046913 0.014533865 -0.012686138 -0.020650476 0.0037529706 0.014639126 -0.002805777 -0.004655849
-0.008388139 -0.0029969022 0.00031180607 0.0018157712 -0.025257817 -0.0064206566 -0.00097083364 -0.0021269773
00000000: dbfb c0bb dfb1 f6bb 63ae 003b fe99 9fbc
00000010: 2cc4 0f3c 17f8 61ba 96b5 3bbc c5cb 4b3b
00000020: a6df 3abc bb50 e93b 9c9c 423c 6622 5d3c
00000030: f863 e8bb 8a35 84bb af79 b13c 0e5b d43c
00000040: 2698 50bb e360 323c 3cdd e53b 00e9 0cbb
00000050: 2bac e63a 6d1e 0abc 6b65 b23c f4ce 833c
00000060: 5469 7f39 d4d0 3ebc 19a7 6abb 35a6 173b
00000070: 856c 243c a933 f7bb a1ea 273c abdf 7abc
00000080: 6f2c 543c cbcd 233d dd79 f93b d69a b5bb
00000090: 8263 8a3c 5868 78bc c6cb 99ba e04d 3d3c
000000a0: 1181 ae3c b5a6 753b fb2e c5b9 efbc 863c
000000b0: 728d ff3b 70a8 08bc 15dd f63b bb12 a63b
000000c0: d46c 233c 554f 3b3a cdd8 c83c 2f43 7abb
000000d0: c43c 903b 5753 4ebc af10 653c 01e3 b13b
000000e0: 6e5d 1cbc bde3 15bc f356 003c e0c2 313b
000000f0: b952 1dba 91ca 0a3b 86b4 50bb 28c9 f4bc
00000100: 072e e3ba 3810 903c d594 01bb c03b 3fbc
00000110: 2b2d c9bb aed3 d73b 6f08 5b3c 10a4 91bc
00000120: 26c0 02bc a9ab a83b 97e3 1b3c b6fc 54ba
00000130: 0c7f db3b f76e 77bc d905 2e3c 19e1 943c
00000140: d01a 24b9 cf20 dbbb 6831 84bb bbe5 d9ba
00000150: 235c 313c 95c6 cabc 04a5 413b 45ba 653b
00000160: e3fe c6bb 6635 1cbd 1f8c ce3c 5f9e 1abc
00000170: 884c 1e3c 1ac1 633b c851 833c d1a1 b8bb
00000180: 8c75 d93b 9df3 f739 f72e 3ebc d3d0 c2bb
00000190: f42f c13b 37f2 9fbb aec3 703b 63e4 1fba
000001a0: 7ff8 bcbb 54fa bb3b 9140 d13b 16e9 573c
000001b0: b8de b13b 8e1c 0cbc 254b 8bbc 3dcf 02bc
000001c0: d225 05bc 41f9 2fbc eb01 3c3c 739e 9c3c
000001d0: 60ed abbb 89fc f5bc b1fe 613c 3a91 873c
000001e0: fd15 573b 60da 923c 1dba b1b8 fa08 e138
000001f0: e8b0 a23c 22a6 f83b 0dae 5d3c 61a0 d3bc
00000200: de33 19bb 4212 0cbc 27be 0dbc 059f 493c
00000210: 5c02 543b 5a66 2b3c bb28 8e3c f625 8e3c
00000220: c233 a6bc a13f 96bb 0532 483c affa 95bc
00000230: 4625 d13a 61ad 923c 9685 a4bb 4503 46bc
00000240: 4c59 173c 1b49 88bb 1328 a4bc e1b1 103c
00000250: 56a2 30bc 50d6 083a bc7c b73b 53b8 44bc
00000260: 5fc9 b3bc 6a4d 16ba 3cd7 193c 9f07 243c
00000270: 75ed 59bc ced2 b33c f391 c3bb f07d cdbb
00000280: 8c74 293b d672 d4bc 41f5 653b 2774 86bc
00000290: f3a2 6cbc 2c53 f83b e16c cd3a 3baf 6fbc
000002a0: 78a9 afbc 863a 4cba 9b36 53ba aac2 b4ba
000002b0: fadf e53c e4b4 cbbb 5e79 b83c a2a5 523c
000002c0: 5b69 74bb b87c 2fbc 9dec 42bc 97c6 51bc
000002d0: 3ca8 61bb 250d 10bc 3099 58bc 1b8e d23b
000002e0: 44d7 1039 3ad9 72bc e4e3 f3bb 63d7 243c
000002f0: bcab 933c a15d 0b3c 3175 983a d499 cc3c
00000300: c3ce 7c3b 688a 0e3c 0698 863c 0a02 76bc
00000310: 5ed2 27bc c1bb 9bbb 1251 5ebb 691a 49ba
00000320: 0093 333c 2238 84bc 5bee 3dbc 3c49 c8bc
00000330: 6473 dabb 5f1f 833b 2483 ccbc 42f1 3cbc
00000340: eb6c c43b 5316 963a fc42 6abc 9366 56bb
00000350: a119 513c 9cc2 893c 05d1 c23a be12 623c
00000360: 6e32 be3c f695 d53a 1bf6 31bb b0cf b8bc
00000370: 4e06 47bb 59aa 6cbc a7b3 3c3c c941 9fbb
00000380: e5c3 283c 81c6 98bb 41b3 54bc 7289 803c
00000390: 34ed 3b3a ffa0 343c a91c eabc 2f7b 32bc
000003a0: 4f6b d5bb 8d48 1cbc 1437 83bc 8c14 363a
000003b0: 9c57 a13c 029c 923c 9b81 ccbb dbf1 aebb
000003c0: f79b 843b 731f 6e3c 85d9 4fbc 302b a9bc
000003d0: 66f4 753b f2d8 6f3c 20e1 37bb 1890 98bb
000003e0: 686e 09bc ad67 44bb e779 a339 2cff ed3a
000003f0: 7be9 cebc 5f64 d2bb 8b7f 7eba c264 0bbb

network_body.linear_encoder.seq_layers.0.bias f4 [128]
-0.00070567906 0.014139659 -0.0026104874 0.023868326 0.002620917 -0.0077312854 0.0020643931 -0.006873844
0.028530693 0.030524405 0.048569016 0.017174745 0.01447051 0.011132926 0.020408086 0.028237209
0.02631134 0.012887218 -0.011431123 -0.005275823 0.005078777 -0.00039242682 0.024446558 0.0018680745
0.018957691 0.02553747 0.039066274 0.007163065 -0.014661544 0.0073839924 -0.0022527755 0.026323678
0.007254812 -0.0055520907 0.021379894 -0.023951927 -0.013968468 -0.012568472 0.028698295 0.020381447
-0.03634415 -0.0036944875 -0.00094225403 0.007006951 0.003144799 0.0016128039 -0.015815506 -0.006286308
0.03479451 0.024150582 0.026158148 0.002712182 0.010619323 0.008688842 -0.0077242735 -0.009580666
0.0077304826 0.015732376 0.025135936 -0.012422916 0.010889206 -0.021157121 0.019596154 0.0081563
0.023920212 6.0615686e-05 0.017931985 0.0035051878 0.008548059 0.005073451 0.0019567802 0.02625754
-0.028115653 -0.0002723735 0.01618878 0.0017651794 -0.00094475225 0.02429661 -0.007917622 0.014123432
0.0057431175 0.027547138 0.0012803092 0.039596707 -0.016359532 -0.0050838646 0.014198388 0.015398133
0.013193402 -0.0016049781 -0.008519943 0.02821315 0.031445976 -0.006391245 0.004015406 -0.0057332367
0.013740703 0.015094155 0.002136725 0.009990624 0.010086571 -0.013715974 0.024809996 0.017852386
0.0004786793 0.016434325 0.011593853 0.0023387175 0.021422839 0.007824214 0.014891437 0.007427487
0.0060586696 0.024178756 0.019946234 -0.013731327 0.029749392 0.010311993 0.012760874 0.017494686
0.017153926 0.010191819 0.02102508 0.009661114 -0.00055236387 -0.008097728 0.012756696 0.009958356
00000000: 52fd 38ba 07aa 673c b614 2bbb 8287 c33c
00000010: b1c3 2b3b b956 fdbb c54a 073b fc3d e1bb
00000020: 33b9 e93c 510e fa3c 4ef0 463d 0db2 8c3c
00000030: b815 6d3c e066 363c dc2e a73c b851 e73c
00000040: e18a d73c e924 533c 9b49 3bbc d0e0 acbb
00000050: df6b a63b a3be cdb9 2644 c83c 2eda f43a
00000060: 294d 9b3c f533 d13c f503 203d 25b8 ea3b
00000070: f936 70bc 6bf5 f13b 4da3 13bb c1a4 d73c
00000080: c6b9 ed3b 50ee b5bb e324 af3c d536 c4bc
00000090: 00dc 64bc feeb 4dbc b018 eb3c fef6 a63c
000000a0: 9add 14bd 371f 72bb 9901 77ba 919a e53b
000000b0: f918 4e3b b864 d33a 858f 81bc 60fd cdbb
000000c0: b084 0e3d 71d7 c53c 9d49 d63c ddbe 313b
000000d0: abfc 2d3c a55b 0e3c e71b fdbb 3af8 1cbc
000000e0: fd4f fd3b 2fe1 803c e1e9 cd3c 7c89 4bbc
000000f0: a468 323c b351 adbc 1d88 a03c 00a2 053c
00000100: 52f4 c33c 993d 7e38 19e6 923c 4bb7 653b
00000110: 280d 0c3c 313f a63b 533d 003b 0d1a d73c
00000120: cc52 e6bc 5acd 8eb9 559e 843c 985d e73a
00000130: 40a9 77ba af09 c73c eab8 01bc f865 673c
00000140: c330 bc3b 89aa e13c 0cd0 a73a 2830 223d
00000150: 6d04 86bc 8c96 a6bb 5ba0 683c 7348 7c3c
00000160: 2429 583c 215e d2ba 3b97 0bbc 441f e73c
00000170: 7fcd 003d a66d d1bb ab93 833b e0dd bbbb
00000180: b020 613c 7a4d 773c 4c08 0c3b b7af 233c
00000190: 2542 253c f7b8 60bc 553e cb3c 2b3f 923c
000001a0: 40f7 fa39 47a1 863c 25f4 3d3c 2b45 193b
000001b0: f37e af3c 2231 003c 37fb 733c 4762 f33b
000001c0: ce87 c63b 8712 c63c 4966 a33c 5cf9 60bc
000001d0: ffb4 f33c a2f3 283c fc12 513c 0451 8f3c
000001e0: 6486 8c3c 96fb 263c ca3c ac3c a649 1e3c
000001f0: 83cc 10ba 55ac 04bc 7601 513c 5f28 233c

network_body.linear_encoder.seq_layers.0.weight f4 [128, 602]
0.006682434 0.0007567327 -0.003310846 0.06722072 -0.022830624 -0.055581503 -0.029787693 -0.0031171944
-0.10175022 0.12571533 -0.07160847 -0.04544979 -0.015439621 0.04116329 -0.053416688 0.14467207
0.018302282 -0.013329858 -0.059962273 0.07334375 -0.12998153 0.05661858 0.059691034 -0.0142184235
-0.015295177 0.08679287 -0.090245046 0.08913631 -0.025643988 -0.026899835 -0.02916637 0.012880744
-0.10884793 -0.005273978 -0.028798657 0.016571715 0.02176254 -0.007816298 -0.05632103 0.024625428
-0.019845376 -0.0072846697 -0.045318067 -0.016175358 -0.08933251 0.025698297 0.010385038 0.06176005
-0.047661383 0.01135168 -0.07494 0.095357284 0.008560033 -0.006122649 -0.050492823 0.03432885
-0.08704713 0.06418209 -0.010304846 -0.057073213 0.011755892 -0.024507767 -0.017854631 -0.011348061
-0.042515654 -0.00045153248 0.019543372 0.042600133 -0.06667951 0.011856655 -0.0051089614 0.05439481
-0.056310724 0.04911477 0.07021883 0.024242185 -0.03102476 -0.017873812 -0.06317002 -0.057097584
0.047280926 -0.05861212 0.008982897 0.027660796 0.025316222 -0.03158813 -0.025168253 -0.059921455
0.019349692 -0.004346545 0.0058762906 0.027466547 0.0022393258 0.034077816 -0.04232265 -0.026158657
0.0462755 0.02107133 0.008964189 -0.012484201 -0.0021112952 -0.01159452 0.014524103 -0.022274282
0.021769028 -0.0693715 -0.00955651 0.040450323 0.0015657282 0.02941963 0.019309696 -0.011470653
0.01019078 0.033119556 -0.06005379 -0.06583099 0.060476698 -0.031781968 0.035617 -0.014176272
0.041053828 -0.003384487 -0.010783627 -0.0052547646 -0.09247365 -0.02467327 -0.030403221 -0.10055011
-0.046996836 -0.01728775 -0.0011139399 0.113324486 -0.012505991 -0.037158724 0.02666522 -0.053918242
-0.040466335 0.009371351 0.09273942 -0.07175378 -0.034538783 -0.01706095 0.03322687 0.08828013
0.01791076 0.017879805 0.057926457 -0.0654842 -0.047852952 0.09351418 -0.004019349 -0.121834226
0.021520738 -0.03534697 -0.037031405 -0.057877973 0.069784015 0.012217882 0.028136875 -0.006220205
0.04004952 0.091217585 0.01363775 -0.03460308 -0.037419856 0.0006885141 0.056371827 0.094409294
0.035094734 -0.06301593 0.049631078 -0.02485416 -0.0345233 0.024882216 -0.018343914 -0.10584815
0.01271745 -0.008039564 -0.02291774 0.004843378 0.0129315555 -0.030910604 0.005990284 0.039805796
0.054434896 -0.012489839 -0.03223675 0.0015068381 -0.06408821 -0.017401539 -0.02244982 0.011449568
0.06645464 0.025878109 -0.08188859 -0.028273609 0.014838823 0.031418324 -0.08698203 -0.000445045
-0.06073568 0.011957914 -0.062291957 0.0022741742 -0.01394399 0.014451572 -0.02675854 0.021952318
0.050459713 -0.036307395 -0.0065328213 -0.0076684733 -0.059902884 0.07559886 0.01993309 -0.03677241
-0.012400774 0.02583415 -0.033299807 0.035000674 -0.056807525 -0.0022141584 0.05122866 -0.028482422
-0.0026062008 -0.04749008 -0.03634488 -0.046297286 -0.028383132 0.08030889 -0.090780064 0.049245432
0.0877916 -0.07338318 -0.08977073 0.05317673 0.02926635 -0.033775996 -0.004642625 -0.04239918
0.023374949 0.024477074 -0.042512067 0.030560816 -0.0682529 -0.012377853 -0.042389195 -0.0368563
-0.029012807 -0.042241137 -0.073362954 0.023975715 0.008378184 -0.022466943 -0.0832883 0.03676862
00000000: 52f8 da3b 795f 463a c7fa 58bb 04ab 893d
00000010: 4a07 bbbc 6ea9 63bd 5205 f4bc d849 4cbb
00000020: 6b62 d0bd 85bb 003e 76a7 92bd 8f29 3abd
00000030: 77f6 7cbc d79a 283d 75cb 5abd ea24 143e
00000040: abee 953c 7a65 5abc 009b 75bd 3f35 963d
00000050: e119 05be e2e8 673d 967e 743d 64f4 68bc
00000060: 9f98 7abc 76c0 b13d 65d2 b8bd 198d b63d
00000070: 5713 d2bc 0b5d dcbc 50ee eebc c209 533c
00000080: aaeb debd 56d1 acbb 29eb ebbc 68c1 873c
00000090: 5b47 b23c ee0f 00bc e1b0 66bd 44bb c93c
000000a0: c592 a2bc 3db4 eebb 709f 39bd 2f82 84bc
000000b0: f7f3 b6bd 3c85 d23c 0226 2a3c 1bf8 7c3d
000000c0: 9538 43bd 66fc 393c 257a 99bd ae4a c33d
000000d0: 613f 0c3c 81a0 c8bb 90d1 4ebd 699c 0c3d
000000e0: c445 b2bd e671 833d a8d5 28bc 9ac5 69bd
000000f0: c99b 403c 83c4 c8bc e043 92bc 38ed 39bc
00000100: e524 2ebd aabb ecb9 6c19 a03c 7a7d 2e3d
00000110: 448f 88bd 6a42 423c 1369 a7bb 18cd 5e3d
00000120: 13a6 66bd 922c 493d e4ce 8f3d 8c97 c63c
00000130: a327 febc 1a6c 92bc 495f 81bd 28df 69bd
00000140: a5a9 413d 4313 70bd 002d 133c e598 e23c
00000150: f763 cf3c 8e62 01bd a72d cebc 3370 75bd
00000160: 3f83 9e3c 766d 8ebb e68d c03b 8601 e13c
00000170: a7c1 123b 2e95 0b3d 845a 2dbd ae4a d6bc
00000180: 618b 3d3d c89d ac3c 89de 123c 898a 4cbc
00000190: a85d 0abb f1f6 3dbc 81f6 6d3c 8e78 b6bc
000001a0: f654 b23c a512 8ebd e892 1cbc 3daf 253d
000001b0: 1f39 cd3a 7001 f13c 5e2f 9e3c 68ef 3bbc
000001c0: 3bf7 263c 5fa8 073d f7fa 75bd 66d2 86bd
000001d0: 6ab6 773d cf2d 02bd 22e3 113d 9843 68bc
000001e0: 0f28 283d 45ce 5dbb cfad 30bc 2930 acbb
000001f0: d362 bdbd 991f cabc 2d10 f9bc 37ed cdbd
00000200: c17f 40bd 0a9f 8dbc 9f01 92ba ab16 e83d
00000210: eee5 4cbc bf33 18bd 0571 da3c 60d9 5cbd
00000220: 07c0 25bd 4c8a 193c 2aee bd3d a5f3 92bd
00000230: 8a78 0dbd 68c3 8bbc e618 083d 36cc b43d
00000240: 96b9 923c ab78 923c 4b44 6d3d 951c 86bd
00000250: 7501 44bd 5d84 bf3d beb4 83bb 3984 f9bd
00000260: 424c b03c fcc7 10bd 3eae 17bd 7411 6dbd
00000270: ecea 8e3d 832d 483c 4e7f e63c ddd2 cbbb
00000280: f70a 243d 49d0 ba3d df70 5f3c f6bb 0dbd
00000290: 9045 19bd 667d 343a 25e6 663d a959 c13d
000002a0: 7fbf 0f3d 7f0e 81bd f549 4b3d f49a cbbc
000002b0: 4e68 0dbd cad5 cb3c fa45 96bc eac6 d8bd
000002c0: da5c 503c 60b8 03bc fcbd bbbc 33b5 9e3b
000002d0: e0de 533c 3c38 fdbc 254a c43b 670b 233d
000002e0: 20f7 5e3d 2fa2 4cbc af0a 04bd 1981 c53a
000002f0: ae40 83bd ac8d 8ebc afe8 b7bc f896 3b3c
00000300: 5f19 883d 54fe d33c 34b5 a7bd 0e9e e7bc
00000310: 891e 733c 80b0 003d a223 b2bd ee54 e9b9
00000320: fac5 78bd 20eb 433c da25 7fbd 500a 153b
00000330: 5575 64bc 49c6 6c3c ba34 dbbc 59d5 b33c
00000340: d8ae 4e3d 10b7 14bd 4711 d6bb d147 fbbb
00000350: ba5c 75bd 93d3 9a3d b84a a33c ab9e 16bd
00000360: 9e2c 4bbc 24a2 d33c 6165 08bd de5c 0f3d
00000370: 02af 68bd 6a1b 11bb 25d5 513d f853 e9bc
00000380: cbcc 2abb f584 42bd 5ede 14bd 39a2 3dbd
00000390: be83 e8bc fd78 a43d e6ea b9bd 94b5 493d
000003a0: 15cc b33d ec49 96bd b7d9 b7bd d8cf 593d
000003b0: fcbf ef3c b358 0abd 2921 98bb c3aa 2dbd
000003c0: d27c bf3c 2584 c83c 2221 2ebd ad5a fa3c
000003d0: 2dc8 8bbd 7acc 4abc 4ba0 2dbd a2f6 16bd
000003e0: 44ac edbc 0b05 2dbd 513f 96bd b868 c43c
000003f0: a744 093c 980c b8bc 0e93 aabd b19a 163d

network_body.linear_encoder.seq_layers.2.bias f4 [128]
0.013955785 -0.00035112962 0.003918135 -0.007047305 0.017514657 0.05015708 0.0009595487 -0.010846983
-0.019157583 -0.0033269138 0.011246273 0.008257365 0.0016521622 0.016997116 -0.019846441 -0.018598866
-0.005916401 0.04242687 0.0048249983 -0.01000767 -0.012927118 -0.009186769 -0.014403573 0.0132243205
-0.0022329018 0.00011617652 0.019907977 -0.0010827644 0.02435175 0.033192012 0.010748752 -0.020934418
-0.00072471105 0.03162444 0.010810154 0.007828827 0.018136824 0.039846342 -0.004272758 -0.0032367355
0.010987544 0.013734065 -0.014594146 0.020487001 -0.019535625 0.022171639 0.018686282 -0.0021095837
0.007533633 0.030621903 -0.012689969 -0.01029439 0.04749338 0.01336498 0.008131478 -0.011986592
-0.0024050109 -0.017466372 0.0027114928 -0.02205147 0.012470778 -0.020598134 0.0036626828 0.0068214484
-0.008942694 -0.002668086 -0.0046190717 -0.005114609 0.039832298 -0.018625585 0.020222232 0.017090917
0.01211693 -0.017270867 0.02146303 -0.004361709 0.003108003 0.020229854 0.016705915 -0.0072553903
-0.005644079 0.021181576 -0.017383384 -0.02427246 -0.009098586 0.010952141 0.018531242 0.01007034
0.0047588297 0.008199062 0.03538928 0.0059453 -0.002232201 -0.004403903 0.00026257997 0.025250057
-0.010183414 0.024241649 0.002216676 0.044296905 0.020392274 0.010078157 -0.021936333 0.0062142164
0.009742988 -0.01839219 0.058034748 0.005892169 -0.0008281063 0.0062883627 0.008357856 0.022202186
-0.010472944 0.007723053 0.013072888 -0.024075346 -0.0062518953 0.0022240204 -0.0037666461 0.04953998
0.0007198423 -0.02112662 -0.009774309 0.0017194732 -0.01355163 0.022915192 -0.009445421 0.012852415
00000000: cea6 643c d217 b8b9 b363 803b 14ed e6bb
00000010: e67a 8f3c 8371 4d3d 398a 7b3a 8bb7 31bc
00000020: 5df0 9cbc 5a08 5abb 4a42 383c e649 073c
00000030: 5d8d d83a 893d 8b3c 0195 a2bc a65c 98bc
00000040: 5ede c1bb ccc7 2d3d 051b 9e3b 36f7 23bc
00000050: 43cc 53bc 1a84 16bc f7fc 6bbc d2aa 583c
00000060: e055 12bb cba3 f338 0e16 a33c 8beb 8dba
00000070: 527d c73c 59f4 073d 891b 303c a87e abbc
00000080: 89fa 3dba a188 013d 121d 313c 7b44 003c
00000090: ad93 943c eb35 233d 7e02 8cbb 691f 54bb
000000a0: 1a05 343c d804 613c 491c 6fbc 5bd4 a73c
000000b0: 2d09 a0bc 4ca1 b53c f913 993c f140 0abb
000000c0: b2dc f63b c9da fa3c 96e9 4fbc cda9 28bc
000000d0: 6b88 423d caf8 5a3c e439 053c 6963 44bc
000000e0: 639d 1dbb a315 8fbc 4db3 313b 49a5 b4bc
000000f0: 3c52 4c3c 6bbd a8bc 9f09 703b 7586 df3b
00000100: 6184 12bc 0edb 2ebb 955b 97bb 7398 a7bb
00000110: 3127 233d af94 98bc 18a9 a53c 4002 8c3c
00000120: 1786 463c a27b 8dbc 3cd3 af3c abec 8ebb
00000130: a3af 4b3b 14b9 a53c d8da 883c a0be edbb
00000140: f7f1 b8bb fc84 ad3c 9967 8ebc 0ad7 c6bc
00000150: 3c12 15bc 9c70 333c d5ce 973c 11fe 243c
00000160: f5ef 9b3b 5c55 063c 5af4 103d cbd0 c23b
00000170: 1e4a 12bb 9e4e 90bb e3aa 8939 35d9 ce3c
00000180: 56d8 26bc 6c96 c63c a745 113b ac70 353d
00000190: b30d a73c db1e 253c d3b3 b3bc a0a0 cb3b
000001a0: 0ea1 1f3c 38ab 96bc d8b5 6d3d 1913 c13b
000001b0: 4615 59ba 9c0e ce3b 64ef 083c 5ce1 b53c
000001c0: b696 2bbc aa11 fd3b ab2f 563c a939 c5bc
000001d0: b3dc ccbb dfc0 113b d6d9 76bb 6fea 4a3d
000001e0: cdb3 3c3a bc11 adbc 6c24 20bc f25f e13a
000001f0: a807 5ebc a4b8 bb3c f8c0 1abc f092 523c

network_body.linear_encoder.seq_layers.2.weight f4 [128, 128]
-0.04328907 0.059158355 -0.024393039 -0.021342466 -0.11641534 -0.042329974 0.055300876 -0.0036633434
0.055901848 0.016282763 0.07701469 0.024705585 0.07147137 -0.00073899043 -0.02404623 0.068619624
0.030887466 -0.101162694 0.10873134 0.056223445 0.0032927026 0.03042824 0.011133254 -0.077269636
-0.12882864 -0.081692584 -0.11486501 0.05163308 0.06262753 -0.06364015 0.10481336 0.017712193
-0.053631373 -0.091600254 -0.0031146447 -0.018709142 0.07926985 0.13585585 0.077223934 0.025112253
0.095595956 0.053296003 -0.027235672 0.109175 0.115390204 0.06648095 0.030435205 -0.025290826
0.012803893 -0.21520108 0.16569558 -0.13161913 -0.019696265 -0.0077740005 -0.046763163 -0.08159279
-0.07881002 0.0516892 0.020330625 0.06545113 -0.0896406 0.050563194 0.03940157 0.116086826
-0.015450758 -0.1264613 -0.055021323 -0.07826475 0.1521829 0.038252287 0.118043855 -0.048384618
0.041942652 0.2494205 0.010157255 0.08911352 -0.13231279 0.19105124 0.0556011 0.14770691
0.02193714 0.09187167 -0.021208342 0.17485163 -0.011623183 0.06536252 0.06938148 0.11129526
0.11970965 0.13318922 -0.037018076 0.038171835 0.061022665 0.01699168 0.15537864 -0.010355338
0.2553409 0.10427509 0.07569674 0.09070045 -0.035256635 -0.18685068 0.03734128 0.02964027
-0.09557147 0.19621825 0.12269781 -0.033156045 -0.12980169 0.024265796 -0.023697216 -0.12062146
-0.0242229 0.17211527 -0.096169315 -0.09556454 0.13165693 0.059717495 -0.010992021 0.06820789
0.027921122 0.036927946 0.1144238 0.06066957 -0.011298893 0.114918716 0.14660223 0.043454688
-0.11693382 -0.046230935 -0.090551995 -0.051492993 0.012580505 0.08082012 -0.021243023 0.08174767
0.082404874 0.077053644 -0.018255465 -0.018282495 -0.10793412 0.0552908 -0.16486603 -0.14168131
0.024933675 0.110068925 0.1560794 0.0937377 0.16044211 -0.12659104 -0.21105239 -0.10486129
0.13864523 0.10563726 -0.035023734 -0.103712626 -0.12899956 -0.05999095 -0.028156387 0.15627138
0.11949956 0.0047078463 0.21579993 -0.04130441 0.042493843 -0.13340913 -0.0069643743 -0.015246496
-0.11508943 0.035946153 -0.18385923 0.09610869 -0.08571381 -0.012894161 -0.15677379 0.038105797
0.01350346 0.06107605 -0.0014017768 0.070375495 0.018090837 -0.037430402 -0.18495186 -0.060580995
0.014685971 0.025595376 -0.021677759 0.019403668 0.005942604 -0.11586703 0.08786955 0.00895898
-0.0054004025 -0.07321653 -0.0032993164 0.010208188 0.1401379 -0.08700475 0.20226972 -0.06991103
-0.07801509 0.040119436 -0.058978375 -0.024287153 0.017226174 -0.06899009 0.1761977 -0.017572861
0.08967962 -0.16515726 0.00812564 -0.035213206 -0.049383372 0.0161102 -0.14266752 0.21926843
-0.006895883 0.21201594 0.08917816 0.035295524 0.15548052 -0.000116160794 0.15228415 0.02302366
0.036248513 -0.16213776 -0.10826582 0.008637504 0.019470267 -0.039767437 -0.12826239 0.015115927
0.11389273 0.009909535 0.004567764 -0.020350873 -0.024480088 0.05285655 0.05358182 0.04898555
-0.031221071 -0.043115374 -0.11035257 -0.039145436 -0.07813659 -0.01716177 -0.17130513 -0.095125124
0.10795528 -0.25058952 -0.04419075 -0.07616833 -0.036384374 0.019478861 -0.05267135 -0.014364921
00000000: e14f 31bd 0850 723d e9d3 c7bc 65d6 aebc
00000010: 2a6b eebd 3262 2dbd 2c83 623d b414 70bb
00000020: 56f9 643d 6e63 853c e1b9 9d3d 5e63 ca3c
00000030: 955f 923d cfb8 41ba 99fc c4bc 7288 8c3d
00000040: b607 fd3c 632e cfbd 89ae de3d 8e4a 663d
00000050: 62ca 573b a544 f93c 4068 363c 8b3f 9ebd
00000060: a8eb 03be 714e a7bd 593e ebbd 357d 533d
00000070: dd42 803d c455 82bd 63a8 d63d 2919 913c
00000080: 92ac 5bbd ea98 bbbd 111f 4cbb ea43 99bc
00000090: 3b58 a23d cc1d 0b3e 9527 9e3d 36b8 cd3c
000000a0: d0c7 c33d e94c 5a3d 581d dfbc 2497 df3d
000000b0: b351 ec3d 2a27 883d 4053 f93c b52e cfbc
000000c0: 6bc7 513c ac5d 5cbe 1aac 293e 2ac7 06be
000000d0: 105a a1bc 0bbd febb bb8a 3fbd 1f1a a7bd
000000e0: 2667 a1bd 0eb8 533d 698c a63c 3e0b 863d
000000f0: 7e95 b7bd 5a1b 4f3d 8a63 213d eebe ed3d
00000100: 2d25 7dbc 127f 01be 0a5e 61bd 4549 a0bd
00000110: d6d5 1b3e 6eae 1c3d fac0 f13d f32e 46bd
00000120: 0fcc 2b3d 1668 7f3e 9e6a 263c 2681 b63d
00000130: 017d 07be f0a2 433e fbbd 633d 7b40 173e
00000140: 84b5 b33c 3727 bc3d 1ebd adbc 4e0c 333e
00000150: 2a6f 3ebc c9dc 853d e117 8e3d c5ee e33d
00000160: 552a f53d c162 083e 44a0 17bd 125a 1c3d
00000170: e7f2 793d 2332 8b3c 941b 1f3e 70a9 29bc
00000180: 0bbc 823e 2e8e d53d e406 9b3d 28c1 b93d
00000190: 4369 10bd c955 3fbe 2cf3 183d 27d0 f23c
000001a0: faba c3bd 70ed 483e fd48 fb3d a2ce 07bd
000001b0: bcea 04be 10c9 c63c aa20 c2bc 6208 f7bd
000001c0: 1a6f c6bc fc3e 303e 6bf4 c4bd 57b7 c3bd
000001d0: 13d1 063e 559a 743d e117 34bc 94b0 8b3d
000001e0: d6ba e43c c241 173d 0657 ea3d a880 783d
000001f0: fe1e 39bc 815a eb3d e51e 163e 8bfd 313d
00000200: 007b efbd a65c 3dbd 5373 b9bd 51ea 52bd
00000210: 761e 4e3c 0585 a53d d905 aebc 536b a73d
00000220: e3c3 a83d 4dce 9d3d 7c8c 95bc 2cc5 95bc
00000230: 900c ddbd 9b78 623d a4d2 28be e814 11be
00000240: b541 cc3c d16b e13d 47d3 1f3e 8df9 bf3d
00000250: f04a 243e 15a1 01be 1e1e 58be 84c1 d6bd
00000260: 04f9 0d3e 5958 d83d 0c75 0fbd 4967 d4bd
00000270: 7618 04be 12b9 75bd 39a8 e6bc 9b05 203e
00000280: 2fbc f43d 4744 9a3b a8fa 5c3e d02e 29bd
00000290: 060e 2e3d 679c 08be 6835 e4bb 70cc 79bc
000002a0: 02b4 ebbd 463c 133d 9845 3cbe a2d4 c43d
000002b0: b98a afbd 0842 53bc 4f89 20be d314 1c3d
000002c0: 9e3d 5d3c e12a 7a3d d3bb b7ba 0721 903d
000002d0: 3c33 943c 9f50 19bd 0564 3dbe c723 78bd
000002e0: 6d9d 703c 65ad d13c 8e95 b1bc 71f4 9e3c
000002f0: 2dba c23b b24b edbd f3f4 b33d b0c8 123c
00000300: dcf5 b0bb 8cf2 95bd 5839 58bb 3e40 273c
00000310: 4f80 0f3e 8c2f b2bd cb1f 4f3e 842d 8fbd
00000320: 60c6 9fbd 4754 243d 4f93 71bd daf5 c6bc
00000330: e81d 8d3c ad4a 8dbd 2b6d 343e f6f4 8fbc
00000340: f3a9 b73d fc1e 29be 6821 053c b93b 10bd
00000350: 3846 4abd 8af9 833c 6f17 12be e787 603e
00000360: dcf6 e1bb b51a 593e 0aa3 b63d 0a92 103d
00000370: 4936 1f3e 5a9b f3b8 60f0 1b3e 1d9c bc3c
00000380: 5279 143d 7107 26be 78ba ddbd 5184 0d3c
00000390: 1c80 9f3c 2ee3 22bd 3757 03be cba8 773c
000003a0: 9740 e93d 9a5b 223c 2ead 953b e0b6 a6bc
000003b0: 778a c8bc 1c80 583d 9c78 5b3d 12a5 483d
000003c0: 55c3 ffbc bf99 30bd 8700 e2bd f756 20bd
000003d0: 1406 a0bd d796 8cbc 9d6a 2fbe f6d0 c2bd
000003e0: a817 dd3d 454d 80be 5c01 35bd 24fe 9bbd
000003f0: c807 15bd 2292 9f3c eabd 57bd d85a 6bbc

network_body.linear_encoder.seq_layers.4.bias f4 [128]
0.018597053 0.021639593 0.011718648 -0.021829495 0.025156945 -0.0039370987 -0.016211921 0.004417357
-0.008711248 0.0026645523 -0.016025549 0.0005247054 0.053190663 -0.016975924 -0.0068253037 0.01175173
-0.024518892 -0.019546403 0.013364157 -0.027727371 0.025546914 0.0072914297 0.020805718 -0.027804533
-0.0016998856 0.06732084 -0.008573881 0.033116493 -0.0077844127 0.027857555 0.014540125 0.00783925
0.0016708045 0.002209108 -0.017303683 -0.02716302 0.015754798 0.0011814096 -0.01838897 0.003410634
-0.010886405 0.0070284107 -0.00032827636 0.01980804 0.03252223 -0.009325333 -0.0111132115 0.0073205456
-0.0012611615 -0.025911871 -0.010915591 -0.013001273 0.039951462 0.0012396412 -0.013413996 0.01253044
0.014168733 -0.011391843 0.018769637 0.008020188 0.012763116 -0.0015701188 0.051002223 -0.0035422973
0.02379156 -0.015220528 0.035408013 0.01737756 -6.1552004e-05 -0.0125138685 0.01388562 0.0074374275
0.008825713 0.014952018 -0.029047756 -0.012284272 0.03581984 0.051034305 0.0025476892 0.004352316
0.026654167 -0.010583388 -0.012830706 0.007875716 0.026845798 0.0033665977 0.05175965 0.031170461
0.010978506 0.01723136 0.013745242 0.0015921121 0.009852663 0.011654865 -0.012472299 0.007920451
0.054955605 -0.013446713 -0.014552714 0.01913592 0.04481581 -0.022835515 -0.0031112516 0.05087223
0.037877563 -0.0042195087 0.0056447736 -0.0225205 -0.009158786 -0.009722214 0.00553817 0.0024224683
-0.0040937057 -0.003111156 -0.027490484 -0.0077593913 -0.0054387865 0.017340444 -0.016655406 -0.0075969175
-0.0029755544 -0.008418326 0.021736186 0.024866555 0.024230419 -0.03689053 -0.016849432 0.035443988
00000000: d958 983c 8445 b13c 92ff 3f3c c5d3 b2bc
00000010: f015 ce3c c702 81bb ddce 84bc 7abf 903b
00000020: 9fb9 0ebc c59f 2e3b 0348 83bc 628c 093a
00000030: 74de 593d 1811 8bbc cca6 dfbb 548a 403c
00000040: d8db c8bc c71f a0bc 56f5 5a3c 8324 e3bc
00000050: c347 d13c f2ec ee3b c170 aa3c 55c6 e3bc
00000060: b2ce deba 82df 893d 7779 0cbc 29a5 073d
00000070: 6314 ffbb 8735 e43c b439 6e3c 3370 003c
00000080: e5fe da3a afc6 103b 74c0 8dbc fb84 debc
00000090: 3510 813c 87d9 9a3a 77a4 96bc f184 5f3b
000000a0: e45c 32bc 954e e63b 821c acb9 7844 a23c
000000b0: 0836 053d 48c9 18bc 3014 36bc 30e1 ef3b
000000c0: 8f4d a5ba 2245 d4bc 4fd7 32bc 4b03 55bc
000000d0: 25a4 233d 757b a23a 61c6 5bbc 7a4c 4d3c
000000e0: f923 683c daa4 3abc c8c2 993c 1b67 033c
000000f0: 631c 513c 72cc cdba b5e7 503d e325 68bb
00000100: 85e6 c23c 855f 79bc fe07 113d 625b 8e3c
00000110: 7b15 81b8 f806 4dbc 8380 633c aab5 f33b
00000120: b999 103c 4ff9 743c 8ff5 edbc f943 49bc
00000130: d3b7 123d 5909 513d 22f7 263b df9d 8e3b
00000140: d759 da3c f265 2dbc e237 52bc 2609 013c
00000150: b8eb db3c 23a2 5c3b ed01 543d 3259 ff3c
00000160: 31df 333c c828 8d3c b933 613c 6bae d03a
00000170: 106d 213c 0cf4 3e3c 9d58 4cbc c8c4 013c
00000180: 2119 613d 9a4f 5cbc 826e 6ebc efc2 9c3c
00000190: c890 373d 8c11 bbbc 24e6 4bbb 665f 503d
000001a0: 8125 1b3d ce43 8abb cbf7 b83b e97c b8bc
000001b0: bc0e 16bc ec49 1fbc 8a79 b53b 46c2 1e3b
000001c0: 7e24 86bb 89e4 4bbb b933 e1bc 7e42 febb
000001d0: d937 b2bb 8c0d 8e3c eb70 88bc 90ef f8bb
000001e0: 8501 43bb 05ed 09bc 1610 b23c f2b4 cb3c
000001f0: df7e c63c 861a 17bd d207 8abc b72d 113d

network_body.linear_encoder.seq_layers.4.weight f4 [128, 128]
-0.055657648 0.018259779 -0.028331695 -0.07194568 0.044770353 0.05917234 -0.07917011 0.041767605
0.004878385 -0.070751645 0.1254612 0.05132412 0.054002535 0.07971017 0.12089187 -0.07707457
-0.051149033 0.028032871 0.01144615 0.040448584 -0.115769155 0.037359953 0.0053327205 -0.032681845
-0.08286548 -0.1260003 0.003960146 -0.14047725 -0.008435137 -0.008749803 -0.08539206 -0.06336808
0.07093715 0.07799467 -0.17694522 -0.018121606 0.07469862 -0.010213351 -0.041667473 -0.1371287
-0.01349051 0.19124728 -0.14499436 0.14983933 0.04493056 0.12970273 0.0037412627 0.058200426
0.060324233 0.032937758 0.094215825 -0.0051161936 -0.026871493 0.006115842 -0.060165945 -0.21018201
0.023122318 -0.019653067 0.14058301 0.05620507 0.115248404 -0.006750147 -0.15128545 -0.055758167
0.016367214 -0.20750779 -0.08924963 0.060711242 0.08981648 -0.039935384 -0.17750539 0.053137735
-0.032328848 0.028707383 0.0981468 -0.11460464 0.06671725 0.0260531 -0.1485316 -0.051438093
-0.048597675 0.022099297 0.098006144 0.050913155 0.04011657 0.0038024161 0.047030322 0.09455849
0.011524928 0.03505102 0.18185057 -0.06320822 -0.17192796 0.059039205 0.05088221 -0.044458736
-0.049625006 0.06334011 0.054077253 -0.0892723 0.13449432 -0.111853115 0.17122559 -0.08009907
0.071991466 -0.035464942 -0.04935889 -0.019254368 0.047425423 -0.06740484 -0.104432166 -0.08554471
-0.05782509 -0.03743037 -0.095852 0.026882686 0.049710758 0.03663412 0.12665941 -0.0269672
0.06333782 0.01067534 0.040072646 -0.078587085 0.040940143 -0.15362363 0.040275246 -0.033548336
0.068678066 -0.034401856 -0.08977901 -0.07445515 0.0037235948 0.0057870797 -0.22013126 0.07908128
-0.080387026 -0.08518414 0.024231076 0.028560331 -0.06251332 0.008790393 0.114314996 -0.002826638
0.20257382 0.038684864 -0.07465649 -0.14900658 -0.036925517 -0.010926738 -0.12522835 0.06389906
-0.039650735 0.036890954 0.093739375 -0.0764778 -0.06147979 -0.13544486 -0.19823837 0.09225649
0.036840737 0.039497815 -0.31218326 0.07558163 0.07970943 -0.030050883 0.040023286 -0.024482815
-0.18186796 0.06579416 0.0038396697 -0.13947053 -0.113911435 0.006428183 0.0036614095 0.03250778
0.0889999 0.08198728 0.0849024 0.03930248 -0.22653721 0.06962728 0.047814853 -0.09666961
-0.011363212 -0.09125099 0.14742759 -0.16659454 0.015041831 -0.0742784 -0.0120058935 0.017752053
0.042726833 -0.10582148 -0.09118262 0.14718233 0.1091423 -0.06680345 0.07327981 -0.045719504
0.08493824 -0.0387566 0.11505409 -0.1137402 0.16253512 0.11711583 -0.0022348738 -0.008542969
0.01340675 -0.11921178 0.009543309 -0.20170602 0.050356638 0.106037565 0.04243068 -0.030095858
0.04741145 -0.0023769625 -0.066748016 -0.055642158 -0.0016206013 0.03789297 -0.07089969 0.036607753
-0.10752133 -0.13069385 -0.09580803 0.1903009 0.12271131 -0.042172153 0.0964591 0.012896017
0.012110392 -0.032839295 0.012429428 0.00032653273 -0.033030774 0.037836146 -0.14979963 -0.06261832
0.014015758 -0.16277577 -0.059265047 -0.124655075 -0.076507956 0.05768466 0.11957828 -0.025558952
-0.07099305 -0.20505716 -0.075895704 -0.030898772 -0.25420445 0.13364413 0.12958649 0.010572015
00000000: 46f9 63bd 8895 953c df17 e8bc 4258 93bd
00000010: 1e61 373d b25e 723d f023 a2bd 8214 2b3d
00000020: dcda 9f3b 3de6 90bd e778 003e 3e39 523d
00000030: c331 5d3d 163f a33d 2896 f73d 46d9 9dbd
00000040: a681 51bd 31a5 e53c a288 3b3c 6aad 253d
00000050: 6118 edbd c006 193d 1abe ae3b 66dd 05bd
00000060: 60b5 a9bd 3906 01be 1dc4 813b 45d9 0fbe
00000070: 8733 0abc 555b 0fbc 08e2 aebd 20c7 81bd
00000080: 7f47 913d abbb 9f3d 2131 35be c373 94bc
00000090: 97fb 983d e655 27bc 83ab 2abd 776b 0cbe
000000a0: 4d07 5dbc 54d6 433e 6779 14be 7b6f 193e
000000b0: 1b09 383d cbd0 043e f92f 753b 9263 6e3d
000000c0: 8b16 773d bee9 063d 3af4 c03d bea5 a7bb
000000d0: 9b21 dcbc 6767 c83b 9170 76bd f439 57be
000000e0: 046b bd3c 78ff a0bc fef4 0f3e 4a37 663d
000000f0: 5b07 ec3d 5630 ddbb 93ea 1abe ad62 64bd
00000100: 8914 863c ec7c 54be 83c8 b6bd 5aac 783d
00000110: b4f1 b73d 4993 23bd f9c3 35be f4a6 593d
00000120: 416b 04bd bf2b eb3c 3101 c93d d6b5 eabd
00000130: 0ea3 883d 506d d53c ab18 18be c0b0 52bd
00000140: 5b0e 47bd 9609 b53c 72b7 c83d 508a 503d
00000150: 4651 243d f531 793b dea2 403d e2a7 c13d
00000160: 0dd3 3c3c a991 0f3d 0937 3a3e 5073 81bd
00000170: e20d 30be 18d3 713d dd69 503d 5d1a 36bd
00000180: 9743 4bbd 76b8 813d 1c80 5d3d 65d4 b6bd
00000190: e1b8 093e 3f13 e5bd c355 2f3e fb0a a4bd
000001a0: 4370 933d b043 11bd 8c2c 4abd 56bb 9dbc
000001b0: 2941 423d 8c0b 8abd 88e0 d5bd 1132 afbd
000001c0: 00da 6cbd 9650 19bd 0e4e c4bd 1439 dc3c
000001d0: 829d 4b3d a90d 163d 01b3 013e 51ea dcbc
000001e0: 42b7 813d 9fe7 2e3c 3723 243d 44f2 a0bd
000001f0: dab0 273d 834f 1dbe a8f7 243d fb69 09bd
00000200: 16a7 8c3d f6e8 0cbd 0fde b7bd f17b 98bd
00000210: 8e07 743b 8ba1 bd3b 176a 61be 5ef5 a13d
00000220: f4a1 a4bd 0675 aebd 4080 c63c 5bf7 e93c
00000230: fc06 80bd 9505 103c fb1d ea3d 1e3f 39bb
00000240: 836f 4f3e 0574 1e3d 80e5 98bd 2e95 18be
00000250: 363f 17bd 1006 33bc dc3b 00be 83dd 823d
00000260: cf68 22bd f81a 173d 6efa bf3d 65a0 9cbd
00000270: 3bd2 7bbd 0fb2 0abe 00ff 4abe f8f0 bc3d
00000280: 50e6 163d 76c8 213d 7cd6 9fbe 8bca 9a3d
00000290: b33e a33d 452d f6bc 75ef 233d 2f90 c8bc
000002a0: 983b 3abe 17bf 863d f8a2 7b3b 5dd1 0ebe
000002b0: 664a e9bd 82a3 d23b 42f4 6f3b e126 053d
000002c0: 9445 b63d f2e8 a73d 4fe1 ad3d a3fb 203d
000002d0: 5ff9 67be bf98 8e3d 82d9 433d b7fa c5bd
000002e0: c42c 3abc cde1 babd 42f7 163e c297 2abe
000002f0: 0372 763c 461f 98bd 5eb4 44bc c16c 913c
00000300: 5502 2f3d efb8 d8bd f4bd babd f7b6 163e
00000310: 0086 df3d 3fd0 88bd ba13 963d 6044 3bbd
00000320: 1af4 ad3d 3ebf 1ebd 7ba1 eb3d 9ff0 e8bd
00000330: 9b6f 263e 6dda ef3d f676 12bb cff7 0bbc
00000340: fca7 5b3c 4e25 f4bd 8a5b 1c3c 068c 4ebe
00000350: c342 4e3d 392a d93d cbcb 2d3d 978b f6bc
00000360: 8232 423d d0c6 1bbb 2fb3 88bd 08e9 63bd
00000370: 5b6a d4ba a935 1b3d db33 91bd 03f2 153d
00000380: 2534 dcbd 9cd4 05be 0037 c4bd 3dde 423e
00000390: 1150 fb3d b5bc 2cbd 598c c53d d149 533c
000003a0: aa6a 463c 7f82 06bd cda4 4b3c 7b32 ab39
000003b0: 474b 07bd 13fa 1a3d 1365 19be 093e 80bd
000003c0: 5aa2 653c b1ae 26be e8bf 72bd 294b ffbd
000003d0: 34b0 9cbd c046 6c3d 75e5 f43d 0261 d1bc
000003e0: ce64 91bd 81fa 51be 356f 9bbd 6c1f fdbc
000003f0: 1627 82be 02da 083e 52b2 043e 3f36 2d3c
