Config/results/Env_PPO_44/EnvironmentAgentBehavior/EnvironmentAgentBehavior-16499888.onnx (onnx, 477297 bytes, 16 tensors)

action_model._discrete_distribution.branches.0.bias f4 [400]
0.02905564 0.071279116 -0.103854336 -0.057377607 0.05680193 -0.023999149 -0.006853581 -0.008088308
0.0038710604 0.015669143 -0.028538074 -0.06712848 -0.050895818 0.09573599 -0.010488396 0.034768745
0.06098955 0.052913804 0.018016664 0.005558895 0.020541588 0.07255353 -0.0028454876 0.0075477944
0.0054427665 0.015701182 0.052494623 0.07162948 0.04800629 0.03551963 0.06005449 0.0012704026
-0.007169604 0.01191035 0.05007219 0.06041968 0.05118134 0.023466792 0.033709116 -0.089076295
0.05658108 0.06363886 -0.033954196 0.09440951 0.09820894 0.027673539 -0.08398399 0.0599727
-0.033659022 0.02775859 -0.023635643 0.08930558 0.028766923 0.009247902 0.016905965 0.079856314
0.0076437895 -0.004858568 0.110329725 -0.051691324 0.0060170637 0.09011956 0.031646874 0.079150185
-0.035516515 -0.031211238 0.028819306 0.0071524 0.033928648 0.12856959 -0.0060856966 -0.006291157
0.015860314 0.060234364 0.037976738 -0.015244697 0.08006594 -0.030164508 -0.08668383 0.03803403
0.06112078 0.046182055 0.05324426 -0.032937065 0.07430031 0.09187904 -0.07581596 0.022494031
-0.018835966 0.08269354 0.010380774 0.038222946 -0.0082808295 0.11251134 0.04811726 -0.005782217
0.010830534 0.03195107 0.032076146 -0.035663184 0.0015662741 -0.024528185 -0.009668702 0.029094998
-0.117709294 0.019818917 0.03829109 0.059883416 0.10834799 0.027605798 0.10778009 0.058206383
0.045316875 0.024800563 -0.04056706 0.069460966 -0.019922208 0.07533552 -0.0060034413 -0.0071111443
0.044748347 0.015872343 -0.010945505 0.0049613677 -0.009488572 0.064245865 0.021719307 0.0054186536
0.04246376 0.01543574 -0.04877037 -0.00820744 -0.032899953 0.042760223 0.008759817 0.050504554
0.04937751 0.01627631 0.0031904671 0.046317555 0.049113706 -0.008564131 0.010520971 0.031796925
0.07478285 0.024622902 -0.11296961 0.015539755 -0.025077794 0.013305436 0.00088515866 0.018503722
0.042860553 -0.03565966 -0.03015827 -0.053932447 -0.030333128 0.045169428 -0.0009196122 0.059771165
-0.04920029 0.05495724 0.0027128714 0.072572306 -0.064313255 0.01240838 0.02729543 -0.014172977
0.10680296 0.06419796 0.11713548 -0.03750836 -0.026429247 0.08265885 0.031617504 0.02996709
0.06523489 0.0586614 0.08025742 -0.0073212828 0.057640504 0.010015728 0.06597964 0.0010746764
0.057080496 0.039746147 0.04397397 -0.055642225 0.076334834 0.041340936 0.07813883 -0.030050715
-0.0021873643 0.053499855 0.033051167 0.037056927 0.01881296 0.002318871 -0.0024530813 0.0493826
0.030008603 -0.0047692577 0.0388752 0.01515133 -0.014073768 0.0053121364 -0.0050238897 -0.015429708
0.08338766 0.076574884 -0.0055610957 0.03656951 0.018847229 0.11817258 0.032090697 0.073363714
-0.00561825 0.003170804 0.13955855 0.022011425 0.0010822642 0.004466966 0.015319248 0.013073106
0.0083306525 0.06021297 0.00943636 0.12316958 0.033885594 0.04651414 0.045944154 -0.00081531727
0.10260521 -0.037860535 -0.031673897 0.059815083 0.042435974 0.04655452 -0.04307113 -0.041639563
0.040348742 -0.05324057 -0.0010807718 -0.016897654 0.036354214 -0.014398256 0.014376707 -0.02134412
-0.06345985 -0.0041982536 0.091836646 0.06416508 0.041973285 0.09417566 0.04496623 0.049121935
00000000: 1806 ee3c c9fa 913d 95b1 d4bd c804 6bbd
00000010: 24a9 683d dd99 c4bc 0194 e0bb d384 04bc
00000020: 9eb1 7d3b 935c 803c aec8 e9bc a87a 89bd
00000030: 2278 50bd 3b11 c43d 85d7 2bbc ac69 0e3d
00000040: 2ed0 793d 25bc 583d af97 933c 6427 b63b
00000050: d546 a83c f296 943d 5c7b 3abb 7d53 f73b
00000060: 3c59 b23b c49f 803c 9a04 573d 7ab2 923d
00000070: 3ea2 443d 087d 113d b2fb 753d a383 a63a
00000080: ffee eabb a123 433c 7f18 4d3d a07a 773d
00000090: 86a3 513d 6e3d c03c 9212 0a3d a26d b6bd
000000a0: 90c1 673d 1755 823d 8e13 0bbd c659 c13d
000000b0: c521 c93d 9eb3 e23c ccff abbd efa5 753d
000000c0: 0bde 09bd fc65 e33c 899f c1bc d8e5 b63d
000000d0: 9ca8 eb3c 8384 173c 617e 8a3c b58b a33d
000000e0: c178 fa3b 9f34 9fbb 8df4 e13d 48ba 53bd
000000f0: ca2a c53b 9b90 b83d 27a0 013d 7e19 a23d
00000100: c479 11bd b6ae ffbc 7716 ec3c ae5e ea3b
00000110: c4f8 0a3d bfa7 033e 866a c7bb 0d26 cebb
00000120: 7ded 813c 4fb8 763d 7f8d 1b3d e5c4 79bc
00000130: 9df9 a33d 8f1b f7bc 4b87 b1bd 92c9 1b3d
00000140: c859 7a3d 6529 3d3d a716 5a3d 04e9 06bd
00000150: c32a 983d 142b bc3d 6645 9bbd 6745 b83c
00000160: e24d 9abc 3b5b a93d 1f14 2a3c aa8f 1c3d
00000170: 51ac 07bc 586c e63d 9b16 453d c078 bdbb
00000180: 8d72 313c 20df 023d 4762 033d 8f13 12bd
00000190: 704b cd3a 55ef c8bc 7a69 1ebc a258 ee3c
000001a0: 9211 f1bd 485b a23c 1ed7 1c3d 5048 753d
000001b0: 8de5 dd3d 8e25 e23c cfbb dc3d d169 6e3d
000001c0: 309e 393d 8d2a cb3c a529 26bd 8d41 8e3d
000001d0: e633 a3bc 8249 9a3d 84b8 c4bb 9a04 e9bb
000001e0: 0b4a 373d b706 823c c754 33bc f892 a23b
000001f0: f575 1bbc 5693 833d b0ec b13c f68e b13b
00000200: 7bee 2d3d 30e6 7c3c 71c3 47bd 8078 06bc
00000210: 1ac2 06bd 5825 2f3d 5685 0f3c dddd 4e3d
00000220: 1240 4a3d e555 853c 2817 513b 7ab7 3d3d
00000230: 742b 493d 9250 0cbc 2760 2c3c 7e3d 023d
00000240: c027 993d f8b5 c93c 9c5c e7bd 759a 7e3c
00000250: f26f cdbc 0bff 593c fe09 683a 1e95 973c
00000260: 8c8e 2f3d dd0f 12bd 7a0e f7bc 45e8 5cbd
00000270: 2e7d f8bc 9403 393d 2112 71ba 9cd2 743d
00000280: 3e86 49bd d81a 613d 6eca 313b caa0 943d
00000290: abb6 83bd 854c 4b3c aa9a df3c c635 68bc
000002a0: 83bb da3d 387a 833d bae4 ef3d 5ea2 19bd
000002b0: 2682 d8bc 0b49 a93d 5b81 013d 8b7d f53c
000002c0: df99 853d f046 703d 015e a43d 5fe7 efbb
000002d0: 7318 6c3d 0219 243c 5520 873d 28dc 8c3a
000002e0: 3dcd 693d dbcc 223d 0d1e 343d 1ae9 63bd
000002f0: 7055 9c3d 1d55 293d 4007 a03d eb2c f6bc
00000300: e259 0fbb aa22 5b3d a960 073d 01c9 173d
00000310: a31d 9a3c 33f8 173b e0c3 20bb 6945 4a3d
00000320: 9ad4 f53c 6f47 9cbb 9a3b 1f3d 493d 783c
00000330: a995 66bc 6e11 ae3b 719f a4bb e3cc 7cbc
00000340: 26c7 aa3d 4bd3 9c3d da39 b6bb e9c9 153d
00000350: 8165 9a3c 7704 f23d 8971 033d b73f 963d
00000360: 4c19 b8bb 43cd 4f3b 70e8 0e3e 4e51 b43c
00000370: c3da 8d3a a05f 923b 95fd 7a3c 9530 563c
00000380: 4a7d 083c e0a1 763d f69a 1a3c 5540 fc3d
00000390: 9fcb 0a3d 9c85 3e3d f02f 3c3d 04bb 55ba
000003a0: ae22 d23d a613 1bbd 7dbc 01bd a900 753d
000003b0: 58d1 2d3d f4af 3e3d 5a6b 30bd 3f8e 2abd
000003c0: b944 253d c912 5abd afa8 8dba f36c 8abc
000003d0: 28e8 143d aae6 6bbc 488c 6b3c ddd9 aebc
000003e0: 3df7 81bd 8191 89bb da14 bc3d fb68 833d
000003f0: 2eec 2b3d 2bdf c03d 822e 383d 1534 493d

action_model._discrete_distribution.branches.0.weight f4 [400, 128]
0.09302716 0.0058003482 0.028348645 -0.07945295 0.06498309 0.052001588 0.055598732 0.06373022
-0.07554111 0.04785882 0.021325408 -0.009966804 0.0875991 0.019696755 -0.0030774798 -0.0056040166
0.052777056 -0.06378094 0.09249429 -0.017336255 0.02680791 -0.017775303 0.08960756 -0.028871177
-0.07288728 -0.05443555 -0.09320199 -0.0036095192 0.05097418 0.06594929 0.016885428 -0.040486496
-0.040650137 -0.10765249 -0.015000678 -0.000971989 -0.00626386 0.059244666 0.051108874 0.035822682
-0.07805682 -0.041262906 0.07696154 0.015471143 0.028679354 0.034198973 -0.0417038 -0.040541664
0.00053541124 0.050080348 -0.021927655 -0.042242676 -0.035748307 0.05479533 -0.11666366 -0.05473956
-0.07935993 -0.0019070603 0.0011910076 0.08441723 -0.06077276 0.056338884 -0.02460674 -0.04642488
0.031233298 0.016639732 0.01664295 0.048972454 0.04831702 -0.01623367 -0.0012833228 0.018624477
-0.10666977 -0.0151977725 -0.021341149 -0.021560838 0.07281711 0.012170402 0.0128465835 -0.041128263
-0.003048264 0.02376111 0.05279158 -0.120196946 -0.047586847 -0.097937845 -0.006042902 -0.07714594
-0.015899738 -0.03885898 -0.08462778 -0.07010663 -0.0879923 -0.057650287 -0.07778602 -0.08431806
0.09095306 -0.06910708 0.018392395 0.02819722 0.006069557 -0.1241672 0.027463323 -0.061079774
-0.0049856324 -0.014788522 -0.026667124 0.025595745 0.11126023 0.05905554 0.0013385339 0.04524109
-0.08053952 0.015373825 -0.03848976 -0.05121654 -0.053334467 0.070349485 0.045591664 -0.085133664
0.049982693 -0.071244486 0.078102395 -0.026074154 0.011111476 0.00490145 -0.04093923 -0.032573175
-0.05659232 -0.026367098 0.012320849 0.08231074 0.0044105262 -0.034927607 0.0096583115 -0.05138637
0.046520244 -0.025009094 -0.08312943 -0.09897602 0.03928687 0.093639895 0.001694712 0.0966928
-0.023466479 0.053722873 0.0743701 0.07015334 0.009008616 0.0086673545 -0.02928582 -0.022859812
0.1171794 0.155789 -0.049269635 0.03247111 -0.054393582 0.037767325 -0.031920977 0.050085127
-0.010420719 0.009849409 0.0018417012 -0.112422965 -0.09034165 -0.09274715 -0.0736236 -0.042823777
0.15127946 -0.025841596 -0.010101998 0.031245789 -0.097996704 0.039815947 0.08270153 -0.040408537
-0.058560498 0.020033156 -0.04147065 0.09174984 -0.07131611 -0.0017663873 0.11405841 -0.020880118
0.1571809 -0.08721514 0.09015736 0.056098424 0.030747244 -0.004530616 0.07707464 0.06279391
-0.0030300426 0.03773872 0.05181978 0.0657255 0.07625234 -0.004801698 0.14190054 -0.038759228
0.035219893 0.080816686 -0.045769013 0.10260281 -0.11098837 0.043628834 0.15606858 -0.029843811
-0.0021412135 0.014288704 0.044522345 0.08186656 0.08152343 0.042389855 -0.049818233 0.010093094
0.045617793 -0.10760087 0.052268192 0.022359226 -0.042861834 0.041765995 0.0644261 0.13025272
0.046422403 0.081665546 -0.029602377 -0.12242489 0.023477716 0.021319292 0.06444754 0.039691087
-0.06213284 -0.16474575 0.10953616 -0.07511372 -0.0014533675 -0.12962449 0.047851745 -0.06816667
0.034252 -0.10634195 0.11775582 8.2651764e-05 0.015092204 -0.11906975 -0.010371861 -0.06580175
-0.06496143 0.019228326 -0.05518304 0.026701504 -0.13384241 -0.13951729 0.021535981 -0.06457372
00000000: 0685 be3d d910 be3b 6b3b e83c 3ab8 a2bd
00000010: db15 853d 9eff 543d 7fbb 633d fd84 823d
00000020: 4cb5 9abd 9c07 443d 9fb2 ae3c ce4b 23bc
00000030: 2867 b33d 175b a13c 8baf 49bb e6a1 b7bb
00000040: c12c 583d 959f 82bd a56d bd3d c304 8ebc
00000050: 439c db3c 839d 91bc 2b84 b73d 3f83 ecbc
00000060: ed45 95bd d0f7 5ebd afe0 bebd af8d 6cbb
00000070: 4dca 503d 6c10 873d 4f53 8a3c 2bd5 25bd
00000080: c280 26bd e978 dcbd 67c5 75bc 14cd 7eba
00000090: 1141 cdbb 89aa 723d 8a57 513d ceba 123d
000000a0: 41dc 9fbd 4b03 29bd 039e 9d3d ad7a 7d3c
000000b0: f7f0 ea3c 3914 0c3d 9bd1 2abd 040f 26bd
000000c0: d75a 0c3a 0d21 4d3d a0a1 b3bc a806 2dbd
000000d0: d16c 12bd 1171 603d 5bed eebd 9736 60bd
000000e0: 7587 a2bd 53f6 f9ba 951b 9c3a f1e2 ac3d
000000f0: dcec 78bd 9ac3 663d 1394 c9bc 0428 3ebd
00000100: f9dc ff3c 0c50 883c cc56 883c 5797 483d
00000110: 11e8 453d 79fc 84bc 2b35 a8ba 5c92 983c
00000120: ae75 dabd 1400 79bc a2d3 aebc 5ba0 b0bc
00000130: 2321 953d 5e66 473c 7a7a 523c 1c76 28bd
00000140: 62c5 47bb a9a6 c23c fc3b 583d d129 f6bd
00000150: 6dea 42bd a393 c8bd 8903 c6bb b1fe 9dbd
00000160: 2b40 82bc 982a 1fbd 5451 adbd 1194 8fbd
00000170: 4f35 b4bd b522 6cbd 474e 9fbd f2ae acbd
00000180: 9945 ba3d 0388 8dbd a6ab 963c dbfd e63c
00000190: 22e3 c63b 5f4b febd c3fa e03c c92e 7abd
000001a0: 845e a3bb 8f4b 72bc 0375 dabc 2bae d13c
000001b0: 67dc e33d 39e4 713d bf71 af3a b94e 393d
000001c0: e7f1 a4bd 7fe2 7b3c 70a7 1dbd 6fc8 51bd
000001d0: 3e75 5abd 6413 903d 53be 3a3d 8f5a aebd
000001e0: a7ba 4c3d a1e8 91bd 26f4 9f3d 7799 d5bc
000001f0: e90c 363c 589c a03b e5af 27bd 736b 05bd
00000200: 59cd 67bd d0ff d7bc 63dd 493c 8992 a83d
00000210: 2d86 903b 4010 0fbd e53d 1e3c 847a 52bd
00000220: 038c 3e3d dfdf ccbc c33f aabd f1b3 cabd
00000230: 45eb 203d 46c6 bf3d 1921 de3a e006 c63d
00000240: c63c c0bc 840c 5c3d 5a4f 983d 8eac 8f3d
00000250: e098 133c 8501 0e3c d1e8 efbc 8044 bbbc
00000260: c1fb ef3d 2787 1f3e f5ce 49bd 6d00 053d
00000270: cecb 5ebd e9b1 1a3d 92bf 02bd 1026 4d3d
00000280: aabb 2abc 6a5f 213c 3d65 f13a 033e e6bd
00000290: 0b05 b9bd 38f2 bdbd f8c7 96bd fc67 2fbd
000002a0: 01e9 1a3e c1b1 d3bc da82 25bc 2bf7 ff3c
000002b0: 7fb2 c8bd 0c16 233d 6b5f a93d 6c83 25bd
000002c0: 22dd 6fbd 931c a43c 21dd 29bd 57e7 bb3d
000002d0: 2e0e 92bd 1f86 e7ba 7597 e93d c80c abbc
000002e0: 08f4 203e da9d b2bd 6ca4 b83d 76c7 653d
000002f0: a5e1 fb3c 9075 94bb 4fd9 9d3d 189a 803d
00000300: ae93 46bb eb93 1a3d fa40 543d 179b 863d
00000310: 302a 9c3d 9057 9dbb 604e 113e ffc1 1ebd
00000320: bc42 103d 3883 a53d 4a78 3bbd 6c21 d23d
00000330: df4d e3bd 26b4 323d 71d0 1f3e 027b f4bc
00000340: 9a53 0cbb 2b1b 6a3c 105d 363d a8a9 a73d
00000350: c2f5 a63d fca0 2d3d 340e 4cbd 815d 253c
00000360: b9d9 3a3d d85d dcbd 2c17 563d b22a b73c
00000370: e48f 2fbd d212 2b3d d5f1 833d f860 053e
00000380: 6b25 3e3d 4440 a73d af80 f2bc e7b9 fabd
00000390: 5754 c03c cca5 ae3c 12fd 833d 1f93 223d
000003a0: 017f 7ebd 1cb3 28be 7f54 e03d 39d5 99bd
000003b0: ec7e beba 48bc 04be 3100 443d f89a 8bbd
000003c0: d34b 0c3d cfc9 d9bd f729 f13d 5455 ad38
000003d0: 4b45 773c d7da f3bd bdee 29bc 11c3 86bd
000003e0: 800a 85bd b984 9d3c 9d07 62bd 1dbd da3c
000003f0: fc0d 09be 9fdd 0ebe 3a6c b03c 3a3f 84bd

action_model._discrete_distribution.branches.1.bias f4 [2]
-0.10143681 0.10143679
00000000: 1abe cfbd 17be cf3d

action_model._discrete_distribution.branches.1.weight f4 [2, 128]
-0.065705046 -0.083537966 -0.09936241 -0.027578 -0.030538632 -0.055284515 -0.12279616 -0.028410167
-0.063039795 -0.1025207 0.06267651 0.0009124713 -0.1051408 -0.08502096 -0.04779815 0.06296476
-0.0066590095 0.01835933 -0.08837395 -0.010389027 -0.12457085 -0.08070147 -0.11023029 -0.05019934
-0.08564569 -0.076244526 -0.063144416 0.018956734 -0.087819725 -0.15316965 0.07292671 -0.028901767
0.014976269 0.009947325 -0.009516599 0.025334649 -0.08718645 -0.101764254 -0.057029992 0.061486896
-0.1046608 0.027087623 -0.12920353 -0.1342674 0.010905897 -0.051302154 0.06401388 0.0061916756
0.07141533 -0.11677873 -0.16291891 -0.00849473 0.0601742 -0.14001557 0.026135357 -0.07264809
-0.06414678 -0.07253085 0.02037806 -0.07941084 0.042024996 -0.06358121 -0.082290426 -0.058471978
-0.021523463 -0.02335911 -0.14058459 -0.044399366 -0.07380762 -0.07962157 0.03104655 0.055705108
-0.00469105 0.043659393 -0.07009392 0.06538741 -0.075280264 -0.16338596 -0.024457995 -0.013727859
-0.0058088787 -0.009570342 -0.10119947 0.03894333 -0.07530152 0.019347977 -0.024508636 0.013444851
-0.070889376 -0.005731803 0.06474251 -0.07261118 -0.03707761 -0.059992164 0.02567963 0.005086835
-0.13352458 -0.0316333 -0.0064748265 0.021472411 -0.010815679 0.03876391 -0.052056048 -0.075384006
-0.023548318 -0.008645098 -0.044699118 -0.095218316 -0.14553028 0.02581708 0.06864304 -0.09073472
-0.005719822 0.010796701 -0.077277645 -0.09147577 0.021735156 0.021913746 -0.11848183 0.016194481
-0.09916866 -0.0555084 -0.08374843 -0.015103137 -0.08451904 -0.016720874 -0.06874965 -0.018128019
0.07495644 0.08230357 0.10449511 0.022920497 0.038407806 0.047825698 0.12959568 0.007519632
0.059815217 0.1216684 -0.0830871 -0.003029819 0.12304083 0.09646 0.04056947 -0.08081304
0.016372178 -0.0055641364 0.09472448 0.008621268 0.12453904 0.06741355 0.12008949 0.05419698
0.066811666 0.062650874 0.044062514 -0.015259439 0.08633981 0.14979662 -0.06177823 0.017343214
0.011377336 -0.006721784 -0.0017782733 -0.032957267 0.09545974 0.10040414 0.05530625 -0.054545987
0.110759586 -0.019705618 0.10015389 0.14105071 -0.009660183 0.05428323 -0.06400889 -0.0015344317
-0.07680086 0.13228571 0.1442871 -0.00048076757 -0.043865032 0.13172306 -0.018487187 0.051301222
0.050081722 0.072996825 -0.02915481 0.07389927 -0.05375679 0.06879114 0.063757606 0.06535182
0.036865003 0.04686222 0.13125795 0.048884813 0.062193144 0.08802402 -0.05016413 -0.056065813
-0.0063121268 -0.038996756 0.05962368 -0.060630705 0.06501932 0.12835494 0.0082803145 0.031722795
0.012170298 0.003638702 0.109784335 -0.05085571 0.09112816 -0.0011488906 0.018959682 -0.014245962
0.087539405 0.01616694 -0.066922374 0.046045132 0.039704654 0.06511317 -0.029344011 -0.013382255
0.14214781 0.03658443 0.0144067565 -0.035180986 0.018438734 -0.047483955 0.03223213 0.054155566
0.025762297 -0.01696913 0.035869334 0.084780924 0.14941746 -0.017357247 -0.06460535 0.075293794
0.012301966 -0.00491315 0.08618263 0.06113804 -0.030734815 -0.023149548 0.11440155 0.0062193987
0.08443385 0.058807284 0.06495615 0.0126770055 0.084693566 0.026667744 0.050245557 0.017877426
00000000: 5e90 86bd f415 abbd 857e cbbd 42eb e1bc
00000010: 272c fabc 0472 62bd 8e7c fbbd 70bc e8bc
00000020: 021b 81bd 5ff6 d1bd 8b5c 803d ea32 6f3a
00000030: 0f54 d7bd 781f aebd fec7 43bd abf3 803d
00000040: d233 dabb 4e66 963c 67fd b4bd bd36 2abc
00000050: 001f ffbd d046 a5bd 6bc0 e1bd d39d 4dbd
00000060: 0267 afbd 1726 9cbd dc51 81bd 274b 9b3c
00000070: d4da b3bd 81d8 1cbe 995a 953d 66c3 ecbc
00000080: 065f 753c 1bfa 223c 82eb 1bbc 9c8a cf3c
00000090: cf8e b2bd c769 d0bd 4898 69bd afd9 7b3d
000000a0: 6758 d6bd dde6 dd3c ee4d 04be 657d 09be
000000b0: a6ae 323c 3522 52bd b619 833d 8ae3 ca3b
000000c0: 3342 923d b029 efbd 37d4 26be 7b2d 0bbc
000000d0: 3979 763d 3e60 0fbe d119 d63c 86c8 94bd
000000e0: 635f 83bd 0e8b 94bd e4ef a63c 27a2 a2bd
000000f0: 6722 2c3d de36 82bd e287 a8bd 5080 6fbd
00000100: f951 b0bc 9b5b bfbc 68f5 0fbe 1cdc 35bd
00000110: 7328 97bd a210 a3bd 5655 fe3c 0a2b 643d
00000120: 61b7 99bb 31d4 323d 678d 8fbd d6e9 853d
00000130: 8a2c 9abd a64e 27be 225c c8bc d0ea 60bc
00000140: 6858 bebb eccc 1cbc ab41 cfbd 0b83 1f3d
00000150: af37 9abd a67f 9e3c 56c6 c8bc cb47 5c3c
00000160: 732e 91bd d9d1 bbbb b997 843d 2cb5 94bd
00000170: b1de 17bd 58ba 75bd 165e d23c 77af a63b
00000180: abba 08be eb91 01bd c82a d4bb e9e6 af3c
00000190: 3f34 31bc e8c6 1e3d b938 55bd ee62 9abd
000001a0: 67e8 c0bc 2ba4 0dbc 6c16 37bd d201 c3bd
000001b0: e405 15be 577e d33c b994 8c3d 20d3 b9bd
000001c0: 586d bbbb a5e4 303c be43 9ebd a657 bbbd
000001d0: ed0d b23c 7584 b33c 9aa6 f2bd 4aaa 843c
000001e0: f018 cbbd c75c 63bd 4c84 abbd 2673 77bc
000001f0: 5218 adbd 37fa 88bc 9ecc 8cbd 3681 94bc
00000200: c382 993d c68e a83d 8801 d63d c4c3 bb3c
00000210: 8151 1d3d e1e4 433d bbb4 043e 3f67 f63b
00000220: cd00 753d 482d f93d 9229 aabd ee8f 46bb
00000230: d5fc fb3d d28c c53d 2c2c 263d 4f81 a5bd
00000240: f21e 863c 5c53 b6bb e8fe c13d 3840 0d3c
00000250: 530e ff3d 1e10 8a3d 7bf1 f53d a7fd 5d3d
00000260: 8ed4 883d 1a4f 803d e57a 343d ba02 7abc
00000270: edd2 b03d 4964 193e 2b0b 7dbd 5b13 8e3c
00000280: 0268 3a3c 6942 dcbb f314 e9ba 33fe 06bd
00000290: 6580 c33d b0a0 cd3d ce88 623d 9d6b 5fbd
000002a0: ecd5 e23d ad6d a1bc 7c1d cd3d 996f 103e
000002b0: bf45 1ebc 1858 5e3d 1817 83bd fc1e c9ba
000002c0: c549 9dbd e875 073e ffbf 133e 880f fcb9
000002d0: d2ab 33bd 69e2 063e 7172 97bc 3b21 523d
000002e0: 7e22 4d3d 5c7f 953d 11d6 eebc 8058 973d
000002f0: 1430 5cbd 5fe2 8c3d 5993 823d 2dd7 853d
00000300: c2ff 163d 99f2 3f3d 7c68 063e 713b 483d
00000310: 3dbe 7e3d f045 b43d e778 4dbd 44a5 65bd
00000320: f5d5 cebb 10bb 1fbd f637 743d e757 78bd
00000330: d928 853d 7a6f 033e 28aa 073c c3ef 013d
00000340: ee65 473c 4a77 6e3b 9cd6 e03d 144e 50bd
00000350: 67a1 ba3d 5f96 96ba 5651 9b3c e567 69bc
00000360: dc47 b33d 8870 843c 990e 89bd d299 3c3d
00000370: 59a1 223d 0e5a 853d da62 f0bc 3f41 5bbc
00000380: 328f 113e 8ed9 153d 510a 6c3c f019 10bd
00000390: d40c 973c 897e 42bd d705 043d 3ad2 5d3d
000003a0: 740b d33c d802 8bbc b9eb 123d 9fa1 ad3d
000003b0: e400 193e c930 8ebc cf4f 84bd a233 9a3d
000003c0: 2f8e 493c 7dfe a0bb 8580 b03d e26b 7a3d
000003d0: 94c7 fbbc 1fa4 bdbc 5c4b ea3d 19cc cb3b
000003e0: a8eb ac3d e8df 703d bb07 853d 37b3 4f3c
000003f0: d273 ad3d 5076 da3c 49ce 4d3d ae73 923c

network_body.linear_encoder.seq_layers.0.bias f4 [128]
0.022893911 0.01247123 -0.04811184 -0.009012294 0.008390843 0.0014644846 0.0043531107 -0.0025153887
0.024372414 0.02777843 0.015764754 0.008883616 0.013873574 -0.021580542 0.013718461 -0.010340712
-0.07265994 -0.047062114 -0.04559415 0.017319823 0.035904866 0.019589446 0.0041885343 0.010115008
-0.01672328 0.027369283 -0.0026808723 0.0032377178 -0.03570079 0.012120274 0.008756336 -0.07019537
0.034000963 -0.030770378 0.0074477796 0.012837203 0.010178005 -0.00095960486 -0.0038478884 -0.0037255578
-0.05419864 0.016065273 0.0018221709 0.0019067376 0.0062315557 0.029809183 0.039277792 0.0132573685
0.023312103 0.006664929 0.015367806 0.028529005 -0.013977437 0.005653261 0.019562067 -0.012241026
0.029348359 0.019824402 -0.017444165 -0.07502673 -0.056993302 0.035842046 0.023487775 0.018688604
-0.05639303 0.028883 0.015784541 0.025087997 0.002680652 -0.038489293 -0.00047702892 0.014309139
-0.007990592 0.042494986 -0.009408243 0.011975455 -0.077998616 0.018310653 0.00014520249 0.033716194
-0.017723527 -0.011444481 -0.04371701 0.018004712 0.03876859 0.016047629 -0.0029736827 -0.0051309387
-0.052102875 0.05054362 0.051418014 0.00015505074 -0.05798189 0.055547696 0.04485283 -0.0142107755
0.0030867544 0.010306103 0.042671505 -0.014114344 0.04833149 0.031241678 0.01124883 -0.015740791
0.009365619 0.009038912 0.04362814 -0.05870726 0.016129956 -0.008478438 0.020033535 -0.021031693
0.01976484 -0.0010765605 0.029219056 0.014465375 0.03875563 0.022057543 0.02409893 0.041656606
0.00085518725 0.011427997 -0.019307645 -0.0130606545 5.3886924e-05 -0.072750494 0.019643364 -0.000419383
00000000: 038c bb3c 2154 4c3c ec10 45bd 4da8 13bc
00000010: bf79 093c f3f3 bf3a 8aa4 8e3b 38d9 24bb
00000020: a8a8 c73c 978f e33c 1625 813c 968c 113c
00000030: fd4d 633c adc9 b0bc 65c3 603c 176c 29bc
00000040: bcce 94bd 34c4 40bd eec0 3abd 4de2 8d3c
00000050: fb10 133d 0c7a a03c f93f 893b 6bb9 253c
00000060: 43ff 88bc 8c35 e03c 93b1 2fbb e42f 543b
00000070: fe3a 12bd 1d94 463c bc76 0f3c 97c2 8fbd
00000080: 9844 0b3d 2912 fcbc 810c f43b 2253 523c
00000090: a6c1 263c fe8d 7bba db2c 7cbb 7d28 74bb
000000a0: 65ff 5dbd 529b 833c e9d5 ee3a 7feb f93a
000000b0: 1432 cc3b 6332 f43c c0e1 203d 6f35 593c
000000c0: 06f9 be3c 7a65 da3b 40c9 7b3c a9b5 e93c
000000d0: 9f01 65bc fe3e b93b a140 a03c 968e 48bc
000000e0: f86b f03c c966 a23c 11e7 8ebc 9da7 99bd
000000f0: cf71 69bd 1ccf 123d 6f69 c03c d818 993c
00000100: 61fc 66bd 0b9c ec3c 954e 813c 5885 cd3c
00000110: e1ad 2f3b f3a6 1dbd bd19 fab9 e170 6a3c
00000120: f9ea 02bc 390f 2e3d 0825 1abc b334 443c
00000130: bdbd 9fbd 3900 963c 7f41 1839 fe19 0a3d
00000140: ee30 91bc a281 3bbc 9c10 33bd 9e7e 933c
00000150: d0cb 1e3d 5176 833c 1ee2 42bb 6f21 a8bb
00000160: d369 55bd d406 4f3d b29b 523d 1e95 2239
00000170: 6b7e 6dbd fb85 633d 9ab7 373d 50d4 68bc
00000180: 254b 4a3b eeda 283c 51c8 2e3d d93f 67bc
00000190: 3ef7 453d 8cee ff3c 034d 383c d5f2 80bc
000001a0: 4172 193c f217 143c 6cb3 323d 0677 70bd
000001b0: f822 843c 25e9 0abc 5e1d a43c a84a acbc
000001c0: e0e9 a13c 601b 8dba cd5c ef3c 2e00 6d3c
000001d0: 39be 1e3d 05b2 b43c 1f6b c53c 1ea0 2a3d
000001e0: a52e 603a 7e3c 3b3c 112b 9ebc 5bfc 55bc
000001f0: a504 6238 36fe 94bd 1feb a03c a2e0 dbb9

network_body.linear_encoder.seq_layers.0.weight f4 [128, 137]
0.05195786 0.056225643 -0.11542416 -0.01545585 0.0274591 -0.10177343 -0.118881546 -0.12693496
-0.014162468 -0.11788993 0.07452628 0.102751076 -0.0073108333 0.09805201 0.025268545 -0.039270546
-0.09767913 -0.06763067 -0.058343023 -0.018282786 -0.22448273 -0.12249447 -0.012286181 -0.0069842367
0.08414303 -0.02206814 -0.098027416 0.007336673 -0.038277008 -0.04346343 0.033616092 0.033956304
0.09401291 -0.048474755 -0.18543261 0.028372329 0.02005646 0.08124126 -0.0033082622 0.10676815
0.03493299 -0.05740488 0.067105904 0.11621887 -0.13878086 0.14468125 -0.026884042 0.022395851
0.037253436 0.030539071 -0.040904246 0.08253767 0.09567231 0.11401081 0.16112892 -0.029884463
-0.08853405 0.025710166 -0.19652742 -0.022611456 0.026805019 0.0017917586 0.05174081 0.06295184
-0.093538016 0.16654235 -0.037323713 0.031322602 0.24248603 -0.063854076 0.09917513 0.00816393
0.015588873 -0.03838575 -0.21570423 -0.13897428 -0.0017880591 -0.10564019 -0.07624657 0.029273523
0.013673178 0.11245049 -0.17665651 -0.04006942 0.0613703 0.054892156 0.011272651 -0.012465036
0.057866126 0.04406262 0.06614478 0.019926151 0.13557985 -0.06760731 -0.100048184 0.060764335
0.10954287 0.007568442 -0.0011531629 -0.15947782 0.01475259 -0.07236303 -0.064910255 -0.2152841
-0.039485242 0.12970875 -0.07142028 -0.0013474725 -0.043797225 0.10791239 -0.031407148 -0.11664529
0.21130356 -0.096656926 0.05951395 -0.0386782 -0.053429198 0.114774175 -0.06638111 0.13902624
0.07811691 -0.07080284 -0.12756068 0.04030231 0.0069532404 0.13140349 0.077106245 -0.037605196
0.22549513 -0.15004976 0.016391512 -0.13108091 0.15746288 0.022862198 -0.26023293 0.012283252
-0.023097223 -0.13298605 -0.07116421 0.14966223 -0.010811491 -0.007143107 -0.118219145 -0.04468213
0.058960564 -0.074531876 0.048984002 -0.03818236 -0.14531194 -0.073261574 -0.11370135 0.083460525
-0.06328431 0.023914834 -0.08440486 -0.061827067 -0.009194449 -0.14215004 0.022838218 -0.0059006503
-0.11856546 -0.13803014 -0.064081766 -0.03971116 0.032762367 0.021925857 0.023448959 0.008107011
-0.072389066 -0.064806625 -0.030728225 -0.007113293 0.003326322 -0.08212355 -0.11205504 -0.05730049
-0.008992615 0.025507284 -0.107161544 -0.1510053 -0.069551386 -0.051732544 0.13338694 0.0026006014
-0.11335976 -0.09251099 0.10007476 -0.080989264 -0.20381086 -0.0071604135 -0.051638763 0.082775615
0.10224101 -0.08170296 0.07444322 -0.07987927 -0.13056971 0.007260791 -0.0025977197 0.0022525308
0.07949531 -0.08493066 0.18286568 -0.060410634 0.04241037 0.07352052 -0.18435764 -0.023393115
0.056480322 -0.107915625 -0.18436983 0.13722183 -0.1402489 0.14237186 -0.029560903 -0.18671912
0.121268444 0.03850607 0.17919314 -0.022225162 -0.052429 -0.032193094 0.06555375 -0.07861404
0.09338002 -0.14788713 -0.110756606 -0.13873509 0.11192607 -0.16165869 0.059045732 -0.14898874
-0.09039646 -0.112648115 -0.1699562 -0.098316744 -0.09138764 0.013123899 0.059955373 -0.055964246
0.009674231 -0.0017335379 -0.009695856 0.008962043 -0.082842246 0.091327526 0.044260986 0.01824751
-0.053741578 0.008283329 -0.23258446 -0.010491295 -0.2605801 -0.03415559 0.14532977 0.06678877
00000000: c4d1 543d dc4c 663d 8163 ecbd 893a 7dbc
00000010: e8f1 e03c 976e d0bd 2b78 f3bd 3dfb 01be
00000020: b209 68bc 4770 f1bd 3ca1 983d 286f d23d
00000030: b78f efbb 7ecf c83d fbff ce3c 27da 20bd
00000040: ff0b c8bd f381 8abd 18f9 6ebd c8c5 95bc
00000050: cdde 65be 61de fabd fa4b 49bc 06dc e4bb
00000060: 2e53 ac3d 3ec8 b4bc 99c2 c8bd 7968 f03b
00000070: 5ac8 1cbd b606 32bd 07b1 093d c415 0b3d
00000080: d789 c03d 778d 46bd 0ce2 3dbe 166d e83c
00000090: 724d a43c d161 a63d 6ecf 58bb 43a9 da3d
000000a0: e515 0f3d 6121 6bbd d26e 893d 2904 ee3d
000000b0: 921c 0ebe 5227 143e ec3b dcbc 8177 b73c
000000c0: 0f97 183d 132d fa3c 368b 27bd 8309 a93d
000000d0: d8ef c33d 807e e93d fbfe 243e 43d0 f4bc
000000e0: 5751 b5bd 209e d23c 7c3e 49be a93b b9bc
000000f0: 3396 db3c 71d9 ea3a 2cee 533d e5ec 803d
00000100: dc90 bfbd 148a 2a3e c0e0 18bd 214c 003d
00000110: 424e 783e edc5 82bd 551c cb3d 01c2 053c
00000120: 7968 7f3c 603a 1dbd 92e1 5cbe 464f 0ebe
00000130: 4f5d eaba e259 d8bd 2927 9cbd 07cf ef3c
00000140: 7705 603c 714c e63d 72e5 34be d51f 24bd
00000150: 6c5f 7b3d 99d6 603d edb0 383c 263a 4cbc
00000160: 0805 6d3d 017b 343d ea76 873d 2b3c a33c
00000170: 72d5 0a3e b475 8abd 10e6 ccbd 06e4 783d
00000180: 0358 e03d b100 f83b ba25 97ba 274e 23be
00000190: d9b4 713c 1133 94bd abef 84bd 6f73 5cbe
000001a0: 47bb 21bd 5fd2 043e cc44 92bd ad9d b0ba
000001b0: b864 33bd 2c01 dd3d c8a4 00bd bae3 eebd
000001c0: f65f 583e 11f4 c5bd e6c4 733d 086d 1ebd
000001d0: 93d8 5abd b90e eb3d d2f2 87bd e55c 0e3e
000001e0: c2fb 9f3d 1401 91bd 449f 02be 0914 253d
000001f0: 02d8 e33b a38e 063e e1e9 9d3d e807 1abd
00000200: 32e8 663e a5a6 19be 7e47 863c 133a 06be
00000210: f33d 213e 8149 bb3c 403d 85be b13f 493c
00000220: 6336 bdbc 7f2d 08be 8bbe 91bd 0e41 193e
00000230: ae22 31bc b910 eabb e11c f2bd 9c04 37bd
00000240: a280 713d 2ba4 98bd 73a3 483d 1b65 1cbd
00000250: a7cc 14be 2a0a 96bd 41dc e8bd 5aed aa3d
00000260: 349b 81bd 0be9 c33c 75dc acbd 613e 7dbd
00000270: 50a4 16bc c88f 11be 3717 bb3c 3e5a c1bb
00000280: 73d2 f2bd c657 0dbe 4d3d 83bd 2ba8 22bd
00000290: d531 063d db9d b33c 0818 c03c 45d3 043c
000002a0: b840 94bd 56b9 84bd c2b9 fbbc a016 e9bb
000002b0: 6cfe 593b 6430 a8bd 1d7d e5bd ebb3 6abd
000002c0: c355 13bc a7f4 d03c 8377 dbbd 22a1 1abe
000002d0: f570 8ebd 81e5 53bd 9696 083e da6e 2a3b
000002e0: 2929 e8bd 6776 bdbd fff3 cc3d b3dd a5bd
000002f0: cbb3 50be e7a1 eabb 2b83 53bd 4386 a93d
00000300: bc63 d13d e253 a7bd b075 983d be97 a3bd
00000310: 11b4 05be eeeb ed3b 813e 2abb 329f 133b
00000320: 70ce a23d 20f0 adbd 2441 3b3e 2471 77bd
00000330: 7fb6 2d3d ed91 963d 40c8 3cbe eba2 bfbc
00000340: e957 673d de02 ddbd 72cb 3cbe e183 0c3e
00000350: 689d 0fbe eec9 113e b529 f2bc 4c33 3fbe
00000360: 975b f83d 8ab8 1d3d 687e 373e 8b11 b6bc
00000370: cbbf 56bd e8dc 03bd 0b41 863d 6600 a1bd
00000380: 063e bf3d b96f 17be 5cd4 e2bd 9210 0ebe
00000390: 7f39 e53d db89 25be f0d9 713d 8190 18be
000003a0: c721 b9bd 0eb4 e6bd 0009 2ebe 4a5a c9bd
000003b0: 7129 bbbd 9f05 573c c493 753d c43a 65bd
000003c0: aa80 1e3c e137 e3ba 5edb 1ebc 88d5 123c
000003d0: 32a9 a9bd ed09 bb3d 024b 353d cd7b 953c
000003e0: 2120 5cbd cdb6 073c 9f2a 6ebe aee3 2bbc
000003f0: c16a 85be bbe6 0bbd 54d1 143e 8dc8 883d

network_body.linear_encoder.seq_layers.2.bias f4 [128]
-0.021230385 0.009638021 0.0094696265 -0.033250615 0.009833149 -0.033404067 0.007638802 0.011657018
0.01214453 0.039002262 0.031005038 -0.086147666 0.08055652 0.016618755 0.005248181 0.029738685
0.041868128 0.01766191 0.018399984 0.00871803 0.03117607 -0.005908205 0.00026859707 -0.0025320058
0.008780245 0.013911337 0.003979806 0.019749504 -0.0006484614 0.017537387 -0.013061517 -0.008780609
-0.008616107 0.004970672 0.004370111 0.0057400577 0.07420243 -0.0077009005 -0.013607433 0.016279431
0.030602047 -0.012942074 0.025476888 0.0056729265 0.0063301544 -0.047560826 0.0021915678 0.009523508
0.0067841476 0.031423584 -0.017954458 0.008697603 -0.0009438646 -0.06447604 0.018691145 0.015788907
0.018299911 0.039556056 0.013474539 0.0007457265 0.02080555 0.015075063 -0.009825446 0.017196134
0.0107618375 0.014448214 0.024924628 0.0014551004 0.04628202 0.034256052 0.03561523 0.0032346272
-0.0067622997 0.02714226 0.010216693 0.027937163 -0.0062123714 0.04738981 0.023782166 0.014042928
0.03826199 -0.013774994 0.0041864887 0.03945502 0.08110828 -0.0028954393 0.0021685357 0.041787274
-0.0066290274 -0.0010032182 0.019811988 0.0072010085 0.046191886 -0.025278347 0.025154702 -0.07538627
0.0066266386 0.03666645 0.030922364 0.0024422219 -0.00743619 0.032946486 0.012532645 -0.0041336524
-0.05651913 0.032960735 0.015418186 0.01748534 0.053257965 -0.017006546 0.01141842 0.028992074
0.042168915 0.0008770738 0.05423264 0.028464185 0.029413449 0.0013601866 -0.014535486 0.0022519291
-0.014160335 0.04287494 0.00020059936 -0.022050403 0.020524085 -0.08948818 -0.0065098833 0.01599554
00000000: 58eb adbc cae8 1d3c 7e26 1b3c cc31 08bd
00000010: 371b 213c b4d2 08bd ea4e fa3b 14fd 3e3c
00000020: daf9 463c d6c0 1f3d 47fe fd3c 306e b0bd
00000030: d1fa a43d 0e24 883c eff8 ab3b 8b9e f33c
00000040: ea7d 2b3d b6af 903c 90bb 963c 11d6 0e3c
00000050: f564 ff3c 9e99 c1bb 7dd2 8c39 02f0 25bb
00000060: 04db 0f3c 60ec 633c 0869 823b b6c9 a13c
00000070: 82fd 29ba 91aa 8f3c f9ff 55bc 8bdc 0fbc
00000080: 922a 0dbc 05e1 a23b 2633 8f3b 1817 bc3b
00000090: 72f7 973d d657 fcbb b6f1 5ebc 715c 853c
000000a0: 25b1 fa3c fe0a 54bc e8b4 d03c f5e3 b93b
000000b0: 2f6d cf3b 24cf 42bd 68a0 0f3b 7d08 1c3c
000000c0: 8e4d de3b 04b6 003d 3a15 93bc 6480 0e3c
000000d0: ae6d 77ba 040c 84bd 2c1e 993c bd57 813c
000000e0: b2e9 953c 8805 223d 50c4 5c3c dc7c 433a
000000f0: 6770 aa3c 66fd 763c e8fa 20bc e8de 8c3c
00000100: 6b52 303c 34b8 6c3c bc2e cc3c 11b9 be3a
00000110: 3792 3d3d 1350 0c3d 47e1 113d 0afc 533b
00000120: 4896 ddbb 7259 de3c eb63 273c 7adc e43c
00000130: 2691 cbbb d11b 423d d1d2 c23c 4f14 663c
00000140: 9bb8 1c3d 83b0 61bc d02e 893b 969b 213d
00000150: 191c a63d 69c1 3dbb fe1d 0e3b 2229 2b3d
00000160: 5038 d9bb 6b7e 83ba c04c a23c 70f6 eb3b
00000170: b433 3d3d 8914 cfbc 3c11 ce3c 1e64 9abd
00000180: 4624 d93b 8f2f 163d e650 fd3c af0d 203b
00000190: 48ab f3bb e5f2 063d b955 4d3c 9773 87bb
000001a0: 9a80 67bd d601 073d 8f9c 7c3c 6a3d 8f3c
000001b0: 0625 5a3d 5051 8bbc 5314 3b3c c980 ed3c
000001c0: 50b9 2c3d 6deb 653a 0b23 5e3d b92d e93c
000001d0: 79f4 f03c 4a48 b23a 3f26 6ebc 1a95 133b
000001e0: c000 68bc a29d 2f3d fb57 5239 0ca3 b4bc
000001f0: 2022 a83c 9445 b7bd dc50 d5bb 1409 833c

network_body.linear_encoder.seq_layers.2.weight f4 [128, 128]
0.07444076 -0.13908227 0.15336816 -0.03455854 -0.044157237 -0.07988995 0.03595565 -0.09636148
-0.033539902 0.20526914 -0.121080145 0.068164155 -0.1161294 0.17120585 0.022307184 -0.05899285
-0.019058038 0.093503885 -0.038769044 0.057470765 -0.04278265 0.08773891 -0.038636494 -0.070618354
0.09147474 0.06573271 0.08122319 0.08930636 0.11308623 0.02209527 -0.039467786 0.116764456
-0.043622293 -0.20837224 0.1690809 -0.096439034 0.00021562805 0.006979753 0.07270989 0.09517504
-0.02628261 -0.014739843 -0.10654039 -0.0884122 0.15595102 0.025022125 -0.14630713 0.05239194
0.12882695 0.030287266 -0.09511842 -0.115635805 0.01918041 -0.0077214735 -0.0040766033 -0.11040651
0.029672366 0.013910145 -0.28728643 0.06650795 0.09397549 -0.159841 0.022646312 0.060704235
0.17873731 0.12713562 -0.023962067 0.020120617 0.03907396 0.27412307 -0.02054415 -0.089294784
0.060186945 0.060026463 -0.17121455 0.14500713 0.06927 0.033466637 0.05714782 -0.016114483
0.034548048 -0.050456937 0.05587972 -0.10229649 -0.036442526 0.08264769 -0.005436252 0.15870214
0.102283545 0.013210638 -0.019156354 0.19608997 -0.034970395 -0.13328816 0.06256265 0.088199824
-0.049862012 0.029784141 -0.053709265 0.014376737 0.09389795 0.07671744 -0.1003939 0.027366431
-0.16627726 0.0020062623 -0.016264724 0.024633376 -0.18607824 -0.028375238 0.052310314 -0.024467394
-0.021107228 -0.051502604 -0.1799962 0.0315501 0.087689646 0.10772315 -0.1487207 0.14360872
-0.019369993 -0.035581492 -0.08352999 0.014747909 -0.062272858 -0.023487478 0.03480692 -0.19468388
0.011578509 0.16816258 0.025892088 0.0340044 0.13486268 0.2515396 0.033335708 0.08434258
-0.049724087 0.03400627 -0.050552905 -0.07608775 0.039716985 0.049876757 -0.124346286 0.10011387
0.032389566 0.09760692 -0.035091743 -0.041021626 -0.12296181 0.043882865 0.0516136 0.06424269
0.002518574 0.07492855 0.120709285 -0.028031232 -0.11872606 0.022281345 -0.13011529 -0.19903253
-0.04213901 -0.005379669 0.18289952 0.031169279 0.019620923 0.09551994 0.1254475 -0.11761509
0.049919423 0.024158679 -0.0564924 0.032945134 -0.014647429 -0.070202455 -0.08390189 -0.060174476
-0.18784168 -0.05274713 0.037216686 -0.12322743 0.2462321 -0.041151274 -0.09475025 0.08594293
-0.012430367 -0.2099916 -0.12803896 -0.12377803 0.030441083 -0.16355549 -0.12395337 -0.055095527
-0.059313044 0.081109904 0.14901923 -0.20849767 -0.08496406 -0.071970604 -0.20065024 0.12897794
0.049513515 -0.0989251 0.17583922 -0.07632154 -0.15459996 -0.042057484 0.18853496 0.051612575
0.024512088 0.05138117 -0.00842909 -0.001987564 0.11358034 0.029702775 0.0049507786 0.10425597
-0.03818757 -0.20713276 -0.07043753 0.076702304 -0.017807884 -0.14624982 -0.10818362 0.102271475
0.01726334 0.049572658 -0.056309246 -0.1795158 -0.034027044 -0.13578852 0.13038406 0.21765979
-0.13945627 0.012401007 0.019748606 0.052121356 -0.052725583 0.1326267 0.20716564 0.05300653
-0.19998942 0.07467976 -0.16512413 0.0017899309 0.0064007863 -0.27966243 -0.08671243 -0.22714953
-0.23547699 0.036572628 -0.027501294 0.13830866 -0.1524074 -0.019541902 -0.0046712556 -0.08135081
00000000: 6674 983d 956b 0ebe 8b0c 1d3e 418d 0dbd
00000010: 38de 34bd 589d a3bd 3b46 133d 2b59 c5bd
00000020: 2361 09bd 1332 523e def8 f7bd a699 8b3d
00000030: 40d5 edbd 9650 2f3e 8ebd b63c 7da2 71bd
00000040: 9a1f 9cbc f77e bf3d 4acc 1ebd 7766 6b3d
00000050: dc3c 2fbd 75b0 b33d 4d41 1ebd 5ba0 90bd
00000060: 1c57 bb3d df9e 863d 5858 a63d 41e6 b63d
00000070: c199 e73d 2401 b53c f9a8 21bd 3422 ef3d
00000080: 4aad 32bd 885f 55be 8b23 2d3e d481 c5bd
00000090: 371a 6239 69b6 e43b ece8 943d 22eb c23d
000000a0: a14e d7bc 627f 71bc d931 dabd 7511 b5bd
000000b0: a0b1 1f3e 33fb cc3c 89d1 15be ee98 563d
000000c0: 36eb 033e 001d f83c 72cd c2bd 77d2 ecbd
000000d0: 3c20 9d3c 6a04 fdbb 0795 85bb cf1c e2bd
000000e0: 7613 f33c 60e7 633c 3517 93be 5235 883d
000000f0: 3976 c03d 5cad 23be c284 b93c 01a5 783d
00000100: ea06 373e d72f 023e 194c c4bc fed3 a43c
00000110: 040c 203d dc59 8c3e 354c a8bc 2fe0 b6bd
00000120: 9686 763d 4fde 753d de52 2fbe c07c 143e
00000130: 6edd 8d3d 5014 093d d513 6a3d 8502 84bc
00000140: 4182 0d3d efab 4ebd 22e2 643d d280 d1bd
00000150: c244 15bd 3143 a93d 9622 b2bb d082 223e
00000160: 097a d13d 6f71 583c c9ed 9cbc cfcb 483e
00000170: 1e3d 0fbd b17c 08be d920 803d 1ca2 b43d
00000180: 1c3c 4cbd dffd f33c 3ffe 5bbd 688c 6b3c
00000190: 924d c03d 081e 9d3d 519b cdbd 912f e03c
000001a0: 9644 2abe 7f7b 033b 993d 85bc efcb c93c
000001b0: 4b8b 3ebe 3073 e8bc 5743 563d d86f c8bc
000001c0: 11e9 acbc 65f4 52bd ed50 38be ad3a 013d
000001d0: a196 b33d f49d dc3d 3d4a 18be 2a0e 133e
000001e0: d2ad 9ebc e6bd 11bd c511 abbd 37a1 713c
000001f0: d311 7fbd d068 c0bc b391 0e3d 365b 47be
00000200: c9b3 3d3c d032 2c3e a51b d43c 3348 0b3d
00000210: 7119 0a3e ccc9 803e 068b 083d cdbb ac3d
00000220: 7cab 4bbd 294a 0b3d 9010 4fbd e5d3 9bbd
00000230: 47ae 223d 924b 4c3d 44a9 febd 8008 cd3d
00000240: ecaa 043d 23e6 c73d 5cbc 0fbd 4b06 28bd
00000250: 67d3 fbbd 85be 333d c868 533d ac91 833d
00000260: a90e 253b 2474 993d 6e36 f73d c1a1 e5bc
00000270: a626 f3bd 5e87 b63c f13c 05be 2fcf 4bbe
00000280: f499 2cbd ef47 b0bb 034a 3b3e b756 ff3c
00000290: 0fbc a03c f59f c33d 4f75 003e 2ee0 f0bd
000002a0: 4f78 4c3d 6ce8 c53c 9364 67bd 7af1 063d
000002b0: c5fb 6fbc 4ec6 8fbd c1d4 abbd 8379 76bd
000002c0: 9259 40be 600d 58bd 8670 183d aa5e fcbd
000002d0: 4524 7c3e 3d8e 28bd 6b0c c2bd d902 b03d
000002e0: bda8 4bbc 0a08 57be a51c 03be 567f fdbd
000002f0: 945f f93c 177b 27be 44db fdbd d9ab 61bd
00000300: 3cf2 72bd f31c a63d 7f98 183e 6a80 55be
00000310: a301 aebd 5365 93bd 4277 4dbe cb12 043e
00000320: afce 4a3d 3e99 cabd 320f 343e 784e 9cbd
00000330: 744f 1ebe 7844 2cbd 4f0f 413e b567 533d
00000340: 93cd c83c 1075 523d 2a1a 0abc ca41 02bb
00000350: cf9c e83d 3c53 f33c 243a a23b 2784 d53d
00000360: 926a 1cbd 9c1a 54be 8d41 90bd 1916 9d3d
00000370: d7e1 91bc 83c2 15be 608f ddbd b573 d13d
00000380: d96b 8d3c b30c 4b3d 86a4 66bd fdd2 37be
00000390: f15f 0bbd 250c 0bbe 6683 053e 35e2 5e3e
000003a0: a0cd 0ebe 982d 4b3c d4c7 a13c 347d 553d
000003b0: c8f6 57bd 4bcf 073e 3b23 543e 601d 593d
000003c0: 07ca 4cbe b4f1 983d 4d16 29be 1d9c ea3a
000003d0: b0bd d13b ea2f 8fbe 4996 b1bd e399 68be
000003e0: e120 71be 2ecd 153d 654a e1bc c9a0 0d3e
000003f0: af10 1cbe 5716 a0bc 5511 99bb 419b a6bd

network_body.linear_encoder.seq_layers.4.bias f4 [128]
-0.003905285 -0.070729725 -0.0005389892 0.02415018 0.025907101 0.015160352 -0.020709027 -0.059361834
-0.013014742 0.014566653 -0.032813475 -0.15147823 -0.015773019 0.04327614 -0.007257163 -0.045593478
-0.016884003 0.041430406 0.021527775 0.04083205 0.0036591138 0.011555442 -0.0033594975 0.0001273902
-0.02279165 -0.031964853 0.022881495 0.033977255 -0.0056079687 0.0097216675 -0.052509278 -0.035055462
0.0068390556 -0.007723937 -0.054870386 -0.04959641 -0.0024017228 0.00780364 0.038180616 -0.013412047
-0.026896432 -0.040810745 -0.016946835 -0.012015021 -0.15275934 0.058349084 -0.020086413 -0.07031697
-0.005219042 -0.025144096 0.048832215 0.10056745 -0.09861402 0.012636978 0.028633446 0.020772297
0.011077358 0.017165393 0.055516887 0.012386971 -0.021601986 0.042074256 0.022220047 0.021299455
0.031047555 0.009423759 0.008256289 0.03775187 0.055338252 -0.008706716 -0.043155424 -0.017030468
0.059561938 -0.0064211935 0.033678923 -0.0563681 -0.010678027 0.026959183 0.01188598 -0.009854897
-0.04922877 -0.039974537 0.0017576893 0.053639904 -0.023809966 0.052078415 0.045369357 0.011866644
-0.02646948 -0.006334572 -0.030256491 0.014340646 0.007230895 0.008360781 0.008260155 -0.07127571
0.027177436 -0.013940536 0.028910045 -0.11061206 -0.020463482 0.06274831 0.0056672776 0.0024598837
-0.055167384 0.0033649819 0.03868959 0.034401134 -0.00741337 -0.1673455 -0.0048100515 0.0064699124
0.034347236 -0.12262857 -0.019598577 0.022261146 0.03258622 -0.18444946 0.0025700505 -0.02450798
-0.057943128 0.010794098 -0.015194951 -0.048981618 -0.054045983 0.04491647 0.012901925 -0.12781987
00000000: cfef 7fbb bfda 90bd f44a 0dba 99d6 c53c
00000010: 213b d43c 2063 783c faa5 a9bc 6525 73bd
00000020: c93b 55bc f9a8 6e3c 6c67 06bd 1c1d 1bbe
00000030: 6b36 81bc 5242 313d 7fcd edbb 3ac0 3abd
00000040: 5250 8abc eeb2 293d 045b b03c 823f 273d
00000050: becd 6f3b 0953 3d3c 042b 5cbb 0c94 0539
00000060: 8eb5 babc 94ed 02bd f971 bb3c bc2b 0b3d
00000070: 0dc3 b7bb a147 1f3c f813 57bd 5196 0fbd
00000080: 281a e03b 1419 fdbb c5bf 60bd 9b25 4bbd
00000090: 3966 1dbb adb5 ff3b 4763 1c3d 34be 5bbc
000000a0: e855 dcbc 2b29 27bd 17d4 8abc a7da 44bc
000000b0: f26c 1cbe 73ff 6e3d 438c a4bc 5802 90bd
000000c0: 7f04 abbb fefa cdbc 4a04 483d 4ff6 cd3d
000000d0: 26f6 c9bd 540b 4f3c b090 ea3c aa2a aa3c
000000e0: cf7d 353c 709e 8c3c ad65 633d b9f2 4a3c
000000f0: a6f6 b0bc 0e56 2c3d d106 b63c 327c ae3c
00000100: 7157 fe3c 1c66 1a3c 6345 073c b4a1 1a3d
00000110: 5daa 623d 9da6 0ebc bec3 30bd 7b83 8bbc
00000120: 38f7 733d e068 d2bb e9f2 093d 3de2 66bd
00000130: e4f2 2ebc 81d9 dc3c 6abd 423c 6f76 21bc
00000140: 1ba4 49bd 57bc 23bd 4462 e63a 84b5 5b3d
00000150: 1e0d c3bc 2d50 553d 38d5 393d 506c 423c
00000160: 86d6 d8bc 3e92 cfbb 76dc f7bc 07f5 6a3c
00000170: 25f1 ec3b a8fb 083c 9a55 073c 00f9 91bd
00000180: 37a3 de3c d966 64bc c2d4 ec3c 9388 e2bd
00000190: 08a3 a7bc 3082 803d 92b4 b93b 0036 213b
000001a0: 32f7 61bd 0787 5c3b fa78 1e3d 34e8 0c3d
000001b0: dbeb f2bb 9e5c 2bbe a39d 9dbb 8f01 d43b
000001c0: b0af 0c3d b024 fbbd 328d a0bc 025d b63c
000001d0: 2179 053d 52e0 3cbe 4b6e 283b f6c4 c8bc
000001e0: c655 6dbd bad9 303c 3ef4 78bc f3a0 48bd
000001f0: 525f 5dbd 55fa 373d 9862 533c 36e3 02be

network_body.linear_encoder.seq_layers.4.weight f4 [128, 128]
0.056718353 -0.074329704 0.041137207 -0.22621661 -0.0850428 0.03462549 -0.059223004 0.018960854
-0.042534985 0.04728495 -0.11344233 0.069285296 -0.16177407 0.05794964 -0.0021301876 0.10030382
-0.03614367 -0.01917215 -0.111710876 -0.07255564 -0.031256568 -0.16683543 -0.014482149 -0.1814801
0.13321166 0.01985244 0.016393658 -0.024073191 0.08854872 0.098271966 -0.010643443 -0.033992074
0.22157568 -0.11530793 0.0746757 0.04426555 -0.010329659 0.02455662 0.07137472 -0.0030562498
0.15939671 0.044961166 0.001968521 -0.08287542 0.20694785 0.12462399 0.08038016 -0.13619551
0.020018445 -0.07344557 -0.090602435 -0.11274715 0.038867146 -0.0038893204 -0.09782702 0.08019027
0.100015484 -0.013707895 0.18562897 0.031450458 -0.015385425 0.058008943 -0.0483027 0.04774818
-0.047959846 -0.14678942 -0.044125676 -0.017983576 -0.090533994 -0.036924668 -0.12034433 -0.21353965
0.11737139 -0.19455832 0.11382001 -0.09878078 0.009548086 0.045182414 -0.11914907 -0.1715741
-0.0564001 0.08408102 -0.11248353 -0.07954589 -0.18265045 -0.07377724 -0.15118262 -0.02793592
0.18344207 -0.0061581656 0.004761831 0.10554683 0.07808785 0.124236114 -0.05278367 -0.0046045575
-0.07508185 0.059668645 -0.06421103 -0.072762385 -0.16958396 0.028903449 -0.05651718 -0.21607183
-0.06667172 0.057887252 -0.0064704316 -0.13338293 -0.09091527 -0.008832785 -0.014903462 -0.017156161
-0.0066090277 -0.02430928 -0.08400172 -0.23988687 -0.08527591 -0.16868317 -0.04829039 -0.12566556
0.23772122 0.046877746 -0.017951988 0.15682685 -0.10126175 -0.029821305 -0.032440446 -0.01783939
0.09293381 0.033908933 -0.034592137 0.04893281 -0.16420777 0.0075109145 -0.089462176 -0.12027096
-0.02563589 0.03126642 -0.097540826 0.012697859 -0.016978519 -0.04018727 0.039812226 0.01331224
0.010761035 -0.06436565 0.031145051 -0.023734406 -0.053952616 -0.013717399 -0.1536741 -0.073561214
0.2093859 0.013029452 0.13800462 -0.052235946 0.038733598 -0.051362917 -0.036870893 -0.07050748
0.13454624 0.09198743 -0.07772115 -0.18473624 0.0457327 0.053438637 0.16127487 0.0967367
-0.059119623 0.05682748 0.06830132 -0.07408529 -0.04323883 0.0005315719 0.020657884 -0.13069667
0.20618872 0.11773904 0.03988414 -0.077720396 -0.035554945 0.17804827 -0.27678382 -0.11652327
-0.07672677 -0.16421254 0.0015717398 0.051465172 -0.22077578 -0.10410958 -0.0934321 -0.110233374
0.013581238 0.034884777 -0.16617501 -0.0030694925 0.0032963823 0.09431805 -0.26078573 0.168388
-0.027361674 -0.28428882 -0.01629455 0.13288786 0.035720486 0.02271669 -0.18655677 -0.056858867
0.15062544 -0.0032956211 -0.09874596 -0.009751818 -0.0578614 0.033627767 0.018838603 -0.14415915
0.10484617 -0.0057939943 -0.08311877 -0.041675877 0.012016298 -0.03274872 -0.14305572 -0.027314216
-0.06470379 -0.07513869 0.029043492 -0.00819539 0.0063487035 -0.20964083 -0.08380136 0.056542605
0.097442895 0.030042393 -0.03109493 -0.12631732 0.11615714 0.08611026 -0.1431911 -0.08636309
-0.00605134 -0.06835721 -0.060747456 0.16936344 -0.13335587 -0.040474743 -0.016843079 0.162068
0.14870815 -0.12439283 0.01914092 0.123026796 0.006347788 0.18120898 -0.16248456 0.012248185
00000000: 8151 683d 2c3a 98bd 7d7f 283d 54a5 67be
00000010: eb2a aebd 75d3 0d3d d293 72bd cb53 9b3c
00000020: 2a39 2ebd ddad 413d 7454 e8bd 73e5 8d3d
00000030: 1aa8 25be 9a5c 6d3d 9e9a 0bbb 176c cd3d
00000040: 630b 14bd ea0e 9dbc acc8 e4bd 0d98 94bd
00000050: e306 00bd e8d6 2abe 8946 6dbc ebd5 39be
00000060: a368 083e 96a1 a23c fe4b 863c 2435 c5bc
00000070: 0859 b53d d042 c93d d661 2ebc 463b 0bbd
00000080: bce4 623e 9026 ecbd 93ef 983d cb4f 353d
00000090: bb3d 29bc f72a c93c e92c 923d 5d4b 48bb
000000a0: e438 233e 3329 383d 4d02 013b 97ba a9bd
000000b0: 23ea 533e dd3a ff3d 5a9e a43d d676 0bbe
000000c0: b9fd a33c a26a 96bd c58d b9bd fae7 e6bd
000000d0: 2833 1f3d f8e3 7ebb 8859 c8bd cc3a a43d
000000e0: ebd4 cc3d 1497 60bc 8515 3e3e 32d2 003d
000000f0: 2613 7cbc c99a 6d3d 0dd9 45bd 9893 433d
00000100: 8b71 44bd f74f 16be 20bd 34bd 4b52 93bc
00000110: e369 b9bd 523e 17bd 1777 f6bd 23aa 5abe
00000120: 6960 f03d 4c3a 47be 771a e93d 944d cabd
00000130: 936f 1c3c 3211 393d 6d04 f4bd 1fb1 2fbe
00000140: cb03 67bd ab32 ac3d c45d e6bd f5e8 a2bd
00000150: b808 3bbe 8618 97bd 9ecf 1abe dfd9 e4bc
00000160: 3dd8 3b3e 70ca c9bb 2209 9c3b f028 d83d
00000170: 86ec 9f3d 816f fe3d b133 58bd d4e1 96bb
00000180: 83c4 99bd 1c67 743d 1381 83bd 7204 95bd
00000190: 6ba7 2dbe edc6 ec3c 8f7e 67bd ef41 5dbe
000001a0: 2f8b 88bd 2f1b 6d3d ea05 d4bb 8995 08be
000001b0: c931 babd 63b7 10bc a62d 74bc 148b 8cbc
000001c0: 8b90 d8bb 4124 c7bc 1809 acbd e7a4 75be
000001d0: 23a5 aebd 48bb 2cbe 25cc 45bd 79ae 00be
000001e0: 316d 733e e102 403d 0c10 93bc 3897 203e
000001f0: 5262 cfbd cf4b f4bc 46e0 04bd ea23 92bc
00000200: 1554 be3d 18e4 0a3d 7cb0 0dbd c56d 483d
00000210: 1526 28be 1e1e f63b f237 b7bd 9f50 f6bd
00000220: 5c02 d2bc 3811 003d 7cc3 c7bd ae0a 503c
00000230: 8916 8bbc 689b 24bd 2512 233d 951b 5a3c
00000240: 0d4f 303c 23d2 83bd e823 ff3c a86e c2bc
00000250: 6bfd 5cbd f1be 60bc be5c 1dbe 43a7 96bd
00000260: 4269 563e 7c79 553c 1551 0d3e 5cf5 55bd
00000270: 1fa7 1e3d ec61 52bd ef05 17bd 3a66 90bd
00000280: 7dc6 093e e863 bc3d 442c 9fbd 7f2b 3dbe
00000290: 3652 3b3d 79e2 5a3d 3d25 253e e41d c63d
000002a0: 6b27 72bd efc3 683d 90e1 8b3d 07ba 97bd
000002b0: 331b 31bd 3059 0b3a b93a a93c 59d5 05be
000002c0: 2323 533e 2a21 f13d 8d5d 233d df2b 9fbd
000002d0: 10a2 11bd 4952 363e 9cb6 8dbe c1a3 eebd
000002e0: ed22 9dbd 5527 28be d602 ce3a 25cd 523d
000002f0: 0c13 62be 6737 d5bd 5459 bfbd 09c2 e1bd
00000300: d783 5e3c 57e3 0e3d c829 2abe 8a29 49bb
00000310: 1e08 583b d229 c13d b585 85be e76d 2c3e
00000320: 9725 e0bc 4e8e 91be 267c 85bc c113 083e
00000330: a54f 123d 5a18 ba3c bd08 3fbe d8e4 68bd
00000340: 8e3d 1a3e 59fb 57bb 523b cabd 17c6 1fbc
00000350: 1300 6dbd 45bd 093d 6a53 9a3c 759e 13be
00000360: 97b9 d63d 8cdb bdbb 2c3a aabd 53b4 2abd
00000370: 02e0 443c 8623 06bd 337d 12be 10c2 dfbc
00000380: 6c83 84bd 50e2 99bd 9eec ed3c f545 06bc
00000390: c908 d03b 16ac 56be 0ca0 abbd 3899 673d
000003a0: 2490 c73d 771b f63c cbba febc 5459 01be
000003b0: cbe3 ed3d 935a b03d b0a0 12be 22df b0bd
000003c0: 524a c6bb ddfe 8bbd 53d2 78bd 9c6d 2d3e
000003d0: 718e 08be d8c8 25bd 7ffa 89bc 27f5 253e
000003e0: f346 183e abc1 febd 6bcd 9c3c 79f5 fb3d
000003f0: 1b01 d03b d98e 393e 5a62 26be 9dac 483c

network_body.observation_encoder.processors.0.conv_layers.0.bias f4 [16]
0.04496267 0.030106768 -0.002570729 0.03241266 -0.01209916 -0.061173026 0.027344514 -0.03206823
0.013799781 0.027786838 0.04710857 -0.033467036 -0.04374156 -0.033483658 0.016336448 -0.052378125
00000000: c72a 383d 78a2 f63c ad79 28bb 23c3 043d
00000010: 8e3b 46bc 9190 7abd 9a01 e03c fa59 03bd
00000020: 7a18 623c 39a1 e33c eaf4 403d bb14 09bd
00000030: 5a2a 33bd 2926 09bd 04d4 853c 728a 56bd
