Config/results/Env_PPO_44/EnvironmentAgentBehavior/EnvironmentAgentBehavior-17499888.onnx (onnx, 477297 bytes, 16 tensors)

action_model._discrete_distribution.branches.0.bias f4 [400]
0	0x3c963b53	0.018338835
1	0x3d602bec	0.054729387
2	0xbde1b95b	-0.11021682
3	0xbd6e5105	-0.058182735
4	0x3d88d6e2	0.06681611
5	0xbcf28b13	-0.029607331
6	0xbc18aa2a	-0.009317914
7	0xbc62154b	-0.013799022
8	0x3a559727	0.00081478286
9	0x3c376fad	0.011196059
10	0xbcc20757	-0.02368514
11	0xbd82eacb	-0.063924395
12	0xbcf1b763	-0.02950639
13	0x3dcb4425	0.09925107
14	0xbc9a8904	-0.018864162
15	0x3d0d1567	0.03444424
16	0x3d62a35d	0.055331577
17	0x3d7533e9	0.05986396
18	0x3cc3c502	0.023897652
19	0x3bd1661a	0.0063903453
20	0x3c397927	0.011320389
21	0x3d807ed4	0.062741905
22	0x3c12f3fb	0.008969302
23	0xbb22dbe0	-0.0024850294
24	0x3c163288	0.009167321
25	0x3cce35d9	0.025172161
26	0x3d7ac58c	0.06122355
27	0x3d9a2df8	0.07528299
28	0x3d545a2e	0.051843815
29	0x3c981225	0.01856334
30	0x3d5307d2	0.05152113
31	0xbbcdd894	-0.0062819216
32	0xba955d4a	-0.00113956
33	0x3ca557be	0.02018344
34	0x3d656a89	0.056009803
35	0x3d5bd9a1	0.053674344
36	0x3d610cbb	0.05494378
37	0x3d06ecf2	0.032940812
38	0x3cdcd046	0.026954781
39	0xbda46590	-0.08027184
40	0x3d7370ab	0.05943362
41	0x3d71f057	0.059067097
42	0xbd1bcd8c	-0.03803782
43	0x3dcc4475	0.09973995
44	0x3dbfae8a	0.093594626
45	0x3d1492c2	0.03627277
46	0xbdaed919	-0.08537502
47	0x3d2d0a76	0.042246304
48	0xbce11da5	-0.027479956
49	0x3c729ef6	0.014808407
50	0xbc8204b5	-0.015871385
51	0x3dbb7d70	0.09154785
52	0x3cd0c6e6	0.025485467
53	0x3c20b636	0.0098090675
54	0x3be1f1d6	0.006895284
55	0x3d9d6dbc	0.07686946
56	0x3c90e0e7	0.017685367
57	0xbcca83b8	-0.024721012
58	0x3dd8c0b3	0.105836295
59	0xbd48d2b0	-0.049029052
60	0xba8f22c8	-0.00109204
61	0x3db4610a	0.08807571
62	0x3d0d56d5	0.034506638
63	0x3d81f196	0.06344907
64	0xbd052c9c	-0.032513246
65	0x3b14e212	0.0022717756
66	0x3ce3ab3d	0.027791614
67	0x3c6c6e40	0.0144305825
68	0x3d2370c0	0.03990245
69	0x3e01cfc4	0.12676913
70	0x3af0587f	0.0018336921
71	0xbcaabbab	-0.02084144
72	0x3c7bc44f	0.015366628
73	0x3d8491ab	0.064730965
74	0x3c905d09	0.017622488
75	0xbbfa43e7	-0.007637489
76	0x3da4395b	0.08018752
77	0xbcc6934f	-0.024240164
78	0xbd915ccb	-0.07097777
79	0x3d2f879f	0.042853948
80	0x3d5d419f	0.05401766
81	0x3d093de2	0.03350628
82	0x3d8405ac	0.06446394
83	0xbd2ac7b8	-0.041694373
84	0x3d9fa141	0.077944286
85	0x3da4c10f	0.080446355
86	0xbdac0288	-0.0839892
87	0x3cf0b065	0.029380986
88	0xbc6a115b	-0.014286364
89	0x3db1089b	0.086442195
90	0x3c99cca7	0.018774344
91	0x3d46de5c	0.048551902
92	0x3ba150a8	0.004922945
93	0x3dd0dce6	0.10198383
94	0x3d165aea	0.036707796
95	0xbc93ecef	-0.018057315
96	0xbb5d8657	-0.0033801997
97	0x3d046594	0.032323435
98	0x3d3555d4	0.044271305
99	0xbce6d124	-0.028175898
100	0x3c575757	0.013143382
101	0xbcc9362c	-0.024561964
102	0xbc12c3a2	-0.008957775
103	0x3d06ec29	0.032940064
104	0xbdf327fa	-0.11872859
105	0x3c7b3aed	0.015333873
106	0x3d54e086	0.051971935
107	0x3d8b13ba	0.06790872
108	0x3dc758c0	0.097337246
109	0x3d52b0a0	0.051437974
110	0x3dd58f39	0.10427708
111	0x3d9b2672	0.07575692
112	0x3ceab4e5	0.02865071
113	0x3d2a6e64	0.041609183
114	0xbd19497e	-0.037423603
115	0x3d86db11	0.06584752
116	0xbc34ff37	-0.011047176
117	0x3dc4cc76	0.0960931
118	0xbc602e11	-0.013682858
119	0xbc81d86c	-0.015850268
120	0x3d62167c	0.055197224
121	0x3cc52721	0.02406651
122	0xbc4b35f7	-0.012403003
123	0x3b5f414a	0.0034066015
124	0xbbc08ee4	-0.005876409
125	0x3d84e0b6	0.06488173
126	0x3c6eaaf7	0.014567128
127	0xbc549f58	-0.012977444
128	0x3d6384c3	0.055546533
129	0x3ce01f91	0.027358802
130	0xbd2d5753	-0.042319607
131	0xb9a54a35	-0.0003152654
132	0xbbd282d9	-0.0064242897
133	0x3d20ca68	0.03925553
134	0x3c071100	0.008243799
135	0x3d5cb35a	0.05388198
136	0x3d89f047	0.067352824
137	0x3c740184	0.0148929395
138	0x3c15715b	0.009121264
139	0x3d0bc7db	0.034126144
140	0x3d16c0ea	0.03680507
141	0xbbd3e3cb	-0.006466364
142	0x3cd5c60a	0.026095409
143	0x3d288c83	0.041149627
144	0x3d995f44	0.074888736
145	0x3d166a83	0.03672267
146	0xbdeb74f2	-0.11496915
147	0x3cad1f07	0.021132959
148	0xbd16fa18	-0.0368596
149	0x3bf68fcc	0.007524466
150	0xbc8e3007	-0.017356886
151	0x3c3864ab	0.01125447
152	0x3d5467c0	0.051856756
153	0xbd30e790	-0.043189585
154	0xbcdfc41a	-0.027315188
155	0xbd48887b	-0.048958283
156	0xbcf00718	-0.029300258
157	0x3d86354d	0.06553135
158	0x3bfe359a	0.0077578546
159	0x3d73ae6e	0.05949252
160	0xbd1ad0c0	-0.037796736
161	0x3d295cbd	0.041348208
162	0xbb2d9c69	-0.0026490933
163	0x3d866c23	0.06563594
164	0xbd65d20f	-0.05610853
165	0x3cde63f6	0.027147274
166	0x3cc73826	0.024318766
167	0xbbff1562	-0.0077845315
168	0x3ddf22a7	0.10895281
169	0x3d61161b	0.054952722
170	0x3de166e9	0.11005957
171	0xbd387b5d	-0.045039523
172	0xbd00118f	-0.031266745
173	0x3dabe249	0.0839277
174	0x3cd0ea1c	0.025502257
175	0x3d04a42f	0.03238314
176	0x3d72b248	0.059252053
177	0x3d60a0d2	0.05484087
178	0x3dc65efb	0.09686085
179	0xbb30cf0b	-0.0026978876
180	0x3d89e9f8	0.06734079
181	0x3c02e083	0.007988098
182	0x3d71269d	0.058874715
183	0xbb2db7d5	-0.0026507278
184	0x3d6afc1e	0.057369344
185	0x3d34885c	0.044075355
186	0x3d82e9dd	0.06392262
187	0xbd74e5ff	-0.059789654
188	0x3da4c36a	0.08045085
189	0x3d6eb826	0.058281086
190	0x3da6145d	0.08109353
191	0xbd4d336d	-0.05009787
192	0x3c9982cc	0.018739127
193	0x3d8a8463	0.06763532
194	0x3ce7cad2	0.028294954
195	0x3d5ca465	0.053867716
196	0x3cb0db55	0.02158896
197	0x3a1d25f1	0.00059947284
198	0xbc43a66a	-0.011941532
199	0x3d60553c	0.054768786
200	0x3cf79db9	0.030226575
201	0xbc1c43e6	-0.009537673
202	0x3d4c758c	0.04991679
203	0xbaaa3eae	-0.0012988651
204	0xbc36f4fa	-0.011166805
205	0x3b3e390a	0.0029025697
206	0xbc80c826	-0.015720438
207	0xbbbe340d	-0.005804545
208	0x3db40f47	0.087919764
209	0x3d8f6539	0.070017286
210	0xbc4e2a78	-0.0125833675
211	0x3d30e9ee	0.043191843
212	0x3cc372f7	0.02385853
213	0x3dff490a	0.12465103
214	0x3ced1615	0.028941194
215	0x3d991d3c	0.07476279
216	0xba3b4fc6	-0.0007145371
217	0x3b9c19cb	0.004763817
218	0x3e158ca6	0.14604434
219	0x3c8b5541	0.017008426
220	0x3bdfa26b	0.0068247817
221	0x3bb2a078	0.0054512583
222	0x3ca92cd7	0.020651264
223	0x3c948ce9	0.018133597
224	0x3d1bb9f8	0.03801915
225	0x3d7b7822	0.061393864
226	0x3c896d02	0.016775612
227	0x3de8e5ca	0.11371954
228	0x3d212f7d	0.03935193
229	0x3d2164a9	0.039402638
230	0x3d447660	0.047964454
231	0x3baa4c27	0.0051970663
232	0x3df9580d	0.121749975
233	0xbd1ac215	-0.037782747
234	0xbd1b1d4b	-0.037869733
235	0x3d2a4bc1	0.04157615
236	0x3d0416cd	0.032248307
237	0x3d38826b	0.04504625
238	0xbd5c2b34	-0.05375214
239	0xbd37fb42	-0.044917352
240	0x3d0358af	0.032066997
241	0xbd5e47d6	-0.054267727
242	0xbbe8e460	-0.0071073025
243	0xbd03dc3b	-0.03219245
244	0x3d4c55cc	0.04988651
245	0xbca53dba	-0.020171035
246	0x3ce152a8	0.027505234
247	0xbcb2a0ac	-0.02180513
248	0xbd88d7a9	-0.06681759
249	0xbca4da8d	-0.020123744
250	0x3dc6391a	0.0967886
251	0x3d65fe28	0.056150585
252	0x3d5c9a49	0.053858075
253	0x3dd7bcef	0.10534083
254	0x3d49b758	0.049247116
255	0x3d2da476	0.04239317

action_model._discrete_distribution.branches.0.weight f4 [400, 128]
0	0x3da13715	0.07871834
1	0x3c7db616	0.015485307
2	0x3ca84cda	0.020544458
3	0xbd8c6f8a	-0.06857212
4	0x3d3bfcad	0.045895267
5	0x3d644afa	0.055735566
6	0x3d282af0	0.041056573
7	0x3d68f683	0.056875717
8	0xbd85e0f8	-0.0653705
9	0x3d275bb1	0.040858928
10	0x3d03e95e	0.03220498
11	0x3b14f8ee	0.0022731381
12	0x3db06dfd	0.086147286
13	0xbb7bc53b	-0.003841712
14	0x3b4ae170	0.0030957125
15	0x3bf13146	0.00736061
16	0x3d8549ae	0.06508194
17	0xbd4dd120	-0.050248265
18	0x3da9a3d1	0.082831986
19	0xbbac8b6a	-0.005265643
20	0x3c7bb598	0.01536312
21	0xbcf4250f	-0.029802827
22	0x3dabb333	0.08383789
23	0xbc9754e9	-0.018473106
24	0xbd8060b3	-0.06268444
25	0xbd3b308a	-0.045700587
26	0xbdbe65a8	-0.09296733
27	0x3c0176fb	0.007901902
28	0x3d17609b	0.036957365
29	0x3d4ac172	0.04950089
30	0x3ce7cee0	0.028296888
31	0xbcdc5443	-0.026895648
32	0xbcfbdb49	-0.030744212
33	0xbdc5e752	-0.096632615
34	0xbce6d349	-0.02817692
35	0x3c33982b	0.010961573
36	0xbadd060e	-0.0016862766
37	0x3d330af5	0.04371162
38	0x3d180abb	0.03711961
39	0x3d4adc5c	0.049526557
40	0xbd90fcc4	-0.07079461
41	0xbcf9d754	-0.030498184
42	0x3d8cd208	0.06875998
43	0x3bd35619	0.0064494726
44	0x3d0df6c4	0.034659162
45	0x3caa8841	0.020816924
46	0xbce7cf60	-0.028297126
47	0xbce6cb4f	-0.028173117
48	0x3c2f20ef	0.010689004
49	0x3d12c8c3	0.035835993
50	0xbd04851c	-0.032353505
51	0xbd560ff5	-0.05226131
52	0xbccdda72	-0.025128577
53	0x3d2ffde3	0.042966735
54	0xbdf55b26	-0.11980276
55	0xbd4b0c10	-0.04957205
56	0xbd8d9737	-0.069136076
57	0xbc8f81f6	-0.017518025
58	0x3c6751a9	0.01411859
59	0x3d99970d	0.07499514
60	0xbd492b38	-0.049113482
61	0x3d404114	0.046937063
62	0xbd249f25	-0.040190835
63	0xbd3b3c57	-0.04571184
64	0x3ce4039f	0.027833758
65	0x3be944d6	0.0071188016
66	0xbae6e5a8	-0.001761605
67	0x3d192d84	0.037396923
68	0x3cfe1854	0.03101746
69	0xbb61152d	-0.0034344897
70	0x3c253db7	0.010085515
71	0x3d006185	0.031343002
72	0xbdcbb62a	-0.099468544
73	0xbcba7878	-0.022762522
74	0xbd1964d1	-0.03744966
75	0xbc2489ee	-0.010042651
76	0x3d754258	0.059877723
77	0xbc04ccb5	-0.008105447
78	0xbaa4607b	-0.001254096
79	0xbcf7dfa5	-0.03025801
80	0xbc3428d8	-0.010996066
81	0x3d1696ed	0.036765028
82	0x3d1ad0c5	0.037796754
83	0xbe029987	-0.12753879
84	0xbd1ff9cf	-0.039056595
85	0xbdb9a678	-0.090649545
86	0x3b72fed5	0.0037078161
87	0xbd8ac7ae	-0.06776367
88	0xbb641231	-0.0034800882
89	0xbce80242	-0.02832139
90	0xbd96d90f	-0.073656194
91	0xbd7454b2	-0.059651084
92	0xbd9fa02b	-0.077942215
93	0xbd44c5f6	-0.048040353
94	0xbd902c56	-0.070397064
95	0xbd95f09f	-0.073212855
96	0x3da3c402	0.0799637
97	0xbd6db39c	-0.058032617
98	0x3bbfe63f	0.005856305
99	0x3d21f7cd	0.039542962
100	0xbc19c7c2	-0.009386005
101	0xbde99d90	-0.11407006
102	0x3cfc6c8a	0.030813474
103	0xbd6240a3	-0.055237424
104	0x3be43647	0.006964478
105	0xbb742440	-0.0037253052
106	0xbccd9e40	-0.025099874
107	0x3c664dcf	0.014056637
108	0x3dc97a1b	0.09837743
109	0x3d74cb26	0.05976405
110	0x3bf987d2	0.007615068
111	0x3d113928	0.0354549
112	0xbd9b7066	-0.07589798
113	0x3cab81d8	0.020935938
114	0xbce60a12	-0.028080974
115	0xbd71e4ea	-0.0590562
116	0xbd2ce252	-0.042208023
117	0x3d966313	0.07343116
118	0x3cf8cb6f	0.030370442
119	0xbd9cf971	-0.07664765
120	0x3d51d1c6	0.051225446
121	0xbd954c5e	-0.072899565
122	0x3d9472fe	0.072484955
123	0xbc86a56e	-0.016436305
124	0x3c15d38b	0.009144674
125	0x3b6ba05e	0.003595374
126	0xbd5d6076	-0.05404707
127	0xbca040e0	-0.019562185
128	0xbd69f625	-0.057119507
129	0xbc7bf199	-0.015377426
130	0x3c2fe991	0.010736839
131	0x3dd2b13d	0.10287712
132	0xbc6fb0a8	-0.0146295205
133	0xbcaa288c	-0.020771287
134	0xbbc1540c	-0.0058999117
135	0xbd855462	-0.06510235
136	0x3d807775	0.062727846
137	0xbd022e44	-0.031782404
138	0xbd879029	-0.06619293
139	0xbdb436d8	-0.08799523
140	0x3d149c29	0.03628174
141	0x3dbd78e3	0.09251573
142	0x3c75b203	0.014996055
143	0x3ddae68c	0.106885046
144	0xbc25ae17	-0.010112307
145	0x3d8159a9	0.063159294
146	0x3d68fdb1	0.056882564
147	0x3db37ca1	0.087640055
148	0x3b04cae9	0.0020262545
149	0xbabe2e69	-0.0014509681
150	0xbd085876	-0.033287488
151	0xbcac8780	-0.021060705
152	0x3e067fb2	0.1313465
153	0x3e2c2e61	0.16814567
154	0xbd12beda	-0.03582654
155	0x3d41d900	0.047326088
156	0xbd86d811	-0.0658418
157	0x3cb10bd3	0.021612084
158	0xbc6b7239	-0.0143704945
159	0x3d7f2a82	0.062296398
160	0x3ab15a69	0.0013530973
161	0x3cf57f1e	0.02996784
162	0x3b3b9acf	0.0028626209
163	0xbdc74a84	-0.097310096
164	0xbd9d482a	-0.0767978
165	0xbdc99977	-0.09843724
166	0xbdafa5ef	-0.08576571
167	0xbd00e40c	-0.031467482
168	0x3e2a8b6f	0.16654752
169	0xbc37520e	-0.011188997
170	0xbcb610fa	-0.022224892
171	0x3d14526c	0.036211416
172	0xbdc29909	-0.095018454
173	0x3ccb1e8a	0.024794836
174	0x3dbe616f	0.09295928
175	0xbcd7dae7	-0.026349498
176	0xbd2c5d68	-0.042081267
177	0x3c0e920e	0.008701814
178	0xbd73a5d7	-0.05948433
179	0x3d94c76b	0.072645985
180	0xbd56166d	-0.05226748
181	0xbbe14ccd	-0.0068756104
182	0x3ddff3be	0.10935162
183	0xbc034207	-0.008011348
184	0x3e2f5161	0.17120887
185	0xbdb354e9	-0.0875643
186	0x3dc95396	0.09830396
187	0x3d1f3ec7	0.03887823
188	0x3d3ef6b7	0.046622004
189	0xbb97ac29	-0.0046286774
190	0x3db24851	0.087051995
191	0x3d9a7400	0.075416565
192	0xbc6f1705	-0.014592891
193	0x3c20be28	0.009810962
194	0x3d21ec09	0.03953174
195	0x3d56b920	0.052422643
196	0x3d6c3aa4	0.05767311
197	0x3c4fe16e	0.012688024
198	0x3e14c2c3	0.1452742
199	0xbcd23c7d	-0.025663609
200	0x3d304fa5	0.043044705
201	0x3d901c28	0.070366204
202	0xbd657c23	-0.05602659
203	0x3dee4d9a	0.11635895
204	0xbdf9a770	-0.12190139
205	0x3cd94c73	0.026525712
206	0x3e269356	0.16267142
207	0xbc73a434	-0.014870692
208	0xb87043c5	-5.7283574e-05
209	0x3cc3dfa0	0.023910344
210	0x3d09bde6	0.033628367
211	0x3d855ee9	0.06512243
212	0x3da6fc2a	0.08153565
213	0x3d7d1298	0.06178531
214	0xbd0844f4	-0.033268884
215	0x3ce33ee7	0.027739955
216	0x3d80f3ac	0.06296477
217	0xbdc520c2	-0.09625389
218	0x3d89a868	0.06721574
219	0x3d080141	0.03320432
220	0xbce7fba2	-0.02831823
221	0x3d6fe3ae	0.05856674
222	0x3d47edab	0.048810642
223	0x3e0bd907	0.13657008
224	0x3cda3bfd	0.026639933
225	0x3dc37374	0.09543505
226	0xbd205ad1	-0.03914911
227	0xbdd9faee	-0.10643564
228	0x3c397131	0.011318491
229	0x3d08bc5e	0.033382766
230	0x3d9de4f0	0.07709682
231	0x3d64a2b6	0.055819236
232	0xbd7247d5	-0.059150536
233	0xbe1ff946	-0.15622434
234	0x3dfdea18	0.123981655
235	0xbda92b13	-0.08260169
236	0xbc80ee18	-0.015738532
237	0xbe0338bd	-0.12814613
238	0x3d0d4f8b	0.034499686
239	0xbd9e6022	-0.0773318
240	0x3d4e22c2	0.050326116
241	0xbdcca5f7	-0.09992593
242	0x3e0964a1	0.13417293
243	0xbd1da43f	-0.038486715
244	0x3d064567	0.03278103
245	0xbdef2d76	-0.11678593
246	0xbce73051	-0.028221281
247	0xbd4e1c9e	-0.05032026
248	0xbd808164	-0.06274679
249	0x3ce85de1	0.028365077
250	0xbd66bb83	-0.05633117
251	0x3d24b253	0.040209126
252	0xbe0cf9f2	-0.13767222
253	0xbe07739a	-0.13227692
254	0x3cfa359b	0.03054314
255	0xbd511bfe	-0.051052086

action_model._discrete_distribution.branches.1.bias f4 [2]
0	0xbdd2d702	-0.10294916
1	0x3dd2d701	0.10294915

action_model._discrete_distribution.branches.1.weight f4 [2, 128]
0	0xbd7a4640	-0.061102152
1	0xbdb2417e	-0.08703898
2	0xbdbc0f28	-0.09182578
3	0xbcd64dc6	-0.026160132
4	0xbcec6bf3	-0.028860068
5	0xbd742c13	-0.059612345
6	0xbdf8794b	-0.1213251
7	0xbcfcdfae	-0.030868378
8	0xbd78426d	-0.060610224
9	0xbdcc02a5	-0.09961442
10	0x3d7c984e	0.061668687
11	0xba178ed2	-0.0005781475
12	0xbdd87c5a	-0.10570593
13	0xbdac1cb3	-0.084039114
14	0xbd4ed955	-0.050500233
15	0x3d7b3c85	0.061337013
16	0xbc0cc6b1	-0.008592294
17	0x3c87fde8	0.016600564
18	0xbdb72c33	-0.08943977
19	0xbc5fc7dd	-0.013658491
20	0xbe02d188	-0.12775242
21	0xbdaa6bd5	-0.083213486
22	0xbde3c80c	-0.1112214
23	0xbd5c468c	-0.053778216
24	0xbdae54ef	-0.085122935
25	0xbd977117	-0.07394617
26	0xbd859efb	-0.06524464
27	0x3c88d9cf	0.016705422
28	0xbdc2d670	-0.09513557
29	0xbe1916b4	-0.14950067
30	0x3d96cc61	0.07363201
31	0xbcdb1449	-0.026743071
32	0x3c86e9b5	0.016468862
33	0x3c33eed4	0.010982234
34	0xbc0a7f3d	-0.0084531875
35	0x3cb268c2	0.021778468
36	0xbdbd41bb	-0.09241053
37	0xbdd90258	-0.1059615
38	0xbd605894	-0.054771975
39	0x3d734db8	0.05940029
40	0xbdd434cf	-0.10361635
41	0x3ccbc288	0.024873033
42	0xbe0537c8	-0.1300956
43	0xbe086b1d	-0.1332211
44	0x3c0425eb	0.008065681
45	0xbd3ae050	-0.045624077
46	0x3d7e6cb5	0.06211539
47	0x3b8a32bf	0.004217475
48	0x3d93aa9b	0.07210275
49	0xbe002b58	-0.12516534
50	0xbe246ed7	-0.16057907
51	0xbc858f8f	-0.016303806
52	0x3d7b24ac	0.06131427
53	0xbe0d1592	-0.1377776
54	0x3cc97677	0.024592621
55	0xbd998dc1	-0.074977405
56	0xbd80ef0d	-0.06295595
57	0xbda14bce	-0.07875787
58	0x3c977a08	0.018490806
59	0xbdab8bd5	-0.0837628
60	0x3d2a36a9	0.041556034
61	0xbd758e4c	-0.059950158
62	0xbdad143c	-0.08451125
63	0xbd48a7ef	-0.04898828
64	0xbcba5468	-0.022745326
65	0xbcf3a3fa	-0.029741276
66	0xbe110373	-0.14161472
67	0xbd2d5c6b	-0.042324465
68	0xbd8e0423	-0.06934383
69	0xbd9dfa0f	-0.077137105
70	0x3cfb05d3	0.030642426
71	0x3d5c83b5	0.053836543
72	0xba12e781	-0.0005603955
73	0x3d282f01	0.04106045
74	0xbd859312	-0.06522192
75	0x3d869e07	0.0657311
76	0xbd957d0b	-0.07299241
77	0xbe2ce4a4	-0.16884094
78	0xbc6e7242	-0.014553608
79	0xbc75b48f	-0.014996662
80	0xbb34f8e0	-0.0027614161
81	0xbc39a6ca	-0.0113312695
82	0xbdbec55e	-0.093149886
83	0x3d05c4b8	0.03265831
84	0xbd9558d7	-0.072923355
85	0x3cb156f9	0.021647917
86	0xbce35832	-0.027752016
87	0x3c7e45a6	0.015519535
88	0xbd89e9e5	-0.06734065
89	0xbbdc1de3	-0.00671743
90	0x3d87756f	0.066141956
91	0xbd92d0de	-0.071687445
92	0xbd21ea1d	-0.03952991
93	0xbd6e40da	-0.058167316
94	0x3cce1bf4	0.025159813
95	0x3b6987da	0.0035633952
96	0xbe0b7609	-0.13619246
97	0xbcf88906	-0.030338775
98	0xbb5dab67	-0.0033824088
99	0x3cb1f7f8	0.021724686
100	0xbbe4ef34	-0.006986523
101	0x3d2c2d2a	0.04203526
102	0xbd54cff2	-0.051956125
103	0xbd91bcb8	-0.07116073
104	0xbcdc126b	-0.026864251
105	0xbc210113	-0.009826916
106	0xbd36e804	-0.04465486
107	0xbdbb4816	-0.09144609
108	0xbe14bb8c	-0.14524668
109	0x3ccf0405	0.025270471
110	0x3d7a3f25	0.061095376
111	0xbdb4c2d7	-0.08826225
112	0xbb469b2e	-0.0030304897
113	0x3c0ba6bf	0.008523642
114	0xbd9a03d5	-0.07520262
115	0xbdca8d8f	-0.098902814
116	0x3cc02e4d	0.023459578
117	0x3cb28670	0.02179262
118	0xbdf0fbe3	-0.117667936
119	0x3c75221b	0.014961745
120	0xbdd0d64e	-0.101971254
121	0xbd6a32bd	-0.057177294
122	0xbda47da2	-0.08031775
123	0xbc82e20e	-0.015976932
124	0xbdb69cb2	-0.08916606
125	0xbcaf943d	-0.02143299
126	0xbd8c6fc7	-0.06857257
127	0xbc9efd1b	-0.0194078
128	0x3d90157d	0.070353486
129	0x3dafba53	0.085804604
130	0x3dc69228	0.09695846
131	0x3cb02660	0.021502674
132	0x3d16715d	0.036729205
133	0x3d559ef1	0.05215353
134	0x3e033322	0.12812474
135	0x3c2379d2	0.009977775
136	0x3d6b0d37	0.05738565
137	0x3df33991	0.11876214
138	0xbda81933	-0.08207931
139	0xbac9bed7	-0.0015391958
140	0x3dfd252b	0.12360605
141	0x3dc38a17	0.09547823
142	0x3d313d85	0.04327156
143	0xbda22bed	-0.079185344
144	0x3c95f55b	0.018305471
145	0xbb7963d3	-0.0038053885
146	0x3dc42db9	0.095790334
147	0x3c42d16f	0.011890753
148	0x3e02c939	0.12772073
149	0x3d8f3521	0.069925554
150	0x3df7f922	0.12108065
151	0x3d6ca667	0.05777588
152	0x3d87c277	0.06628888
153	0x3d77343e	0.060352556
154	0x3d3d1526	0.046162747
155	0xbc552010	-0.013008133
156	0x3dbfce8f	0.0936557
157	0x3e15a27d	0.14612766
158	0xbd7feebc	-0.062483534
159	0x3c78c88f	0.015184536
160	0x3c21f3c8	0.009884782
161	0xbbfe2bb6	-0.0077566756
162	0xbb3a3b43	-0.002841667
163	0xbcf0da78	-0.029401049
164	0x3dce3355	0.100683846
165	0x3dd63947	0.104601435
166	0x3d59491c	0.05304824
167	0xbd56dfaa	-0.052459396
168	0x3de0b24a	0.10971506
169	0xbc8f495b	-0.017491033
170	0x3dcef11c	0.10104582
171	0x3e0f5d56	0.14000449
172	0xbbdf79e2	-0.0068199495
173	0x3d471626	0.048605107
174	0xbd7e6779	-0.062110398
175	0x39e69110	0.00043977099
176	0xbd9eb234	-0.07748833
177	0x3e100c65	0.14067228
178	0x3e115a9f	0.14194725
179	0x3bf0225b	0.0073283142
180	0xbd385753	-0.045005154
181	0x3e0497c8	0.12948525
182	0xbc8acf2f	-0.016944496
183	0x3d5bab7a	0.05363033
184	0x3d4841e4	0.048890963
185	0x3da24022	0.079223886
186	0xbcdf6030	-0.027267545
187	0x3da0422c	0.07825121
188	0xbd5a4458	-0.053287834
189	0x3d8572b7	0.06516021
190	0x3d871fb5	0.065978445
191	0x3d64d5e2	0.055868037
192	0x3d1c00f7	0.038086858
193	0x3d5a16cc	0.053244397
194	0x3e07768f	0.1322882
195	0x3d3fbbbe	0.046809904
196	0x3d6c7596	0.057729326
197	0x3daf2f5d	0.08553956
198	0xbd4bd13a	-0.04976008
199	0xbd5dfdfc	-0.054197297
200	0xbc2b180f	-0.010442748
201	0xbd1515e4	-0.03639783
202	0x3d60432e	0.054751568
203	0xbd79c074	-0.060974553
204	0x3d80795b	0.06273147
205	0x3e09057a	0.13380995
206	0xbad4e03a	-0.0016241141
207	0x3d07223c	0.032991633
208	0x3c157801	0.009122849
209	0x3bb0ef2e	0.005399606
210	0x3dd05a58	0.10173482
211	0xbd368faf	-0.04457062
212	0x3db5c28e	0.08874999
213	0xbb62050e	-0.0034487876
214	0x3cb5e337	0.022203071
215	0xbc85b2e6	-0.016320657
216	0x3dac0353	0.083990715
217	0x3c8c8393	0.017152583
218	0xbd8bec53	-0.06832185
219	0x3d38d161	0.045121554
220	0x3d2cacca	0.042156972
221	0x3d819d63	0.06328847
222	0xbcec209f	-0.028824149
223	0xbc424b73	-0.011858809
224	0x3e144a8c	0.14481562
225	0x3d108c37	0.03528997
226	0x3c395fbc	0.011314329
227	0xbd11226e	-0.035433225
228	0x3c6f5cf5	0.014609565
229	0xbd4fe4c1	-0.050755266
230	0x3d039d18	0.03213224
231	0x3d4c85ea	0.049932398
232	0x3cee358e	0.029078271
233	0xbc81546a	-0.015787322
234	0x3d12bd59	0.035825107
235	0x3da5e7e7	0.081008725
236	0x3e18b68d	0.14913388
237	0xbc89b671	-0.016810628
238	0xbd69b552	-0.057057686
239	0x3d95235c	0.07282135
240	0x3c1d7e7d	0.009612677
241	0xbb2d0598	-0.002640104
242	0x3dac409f	0.08410763
243	0x3d8c6bd7	0.06856506
244	0xbd04f3f8	-0.03245923
245	0xbcbca612	-0.023028407
246	0x3de8a0b2	0.11358775
247	0x3bf43112	0.0074521387
248	0x3db2a908	0.087236464
249	0x3d77b5ec	0.06047623
250	0x3d7c021e	0.061525457
251	0x3c5e045e	0.013550846
252	0x3db6f83d	0.089340664
253	0x3d008835	0.031379897
254	0x3d4d14a7	0.050068524
255	0x3c9cef98	0.019157216

network_body.linear_encoder.seq_layers.0.bias f4 [128]
0	0x3cad6603	0.021166807
1	0x3c1fffbf	0.009765564
2	0xbd477d41	-0.048703436
3	0xbc6ed6b9	-0.014577561
4	0x3be487ef	0.0069742124
5	0x3b908659	0.0044105467
6	0x3b6cbb68	0.0036122445
7	0xbb8f7364	-0.0043777693
8	0x3cde33e3	0.02712435
9	0x3cede4a2	0.029039685
10	0x3c8a9740	0.016917825
11	0x3b90e02f	0.004421256
12	0x3c4b5c2d	0.012412113
13	0xbcd714cc	-0.026255034
14	0x3c78782b	0.015165369
15	0xbc5b1a72	-0.013373004
16	0xbd94c87e	-0.07264803
17	0xbd4e5246	-0.05037143
18	0xbd347fc4	-0.04406716
19	0x3c9d7a24	0.01922328
20	0x3d13f970	0.036126554
21	0x3cba94cf	0.022776036
22	0xbb150e0f	-0.0022743975
23	0x3c5e99da	0.013586486
24	0xbc836ba2	-0.016042534
25	0x3cd9800f	0.02655032
26	0xbab0bb53	-0.0013483561
27	0x3c13ecaa	0.009028593
28	0xbd1a23da	-0.037631847
29	0x3c46e55b	0.012139644
30	0x3c3876d2	0.011258798
31	0xbd9735cb	-0.07383307
32	0x3d12eedc	0.035872325
33	0xbd060757	-0.032721844
34	0x3c0f5ee5	0.008750652
35	0x3c833542	0.016016606
36	0x3c3f63c6	0.011681503
37	0xbba7e331	-0.005123519
38	0xbb015172	-0.0019732383
39	0xbb958e49	-0.004564081
40	0xbd747e87	-0.05969098
41	0x3c8f922a	0.017525751
42	0x3c1acc11	0.009448067
43	0x3b29ae5b	0.0025891277
44	0x3b9c5fae	0.004772148
45	0x3d1bf614	0.038076475
46	0x3d2d094c	0.042245194
47	0x3c867a5d	0.01641577
48	0x3ce6a4a7	0.028154684
49	0xb911abe9	-0.00013892319
50	0x3c80e3fc	0.015733711
51	0x3ceb22e6	0.028703164
52	0xbc908eea	-0.017646272
53	0x3bcde2d8	0.0062831454
54	0x3cb83637	0.02248679
55	0xbc7f9880	-0.015600324
56	0x3d008d6f	0.03138488
57	0x3cb55c59	0.022138761
58	0xbc7510a8	-0.014957584
59	0xbd9a9ef3	-0.075498484
60	0xbd6695d0	-0.056295216
61	0x3d2c7151	0.042100254
62	0x3cdb3341	0.026757838
63	0x3c9c9dcd	0.019118214
64	0xbd6faa2a	-0.05851189
65	0x3cd81059	0.026374983
66	0x3c890018	0.016723678
67	0x3cdbfb9b	0.026853373
68	0xb947aad4	-0.00019041757
69	0xbd1baa36	-0.038004123
70	0x3aaa8f91	0.0013012757
71	0x3c6ded96	0.014521977
72	0xbc038c00	-0.008028984
73	0x3d32358b	0.043508094
74	0xbbef3a89	-0.007300679
75	0x3c405ae8	0.011740424
76	0xbda2f1ee	-0.07956301
77	0x3caf89f7	0.021428091
78	0xbb33eed4	-0.0027455585
79	0x3d0fd249	0.035112653
80	0xbc91ab7f	-0.017781971
81	0xbc087016	-0.008327505
82	0xbd386325	-0.045016427
83	0x3c69a246	0.01425988
84	0x3d1f79f7	0.038934674
85	0x3c516848	0.01278121
86	0xbb99a09a	-0.0046883347
87	0xbba7ecc3	-0.0051246597
88	0xbd5ed343	-0.054400694
89	0x3d50ba26	0.050958775
90	0x3d56797c	0.05236195
91	0x375cb1e3	1.3154439e-05
92	0xbd7a8565	-0.06116237
93	0x3d6bea9c	0.057596788
94	0x3d3fbe62	0.046812423
95	0xbc557699	-0.013028764
96	0xb98c7137	-0.00026787232
97	0x3c0a1899	0.008428716
98	0x3d2e4982	0.04255057
99	0xbca5413a	-0.020172704
100	0x3d55ea06	0.052225135
101	0x3cf5a653	0.029986536
102	0x3be5776e	0.0070027625
103	0xbca49726	-0.020091604
104	0x3c429299	0.011875772
105	0x3b772500	0.0037711263
106	0x3d33e11d	0.043915857
107	0xbd73e7bc	-0.05954717
108	0x3c947afd	0.018125052
109	0xbbf6e9b1	-0.0075351824
110	0x3c89ef2f	0.016837684
111	0xbc9dd84f	-0.019268183
112	0x3ca90651	0.020632895
113	0xb7db673a	-2.6154903e-05
114	0x3d0451ff	0.03230476
115	0x3c89d794	0.016826428
116	0x3d1c93d4	0.038226917
117	0x3cc31aa4	0.023816414
118	0x3cb8c7e4	0.022556253
119	0x3d30f62f	0.04320353
120	0x3b5c8f75	0.0033654843
121	0x3c6975c6	0.014249271
122	0xbca47015	-0.020072976
123	0xbc84f3db	-0.01622956
124	0x3aecde8b	0.0018071694
125	0xbd8ede43	-0.06975987
126	0x3cb0e4d2	0.021593485
127	0x3bbd091b	0.0057689077

network_body.linear_encoder.seq_layers.0.weight f4 [128, 137]
0	0x3d5b2dd9	0.05351052
1	0x3d59173f	0.053000685
2	0xbdedbd73	-0.116084
3	0xbcc883d5	-0.024476925
4	0x3c8c89cb	0.017155549
5	0xbdd0719c	-0.10177919
6	0xbdf52893	-0.119706295
7	0xbe06c134	-0.13159639
8	0xbc9d3f7a	-0.019195307
9	0xbdf3a477	-0.118966036
10	0x3daa5250	0.08316481
11	0x3dd2ab98	0.10286635
12	0xbbb58442	-0.005539448
13	0x3dc275b6	0.09495108
14	0x3cd25918	0.025677249
15	0xbd2d4aa5	-0.042307515
16	0xbdc4df43	-0.09612896
17	0xbd8c84b9	-0.06861252
18	0xbd7b0bbe	-0.061290495
19	0xbc923331	-0.017846676
20	0xbe6635c4	-0.22481447
21	0xbdfc03a9	-0.123053856
22	0xbc4db9c3	-0.012556496
23	0xbc1fb94b	-0.009748767
24	0x3db05108	0.086092055
25	0xbca9fe18	-0.020751044
26	0xbdc54f2a	-0.0963424
27	0x3bc12d24	0.0058952738
28	0xbd04cda7	-0.032422688
29	0xbd3472f5	-0.044054944
30	0x3d03e0f9	0.032196973
31	0x3d07e2ac	0.033175156
32	0x3dbeb088	0.093110144
33	0xbd4fa205	-0.050691623
34	0xbe44bc91	-0.19212557
35	0x3cab5777	0.02091573
36	0x3c4980f6	0.012298813
37	0x3d8df2ad	0.06931052
38	0xbb69ff35	-0.0035705094
39	0x3dcdff84	0.10058501
40	0x3ccc1f75	0.024917344
41	0xbd8052fa	-0.062658265
42	0x3d964dab	0.07339033
43	0x3df4b501	0.11948586
44	0xbe100b14	-0.14066726
45	0x3e1624b7	0.14662443
46	0xbccc8e49	-0.02497019
47	0x3cb3d87f	0.02195382
48	0x3d0b66b4	0.034033492
49	0x3d00ae0f	0.031415995
50	0xbd20e815	-0.03928383
51	0x3db07bdf	0.086173765
52	0x3dd12e71	0.10213936
53	0x3df39d2b	0.11895212
54	0x3e2859f7	0.16440569
55	0xbd3ab7de	-0.045585506
56	0xbdb700a6	-0.089356706
57	0x3cc9200a	0.02455141
58	0xbe4c697c	-0.19962114
59	0xbcd5eac6	-0.026112925
60	0x3cf29111	0.029610189
61	0x3b5ad65c	0.0033391928
62	0x3d51e2b2	0.051241584
63	0x3d5c9188	0.053849727
64	0xbdc8c162	-0.0980251
65	0x3e2cf4c0	0.1689024
66	0xbd181d8a	-0.037137546
67	0x3cc52019	0.024063157
68	0x3e7d708d	0.24749966
69	0xbd8b0308	-0.067876875
70	0x3dccc5bf	0.099986546
71	0x3beb3632	0.0071780914
72	0x3c9e9d85	0.01936222
73	0xbd1376d1	-0.036001984
74	0xbe5d1af0	-0.21592307
75	0xbe07d33b	-0.13264172
76	0xbb2fc44d	-0.0026819885
77	0xbdd97dc7	-0.10619693
78	0xbdabd3a4	-0.083899766
79	0x3c9a5609	0.018839853
80	0xbb29704f	-0.0025854295
81	0x3de6fe8b	0.11279019
82	0xbe345da1	-0.17613842
83	0xbd2cff56	-0.042235695
84	0x3d6bf63f	0.057607885
85	0x3d65d155	0.056107838
86	0x3bfb9380	0.0076774955
87	0xbcb347f1	-0.02188489
88	0x3d7948ce	0.060860448
89	0x3d3453c7	0.04402521
90	0x3d881653	0.06644883
91	0x3ca2dcbd	0.019880647
92	0x3e0da500	0.13832474
93	0xbd8bfc40	-0.06835222
94	0xbdd29b91	-0.10283578
95	0x3d8761c3	0.066104434
96	0x3df02485	0.117257155
97	0x3b60ef81	0.0034322443
98	0xbb011daa	-0.001970152
99	0xbe24391b	-0.16037409
100	0x3c368b88	0.011141665
101	0xbd927912	-0.071519986
102	0xbd91d451	-0.07120574
103	0xbe600d71	-0.21880127
104	0xbd26df7a	-0.040740468
105	0x3e021452	0.12703064
106	0xbd837dfa	-0.064205125
107	0xbb1f2945	-0.0024286073
108	0xbd37c8f0	-0.044869363
109	0x3de8b64a	0.11362894
110	0xbd02dfad	-0.031951595
111	0xbdf0fa27	-0.11766463
112	0x3e5aac0a	0.2135469
113	0xbdc8dac2	-0.0980735
114	0x3d697c75	0.057003457
115	0xbd220a82	-0.039560802
116	0xbd5c2c95	-0.053753454
117	0x3dfa3b73	0.1221837
118	0xbd898e57	-0.06716602
119	0x3e0d1b85	0.13780029
120	0x3d9d3df9	0.07677836
121	0xbd904211	-0.07043851
122	0xbe07d37c	-0.13264269
123	0x3d225b8c	0.039638087
124	0x3b80aee1	0.003927097
125	0x3e064c6a	0.13115087
126	0x3da09e55	0.078426994
127	0xbd194cef	-0.037426885
128	0x3e69db75	0.22837622
129	0xbe211ac6	-0.1573287
130	0x3c0437d8	0.008069955
131	0xbe104ad0	-0.14091039
132	0x3e213df3	0.15746288
133	0x3ca8c7de	0.020603117
134	0xbe84953f	-0.25895116
135	0x3c493fb1	0.012283252
136	0xbcf27f05	-0.029601583
137	0xbe077c11	-0.13230921
138	0xbd9de17a	-0.07709022
139	0x3e1a6099	0.15075912
140	0xbc89176b	-0.0167348
141	0xbc925c54	-0.017866291
142	0xbdf3418c	-0.118777364
143	0xbd3b1b29	-0.0456802
144	0x3d0e7fd0	0.03478986
145	0xbda08ad7	-0.078389816
146	0x3d3f9ae9	0.046778593
147	0xbd1b4d99	-0.0379158
148	0xbe14e330	-0.1453979
149	0xbd92c960	-0.071673155
150	0xbdf0bd63	-0.11754873
151	0x3db1587d	0.08659456
152	0xbd893832	-0.067001715
153	0x3cd3bb75	0.025846222
154	0xbdb2653b	-0.087107144
155	0xbd869360	-0.06571078
156	0xbc2b04e4	-0.010438178
157	0xbe1258be	-0.14291665
158	0x3c942cb5	0.018087724
159	0xbbc2a80c	-0.005940443
160	0xbdf73d4a	-0.12072237
161	0xbe0c7cda	-0.13719502
162	0xbd89d7f8	-0.06730646
163	0xbd1373f2	-0.035999246
164	0x3d01494d	0.031564046
165	0x3c90efb5	0.017692426
166	0x3cba4fbd	0.0227431
167	0x3bd7109f	0.0065632607
168	0xbd97d861	-0.07414318
169	0xbd877ea3	-0.06615951
170	0xbd0436bb	-0.032278758
171	0xbc404bf4	-0.011736859
172	0xbc877140	-0.016533494
173	0xbdbce4a6	-0.09223299
174	0xbdf9566d	-0.121746875
175	0xbd662561	-0.05618799
176	0xbcb90866	-0.022587012
177	0x3cb63a5a	0.022244621
178	0xbdde0bfc	-0.108421296
179	0xbe16ba13	-0.14719419
180	0xbd8d9a0d	-0.069141485
181	0xbd51cf28	-0.05122295
182	0x3e093b8b	0.1340162
183	0x3b1e545e	0.0024159173
184	0xbdea2511	-0.11432851
185	0xbdcfbcd7	-0.1014344
186	0x3dd214fb	0.10257908
187	0xbda0928e	-0.07840453
188	0xbe4d8d0b	-0.20073335
189	0xbb7ea78b	-0.0038857188
190	0xbd4537c5	-0.04814889
191	0x3dcf0018	0.1010744
192	0x3dd18710	0.10230839
193	0xbdab1e0e	-0.08355342
194	0x3d99f6d1	0.075177796
195	0xbd914387	-0.07092958
196	0xbe0f9191	-0.14020373
197	0x3bcf7612	0.0063312137
198	0xba8b388d	-0.0010621712
199	0x386f4ff1	5.705649e-05
200	0x3d959cf2	0.073053256
201	0xbdb34845	-0.08754019
202	0x3e392bec	0.18083161
203	0xbd799194	-0.06092985
204	0x3cf9db7b	0.030500164
205	0x3d80eb18	0.062948406
206	0xbe44d7ab	-0.19222896
207	0xbcb17c47	-0.021665705
208	0x3d619d92	0.05508191
209	0xbdda7b58	-0.10668057
210	0xbe3e62ee	-0.18592426
211	0x3e0d742a	0.13813844
212	0xbe08356c	-0.13301629
213	0x3e122721	0.14272739
214	0xbcef474b	-0.0292088
215	0xbe488cf0	-0.19585013
216	0x3e08bf95	0.13354333
217	0x3ca9147d	0.020639652
218	0x3e396c0e	0.18107626
219	0xbcb04d5b	-0.021521261
220	0xbd589d42	-0.052884348
221	0xbd03fcdb	-0.032223564
222	0x3d897f39	0.06713719
223	0xbda77b15	-0.08177773
224	0x3da0ba5c	0.07848045
225	0xbe1bcfe8	-0.15216029
226	0xbddffff2	-0.109374896
227	0xbe0f5d1e	-0.14000365
228	0x3de65148	0.11245972
229	0xbe24592f	-0.16049646
230	0x3d6fd7ea	0.05855552
231	0xbe1eab53	-0.15495043
232	0xbd9fe7f9	-0.07807917
233	0xbdeac48a	-0.11463268
234	0xbe339ab0	-0.17539477
235	0xbdc6896b	-0.09694179
236	0xbdc00871	-0.0937661
237	0x3c1a676a	0.00942407
238	0x3d7cb326	0.061694287
239	0xbd79963a	-0.060934283
240	0x3b8b11a3	0.004244046
241	0xbb393e57	-0.0028265917
242	0xbc5cba43	-0.013472143
243	0x3c873b70	0.016507834
244	0xbdaf7710	-0.08567631
245	0x3dbe465b	0.09290763
246	0x3d2eee44	0.042707697
247	0x3ccd6f14	0.02507738
248	0xbd60286b	-0.054726046
249	0x3bbfacb9	0.0058494476
250	0xbe6f30dc	-0.23358482
251	0xbc467983	-0.012113932
252	0xbe8586bf	-0.26079366
253	0xbd088029	-0.033325348
254	0x3e20712a	0.15668169
255	0x3d84ceb3	0.06484737

network_body.linear_encoder.seq_layers.2.bias f4 [128]
0	0xbcc5d968	-0.024151519
1	0x3ba11b5d	0.004916592
2	0x3c6807c7	0.0141620105
3	0xbcf4a1b8	-0.02986227
4	0x3ba5adeb	0.005056133
5	0xbd2033bc	-0.039111838
6	0x3c069fcf	0.008216812
7	0x3c112ded	0.008861047
8	0x3c4deced	0.012568695
9	0x3d50ef26	0.05100932
10	0x3cdd7f80	0.027038336
11	0xbdb25425	-0.087074555
12	0x3d957428	0.07297546
13	0x3ca30307	0.019898904
14	0x3b35b5de	0.002772681
15	0x3d232c40	0.039837122
16	0x3d3b4c18	0.045726866
17	0x3cbc9d2f	0.02302417
18	0x3ce44ab3	0.02786765
19	0x3be9f552	0.00713984
20	0x3cae9e73	0.021315789
21	0xbb998754	-0.004685322
22	0x3b70958b	0.0036710228
23	0x3ba6da12	0.005091914
24	0x3c2775ba	0.010220939
25	0x3c7d50b3	0.015461135
26	0xba480433	-0.000763002
27	0x3cac49a4	0.021031208
28	0xbc162dca	-0.00916619
29	0x3cc2a968	0.02376242
30	0xbc8723ad	-0.016496504
31	0x3c097fd3	0.008392292
32	0xb974bdac	-0.00023340312
33	0x3c19102b	0.009342234
34	0x3bb7c615	0.00560833
35	0x3bd356f1	0.006449573
36	0x3da955c8	0.082683146
37	0xbbed0886	-0.007233682
38	0xbc45778b	-0.012052427
39	0x3bf40e51	0.0074479957
40	0x3d12f569	0.035878573
41	0xbbe27e4c	-0.0069120284
42	0x3ceda527	0.029009415
43	0x3c11ea81	0.008906008
44	0x3b9ed671	0.0048473408
45	0xbd4e3db1	-0.050351802
46	0xbb52f3ba	-0.003218873
47	0x3c394c0d	0.011309636
48	0x3b882c6f	0.0041556875
49	0x3d0df4b3	0.03465719
50	0xbc8f788f	-0.017513542
51	0x3bb4c3a0	0.0055164844
52	0xbbf102d7	-0.007355075
53	0xbd817200	-0.06320572
54	0x3ca9be82	0.020720724
55	0x3c8a5eca	0.016890902
56	0x3cd75bd4	0.026288904
57	0x3d008d9b	0.031385045
58	0x3ca0e8fb	0.019642344
59	0xba19a99a	-0.00058617594
60	0x3cb92c19	0.022604035
61	0x3c7164c2	0.014733495
62	0xbc475bc3	-0.012167874
63	0x3ccf5c6f	0.02531263
64	0x3bb49a8a	0.0055115866
65	0x3c88093e	0.01660597
66	0x3cbea422	0.023271624
67	0x3ae83421	0.0017715731
68	0x3d3dc5c3	0.04633118
69	0x3d197d4d	0.03747301
70	0x3d2b0357	0.041751232
71	0x3c10dff5	0.008842458
72	0xbc29e6ee	-0.010369999
73	0x3ce0916b	0.02741309
74	0x3bde8781	0.0067910557
75	0x3d014554	0.031560257
76	0xbc3fe429	-0.011712112
77	0x3d37b6df	0.044852134
78	0x3d10454c	0.035222337
79	0x3c8362c8	0.016038314
80	0x3d3f2a37	0.04667112
81	0xbc80ce8e	-0.015723493
82	0xbbb262d3	-0.0054439097
83	0x3d461e4e	0.048368745
84	0x3db8e5de	0.09028219
85	0xbb3d6341	-0.0028898271
86	0x3a145a36	0.00056591944
87	0x3d4099e2	0.047021754
88	0xbc13efe6	-0.009029364
89	0xbbd8311e	-0.006597652
90	0x3c8eae86	0.017417204
91	0xbb8b1033	-0.0042438745
92	0x3d322b8d	0.043498565
93	0xbcab6539	-0.02092229
94	0x3d2ba081	0.041901115
95	0xbd99808d	-0.07495222
96	0x3c6c30cd	0.014415932
97	0x3d233da7	0.039853718
98	0x3cd32a36	0.025776964
99	0xb8ac9e92	-8.231135e-05
100	0xbbb8586b	-0.0056257746
101	0x3d0d2930	0.034463108
102	0x3c6c40bd	0.014419732
103	0xbbe75d06	-0.00706065
104	0xbd7b7cf8	-0.061398476
105	0x3d005a48	0.0313361
106	0x3c932748	0.017963067
107	0x3c534921	0.012895853
108	0x3d64e24b	0.055879872
109	0xbca84a11	-0.02054313
110	0x3c23478e	0.00996579
111	0x3cf09824	0.029369421
112	0x3d34692b	0.04404561
113	0xbbcdfdb7	-0.0062863487
114	0x3d57f4f5	0.052723844
115	0x3cc98adc	0.024602346
116	0x3d0e3230	0.03471583
117	0x3b88a276	0.0041697575
118	0xbc387d92	-0.011260407
119	0x3c01a24b	0.007912229
120	0xbc07b685	-0.008283262
121	0x3d28ba20	0.041193128
122	0xbbbd96aa	-0.005785783
123	0xbcc3414c	-0.023834847
124	0x3cb98a8b	0.02264907
125	0xbdc32b3e	-0.09529732
126	0xbc22247b	-0.009896393
127	0x3cadba3c	0.021206968

network_body.linear_encoder.seq_layers.2.weight f4 [128, 128]
0	0x3d9caf93	0.076506756
1	0xbe0b45b6	-0.13600811
2	0x3e1b43f6	0.15162644
3	0xbd01dbd9	-0.031703804
4	0xbd263bb0	-0.040584266
5	0xbd9d74a2	-0.076882616
6	0x3d227216	0.039659582
7	0xbdc4e266	-0.096134946
8	0xbd389fcb	-0.045074265
9	0x3e521691	0.20516421
10	0xbdf2e461	-0.11859966
11	0x3d91f1ab	0.07126173
12	0xbde90256	-0.11377399
13	0x3e2d8af8	0.16947544
14	0x3c81806c	0.015808307
15	0xbd64b8c9	-0.055840287
16	0xbc96c968	-0.018406585
17	0x3dbc21a4	0.09186104
18	0xbd188032	-0.03723163
19	0x3d5a7e7f	0.053343292
20	0xbd32eea7	-0.043684628
21	0x3daf18f7	0.085496835
22	0xbd10f93b	-0.035393935
23	0xbd8cb887	-0.06871133
24	0x3dc1d18e	0.094637975
25	0x3d7d39ea	0.06182281
26	0x3da9ae82	0.08285238
27	0x3dc48466	0.095955655
28	0x3de4d910	0.11174214
29	0x3ca5e6c5	0.020251641
30	0xbd541250	-0.051775277
31	0x3df3da15	0.1190683
32	0xbd4741e2	-0.048646815
33	0xbe544f45	-0.20733364
34	0x3e3308ed	0.17483874
35	0xbdcac409	-0.09900672
36	0xbb0260a3	-0.0019894026
37	0x3c1cd357	0.009571872
38	0x3d9ddf15	0.07708565
39	0x3dbd52f9	0.092443414
40	0xbca01f19	-0.019546079
41	0xbc971f2e	-0.018447485
42	0xbdd95223	-0.106113695
43	0xbdaed528	-0.0853675
44	0x3e21556c	0.15755242
45	0x3cdf01ce	0.02722254
46	0xbe1c8119	-0.15283622
47	0x3d45982f	0.048240837
48	0x3e027566	0.12740096
49	0x3d04789b	0.03234158
50	0xbdbb04f1	-0.09131802
51	0xbdf32981	-0.118731506
52	0x3cb079d5	0.021542469
53	0xbc105c9f	-0.008811145
54	0xbc0c23ca	-0.008553455
55	0xbddd408d	-0.10803328
56	0x3cdc43ae	0.026887741
57	0x3c3717e4	0.01117513
58	0xbe974829	-0.2954724
59	0x3d8d4242	0.06897403
60	0x3dbeedfc	0.09322736
61	0xbe291b42	-0.16514304
62	0x3c76a49d	0.015053895
63	0x3d6ecfe6	0.058303736
64	0x3e374cb9	0.17900361
65	0x3e0537aa	0.13009515
66	0xbcc101cc	-0.023560427
67	0x3c955c83	0.01823259
68	0x3d18598a	0.037194766
69	0x3e8c2966	0.27375335
70	0xbcea37fb	-0.028591147
71	0xbdb27f58	-0.08715695
72	0x3d830a88	0.06398493
73	0x3d74a21f	0.059724923
74	0xbe3b976a	-0.18319479
75	0x3e133987	0.14377414
76	0x3d8a537c	0.06754205
77	0x3cfe838c	0.031068586
78	0x3d7433c5	0.059619684
79	0xbc9b0a1a	-0.018925715
80	0x3d1ad1cb	0.03779773
81	0xbd3e3d56	-0.046445213
82	0x3d6715c6	0.05641725
83	0xbdda7f65	-0.1066883
84	0xbd2ca0ad	-0.04214542
85	0x3daeb5d7	0.08530777
86	0xbbe0e77d	-0.006863533
87	0x3e2c0615	0.16799195
88	0x3dd34698	0.10316199
89	0x3c36d4a7	0.011159099
90	0xbc98c98f	-0.018650798
91	0x3e46a894	0.19400245
92	0xbd0b3a1a	-0.033990957
93	0xbe151c68	-0.14561617
94	0x3d70ac6a	0.058758177
95	0x3dc36be6	0.09542064
96	0xbd52a7cc	-0.051429555
97	0x3ce1cb23	0.027562683
98	0xbd675592	-0.05647809
99	0x3c6023ac	0.01368038
100	0x3db7a5c8	0.08967167
101	0x3d98c8dd	0.07460187
102	0xbdc8bb3f	-0.09801339
103	0x3cfc6d65	0.030813882
104	0xbe300b6c	-0.17191857
105	0x3b242c9b	0.0025051
106	0xbc8f0ed7	-0.01746313
107	0x3cd90edd	0.026496345
108	0xbe46527b	-0.19367401
109	0xbd1c5bc2	-0.038173445
110	0x3d62b578	0.055348843
111	0xbcaedb10	-0.021344692
112	0xbcacab34	-0.02107773
113	0xbd440c7d	-0.047863472
114	0xbe3c9cc0	-0.1841917
115	0x3cdbb7fc	0.026821129
116	0x3dad8822	0.08473231
117	0x3dcbca00	0.09950638
118	0xbe1a0f7a	-0.15044966
119	0x3e0fa3c1	0.14027311
120	0xbc9f2b0a	-0.019429702
121	0xbd23c1b6	-0.03997966
122	0xbdaa3dc2	-0.083125606
123	0x3c9a402f	0.018829433
124	0xbd7a2fee	-0.061080866
125	0xbcb5a2bf	-0.02217233
126	0x3d07ccc1	0.033154253
127	0xbe49ea3e	-0.19718263
128	0x3c26ca5e	0.010180084
129	0x3e2fff74	0.17187291
130	0x3cbff55d	0.023432428
131	0x3d1b008a	0.03784231
132	0x3e0d3542	0.13789847
133	0x3e82b137	0.2552583
134	0x3d17d46d	0.03706782
135	0x3db4433c	0.088018864
136	0xbd5d6dfe	-0.054059975
137	0x3d003c2a	0.031307377
138	0xbd4741ff	-0.048646923
139	0xbd95ff4d	-0.073240854
140	0x3d2a5198	0.04158172
141	0x3d488e2d	0.048963714
142	0xbe02d550	-0.12776685
143	0x3dd4c627	0.10389357
144	0x3cfe990e	0.031078842
145	0x3dc3d012	0.09561171
146	0xbd2681c5	-0.0406511
147	0xbd3261f0	-0.04355043
148	0xbdffa5a5	-0.12482766
149	0x3d26f927	0.040764954
150	0x3d611fb9	0.054961894
151	0x3d76a002	0.06021119
152	0x3baa2607	0.0051925215
153	0x3d905657	0.07047718
154	0x3dfca411	0.12335981
155	0xbcd13934	-0.025539972
156	0xbdf74537	-0.120737486
157	0x3ca1963f	0.019724963
158	0xbe0cd1b6	-0.13751873
159	0xbe4b5109	-0.19855131
160	0xbd45df7f	-0.048308846
161	0xbb3deba2	-0.002897956
162	0x3e3bb870	0.18332076
163	0x3d0d3758	0.034476608
164	0x3c6d2193	0.014473337
165	0x3dca9236	0.09891169
166	0x3e033da2	0.1281648
167	0xbdf44e0e	-0.1192895
168	0x3d651bc1	0.05593467
169	0x3cac75a7	0.021052195
170	0xbd66793a	-0.056267954
171	0x3d169bd8	0.036769718
172	0xbc214921	-0.009844095
173	0xbd8d6358	-0.06903714
174	0xbdb3cd25	-0.087793626
175	0xbd7c9ae8	-0.061671168
176	0xbe43524e	-0.19074365
177	0xbd4b6f6b	-0.049666803
178	0x3d24325c	0.04008709
179	0xbdff4bf3	-0.12465658
180	0x3e7e5e1b	0.24840586
181	0xbd25890c	-0.0404139
182	0xbdca02ec	-0.098638386
183	0x3db6a4b1	0.08918131
184	0xbc7175be	-0.014737545
185	0xbe5a02ec	-0.21290177
186	0xbe064439	-0.13111962
187	0xbdfc7177	-0.12326329
188	0x3ce975d0	0.02849856
189	0xbe2c5962	-0.16830972
190	0xbe03f194	-0.12885123
191	0xbd6ef969	-0.058343325
192	0xbd6a8dc1	-0.057264093
193	0x3da53975	0.080676
194	0x3e156521	0.14589359
195	0xbe58b6ff	-0.21163557
196	0xbdb3a270	-0.08771217
197	0xbd997cd6	-0.07494514
198	0xbe5143a0	-0.20435953
199	0x3e030326	0.1279417
200	0x3d573620	0.052541852
201	0xbdcf8c2b	-0.10134157
202	0x3e2f8974	0.17142278
203	0xbd9fa899	-0.07795829
204	0xbe21693f	-0.15762804
205	0xbd363d3e	-0.044492
206	0x3e444ec2	0.19170669
207	0x3d40e98e	0.047097735
208	0x3ce74252	0.028229866
209	0x3d60a6e9	0.054846678
210	0xbc0b7fcb	-0.008514355
211	0xbb8bcd02	-0.004266382
212	0x3de23f10	0.110471845
213	0x3cf622e0	0.030045927
214	0x3b566ce1	0.0032718705
215	0x3dd8cc88	0.10585886
216	0xbd1e1ff4	-0.03860469
217	0xbe56df2f	-0.20983575
218	0xbd9330c7	-0.07187038
219	0x3d980f70	0.074248195
220	0xbca03bb6	-0.019559722
221	0xbe1a5a59	-0.15073527
222	0xbde4cfd9	-0.11172456
223	0x3dd59ed0	0.10430682
224	0x3c8dacbe	0.017294284
225	0x3d3e6752	0.046485253
226	0xbd7419da	-0.059594966
227	0xbe371059	-0.1787733
228	0xbd179838	-0.0370104
229	0xbe0d9c9c	-0.13829273
230	0x3e08e7fa	0.13369742
231	0x3e62d62a	0.2215201
232	0xbe1374c4	-0.14400011
233	0x3c48fbe7	0.012267089
234	0x3c8f36d2	0.017482195
235	0x3d5746a0	0.052557588
236	0xbd6aedec	-0.057355806
237	0x3e089ec1	0.1334181
238	0x3e578ca0	0.21049738
239	0x3d615592	0.055013247
240	0xbe4b2c61	-0.19841148
241	0x3d9e7204	0.077365905
242	0xbe2d0362	-0.16895822
243	0xbaee990b	-0.0018203569
244	0x3b5015b0	0.0031751208
245	0xbe912f27	-0.28356287
246	0xbdb6e641	-0.08930636
247	0xbe6b17ef	-0.22958349
248	0xbe7346e5	-0.23757513
249	0x3d0cc0d6	0.03436359
250	0xbcddb1aa	-0.027062256
251	0x3e0faafb	0.14030068
252	0xbe18adc2	-0.14910033
253	0xbcaf347a	-0.021387327
254	0xbbd62c35	-0.0065360316
255	0xbdae9581	-0.08524609

network_body.linear_encoder.seq_layers.4.bias f4 [128]
0	0x3ba9ba95	0.005179713
1	0xbd841ccb	-0.06450804
2	0x3b3188ca	0.002708959
3	0x3cbdd66d	0.023173535
4	0x3c74c5cc	0.014939737
5	0x3ce91db7	0.028456552
6	0xbccd949d	-0.025095278
7	0xbd7ac584	-0.06122352
8	0xbc823cba	-0.015898097
9	0x3c6089ea	0.013704756
10	0xbd05d707	-0.03267577
11	0xbe239dc1	-0.15978147
12	0xbc86265d	-0.016375715
13	0x3d2c4c17	0.042064752
14	0xbb8a4461	-0.004219577
15	0xbd4a5eb1	-0.04940671
16	0xbc97104d	-0.01844039
17	0x3d0a0599	0.033696745
18	0x3cdae283	0.026719337
19	0x3ceaf714	0.02868227
20	0x3b97990d	0.0046263994
21	0x3c050a86	0.008120185
22	0xbbc5928b	-0.006029432
23	0xbbed708f	-0.007246084
24	0xbcaba4d0	-0.020952612
25	0xbd2c421a	-0.042055227
26	0x3c904865	0.017612645
27	0x3cc116f2	0.023570511
28	0xbc4d18f8	-0.01251816
29	0x3b4100bf	0.0029449908
30	0xbd6fd4c5	-0.058552522
31	0xbd0dcea1	-0.034620885
32	0x3b17091f	0.0023046208
33	0xbc095369	-0.008381703
34	0xbd8f51d6	-0.06998031
35	0xbd71d0b5	-0.05903693
36	0x3baff851	0.005370178
37	0x3c2f4daf	0.010699674
38	0x3cc43fcf	0.023956208
39	0xbcaf938b	-0.021432659
40	0xbcd7fbfc	-0.026365273
41	0xbd2b03b7	-0.04175159
42	0xbc906aff	-0.017629145
43	0xbc90092b	-0.017582497
44	0xbe206ea8	-0.15667212
45	0x3d7ac81a	0.061225988
46	0xbcd62042	-0.026138429
47	0xbd9f2df9	-0.077724405
48	0xbc6bd763	-0.014394614
49	0xbcdb97f7	-0.02680586
50	0x3d801820	0.062546015
51	0x3db04e1e	0.0860865
52	0xbdd993ee	-0.106239185
53	0x3c443081	0.011974455
54	0x3d94e953	0.072710656
55	0x3caf1df8	0.021376595
56	0x3bf49664	0.007464217
57	0x3c9ebf41	0.019378306
58	0x3d500522	0.050786145
59	0x3baa8193	0.0052034347
60	0xbce80b5d	-0.028325731
61	0x3d7cc47c	0.06171082
62	0x3d0a891f	0.033822175
63	0x3d1c7666	0.03819885
64	0x3cf8e7e2	0.030384008
65	0x3c9e5608	0.019328132
66	0x3c5f6c06	0.013636595
67	0x3d278b7a	0.0409045
68	0x3d6bd0d1	0.05757219
69	0xbc3de267	-0.011589623
70	0xbd3ce83a	-0.046119906
71	0xbcc6e9ee	-0.024281468
72	0x3daac0ca	0.08337553
73	0xbc609477	-0.013707272
74	0x3ccfd1d5	0.02536861
75	0xbd7e9b05	-0.062159557
76	0xbb93ac88	-0.0045066513
77	0x3cd8518c	0.026406072
78	0x3bc84eec	0.006112924
79	0xbc48839c	-0.012238409
80	0xbd3a67cd	-0.04550915
81	0xbd419813	-0.04726417
82	0x3c2c439d	0.010514167
83	0x3d64ffe7	0.05590811
84	0xbcbdf19f	-0.023186503
85	0x3d98390b	0.07432755
86	0x3d2bcb83	0.04194213
87	0x3be8a9ed	0.007100335
88	0xbce7b243	-0.028283244
89	0xbc3b4de3	-0.011432144
90	0xbd05605c	-0.0325626
91	0x3c08d902	0.00835252
92	0xbbdead51	-0.0067955633
93	0xbb2222de	-0.002474002
94	0x3bc23136	0.0059262766
95	0xbda124d9	-0.07868356
96	0x3cdfa635	0.027300933
97	0xbc991ef5	-0.01869152
98	0x3cfd83bb	0.030946603
99	0xbde42ca7	-0.11141329
100	0xbc454451	-0.012040214
101	0x3da43b4f	0.08019125
102	0xbb92a70d	-0.0044754804
103	0x3be1bc6c	0.0068889167
104	0xbd493d8b	-0.049130958
105	0xbb59c37e	-0.0033228095
106	0x3d2acb0f	0.041697558
107	0x3ce12cd3	0.027487194
108	0xbc2072b5	-0.009792973
109	0xbe2c37ae	-0.16818115
110	0xbc87202e	-0.016494837
111	0xbaf08e55	-0.0018352965
112	0x3cd9d15d	0.02658909
113	0xbe05d680	-0.13070107
114	0xbcc28f24	-0.023749895
115	0x3d0f2743	0.034949552
116	0x3ca32f67	0.019920064
117	0xbe4037c6	-0.18771276
118	0x3b82ae60	0.0039880723
119	0xbcc34562	-0.023836795
120	0xbd890045	-0.066895045
121	0xba8e8391	-0.001087295
122	0xbc8d4946	-0.017246854
123	0xbd429c4e	-0.047512345
124	0xbd689cac	-0.05679004
125	0x3d30c19c	0.04315339
126	0x3c5f3d8a	0.013625512
127	0xbe0f0d46	-0.13969907
