Config/results/Env_PPO_44/EnvironmentAgentBehavior/EnvironmentAgentBehavior-17963120.onnx (onnx, 477297 bytes, 16 tensors)

action_model._discrete_distribution.branches.0.bias f4 [400]
000000 14 63 93 3c ed 00 6b 3d c0 4a e0 bd a6 43 19 bd
       0.01799158 0.05737393 -0.109517574 -0.03741803
000010 34 22 95 3d d9 97 f8 bc eb 1d 2b bc 83 b9 76 bc
       0.07281914 -0.030345844 -0.010444145 -0.015058878
000020 c5 06 8f bb 6b 3f 1f 3c 0b c4 aa bc 12 48 8a bd
       -0.0043648207 0.00971971 -0.020845434 -0.067520276
000030 6b f4 38 bd 03 3f c8 3d 12 7e 41 bc 84 a9 f6 3c
       -0.04515497 0.097776435 -0.011809843 0.030110128
000040 c1 43 62 3d 0f 72 7d 3d a9 ff e8 3c 5e 65 8e ba
       0.055240396 0.061876353 0.02844222 -0.001086395
000050 dc bf 25 3c aa ed 67 3d fb 7a 41 3c 3d 8e 47 bc
       0.010116544 0.05662314 0.011809106 -0.012179908
000060 7f 4b ba 3c e7 ce 11 3d 1c 6e 84 3d 58 9b 9e 3d
       0.022741077 0.035597708 0.06466314 0.07744473
000070 fc 78 32 3d 95 c8 17 3d 2e 6f 44 3d 13 8e 07 bc
       0.04357241 0.037056524 0.04795759 -0.008273619
000080 04 3f 16 ba ff f6 c3 3c f8 39 80 3d 7b da 81 3d
       -0.0005731436 0.023921488 0.06261057 0.063405
000090 34 80 0b 3d 27 52 0d 3d 61 eb f1 3c fe 17 ba bd
       0.03405781 0.034502175 0.029531183 -0.090866074
0000a0 14 1c 7f 3d 45 f1 79 3d 61 95 34 bd 45 24 b6 3d
       0.062282637 0.06102111 -0.04408777 0.088936366
0000b0 87 e3 cb 3d 64 d5 42 3d ca 77 99 bd 5a 92 37 3d
       0.09955507 0.047566786 -0.07493551 0.044817306
0000c0 80 28 36 bc 4a a4 5a ba 22 bb bb bc e9 f5 d0 3d
       -0.011118054 -0.0008340521 -0.02291638 0.10203154
0000d0 2a 4a 13 3d 17 76 a7 3c 15 77 fd 3b aa 6d 9c 3d
       0.0359594 0.020442052 0.007735143 0.07638104
0000e0 df 25 11 3d 60 de fa bc 88 31 d3 3d 5d 07 4f bd
       0.035436507 -0.030623615 0.10312182 -0.05054413
0000f0 fc 2d b1 ba f1 a4 cb 3d 57 22 12 3d 46 ca 83 3d
       -0.0013517733 0.099435695 0.03567728 0.06435065
000100 be 36 26 bd cf e2 d3 bb a8 cc 58 3c fb a7 d8 bb
       -0.04057955 -0.0064662467 0.013232388 -0.0066118217
000110 7d ba 47 3d 5d 90 f7 3d 38 ba 1b 3b 55 4d a9 bc
       0.048761833 0.12088082 0.0023762118 -0.020666758
000120 91 4b 2a 3c b2 45 92 3d e8 25 97 3c 2e a7 a7 3b
       0.010393993 0.071421996 0.018450692 0.005116365
000130 93 65 aa 3d 72 e6 ce bc 0a fb 7f bd 3a 57 41 3d
       0.08320155 -0.02525637 -0.06249527 0.047202326
000140 b1 8c 8c 3d b0 a3 fb 3c ca 47 64 3d 31 ff c2 bc
       0.06862772 0.0307177 0.055732526 -0.023803325
000150 40 a3 8b 3d 2e c6 ac 3d 5f d4 8d bd 27 65 30 3d
       0.06818247 0.08436237 -0.06925272 0.043065216
000160 1c f1 40 bc d3 e2 a5 3d 1b 23 3f 3c cc 58 5d 3d
       -0.011776235 0.08099904 0.011666085 0.05403976
000170 39 06 b3 3c 65 57 cd 3d c0 29 0d 3d 22 8f 75 bc
       0.021853553 0.10026435 0.034463644 -0.014987739
000180 80 9e c6 3b de f1 d0 3c 10 80 42 3d 4e 0f ed bc
       0.006061375 0.025505956 0.04748541 -0.028937962
000190 68 84 a0 3c 90 89 07 bd 5a 9b fe bb 3a 8b b3 3c
       0.019594386 -0.033090174 -0.007769984 0.021916974
0001a0 b9 ac cf bd 77 6f 34 3c ef 5c 70 3d 41 98 90 3d
       -0.10140366 0.011012903 0.05868238 0.0706029
0001b0 7b 72 94 3d 54 30 5a 3d cb 87 d9 3d 68 b9 48 3d
       0.07248398 0.053268746 0.106216036 0.049004942
0001c0 4e d4 e3 3c ba de 2c 3d da 25 cf bc 5e 59 6e 3d
       0.027811196 0.042204596 -0.025286604 0.058190696
0001d0 ae aa 2a bc 1a a1 d1 3d 04 6e 56 bb 00 d9 4e bc
       -0.01041667 0.10235806 -0.0032719383 -0.012624979
0001e0 2e 15 56 3d 68 34 8a 3c bb da 67 bc bb 59 db 3c
       0.052266292 0.016870692 -0.0141512705 0.026776185
0001f0 52 44 0a 3a 0e 67 89 3d d9 19 8c 3b 9d 52 51 bc
       0.0005274463 0.06709109 0.004275542 -0.012776044
000200 48 50 73 3d 93 86 b2 3c 4b 40 56 bd 10 31 04 3c
       0.059402734 0.021792686 -0.05230741 0.008068338
000210 3a 1c 0c bc 7b 1b f0 3c 50 0a 1f 3c 8e bf 54 3d
       -0.008551652 0.029309979 0.009707049 0.051940493
000220 15 05 7c 3d 6c a3 83 3c 6f 42 eb 3b b0 e1 11 3d
       0.061528284 0.016069137 0.0071795504 0.035615623
000230 ba d0 05 3d 55 59 9a 39 3c 6e 0c 3d c3 f6 27 3d
       0.03266976 0.00029439726 0.034284815 0.041006815
000240 a6 6d bc 3d 67 39 29 3d 00 58 00 be 9b 23 01 3d
       0.09200601 0.04131451 -0.1253357 0.031528097
000250 db 3b 0b bd 78 09 68 3c a8 e0 81 bc fd e9 8f 3c
       -0.03399263 0.014162414 -0.015854195 0.017567629
000260 e4 86 49 3d 93 51 2e bd b7 d5 c2 bc 4a 1a 0b bd
       0.049200907 -0.042558264 -0.023783548 -0.033960618
000270 f0 9a cb bc e7 bb a7 3d 8b a7 96 3c 1e 5b 92 3d
       -0.024854153 0.081901364 0.018390438 0.071462855
000280 a2 80 86 bc 3a 81 50 3d 80 5e 44 bc 77 07 85 3d
       -0.016418759 0.05090449 -0.011985421 0.064955644
000290 ec c6 1f bd 5a 5d 28 3c 67 57 55 3c d4 a9 a4 bb
       -0.039008066 0.010276163 0.013021327 -0.005025128
0002a0 7f cf df 3d 33 74 6a 3d 3b 47 e6 3d db fc 0a bd
       0.109282486 0.057239722 0.11244055 -0.033932548
0002b0 ee 9d 01 bd d5 fa a2 3d 41 7b ac 3c 46 7f fe 3c
       -0.031644754 0.07957999 0.021054866 0.031066548
0002c0 c0 12 6e 3d 9c 3b 63 3d f2 97 c2 3d 95 96 b5 ba
       0.05812335 0.05547677 0.095016375 -0.0013854081
0002d0 f4 3c 6b 3d 8f 9d 19 3c bd d9 42 3d 2c 58 94 bc
       0.057431176 0.009375944 0.047570933 -0.01810845
0002e0 96 7d 77 3d cd e2 39 3d e7 7c 79 3d 2f 67 43 bd
       0.060422502 0.04538231 0.06091013 -0.047705825
0002f0 1d 23 8d 3d c9 73 82 3d b9 6d 8d 3d 5c a9 5f bd
       0.06891463 0.063697405 0.069056936 -0.054604873
000300 0a 06 69 3c a6 f8 91 3d 3b 20 03 3d 29 d7 3e 3d
       0.014222631 0.07127504 0.03201316 0.04659191
000310 9d c9 01 3c 69 e2 ee 3b a6 6a 0f bc 98 a6 7b 3d
       0.0079216035 0.007290174 -0.008753454 0.061438173
000320 b8 75 da 3c ad 80 53 bc ae 6e 0e 3d c3 41 d7 3b
       0.02666746 -0.012909097 0.03477352 0.0065691187
000330 57 94 3e 39 db 3a f9 bb 9d ce e5 bc 1f 72 f5 ba
       0.00018175073 -0.007605893 -0.028052622 -0.0018726027
000340 f9 50 ea 3d 6a f1 83 3d a3 c7 40 bc b0 57 24 3d
       0.114412256 0.064425305 -0.011766347 0.040122688
000350 19 e3 a6 3c 88 13 02 3e 1b 1e f8 3c 61 b3 9e 3d
       0.02037196 0.12702763 0.030287793 0.077490576
000360 7d 03 16 bb e4 cb 06 3b d5 c0 15 3e 08 de c1 3c
       -0.0022890263 0.0020568306 0.14624341 0.023665443
000370 ff 77 62 3a bf 80 dc 3b 43 1c 4c 3c 92 d0 13 3c
       0.00086390966 0.006729215 0.01245791 0.009021895
000380 7d 33 39 3d 43 04 84 3d d7 12 bf 3c 59 35 f7 3d
       0.04521512 0.06446125 0.023324413 0.12070722
000390 c2 66 3c 3d 0f d9 6f 3d 7b b8 43 3d 58 6f 36 3b
       0.045996435 0.058556613 0.047783356 0.0027837362
0003a0 00 65 06 3e 7d 0d 2c bd 21 2d 04 bd d9 3a 0b 3d
       0.13124466 -0.04200505 -0.0322696 0.03399167
0003b0 37 31 ea 3c a1 28 4e 3d 39 c2 75 bd 6f bb 18 bd
       0.02858792 0.050331715 -0.05999968 -0.037288126
0003c0 ab 7e f5 3c 4e 9b 84 bd a3 ac 14 3b fa dc b4 bc
       0.029967627 -0.064749345 0.0022685907 -0.022078026
0003d0 ad 82 7e 3d d6 5d a4 bc 86 ca f1 3c 93 71 25 bc
       0.06213634 -0.020064276 0.029515516 -0.010097879
0003e0 64 10 85 bd 72 24 84 bc 4c bb bd 3d 07 ec 61 3d
       -0.06497267 -0.01613066 0.0926424 0.055156734
0003f0 d5 b8 83 3d cc 2d f2 3d 0c 18 83 3d 66 cc 7a 3d
       0.06431738 0.11825141 0.06401071 0.061230086

action_model._discrete_distribution.branches.0.weight f4 [400, 128]
000000 80 92 a3 3d c7 7a 6f 3c 7b e9 a5 3c 5d 2b 8c bd
       0.07986927 0.014616675 0.020252934 -0.068442084
000010 80 14 40 3d 2a dc 62 3d 62 c4 21 3d 4e bc 69 3d
       0.04689455 0.055385746 0.039493926 0.057064347
000020 e3 88 85 bd df ef 25 3d 69 6a 04 3d 8f d1 12 3b
       -0.0652025 0.040511962 0.032328043 0.0022402739
000030 39 77 ad 3d 89 19 6d bb a3 8a 59 3b 54 aa f1 3b
       0.084700055 -0.003617855 0.0033194206 0.007375041
000040 eb 23 86 3d d7 09 4c bd 37 30 a8 3d 49 2e b6 bb
       0.065498196 -0.04981407 0.08212321 -0.005559717
000050 47 4d 7e 3c 67 11 f6 bc 65 d9 aa 3d 49 7a 9b bc
       0.015521354 -0.030037595 0.08342246 -0.018979209
000060 7d 56 81 bd 86 b6 3b bd a4 d8 bd bd fc 77 0e 3c
       -0.063153245 -0.045828365 -0.092698365 0.008695599
000070 9a 24 17 3d 6f 6a 47 3d 0f ff e7 3c dd e0 e1 bc
       0.03690014 0.048685487 0.028319864 -0.027573043
000080 5f 81 fb bc 16 ec c4 bd 8d c6 ec bc af ca 37 3c
       -0.030701337 -0.09615342 -0.02890327 0.011217757
000090 ac 11 1d bb 5b d0 33 3d 03 d0 1b 3d af f8 49 3d
       -0.0023966832 0.043899875 0.038040172 0.04930943
0000a0 17 71 8d bd 66 c8 f2 bc 0e cf 8d 3d 3a 62 c7 3b
       -0.06906336 -0.029636573 0.06924258 0.0060847076
0000b0 5b 4f 0d 3d e7 de a6 3c e8 7f e8 bc e7 38 e8 bc
       0.034499507 0.02036996 -0.028381303 -0.028347446
0000c0 25 0a 31 3c 82 9b 12 3d 19 14 0a bd c8 15 64 bd
       0.010805641 0.035792835 -0.033710573 -0.055684835
0000d0 8b b5 cd bc e6 de 2d 3d bb 72 f3 bd 9a 8c 4c bd
       -0.02511098 0.0424489 -0.118871175 -0.049938776
0000e0 49 54 8c bd 80 dd 8f bc 2f b5 69 3c 4d 4d 9b 3d
       -0.068520136 -0.017561674 0.014264389 0.07583103
0000f0 61 29 49 bd a1 cb 3f 3d 18 c2 23 bd 41 79 3d bd
       -0.049111728 0.046825055 -0.039980024 -0.046258215
000100 08 a8 e5 3c 9b c2 03 3c 3e 13 42 bb c3 24 15 3d
       0.028034225 0.008042003 -0.002961352 0.03641201
000110 52 06 fd 3c 93 76 8f bb d0 58 22 3c 2b 61 00 3d
       0.030886803 -0.004378149 0.00990887 0.031342667
000120 c6 f7 ca bd da 5a c2 bc 34 86 17 bd bc ad 24 bc
       -0.0991054 -0.023724962 -0.03699322 -0.010051187
000130 b2 a8 76 3d 47 61 05 bc 88 a8 b1 b9 ab 59 fd bc
       0.060219474 -0.0081408685 -0.00033885636 -0.030926546
000140 01 60 0a bc 76 bd 16 3d 17 a3 16 3d ce f9 03 be
       -0.008445741 0.036801778 0.03677663 -0.12888262
000150 a0 1a 20 bd c5 fa b9 bd 8c fc 86 3b 4d 01 8a bd
       -0.03908789 -0.090810336 0.0041194614 -0.06738529
000160 47 b3 67 bb 12 a3 ec bc 6e 36 96 bd 96 b5 73 bd
       -0.003535466 -0.028886352 -0.073346004 -0.059499346
000170 45 e2 9e bd 9f f8 42 bd 4e 31 97 bd 4b a8 95 bd
       -0.07758001 -0.047600385 -0.07382451 -0.0730749
000180 0e de a0 3d 3f 62 6c bd 2e fa c8 3b 2e 09 23 3d
       0.078548536 -0.057710882 0.0061333394 0.039803676
000190 4e d5 37 bc f6 82 eb bd 4c bf ff 3c a6 e3 61 bd
       -0.011220289 -0.11499588 0.031219147 -0.055148743
0001a0 a6 1b 8e 3b b4 f4 61 bb 4f 1d ce bc 39 af 6b 3c
       0.004336792 -0.003447813 -0.02516046 0.014385038
0001b0 56 11 c8 3d a6 a6 75 3d d1 81 c9 3b 9a 58 0d 3d
       0.097689316 0.05997338 0.0061495085 0.034508325
0001c0 a3 a2 9a bd 61 3a ab 3c a6 ec e5 bc a6 a5 78 bd
       -0.07550552 0.02090186 -0.028066944 -0.06070485
0001d0 68 3a 2b bd 1f 44 96 3d 45 c1 e6 3c 6b 59 9b bd
       -0.041803747 0.07337212 0.02816833 -0.075854145
0001e0 de 91 50 3d 6f 1e 95 bd 22 6e 96 3d 26 d0 88 bc
       0.05092036 -0.07281195 0.07345225 -0.016700815
0001f0 79 18 f4 3b bb d5 45 3b e5 52 5c bd d8 f5 9f bc
       0.0074492064 0.0030187208 -0.053789992 -0.019526407
000200 a9 f1 80 bd 13 9a 85 bc ab c8 b0 3b d9 ac cd 3d
       -0.06296093 -0.01630882 0.0053950152 0.10042734
000210 61 e2 a3 bc a2 9a b0 bc 98 3e 49 bb 70 2e 84 bd
       -0.020005407 -0.02155811 -0.0030707475 -0.0645417
000220 6a 25 76 3d b9 b8 09 bd 43 ab 89 bd ad 68 b3 bd
       0.060094275 -0.03362343 -0.06722119 -0.087602
000230 da 4a 0e 3d f7 83 ba 3d b3 5b 55 3c e8 47 db 3d
       0.034739353 0.091072015 0.013022351 0.107070744
000240 13 ba 29 bc f2 53 7f 3d 49 80 77 3d 6a 9e b2 3d
       -0.010359305 0.062335916 0.060425077 0.08721621
000250 3f 8c 26 ba 2a 04 c6 ba 82 46 10 bd b6 a6 bc bc
       -0.0006353296 -0.0015107442 -0.03522349 -0.023028713
000260 f9 6f 04 3e c3 67 2a 3e d8 30 1d bd 0b c1 37 3d
       0.12933339 0.16641144 -0.03837666 0.044861834
000270 ea 97 88 bd 43 65 b7 3c 6a 25 82 bc 21 ef 77 3d
       -0.066696 0.022387153 -0.015886981 0.060530785
000280 4b 8a 3e ba 7d 7a e0 3c 1f 82 19 3a df 8d c7 bd
       -0.0007268532 0.027402157 0.00058558764 -0.09743857
000290 59 79 9f bd bd 96 cd bd 7c 6d b8 bd ac 68 fa bc
       -0.07786817 -0.10038517 -0.090052575 -0.03056749
0002a0 de d3 29 3e b6 0a 54 bc 1f 98 b3 bc 69 79 09 3d
       0.16584727 -0.012942007 -0.021923123 0.03356305
0002b0 86 b2 c2 bd 95 37 da 3c 30 47 bf 3d 78 12 d2 bc
       -0.09506707 0.026637832 0.0933975 -0.025643572
0002c0 99 40 33 bd 77 23 07 3c b6 e5 5e bd 01 58 a8 3d
       -0.043762777 0.008248202 -0.05441829 0.082199104
0002d0 13 95 5b bd c9 0f fd bb 82 64 e7 3d 4a c8 1c bc
       -0.053608965 -0.007722829 0.11298467 -0.009569237
0002e0 16 97 2c 3e 0d 93 b5 bd fd 32 c8 3d f2 47 1e 3d
       0.1685451 -0.08865938 0.0977535 0.03864283
0002f0 88 b1 3b 3d 2a 4e 07 bc e6 a2 ab 3d 8a a6 95 3d
       0.045823604 -0.008258382 0.0838068 0.073071554
000300 15 0a 6e bc fa 23 42 3c 82 28 27 3d 48 0b 67 3d
       -0.014528771 0.011849398 0.040810116 0.056407243
000310 94 2f 72 3d 36 d1 25 3c a6 07 15 3e e0 74 d0 bc
       0.059127405 0.010120681 0.14553699 -0.025446355
000320 e4 02 28 3d fe f3 98 3d c4 b4 77 bd 31 b0 ec 3d
       0.04101838 0.07468413 -0.060475126 0.11557043
000330 fe 2f 00 be 64 cc d0 3c 19 9d 21 3e 56 b2 7a bc
       -0.12518308 0.025488086 0.15782584 -0.015301308
000340 2a c4 1f bc 61 7a c6 3c 8f a9 0e 3d 1b 1a 92 3d
       -0.009751359 0.024228277 0.034829672 0.071338855
000350 16 3e a2 3d 93 fe 74 3d 02 5c 0e bd 36 54 c3 3c
       0.07921998 0.059813093 -0.034755714 0.023843866
000360 5d 7f 78 3d e1 24 c6 bd ad 8a 84 3d 58 29 f8 3c
       0.060668338 -0.09675003 0.06471763 0.030293152
000370 73 7b f1 bc d5 94 65 3d 2c 5f 64 3d d6 7b 0b 3e
       -0.02947781 0.05605014 0.055754825 0.13621458
000380 6c df 08 3d 0d 19 be 3d 68 80 22 bd 0a da e0 bd
       0.033416197 0.09282122 -0.03967324 -0.10979088
000390 32 9d 80 3c e7 cf 09 3d a6 0a 99 3d 7b 54 57 3d
       0.015699957 0.033645537 0.07472734 0.0525708
0003a0 4b b9 74 bd 44 a4 1f be 20 74 f8 3d f9 f6 ae bd
       -0.05974702 -0.15590006 0.12131524 -0.085432
0003b0 f1 d9 6f bc 61 66 09 be b8 68 16 3d 6f 9a 9d bd
       -0.014639364 -0.1341796 0.03672096 -0.076954715
0003c0 6f 2f 40 3d 66 8d ca bd 9b 8d 07 3e 47 92 ef bc
       0.046920236 -0.09890251 0.13237612 -0.029244555
0003d0 57 e9 fa 3c 79 74 f5 bd df 0c bc bc 9e ca 59 bd
       0.030628843 -0.11985106 -0.022955356 -0.053171746
0003e0 73 65 81 bd 24 f7 d7 3c 17 77 83 bd 25 b5 20 3d
       -0.06318178 0.026362963 -0.06419199 0.039235253
0003f0 34 28 0e be f8 da 08 be b8 84 e0 3c 80 0d 50 bd
       -0.13882524 -0.1336478 0.027407035 -0.050794125

action_model._discrete_distribution.branches.1.bias f4 [2]
000000 6e 65 cf bd 6d 65 cf 3d
       -0.10126768 0.10126767

action_model._discrete_distribution.branches.1.weight f4 [2, 128]
000000 97 d2 49 bd fd de b2 bd b5 b8 ad bd ae 51 e3 bc
       -0.0492731 -0.08733938 -0.08482496 -0.027748909
000010 0f 6b ec bc 14 24 72 bd 25 08 d6 bd d3 e4 f3 bc
       -0.028859643 -0.059116438 -0.10450772 -0.029772198
000020 8a 66 7f bd 4e 6b cf bd 74 11 7c 3d a6 22 59 ba
       -0.06235365 -0.101278886 0.061540082 -0.0008283056
000030 71 af e4 bd de e8 8b bd e0 2b 4c bd 00 20 78 3d
       -0.11166275 -0.06831525 -0.04984653 0.060577393
000040 18 35 2c bc 80 af 76 3c 80 01 b5 bd 9a c9 6f bc
       -0.010510705 0.015056491 -0.08838177 -0.014635468
000050 1c 35 f8 bd 71 48 88 bd 36 08 df bd ac 56 42 bd
       -0.12119505 -0.06654442 -0.10890238 -0.047445938
000060 5d 1a b2 bd f8 a2 98 bd f9 13 81 bd ba 1a 78 3c
       -0.08696435 -0.07452959 -0.063026376 0.015143091
000070 18 e4 b5 bd 17 e9 02 be 0f a2 94 3d c0 20 f8 bc
       -0.08881396 -0.12784229 0.07257473 -0.030289054
000080 35 3d 6b 3c 7e 2c 22 3c c0 93 f4 bb f7 5d 9f 3c
       0.014357855 0.009898303 -0.0074639022 0.019453986
000090 12 03 bb bd a8 0f c4 bd 5c 64 68 bd a7 cc 6b 3d
       -0.09131445 -0.09573299 -0.056736335 0.05756822
0000a0 f4 14 d4 bd 03 0d c3 3c 38 02 03 be f7 2c 05 be
       -0.10355559 0.023809915 -0.12793815 -0.13005434
0000b0 66 99 01 3c f1 2a 28 bd 43 3f 7a 3d c5 9a 7e 3b
       0.007910108 -0.041056577 0.061095487 0.0038849574
0000c0 32 7a 91 3d 20 16 e3 bd 06 d5 22 be 04 1d 0b bc
       0.07103385 -0.110882044 -0.15901574 -0.008490805
0000d0 8c 06 75 3d 31 1f 07 be 83 b7 d7 3c 95 fd 96 bd
       0.059820697 -0.13195492 0.026332622 -0.07372586
0000e0 5d 08 83 bd 24 7a 97 bd 33 55 87 3c 36 7d a6 bd
       -0.063980795 -0.07396343 0.016520118 -0.08129351
0000f0 8e 07 26 3d 24 67 43 bd ad 52 92 bd 78 d4 19 bd
       0.04053455 -0.047705784 -0.071446754 -0.03755614
000100 d0 cb de bc 00 ec d7 bc 91 ce f1 bd 6c 83 20 bd
       -0.027196795 -0.02635765 -0.118069775 -0.039187834
000110 11 1d 88 bd 9e 68 a2 bd ca 6f f6 3c 50 6a 58 3d
       -0.06646169 -0.079301104 0.030082602 0.052835763
000120 c6 02 b5 37 17 c5 28 3d dc 26 61 bd 3b 49 84 3d
       2.1578173e-05 0.041203585 -0.0549687 0.0645928
000130 80 04 84 bd 5c 60 1f be 93 72 47 bc 9a 0d 72 bc
       -0.06446171 -0.15564102 -0.012173313 -0.014773751
000140 9d 81 ae 3b 36 8c 61 bc 34 ee a9 bd 97 98 19 3d
       0.0053255097 -0.013766339 -0.08297387 0.037499037
000150 41 74 96 bd af a7 9f 3c 7d 0f e4 bc 5c b6 72 3c
       -0.073463924 0.019489137 -0.027839417 0.014813986
000160 17 d4 8e bd 1f 31 39 ba 26 ff 83 3d 7a 3a 8e bd
       -0.06974047 -0.00070645096 0.0644515 -0.06944747
000170 52 58 21 bd 34 60 71 bd 01 e2 06 3d 65 28 21 3b
       -0.03939087 -0.058929637 0.032930378 0.0024590727
000180 25 66 07 be c0 e4 01 bd 60 c9 d9 ba 56 1d a1 3c
       -0.13222559 -0.031712294 -0.00166158 0.019667309
000190 f9 a8 48 bb 62 a6 49 3d 74 fa 4f bd 95 f2 92 bd
       -0.0030618294 0.04923094 -0.05077596 -0.07175175
0001a0 5a bf e8 bc cf b2 4c bc 30 01 2a bd 8e c7 b7 bd
       -0.028411556 -0.012493803 -0.04150504 -0.08973609
0001b0 da 6c 06 be 31 3e b6 3c 0b c3 6b 3d 1c 37 b4 bd
       -0.13127461 0.022246452 0.057559054 -0.08799574
0001c0 cb ad 92 bb 01 03 cd 3b eb 50 9c bd 96 54 c0 bd
       -0.004476284 0.0062564616 -0.076326214 -0.093911335
0001d0 d8 32 b8 3c 0d b8 af 3c c0 67 c2 bd ac 36 7b 3c
       0.022485182 0.021450067 -0.09492445 0.015332859
0001e0 ec 8f d1 bd ac e4 67 bd 74 e6 ab bd 7c 3a 84 bc
       -0.10232529 -0.056614563 -0.08393565 -0.016141169
0001f0 c1 f7 b8 bd 3c 11 a2 bc 05 e6 81 bd e5 ff 97 bc
       -0.0903163 -0.019783609 -0.06342701 -0.018554637
000200 68 b7 6f 3d db 57 b0 3d bd 3b b8 3d 6b 2a bd 3c
       0.05852452 0.08610507 0.08995769 0.023091516
000210 e7 70 16 3d 02 97 53 3d 0d f5 e3 3d ae 83 11 3c
       0.036728766 0.051657684 0.11130724 0.008881493
000220 62 31 72 3d 40 a2 f6 3d b5 d5 a7 bd 72 f3 a8 ba
       0.059129126 0.120426655 -0.08195058 -0.0012889935
000230 32 ac 04 3e 47 56 a3 3d 24 90 2e 3d b1 9d a0 bd
       0.12956312 0.079754405 0.042617932 -0.07842577
000240 af ac a5 3c 66 31 14 bb fb 02 c2 3d 71 d3 52 3c
       0.020223944 -0.0022612452 0.09473225 0.012867794
000250 7a 24 f8 3d 81 23 5a 3d 57 39 f3 3d 98 b6 52 3d
       0.12116332 0.053256515 0.11876171 0.051443666
000260 e6 87 8b 3d 06 98 79 3d 35 ff 33 3d d4 86 3b bc
       0.0681303 0.060935996 0.043944556 -0.01144572
000270 3f dc b2 3d bf e9 fe 3d fb 99 7b bd eb 70 99 3c
       0.08733415 0.12446927 -0.061426144 0.018730601
000280 56 8a 44 3c 83 a6 da bb 59 0f 7b bb 9f cf dd bc
       0.0119958725 -0.006672682 -0.0038308708 -0.02707654
000290 b2 f4 cb 3d 9c 46 c1 3d f9 54 61 3d 8f 5e 4f bd
       0.09958781 0.09437296 0.055012677 -0.050627287
0002a0 73 92 e0 3d b5 93 86 bc fa 85 ca 3d 38 1f 0c 3e
       0.10965433 -0.016427854 0.09888835 0.13683784
0002b0 69 60 da bb ab 60 34 3d f8 39 7a bd 6d 76 4a 3a
       -0.006664325 0.044037502 -0.06109044 0.00077233353
0002c0 c3 81 9c bd 24 6c 01 3e c5 c0 0f 3e 8d 26 fe b9
       -0.076419376 0.12638909 0.1403838 -0.00048475378
0002d0 1c 39 32 bd e1 42 fd 3d 6d 10 99 bc 27 8b 56 3d
       -0.043511495 0.12366272 -0.01868459 0.0523788
0002e0 94 74 4c 3d 7e 6e 98 3d 40 3b cf bc 89 33 9b 3d
       0.049915865 0.0744295 -0.025296807 0.07578189
0002f0 2d 15 56 bd 5f be 58 3d 4b bc 58 3d 65 02 36 3d
       -0.05226629 0.052915927 0.052913945 0.044435877
000300 c3 3c 2e 3d c2 3a 4c 3d bf b4 de 3d a5 e2 32 3d
       0.042538416 0.049860723 0.10874318 0.043673176
000310 5c a7 60 3d fd 9d b3 3d 2e 86 49 bd 8b e4 59 bd
       0.054847106 0.08770368 -0.04920023 -0.05319647
000320 be a0 34 bc 0a ac 15 bd e4 43 36 3d be 16 75 bd
       -0.011024652 -0.036541022 0.04449834 -0.05983614
000330 90 01 5e 3d 7d 02 f7 3d f6 36 83 bb 8a 38 06 3d
       0.05420071 0.120610215 -0.0040043546 0.032768764
000340 b3 c8 87 3a 29 5d 00 3c 2a 83 bb 3d a2 63 4a bd
       0.0010359496 0.007834711 0.09155877 -0.049411424
000350 ff dd b6 3d c4 12 a9 ba aa 9a b6 3c 3a d6 7f bc
       0.08929061 -0.0012899269 0.022290546 -0.01561504
000360 92 ed b0 3d a5 8b 36 3c fc 75 88 bd c2 a4 2f 3d
       0.08639063 0.011141692 -0.06663129 0.042881735
000370 0e 1b 2c 3d 18 2d 83 3d 4d e4 15 bd 5f 33 30 bc
       0.04201799 0.06405085 -0.036594678 -0.010754435
000380 a5 3a 10 3e 7e 2c 16 3d aa 2d 1d 3c 05 b5 08 bd
       0.14084871 0.036663525 0.009593407 -0.03337576
000390 12 0f 2f 3c ea 5d 6d bd 67 8f fd 3c c7 f1 4e 3d
       0.010684745 -0.05795089 0.030952169 0.050523546
0003a0 a2 e2 fa 3c fb f6 56 bc 98 d6 05 3d 62 67 a2 3d
       0.030625645 -0.013120408 0.032675356 0.07929875
0003b0 da 67 0a 3e 17 e1 61 bc 1a 39 5b bd a9 97 94 3d
       0.13516179 -0.013786576 -0.053521253 0.072554894
0003c0 d7 2e 35 3c bf 7f c3 b9 be 8d ae 3d d3 32 82 3d
       0.011058531 -0.00037288477 0.08523129 0.0635735
0003d0 28 f6 00 bd 8e d7 b9 bc 8b 0c ba 3d 8d 08 e8 3b
       -0.031484753 -0.022685792 0.09084424 0.0070810975
0003e0 ad 62 b3 3d e3 67 75 3d de 69 85 3d 8f b5 60 3c
       0.08759055 0.059913527 0.06514333 0.013715162
0003f0 5b 53 b9 3d 88 8d f3 3c 25 01 38 3d 7a f2 95 3c
       0.09049102 0.029730573 0.044922967 0.018304098

network_body.linear_encoder.seq_layers.0.bias f4 [128]
000000 eb f0 a4 3c 88 7d ad 3b 5f ed 50 bd ac e4 6d bc
       0.02013441 0.0052945055 -0.051007625 -0.014519852
000010 15 af 4d 3b af fe 75 3a c0 1b a1 3b 10 98 43 bb
       0.0031384875 0.0009383959 0.004916638 -0.0029845275
000020 44 0c e3 3c 33 d5 eb 3c 03 25 69 3c 5c 6e fc 3b
       0.02771581 0.028788185 0.014230016 0.0077035856
000030 ac e2 19 3c 95 b6 95 bc ed 1b 91 3c 4d fe 82 bc
       0.009392422 -0.018275538 0.017713511 -0.0159904
000040 de 91 99 bd de a3 47 bd bf 1d 35 bd 8b e2 ac 3c
       -0.07498525 -0.04874026 -0.04421782 0.021104118
000050 cd fd 0f 3d 2e ce bd 3c 13 ec dc bb 9a 96 2f 3c
       0.035154153 0.023169603 -0.0067420094 0.010717059
000060 f0 15 8a bc a0 3e d4 3c 50 c9 06 3b 38 34 1d 3c
       -0.016856164 0.025908768 0.002056677 0.009594969
000070 9d 4f 24 bd f6 c2 0e 3c f2 90 51 3c 4c 16 9a bd
       -0.040114988 0.0087134745 0.012790905 -0.07523784
000080 40 d7 09 3d 95 c2 03 bd 45 15 05 3c f9 b8 8f 3c
       0.033652544 -0.03216799 0.008122747 0.017544257
000090 0a d9 2c 3c f0 95 17 bc 0e d6 7d bb 29 7b 65 bb
       0.010549793 -0.0092520565 -0.0038732323 -0.0035016036
0000a0 de ae 79 bd 9b a8 85 3c 38 a3 17 3c 6e 85 10 b9
       -0.060957782 0.016315749 0.009255223 -0.00013782617
0000b0 cb 6e 56 3b a9 51 1d 3d 98 1d 32 3d f2 7a 91 3c
       0.0032719846 0.038407955 0.043485254 0.01775882
0000c0 3d 08 fa 3c a0 25 54 bb 26 b9 0b 3c 21 ea f9 3c
       0.030521506 -0.003237106 0.00852803 0.03050715
0000d0 12 85 98 bc 28 66 18 3c 53 67 c3 3c 46 78 9a bc
       -0.01861814 0.0093017 0.02385298 -0.018856179
0000e0 0c 10 05 3d 9c 5e d3 3c 18 61 63 bc a8 25 9d bd
       0.032486007 0.02580195 -0.013878129 -0.07673198
0000f0 ec 79 6a bd 06 c5 38 3d 74 67 ea 3c be d2 8f 3c
       -0.05724518 0.04510977 0.028613783 0.017556544
000100 c5 b9 6b bd 4b 37 c3 3c cc e7 84 3c 0c d7 d8 3c
       -0.05755021 0.023830077 0.01622381 0.02646973
000110 cc b8 91 3a f9 32 21 bd a2 cb 4f 3b 92 75 4f 3c
       0.0011117696 -0.039355252 0.0031707068 0.012662308
000120 13 5c 3c bc c5 4b 30 3d 61 4b d7 bb 79 02 1b 3c
       -0.011496562 0.04304101 -0.006570265 0.009461039
000130 2a e1 a6 bd c2 2b a4 3c a0 20 f5 bb 68 98 0f 3d
       -0.081484154 0.020040397 -0.007480696 0.035057455
000140 26 e4 99 bc 49 ef 2a bc 58 d0 45 bd 5d a4 79 3c
       -0.018785547 -0.010433027 -0.048294395 0.015236941
000150 ee f9 17 3d 1d f5 1b 3c eb 77 cb bb 68 db b6 bb
       0.037103586 0.009518889 -0.0062093637 -0.0055803545
000160 2a 94 5c bd ae ec 49 3d 3f 0e 52 3d 75 6b cf 39
       -0.053852238 0.04929798 0.051283117 0.00039562178
000170 44 a7 83 bd ec 76 70 3d 47 0e 43 3d aa 3b 53 bc
       -0.06428388 0.058707163 0.047621038 -0.012892643
000180 ea 4c 6c bb cc 4c e6 3b b9 1c 2f 3d 89 8d c1 bc
       -0.0036056587 0.007028198 0.042752 -0.02362706
000190 58 83 68 3d cb eb f0 3c c4 70 4b 3b 7f 46 b3 bc
       0.056765884 0.02940931 0.0031042555 -0.021884201
0001a0 28 42 5b 3c 5e 98 53 3b ab 3a 2d 3d d4 a8 77 bd
       0.013382472 0.0032286863 0.04229228 -0.06046374
0001b0 cc 97 9c 3c 97 06 da bb 4b 4e 40 3c 0f d7 8f bc
       0.019115351 -0.0066536176 0.0117374165 -0.017558603
0001c0 b8 34 b8 3c 99 68 19 bb 3c 0c 11 3d 12 28 90 3c
       0.022486076 -0.0023408292 0.03541206 0.017597232
0001d0 24 99 12 3d 46 be c9 3c 08 4a a6 3c 34 fa 3c 3d
       0.035790578 0.024626862 0.020298973 0.04613705
0001e0 b5 ad 8f 3a de f2 84 3c 44 87 9a bc 66 c2 99 bc
       0.0010961803 0.01622909 -0.018863328 -0.018769454
0001f0 6a 16 33 3b fe c2 8c bd a8 68 92 3c da 56 bd 3b
       0.0027326592 -0.06873129 0.01787217 0.005778176

network_body.linear_encoder.seq_layers.0.weight f4 [128, 137]
000000 64 52 5f 3d 0b c7 56 3d f1 97 eb bd 18 23 c1 bc
       0.054521933 0.052435916 -0.1150359 -0.023576304
000010 65 82 9a 3c ac c3 cf bd dc 95 f6 bd e2 df 06 be
       0.018861005 -0.10144743 -0.12040302 -0.13171342
000020 ef 91 a7 bc b7 ef f1 bd 2a 45 a6 3d c8 63 d2 3d
       -0.020455329 -0.118133 0.08118661 0.10272938
000030 69 ed a9 bb 60 39 c1 3d bd aa d8 3c d8 22 2b bd
       -0.005185772 0.094347715 0.026448602 -0.041781276
000040 36 db c1 bd d3 fa 94 bd 95 72 7f bd bf db 91 bc
       -0.09465639 -0.072744034 -0.062365133 -0.017804978
000050 68 10 68 be 89 23 01 be 43 03 40 bc 6c 27 25 bc
       -0.22662508 -0.12611212 -0.011719528 -0.0100802
000060 8d 07 b0 3d d9 9c b9 bc c5 b1 c6 bd 92 e2 b7 3b
       0.0859519 -0.022657799 -0.097018756 0.005611726
000070 3d 8f 34 bd d3 8e 39 bd fc c7 00 3d b1 c5 03 3d
       -0.044081915 -0.045302223 0.03144072 0.032170955
000080 b5 90 bd 3d 2f 7b 51 bd 79 f9 46 be da 76 b1 3c
       0.09256116 -0.051142868 -0.19431104 0.021663118
000090 47 27 47 3c 9a 11 8e 3d 9d cc 30 bb 50 aa cd 3d
       0.012155361 0.06936951 -0.0026977428 0.1004225
0000a0 e2 bc c5 3c 67 b2 7c bd 81 92 97 3d 6f a5 f1 3d
       0.024137918 -0.061693575 0.0740099 0.11799132
0000b0 cb 6d 0f be 03 88 16 3e 5b 65 d1 bc 22 d8 b1 3c
       -0.14006726 0.14700322 -0.025561025 0.021709505
0000c0 55 c7 1e 3d a1 cc 02 3d b7 9a 1c bd 57 65 b0 3d
       0.038764317 0.03193343 -0.038233485 0.08613079
0000d0 fb 3a d1 3d da 24 f5 3d 1a f5 2f 3e 48 82 1c bd
       0.10216328 0.119699195 0.17183343 -0.038210183
0000e0 13 c4 b8 bd 56 bf cc 3c ce a1 4b be 5f 44 d8 bc
       -0.09021773 0.02499358 -0.19885942 -0.02639979
0000f0 f7 d8 ea 3c 7f ca 40 3b d3 8a 4f 3d 45 0a 5e 3d
       0.02866791 0.0029417572 0.050669502 0.054209013
000100 60 56 ca bd 6f cf 2c 3e 39 75 1b bd 0b 32 bd 3c
       -0.09879756 0.16876005 -0.03795359 0.023095151
000110 86 6a 7d 3e 9c 50 8b bd 37 e3 cd 3d b6 8f d8 3b
       0.24747667 -0.068024844 0.100531034 0.0066089286
000120 c8 e1 a4 3c 1b e3 11 bd 28 04 5d be 2a 02 08 be
       0.020127192 -0.035616975 -0.21583617 -0.13282076
000130 d7 89 78 bb f6 92 dd bd f2 80 af bd c5 88 bb 3c
       -0.0037923956 -0.10819046 -0.08569516 0.022892365
000140 e6 fc d5 ba 10 9e e7 3d 30 47 35 be 56 b5 2d bd
       -0.001632598 0.11309445 -0.17702937 -0.042409264
000150 38 94 6b 3d a1 02 66 3d d7 a9 ea 3b 7f 9a b0 bc
       0.0575144 0.05615485 0.00716136 -0.021558044
000160 84 1e 79 3d 9a 7b 37 3d 36 47 86 3d 21 59 a7 3c
       0.060820118 0.04479561 0.06556551 0.020428242
000170 3f 6e 13 3e 23 68 8c bd 80 ed ce bd 5e 7c 91 3d
       0.14397524 -0.068558 -0.10103893 0.07103799
000180 cb 7c f1 3d 01 01 bd 3a 0b 9e ba ba d9 dc 26 be
       0.117913805 0.0014419855 -0.0014237774 -0.16295184
000190 f6 9b 36 3c 54 fe 90 bd c3 bd 91 bd 6e d0 61 be
       0.011145582 -0.07079759 -0.07116272 -0.22052166
0001a0 d5 5f 23 bd 60 50 03 3e 4f dd 81 bd c9 2f 29 bb
       -0.039886314 0.1282363 -0.063410394 -0.0025815836
0001b0 f3 70 24 bd 10 f5 e2 3d 61 ba f3 bc 6b 8c f0 bd
       -0.04014678 0.11081898 -0.029751958 -0.117455326
0001c0 70 b9 5e 3e 8f b4 c9 bd 30 64 6f 3d aa 59 1f bd
       0.21750426 -0.09848892 0.058445156 -0.03890387
0001d0 49 01 5e bd a6 b9 fa 3d 4b 52 89 bd c1 b5 10 3e
       -0.054200444 0.12242441 -0.06705149 0.14131834
0001e0 fd 49 9d 3d 0d bf 8f bd 46 2d 09 be 1f 95 22 3d
       0.07680128 -0.07018862 -0.13396177 0.039692994
0001f0 67 8b 48 3b 64 0c 06 3e fe aa a6 3d 02 f3 15 bd
       0.0030600668 0.13090664 0.08138083 -0.036608703
000200 a8 4f 68 3e d5 80 1d be 11 d8 06 3b 4f 06 08 be
       0.22686636 -0.15381177 0.0020575563 -0.13283657
000210 f3 3d 21 3e 83 3f 8e 3c 06 35 84 be b1 3f 49 3c
       0.15746288 0.01736427 -0.25821704 0.012283252
000220 40 34 fe bc 1a 03 07 be 9d 0a 9e bd bf 19 1d 3e
       -0.031030774 -0.13184777 -0.07716868 0.15341853
000230 b3 67 c9 bc 4b 19 f0 bc ee 10 f7 bd 8b a6 52 bd
       -0.02458558 -0.029308936 -0.12063776 -0.05142836
000240 72 4b 0d 3d 58 e7 b2 bd 70 6f 32 3d bf f3 18 bd
       0.03449578 -0.087355316 0.043563306 -0.03734183
000250 ca ce 11 be 1b 26 8e bd e2 bf fe bd 60 12 ae 3d
       -0.1423904 -0.06940862 -0.124389425 0.084995985
000260 58 6e 9a bd 0d c6 fa 3c 21 75 b8 bd 31 79 98 bd
       -0.07540578 0.030612016 -0.090067156 -0.074449904
000270 03 bc 5f bc c2 36 18 be f2 b1 25 3c 0d 3f 27 bc
       -0.013655665 -0.14864638 0.010113226 -0.010207904
000280 7a a4 02 be e1 98 0c be e6 99 8a bd df 82 16 bd
       -0.12758055 -0.13730194 -0.06767635 -0.036745902
000290 97 9c d3 3c 4f a8 98 3c f3 4a ca 3c 06 10 95 3b
       0.025831504 0.018634943 0.024693942 0.0045490293
0002a0 23 95 9f bd 73 96 8e bd 4a 90 17 bd d7 e9 b8 bc
       -0.077921174 -0.0696229 -0.03700284 -0.022572441
0002b0 a2 50 83 bc a3 71 bc bd e5 09 07 be 66 94 65 bd
       -0.01602966 -0.09201362 -0.13187368 -0.056049727
0002c0 1f 33 b9 bc 1c 58 bb 3c c4 74 e8 bd a3 30 16 be
       -0.022607384 0.022869162 -0.11350396 -0.14666991
0002d0 0d 20 8c bd 6a d5 4d bd 3d 18 08 3e 92 63 01 bb
       -0.06842051 -0.050252356 0.13290496 -0.0019743186
0002e0 a9 21 f1 bd 7a e8 ca bd f3 8c d9 3d 37 93 a5 bd
       -0.11773998 -0.09907623 0.10622587 -0.0808472
0002f0 b5 77 4d be 47 3d 84 3a d0 ff 45 bd 7b 60 b4 3d
       -0.20065196 0.0010089063 -0.048339665 0.08807465
000300 9b 54 bf 3d cd df b2 bd 71 af 9f 3d 13 33 8e bd
       0.09342309 -0.08734093 0.07797135 -0.069433354
000310 99 00 10 be 06 ae 83 3a 8d 00 81 3b ed a1 60 39
       -0.14062728 0.001004637 0.0039368332 0.00021422627
000320 9d d1 86 3d e3 5f c0 bd 79 ea 3b 3e a1 32 6e bd
       0.06582949 -0.09393289 0.18351163 -0.058153752
000330 b9 31 f4 3c 4c 77 82 3d ea 70 43 be af 81 95 bc
       0.029808866 0.0637041 -0.19086042 -0.018250315
000340 c4 59 4f 3d c7 39 db bd 80 91 43 be ec 13 12 3e
       0.050622717 -0.107043795 -0.19098473 0.14265412
000350 0f 8e 03 be d4 2a 13 3e 96 cd 05 bd c9 34 4d be
       -0.1284716 0.14371806 -0.032666765 -0.20039667
000360 07 bc 01 3e 42 9d af 3c f3 ce 3c 3e f0 c8 e4 bc
       0.12669383 0.021437291 0.1843832 -0.027927846
000370 b0 ce 71 bd 82 9c 36 bd 5e 5f 8c 3d 2b df b7 bd
       -0.059035003 -0.04458285 0.06854127 -0.08978113
000380 1a 38 9f 3d 93 81 1b be 73 c1 e7 bd 5f 31 12 be
       0.077743724 -0.15186147 -0.113161944 -0.14276646
000390 14 1d ee 3d 6c d6 26 be dc 65 5e 3d 6a 56 1d be
       0.1162664 -0.16292733 0.05429636 -0.15364996
0003a0 2f db a3 bd 6d 09 e9 bd 76 fc 3c be 40 71 c3 bd
       -0.0800079 -0.11378751 -0.18455681 -0.09543085
0003b0 23 f1 c5 bd 19 95 18 3c c0 6a 84 3d d0 c5 7d bd
       -0.09665134 0.009312891 0.064656734 -0.061956227
0003c0 17 3d e9 b9 20 31 64 bb 4e cd 8c bc fb d7 83 3c
       -0.0004448674 -0.003481932 -0.01718774 0.016094198
0003d0 ae 60 b8 bd 5e 44 be 3d e0 e4 2d 3d c7 4d ce 3c
       -0.09002815 0.09290384 0.0424546 0.025183572
0003e0 11 11 54 bd c4 3a 8b 3b 72 69 74 be 97 48 57 bc
       -0.05177409 0.004248949 -0.23868349 -0.013139865
0003f0 c9 b9 85 be 9a f6 f5 bc e4 1b 21 3e a5 90 79 3d
       -0.26118305 -0.030024815 0.15733296 0.06092896

network_body.linear_encoder.seq_layers.2.bias f4 [128]
000000 56 5b a7 bc 49 83 a3 3b fe d9 85 3c 2e 5a 01 bd
       -0.020429295 0.0049900156 0.016339298 -0.031580143
000010 17 d5 36 3c 63 23 27 bd 2b 29 a1 3b 22 e0 ed 3b
       0.011159203 -0.04080523 0.0049182377 0.0072593847
000020 d6 7a a6 3c 5e ba 5f 3d cf df de 3c b6 fc b6 bd
       0.020322245 0.054621093 0.02720633 -0.089349195
000030 24 5d 94 3d ef fe cb 3c b2 ee 28 3b 2f ee 1f 3d
       0.07244328 0.024901835 0.002577704 0.03904551
000040 f9 60 42 3d ec f2 b2 3c 19 2a df 3c 0d df dd 3b
       0.04745576 0.02184435 0.027241753 0.0067709745
000050 4a 4c a2 3c 4e 96 d4 bb c8 ad d6 3b 09 49 86 3b
       0.019811768 -0.0064876443 0.006551478 0.004098062
000060 6a c2 08 3c cd b8 46 3c 58 6c 72 bb b7 94 b5 3c
       0.008347133 0.012129021 -0.0036990847 0.02216564
000070 60 41 ed bb ea f3 a9 3c cb a8 ba bc 0c fa 1f 3c
       -0.0072404593 0.02074619 -0.022785565 0.009764206
000080 0d b9 27 3b 20 df 49 3c 2c 6c 1f 3b 14 7a ad 3b
       0.0025592477 0.012321264 0.002432595 0.005294094
000090 33 9f a0 3d 2e 59 37 bc 6d aa 65 bc 76 17 31 3c
       0.07842865 -0.011190696 -0.014017683 0.010808816
0000a0 75 84 0f 3d 1f 60 82 ba 21 f6 e4 3c 0f 3f 11 3c
       0.03503843 -0.0009946859 0.027949395 0.008865132
0000b0 05 d6 74 3b 07 79 47 bd 45 78 90 bb 43 3c 7b 3c
       0.003735901 -0.048699405 -0.0044088685 0.015334192
0000c0 d8 6e 5a 3b 0a 56 16 3d b1 50 92 bc cd 1f 9b 3b
       0.0033330228 0.036703147 -0.017860742 0.0047340156
0000d0 da 50 e0 ba 35 4a 85 bd 64 fa db 3c 67 93 6f 3c
       -0.0017113939 -0.065082945 0.026852794 0.014622546
0000e0 41 6b d1 3c e4 2b fd 3c 3f cb b3 3c 7c 62 5f bb
       0.025563838 0.030904718 0.021947501 -0.00340858
0000f0 61 0e 98 3c 73 34 a7 3c d7 3e 35 bc ea 7b d7 3c
       0.018561544 0.020410752 -0.0110623455 0.026304204
000100 50 f6 9f 3b 72 56 92 3c 79 e0 b0 3c 2b 44 30 bb
       0.0048816577 0.017863486 0.021591412 -0.00268961
000110 e5 13 61 3d 4a 34 14 3d 29 7e 21 3d 7b 20 ef 3b
       0.054950614 0.03618268 0.039426956 0.007297573
000120 01 81 1b bc d2 fb f0 3c 45 11 b4 3b 57 9f c4 3c
       -0.009491206 0.029416952 0.0054952228 0.02400176
000130 b3 33 25 bc cf 4c 41 3d 5b ec 15 3d 82 93 35 3c
       -0.010083127 0.04719239 0.03660236 0.011082532
000140 2b d6 45 3d 55 c7 38 bc 1c ed d7 bb e8 1c 4f 3d
       0.04829995 -0.011277993 -0.006589545 0.050564677
000150 6d 2d b3 3d 93 5e 66 3b 27 54 3d bb a1 9f 52 3d
       0.08748899 0.0035151585 -0.002888927 0.051421765
000160 ef c3 22 bc 7f 72 9d bb 1a 7c 79 3c 1b d7 5b bb
       -0.0099344095 -0.0048049088 0.015227342 -0.003354496
000170 c6 d5 2b 3d 28 30 ac bc 14 e1 1d 3d 0e 3b a5 bd
       0.041951917 -0.021019056 0.03854473 -0.080679044
000180 3d 05 85 3c 09 99 2d 3d ca a6 be 3c 51 9d bb ba
       0.01623785 0.042382274 0.02327289 -0.0014313852
000190 1c 68 fe bb 23 f1 ee 3c 16 00 43 3c 86 e7 10 bc
       -0.0077638756 0.029167717 0.011901876 -0.008844262
0001a0 32 ad 73 bd 27 5a 14 3d b8 66 a3 3c d2 2a e2 3b
       -0.059491344 0.03621879 0.019946441 0.0069020772
0001b0 e6 93 6d 3d a0 e8 d1 bc 36 3e 49 3c 9e 0b ff 3c
       0.058002375 -0.02562362 0.012282899 0.03113347
0001c0 99 b2 3e 3d 6e 44 07 bc 8b 63 6d 3d ed 4e c2 3c
       0.046557043 -0.008256061 0.05795626 0.023719275
0001d0 12 66 0a 3d 4c 72 04 3c df 23 5b bc 90 11 a7 3b
       0.033788748 0.008083891 -0.013375252 0.005098529
0001e0 ce 44 2f bc 62 13 42 3d ee 44 d5 bb 92 66 cd bc
       -0.010697557 0.047381766 -0.006508461 -0.025073323
0001f0 bb d0 9f 3c e3 15 c3 bd a3 7e 0a bc 73 29 d7 3c
       0.01950871 -0.09525659 -0.008453044 0.026264882

network_body.linear_encoder.seq_layers.2.weight f4 [128, 128]
000000 3c bb 99 3d 0a 29 10 be bb 77 1e 3e 37 95 11 bd
       0.07506415 -0.14078155 0.15475361 -0.035542693
000010 2d 5a 3c bd b8 2e a5 bd 71 11 18 3d 16 02 cf bd
       -0.045984436 -0.080655515 0.03712601 -0.1010782
000020 7b 60 2d bd df 0f 56 3e 7f b8 f8 bd 7c 5f 88 3d
       -0.04232834 0.20904492 -0.12144565 0.06658837
000030 05 25 f5 bd 56 3f 2f 3e f5 4e a3 3c 5e 4a 74 bd
       -0.119699515 0.17114004 0.01993511 -0.059641235
000040 b5 09 75 bc 14 e9 c3 3d 73 04 42 bd 09 7a 6a 3d
       -0.014955928 0.095659405 -0.047367524 0.057245288
000050 00 35 29 bd d8 8f b3 3d 51 95 20 bd 09 42 97 bd
       -0.04131031 0.087676704 -0.0392049 -0.07385642
000060 a7 22 ba 3d 10 66 7c 3d 4d f5 a5 3d 0d a6 c5 3d
       0.09088641 0.061620772 0.08103428 0.09650812
000070 3b 88 ec 3d ef 39 bc 3c 3e 70 34 bd 8c 89 f8 3d
       0.115494214 0.022976844 -0.044052355 0.1213561
000080 6d 2d 49 bd b8 c9 57 be 36 43 32 3e 35 08 c1 bd
       -0.049115587 -0.21073043 0.17408451 -0.094253935
000090 96 2d cf ba c9 7c ac 3b 51 75 95 3d cd f4 c6 3d
       -0.0015806432 0.005263899 0.07297767 0.09714661
0000a0 66 fa ae bc 25 b2 98 bc 59 98 c1 bd 4f 6f b8 bd
       -0.021359634 -0.018639633 -0.09452886 -0.090056054
0000b0 1e 25 1f 3e 6c c0 14 3d 0b ce 17 be e4 d5 57 3d
       0.15541503 0.03631632 -0.14824693 0.052694216
0000c0 8b eb 07 3e 38 ef df 3c b1 26 c3 bd 34 b0 f9 bd
       0.13273446 0.027335748 -0.09528864 -0.12191811
0000d0 c6 70 94 3c 6d 78 04 bc 0c 96 57 b9 5b e3 e5 bd
       0.01812018 -0.008085352 -0.00020559895 -0.11225005
0000e0 3f b4 02 3d 9a 2e 62 3c ab 51 94 be cc 5c 93 3d
       0.031910177 0.013805056 -0.28968558 0.07195434
0000f0 dc 82 c4 3d fd 8f 25 be c0 a0 9b 3c 79 0b 73 3d
       0.09595272 -0.16168208 0.01899755 0.059337113
000100 5b e0 3b 3e 90 ec fa 3d 7f ac 95 bc 4f 6d ae 3c
       0.18347304 0.12252152 -0.01827073 0.021292357
000110 15 3a 24 3d 21 60 8d 3e 10 dd bf bc 29 65 bc bd
       0.040094454 0.27612403 -0.02342084 -0.09198982
000120 a5 ec 76 3d 15 30 82 3d e8 0b 37 be 12 02 17 3e
       0.060284276 0.06356827 -0.17875636 0.14746884
000130 96 00 93 3d ab b8 11 3d 75 c0 62 3d 58 f5 88 bc
       0.07177846 0.035576504 0.055359323 -0.016718552
000140 82 54 0d 3d ba 49 4a bd 44 b9 6e 3d 59 ec d2 bd
       0.03450442 -0.049386717 0.05828215 -0.10298986
000150 7d a6 3b bd 46 94 96 3d 58 09 0d bc c6 b9 28 3e
       -0.045813072 0.073525 -0.008608185 0.16477117
000160 4b 9d d8 3d a0 d1 52 3c 29 79 81 bc be 96 4a 3e
       0.10576876 0.012867361 -0.015804844 0.19784066
000170 9c c1 08 bd cd ae 11 be 75 60 84 3d 54 7c cb 3d
       -0.033387765 -0.14226837 0.0646371 0.09935823
000180 7a 59 69 bd 05 48 f6 3c a4 2f 64 bd 43 9d 72 3c
       -0.056970097 0.030063638 -0.055709496 0.014808002
000190 f7 c1 c0 3d 72 1b 9d 3d e2 19 d3 bd 23 fe e0 3c
       0.09411996 0.076712504 -0.10307671 0.027464932
0001a0 7d 5a 2d be fc 0b d9 3b 2c 20 8a bc 44 d4 fe 3c
       -0.1692905 0.006623743 -0.016861044 0.031107076
0001b0 ce bc 41 be f5 20 0c bd 1d 46 50 3d bb 34 ad bc
       -0.1891968 -0.034211118 0.050848115 -0.021143308
0001c0 79 2d 53 bc 35 f1 4c bd f0 f1 38 be c4 a9 00 3d
       -0.0128892595 -0.05003472 -0.18061042 0.0314119
0001d0 fc da a8 3d e6 65 d4 3d 33 a2 16 be e2 c3 13 3e
       0.08244893 0.10370998 -0.14710312 0.14430192
0001e0 d2 7c d6 bc d4 c7 04 bd fb 41 b5 bd d2 47 85 3c
       -0.026182566 -0.032417133 -0.088504754 0.016269598
0001f0 06 30 4e bd 31 e2 9e bc d5 ac 12 3d e7 93 42 be
       -0.050338767 -0.019394966 0.035809357 -0.19001733
000200 99 f6 3d 3c da 1f 2f 3e cc 17 c4 3c 23 70 19 3d
       0.011594438 0.17101994 0.023937128 0.037460458
000210 17 db 0b 3e 14 8c 82 3e 5c cb 17 3d 4f a3 b4 3d
       0.13657795 0.25497496 0.037059173 0.08820211
000220 bd b3 59 bd 54 1a 08 3d 79 0d 46 bd 1e 53 97 bd
       -0.053149927 0.033228233 -0.048352692 -0.073889
000230 ea 2c 26 3d 05 b4 49 3d 5f 09 02 be a3 74 d4 3d
       0.040570177 0.049243946 -0.12698887 0.10373809
000240 92 68 01 3d fb 67 c4 3d 0d b4 43 bd 1a aa 31 bd
       0.031593867 0.09590145 -0.04777913 -0.043375112
000250 f0 db fe bd b3 87 27 3d 7f c8 5f 3d 01 68 66 3d
       -0.124442935 0.040900897 0.054634567 0.05625153
000260 b5 10 9e 3b 98 65 91 3d 98 3c fd 3d d6 f1 ca bc
       0.004823769 0.070994556 0.12365073 -0.02477352
000270 77 13 f5 bd 99 92 a2 3c 03 80 0a be e4 70 4b be
       -0.11966603 0.019845294 -0.13525395 -0.19867283
000280 99 c3 4a bd 43 3e 4c bb 9f b1 3b 3e d0 6e 13 3d
       -0.049502943 -0.003116504 0.18329476 0.03599435
000290 10 72 56 3c ee 20 c9 3d 5b 39 02 3e d5 95 f2 bd
       0.013088718 0.09820734 0.12717192 -0.118449844
0002a0 37 10 66 3d 9c 42 ad 3c fd 16 61 bd c7 10 13 3d
       0.056167807 0.021149926 -0.054953564 0.035904672
0002b0 39 32 01 bc d1 d9 87 bd 73 5a b2 bd e6 1c 7a bd
       -0.007885509 -0.06633342 -0.08708658 -0.061062716
0002c0 00 87 42 be 24 0b 50 bd ad 35 22 3d 06 7f fd bd
       -0.18996811 -0.050791875 0.03960197 -0.123777434
0002d0 e6 3f 7e 3e cf 03 29 bd 27 45 c5 bd 6d 6c b6 3d
       0.24829063 -0.041263398 -0.096323304 0.08907399
0002e0 f9 73 70 bc 2a c7 59 be 84 b1 04 be 5b 44 fc bd
       -0.014676088 -0.21267381 -0.12958342 -0.12317725
0002f0 88 4f e9 3c ee 9d 2b be dd 90 03 be 23 ce 72 bd
       0.028480306 -0.16759464 -0.1284823 -0.05927862
000300 13 16 66 bd f0 ac a0 3d cc 26 17 3e ba 1b 58 be
       -0.056173395 0.07845485 0.14760894 -0.21104327
000310 23 fb b2 bd 6d 24 9b bd 6e 78 50 be 6b 0c 01 3e
       -0.08739307 -0.07575307 -0.2035844 0.12602393
000320 12 be 55 3d df 44 cd bd c8 6c 30 3e e6 9e 9e bd
       0.05218322 -0.10022902 0.17228997 -0.07745151
000330 5c c9 20 be cd 54 33 bd 80 ec 43 3e 0a 5d 41 3d
       -0.15701813 -0.043782044 0.19133186 0.04720787
000340 24 9f e5 3c 2a bb 5f 3d f4 3e 0b bc b8 2d 3e bb
       0.028029986 0.054621853 -0.008498896 -0.002901895
000350 88 dd df 3d cb ff db 3c a0 1d 19 3b a0 94 d7 3d
       0.109309256 0.02685537 0.0023363605 0.10526395
000360 ff e1 1f bd 36 0e 57 be 04 df 91 bd 41 94 99 3d
       -0.039033886 -0.21001515 -0.07122615 0.0749898
000370 85 ff af bc 99 9c 1a be c8 35 e1 bd 46 d0 d5 3d
       -0.021484146 -0.150988 -0.10996586 0.10440116
000380 2b 9c 86 3c dc c5 3f 3d b6 90 78 bd 7d 0e 38 be
       0.016431889 0.046819553 -0.060684882 -0.17974277
000390 4b 2e 11 bd 86 69 0d be 18 e3 07 3e 17 e3 62 3e
       -0.03544454 -0.13809785 0.13270223 0.2215694
0003a0 7b 33 14 be 01 8e 50 3c b5 4c 93 3c e4 18 5e 3d
       -0.14472763 0.012729169 0.017980913 0.054222956
0003b0 ab 47 69 bd 9b 3a 0c 3e 94 07 57 3e 60 3e 63 3d
       -0.056953114 0.13694231 0.20998985 0.055479407
0003c0 75 8d 49 be ab d2 9e 3d e9 c7 2c be ed d9 0d bb
       -0.19682868 0.077550255 -0.16873135 -0.0021644786
0003d0 71 bd ed 3a c9 77 91 be ff 59 b6 bd 97 08 6a be
       0.0018138123 -0.284117 -0.08903884 -0.2285484
0003e0 ea 3d 74 be 99 07 15 3d b8 37 fd bc d4 bc 0f 3e
       -0.23851743 0.0363842 -0.030910358 0.14036876
0003f0 dc b4 15 be a4 18 bb bc c8 60 cc bb c9 c9 aa bd
       -0.14619774 -0.022838898 -0.006237123 -0.08339269

network_body.linear_encoder.seq_layers.4.bias f4 [128]
000000 9a 78 12 3b 8e ea 80 bd f1 f7 04 bb eb b5 c3 3c
       0.0022349716 -0.06294738 -0.0020289386 0.023890456
000010 49 a4 2e 3c c5 f4 e3 3c 86 43 a4 bc d2 14 6c bd
       0.010659286 0.027826676 -0.020051729 -0.057637043
000020 f2 7e 8e bc c2 0e fd 3b 45 b5 f2 bc c8 81 21 be
       -0.017394517 0.0077227065 -0.029627452 -0.15772164
000030 11 33 93 bc 77 a0 1b 3d 5b 51 d0 bb c7 1d 4f bd
       -0.017968686 0.037994828 -0.0063573546 -0.050565507
000040 a0 a3 6f bc f1 d7 16 3d ce 08 cf 3c 53 77 bb 3c
       -0.014626414 0.03682703 0.025272753 0.022884047
000050 21 6b 62 3b 40 42 f4 3b db 34 36 bc 2a f3 18 bc
       0.0034548717 0.0074541867 -0.011121 -0.009335319
000060 5a e3 09 bc 59 f6 1e bd d7 73 79 3c 14 16 0f 3d
       -0.008416021 -0.038809154 0.015225372 0.034933165
000070 dc e2 90 bc 5e 44 88 3b eb cf 6d bd 60 7d 0f bd
       -0.0176863 0.0041585406 -0.058059614 -0.035031676
000080 c7 2a 6a ba 01 ea 30 bc 59 e7 91 bd ed 38 70 bd
       -0.0008932766 -0.010797978 -0.07124204 -0.05864804
000090 e7 ce f6 3a f2 8b cb 3b db 78 85 3c b8 fa c0 bc
       0.0018829972 0.006211751 0.01629298 -0.023557052
0000a0 10 05 ba bc 99 17 10 bd d8 e5 a2 bc e6 ca cb bc
       -0.022707492 -0.035178754 -0.019884989 -0.024877023
0000b0 6e 15 1f be a7 7e 88 3d 9b 2a d1 bc e1 67 a4 bd
       -0.15535519 0.06664782 -0.025533011 -0.08027626
0000c0 73 52 65 bc b6 0a ec bc 29 7a 85 3d 79 34 cc 3d
       -0.013996708 -0.028813701 0.06517441 0.09970946
0000d0 d0 13 d3 bd 5a c7 ce 3b 38 c1 91 3d a4 c0 7c 3c
       -0.10306513 0.0063103857 0.07116932 0.0154267885
0000e0 7e 26 6d 3c 80 98 7d 3c 3a 46 57 3d f4 a0 ee b8
       0.014474509 0.015478253 0.052557208 -0.00011378704
0000f0 8f 77 c4 bc d6 90 64 3d f4 e3 d5 3c 41 f3 05 3d
       -0.023982791 0.05580219 0.026109673 0.032702688
000100 69 67 9b 3c de e4 8f 3c 82 66 9f 3c b7 69 0f 3d
       0.018970208 0.017565187 0.01945806 0.035012927
000110 89 17 76 3d a4 f7 2f bc 01 48 4b bd 3d 27 e3 bc
       0.06008104 -0.0107401945 -0.049629215 -0.027728671
000120 93 16 aa 3d 20 c8 73 bc 23 4f aa 3c 71 47 75 bd
       0.08305087 -0.0148792565 0.020789688 -0.059882585
000130 74 21 a6 bb 03 2d ac 3c 4a 8f bd 3a 2e af 71 bc
       -0.005069906 0.021017557 0.0014462259 -0.014751239
000140 12 12 39 bd 78 b2 4a bd 3f 5c 85 3c 1b 40 5b 3d
       -0.04518325 -0.049486607 0.016279338 0.053527933
000150 1b 52 d2 bc f5 6d 9b 3d 1f 0b 28 3d 74 3f 53 37
       -0.025673917 0.07589332 0.04102623 1.2591354e-05
000160 20 d7 fc bc 66 3b 6a bc 41 10 0b bd f9 4d 4f 3b
       -0.030864298 -0.014296388 -0.033951048 0.0031632169
000170 1b 6e a7 bb 50 f6 40 ba 68 93 79 ba 4b c2 9a bd
       -0.005109561 -0.0007360922 -0.00095205614 -0.0755659
000180 35 39 f5 3c b9 49 ba bc e6 c8 08 3d d7 55 e9 bd
       0.029934505 -0.022740232 0.033394717 -0.11393326
000190 1b 94 96 bb 09 2a a5 3d 8e 61 00 bc 07 a4 2e 38
       -0.0045952923 0.08064658 -0.007835759 4.1637595e-05
0001a0 d9 ae 4a bd 6c d9 de ba 4b 3b 2d 3d 58 88 b5 3c
       -0.049483154 -0.0017002053 0.042292874 0.02215974
0001b0 1d c9 23 bc 61 14 2d be 77 36 9b bc 58 95 3a bb
       -0.00999668 -0.16902305 -0.01894687 -0.0028470363
0001c0 00 db a4 3c 27 c0 03 be 24 55 a6 bc 96 f5 0f 3d
       0.020123959 -0.12866269 -0.02030427 0.03514632
0001d0 0d a5 9c 3c 49 97 40 be cf fe 26 3c c8 80 c8 bc
       0.019121671 -0.1880771 0.010192587 -0.02447547
0001e0 81 2f 8a bd 95 65 11 bb 65 8f d1 bc 5d b3 40 bd
       -0.06747342 -0.0022185792 -0.025581071 -0.047046054
0001f0 f4 f1 69 bd f9 89 28 3d 1a 02 fb 3b c3 13 0f be
       -0.05711551 0.041147206 0.0076601626 -0.13972382
