Config/results/Env_PPO_14/EnvironmentAgentBehavior/EnvironmentAgentBehavior-18999959.onnx (onnx, 912132 bytes, 11 tensors)

action_model._discrete_distribution.branches.0.bias f4 [10]
-0.06576222 -0.036935896 0.0110732755 0.01160024 0.025836281 0.0302756 0.027711652 0.0017148507
-0.006427743 -0.046338763
00000000: 58ae 86bd 184a 17bd af6c 353c ef0e 3e3c
00000010: 9ca6 d33c 8904 f83c 8c03 e33c d7c4 e03a
00000020: d19f d2bb b7cd 3dbd

action_model._discrete_distribution.branches.0.weight f4 [10, 256]
-0.005145863 0.033567924 -0.038067658 0.0889345 0.02444418 -0.1184591 0.03406165 -0.051086053
-0.01176606 0.048962105 0.026600985 -0.057989765 -0.073887534 0.023357071 0.07390889 -0.059388865
0.019507682 0.026604457 0.009887216 0.041831788 0.03709539 0.041928817 0.05584758 -0.07260189
-0.038615204 -0.058515087 -0.027749319 0.012440977 0.06346919 0.039551057 0.00021205698 -0.20421946
0.06936922 -0.05329715 0.056665786 0.021071078 -0.07825157 0.014552971 -0.001579678 -0.07966902
-0.02269674 0.0948309 -0.053244475 0.03930848 0.063589364 -0.049228843 0.0131017165 -0.015806127
-0.052571762 -0.049879387 0.07919285 -0.058393363 -0.05142987 0.11489745 0.034674324 -0.04992836
-0.022067545 -0.08800334 0.0053391363 0.032263406 0.039999157 -0.0052011637 0.011563335 0.02906385
-0.121951945 0.0197067 -0.03257838 0.064627565 0.007052432 0.041936923 -0.013373546 0.04729729
0.030245267 0.008492685 -0.06691381 0.020243276 -0.041018933 0.0045484114 -0.14093605 0.08758195
0.0514909 0.040970676 0.00037789802 0.058473248 -0.04678332 -0.038067717 -0.06763167 0.02356826
0.009608689 0.017284418 0.07536612 -0.14472024 0.011129678 -0.020773027 -0.0068447576 0.028990928
0.007862922 -0.03818153 0.01739756 0.060332462 0.06563908 -0.03865711 -0.11416057 -0.049431425
-0.012082139 -0.1727658 0.0066756643 0.07043992 -0.057630077 -0.061855573 -0.005524423 0.004049173
-0.02135736 0.0452884 0.027416218 0.014823286 0.07584099 0.0777298 -0.098130226 -0.04284523
0.005487736 0.0067430697 0.050671358 0.028258398 -0.08623641 0.025315834 -0.06097218 -0.0200647
0.042757686 -0.03430372 0.04026417 -0.05376733 -0.038104147 0.016857648 -0.088740185 0.06560903
0.067715034 -0.033236012 0.05573437 -0.09251537 -0.024235018 -0.06747011 0.010943116 -7.634455e-05
0.0041923835 0.023175005 0.050643876 0.008705111 0.023706233 0.06827252 -0.023994649 -0.040591706
0.0028103748 0.01608936 0.037377834 0.025115928 0.045888122 0.024459774 -0.024636574 -0.06041157
-0.00046819105 0.043497022 -0.106498666 -0.118751846 -0.03167979 -0.10680803 0.041003905 -0.1056163
-0.04857963 -0.040790655 0.034681447 0.069202885 -0.012909336 0.053272665 -0.002300542 -0.028469687
-0.07032026 -0.012434471 -0.039715275 -0.11408221 0.014067055 -0.014397344 -0.016880598 0.06495084
0.019466879 -0.08196706 0.024448862 0.016150624 0.010311244 -0.04416738 0.045465156 -0.11770031
0.029132467 -0.035856083 0.020057186 0.018081903 -0.11357838 0.07792122 -0.01784626 -0.06155666
0.03008131 0.057657402 -0.020503718 0.08084686 -0.002545791 -0.035164766 0.038392212 -0.10839501
-0.07253869 0.10435384 0.054051407 0.014440347 -0.056949314 0.06616829 -0.057705674 0.006644226
-0.0005295158 -0.16274269 0.0301424 -0.0014106683 -0.07279019 0.021821199 0.06000603 0.03605029
0.05695961 -0.0014709301 0.096679665 0.069590576 -0.047226988 0.08443796 -0.0067236256 0.06819902
0.044071794 -0.021560578 0.04003523 0.008924168 -0.007984803 0.025414117 0.0053073955 0.04763754
0.04185322 0.031380326 -0.018211614 0.0063751563 -0.033335578 0.030766744 0.050333943 0.02843957
0.036542118 -0.019556655 0.019956002 -0.021458682 0.10571938 -0.025004363 -0.06423562 -0.12982677
00000000: a19e a8bb 857e 093d d5ec 1bbd 4b23 b63d
00000010: 293f c83c af9a f2bd 3b84 0b3d 9c3f 51bd
00000020: 6fc6 40bc 7d8c 483d 4fea d93c ad86 6dbd
00000030: 5952 97bd 5457 bf3c 8b5d 973d bd41 73bd
00000040: 93ce 9f3c 97f1 d93c fdfd 213c cf57 2b3d
00000050: 56f1 173d 8dbd 2b3d 6fc0 643d 4db0 94bd
00000060: fa2a 1ebd 84ad 6fbd 8a52 e3bc 3dd5 4b3c
00000070: 22fc 813d 4a00 223d 9d5b 5e39 e81e 51be
00000080: 7311 8e3d 1d4e 5abd 621a 683d 419d ac3c
00000090: 5c42 a0bd 966f 6e3c 330d cfba 8329 a3bd
000000a0: 84ee b9bc b436 c23d e116 5abd ee01 213d
000000b0: 243b 823d 2fa4 49bd 95a8 563c da7b 81bc
000000c0: 7d55 57bd 544e 4cbd dc2f a23d e12d 6fbd
000000d0: 21a8 52bd 5b4f eb3d aa06 0e3d ae81 4cbd
000000e0: ffc6 b4bc 183b b4bd ecf3 ae3b a226 043d
000000f0: 28d6 233d 866e aabb 2474 3d3c 5017 ee3c
00000100: f1c1 f9bd f26f a13c e870 05bd 755b 843d
00000110: 1618 e73b 0dc6 2b3d b81c 5bbc ceba 413d
00000120: ecc4 f73c e724 0b3c 1c0a 89bd 3ad5 a53c
00000130: 7803 28bd d70a 953b 8a51 10be 2a5e b33d
00000140: 1fe8 523d ded0 273d 9d20 c639 a581 6f3d
00000150: de9f 3fbd e5ec 1bbd 7982 8abd 3912 c13c
00000160: c36d 1d3c 0d98 8d3c 8d59 9a3d 8b31 14be
00000170: 4159 363c 322c aabc fd49 e0bb 627e ed3c
00000180: 7cd3 003c 3c64 1cbd 5485 8e3c 2c1f 773d
00000190: c86d 863d eb56 1ebd 04cd e9bd 9b78 4abd
000001a0: 2af4 45bc 85e9 30be 88bf da3b ce42 903d
000001b0: 840d 6cbd 455c 7dbd 3806 b5bb edae 843b
000001c0: a1f5 aebc 5480 393d fa97 e03c 5edd 723c
000001d0: 8552 9b3d cd30 9f3d 80f8 c8bd 7b7e 2fbd
000001e0: 77d2 b33b f8f4 dc3b c58c 4f3d 287e e73c
000001f0: b79c b0bd 2763 cf3c f7bd 79bd ba5e a4bc
00000200: af22 2f3d 0f82 0cbd 0bec 243d 223b 5cbd
00000210: 1813 1cbd 0d19 8a3c 6abd b5bd 075e 863d
00000220: 2eae 8a3d 7c22 08bd b949 643d b378 bdbd
00000230: 8488 c6bc c52d 8abd c14a 333c 2b1b a0b8
00000240: 4360 893b 82d9 bd3c f46f 4f3d e29f 0e3c
00000250: 9333 c23c 77d2 8b3d 6d90 c4bc 7d43 26bd
00000260: 442e 383b d5cd 833c 8019 193d ebbf cd3c
00000270: 2ff5 3b3d dd5f c83c a4d2 c9bc 1f72 77bd
00000280: 8a77 f5b9 ef29 323d f91b dabd 2b34 f3bd
00000290: abc2 01bd 2bbe dabd b6f3 273d 5c4d d8bd
000002a0: 6ffb 46bd 1a14 27bd 220e 0e3d 3eba 8d3d
000002b0: ae81 53bc 7034 5a3d b1c4 16bb 4339 e9bc
000002c0: 1204 90bd f4b9 4bbc 7cac 22bd efa3 e9bd
000002d0: 8179 663c d6e2 6bbc 2e49 8abc f204 853d
000002e0: 0179 9f3c 59de a7bd fb48 c83c 504e 843c
000002f0: 7ef0 283c dbe8 34bd ac39 3a3d dc0c f1bd
00000300: 36a7 ee3c d4dd 12bd f84e a43c 8020 943c
00000310: c89b e8bd 2995 9f3d 5232 92bc d622 7cbd
00000320: 146d f63c 2b2a 6c3d 6af7 a7bc 0a93 a53d
00000330: 49d7 26bb ee08 10bd 2741 1d3d 34fe ddbd
00000340: 2a8f 94bd 77b7 d53d 0265 5d3d 3597 6c3c
00000350: af43 69bd 3e83 873d c95c 6cbd cfb7 d93b
00000360: 34cf 0aba 05a6 26be 32ed f63c 2ce6 b8ba
00000370: 0613 95bd 5fc2 b23c e2c8 753d 78a9 133d
00000380: 7b4e 693d 39cc c0ba fdff c53d 8185 8e3d
00000390: 1671 41bd cfed ac3d dc51 dcbb eeab 8b3d
000003a0: a084 343d cf9f b0bc fbfb 233d ac36 123c
000003b0: b1d2 02bc 4431 d03c a9e9 ad3b 951f 433d
000003c0: 486e 2b3d a888 003d 8630 95bc b0e6 d03b
000003d0: e38a 08bd 8a0a fc3c f72a 4e3d 1afa e83c
000003e0: 30ad 153d 4735 a0bc c57a a33c 1eca afbc
000003f0: 6783 d83d f3d5 ccbc f78d 83bd 4ff1 04be

action_model._discrete_distribution.branches.1.weight f4 [1, 256]
0.001499224 -0.0015179759 0.0026680154 0.013353859 -0.008811991 -0.0059690014 -0.0019544112 0.0031418882
-0.003873055 0.001367531 0.0007258873 -0.011114008 0.001578844 0.0012811868 0.0031577763 0.002456677
-0.005396766 0.0036729078 -0.0012613594 -0.008984483 -0.0056828596 -0.0056959027 0.0031859025 0.004233436
-0.010943853 -0.0009605744 -0.013239481 0.006479916 0.0022391735 -0.0036499058 0.007388664 -0.009840175
-0.0043216827 0.0051564123 0.0031577249 -0.0019180141 0.006276943 0.006840092 -0.007922678 0.0029155563
-0.0024139357 0.0036798602 0.00861597 0.0037910647 0.0007999195 -0.0023097827 0.0058278996 -0.003980722
0.0029280074 0.0074219927 0.00425656 0.01142989 -0.007468977 0.0010451365 0.004872184 0.001747457
0.003276473 -0.002414861 0.008901383 0.00884009 -0.006444961 0.0022098243 -0.00082709064 -0.0043413597
0.0049261027 0.005243489 0.0104284575 -0.0052936487 0.0069406303 0.0039991722 0.0029254833 0.0053204694
0.008862014 -0.01322928 -0.0022456571 0.007053073 0.0049648923 -0.0011180774 -0.0023398965 -0.0049394863
-0.013626607 -0.009308371 -0.010851032 -0.0017008821 0.004899436 -0.008443954 -0.010800801 -0.006202381
0.0043205135 -0.0017614457 -0.0071497518 -0.0047597936 -0.0047091986 -0.013383827 -0.002116806 -0.006633372
-0.0028220264 0.0027849106 0.0100282915 -0.0068097324 0.006034333 -0.0025087276 -0.0007835218 -0.005730562
-0.0094531365 0.009732608 -0.002005671 0.004504433 -0.0052345316 -0.0044056955 -0.0066003646 -0.009253602
-0.0027076926 0.003720273 -0.0009194689 0.009279531 -0.00014708363 0.0054829502 -0.0045614853 0.00821896
0.0003563246 -0.0034653891 0.012221718 0.0058637992 -0.0025742927 -0.004765595 -0.009730438 6.83398e-05
0.004272814 -0.002702889 0.0036241708 -0.007928799 0.009615504 0.013649272 -0.0007878573 -0.0034697764
0.009161918 -0.005874743 -0.008042931 0.011832339 0.0038304224 -0.0014804039 -0.0059445896 0.00037115268
-0.001443294 0.009514007 0.001131064 -0.0036499116 -0.0071394867 0.007854269 -0.01016126 -0.0035183807
0.0041097696 0.016935801 0.007082922 -0.003572926 -0.010906183 0.0034191962 -0.0037253422 -0.0036174238
-0.0001464391 0.002851729 0.0010075712 -0.006723039 0.002064829 -0.0010815397 0.009188856 -0.0060448195
-0.0088158045 0.00224557 0.011139567 -0.0035543249 0.0041445014 -0.0036476513 -0.0051009683 0.0038808938
0.0023825625 -0.0012917311 -0.0023419876 0.008339236 -0.0023902587 -0.0025479924 -0.0047638733 0.00392892
-0.009818218 0.0017355202 0.004079901 0.0044961763 0.0018691098 0.007739067 -0.0077236393 -0.0034752015
-0.010110528 -0.0018814836 0.010454836 -0.001870123 -0.004092358 -0.000641128 -0.0058705998 -0.013098769
0.0075409883 0.0013304935 0.011476948 -0.0030665845 0.0002087719 -0.0019172997 0.005111355 0.0013729001
0.00012707028 -0.0019708476 0.005002117 -0.0057079927 -0.000940198 -0.005421744 0.011058787 0.007551597
-0.0015548159 -0.0023521956 -0.0027079333 -0.008430656 -0.0025586314 0.004188719 0.010371341 0.0048954594
0.002081489 0.0057033994 0.0020031773 0.005927375 -0.0008152889 0.0038865916 -0.004302073 0.0017216848
0.01220385 -0.005601493 0.0065757656 0.010091168 4.539656e-05 -0.0019979817 0.008528548 4.339026e-06
0.001096371 0.005631296 -4.8317517e-05 -0.009935449 -0.0020996071 0.00519673 -0.0016037921 -0.01123295
0.0043286877 -0.006706234 0.013450985 -0.0047813514 -0.008447353 0.0060326075 0.0046810675 -0.0018588247
00000000: 9c81 c43a d2f6 c6ba dfd9 2e3b 25ca 5a3c
00000010: 2b60 10bc 9d97 c3bb 9415 00bb 23e8 4d3b
00000020: 15d3 7dbb ba3e b33a 7949 3e3a 8717 36bc
00000030: 37f1 ce3a 7fed a73a b2f2 4e3b 3300 213b
00000040: 5bd7 b0bb 2bb5 703b 3354 a5ba a733 13bc
00000050: 4837 babb b2a4 babb 93ca 503b a3b8 8a3b
00000060: d94d 33bc 0fcf 7bba 68ea 58bc 7a55 d43b
00000070: 19bf 123b 4233 6fbb 9b1c f23b af38 21bc
00000080: e79c 8dbb 1ff7 a83b d5f1 4e3b e065 fbba
00000090: d0ae cd3b da22 e03b 1fce 01bc eb12 3f3b
000000a0: 1f33 1ebb cf29 713b ff29 0d3c 8373 783b
000000b0: b0b1 513a b95f 17bb f7f7 be3b b770 82bb
000000c0: d0e3 3f3b 3034 f33b 9d7a 8b3b 6f44 3b3c
000000d0: 52be f4bb f6fc 883a d7a6 9f3b ed0a e53a
000000e0: 18ba 563b a542 1ebb 1bd7 113c 06d6 103c
000000f0: 4030 d3bb b3d2 103b 1dd1 58ba f741 8ebb
00000100: 256b a13b 93d1 ab3b 1fdc 2a3c 5876 adbb
00000110: 3a6e e33b 7d0b 833b 77b9 3f3b 5557 ae3b
00000120: fb31 113c 9fbf 58bc e02b 13bb 771d e73b
00000130: 89b0 a23b 748c 92ba f358 19bb 6adb a1bb
00000140: 2242 5fbc 2382 18bc 87c8 31bc 22f0 deba
00000150: 738b a03b 8358 0abc d8f5 30bc 583d cbbb
00000160: 1893 8d3b 4fe0 e6ba 7748 eabb 0bf8 9bbb
00000170: 9f4f 9abb d747 5bbc 1dba 0abb c25c d9bb
00000180: bff1 38bb 0c83 363b b44d 243c 2d24 dfbb
00000190: a7bb c53b 7769 24bb 4265 4dba 70c7 bbbb
000001a0: 54e1 1abc 8475 1f3c 9371 03bb ec99 933b
000001b0: 6f86 abbb a75d 90bb df47 d8bb 6b9c 17bc
000001c0: 8b73 31bb d3cf 733b 8308 71ba 2d09 183c
000001d0: 763a 1ab9 52aa b33b 8378 95bb d1a8 063c
000001e0: 14d1 ba39 951b 63bb 9a3d 483c 1d25 c03b
000001f0: 77b5 28bb b528 9cbb 6a6c 1fbc a751 8f38
00000200: f602 8c3b f422 31bb 7f83 6d3b cbe7 01bc
00000210: 598a 1d3c 32a1 5f3c 3588 4eba 3065 63bb
00000220: df1b 163c eb80 c0bb 7fc6 03bc 6ddc 413c
00000230: d307 7b3b 1d0a c2ba d5ca c2bb 4597 c239
00000240: e92c bdba a3e0 1b3c 3640 943a 5b33 6fbb
00000250: 5bf2 e9bb 31af 003c 6a7b 26bc a294 66bb
00000260: 3fab 863b f3bc 8a3c db17 e83b c027 6abb
00000270: d9af 32bc 9814 603b df24 74bb 4d12 6dbb
00000280: 728d 19b9 13e4 3a3b 7b10 843a f04c dcbb
00000290: 1552 073b 73c2 8dba db8c 163c 9f13 c6bb
000002a0: 2a70 10bc 6a2a 133b bb82 363c adef 68bb
000002b0: 99ce 873b 6f0d 6fbb 0626 a7bb 9856 7e3b
000002c0: c424 1c3b 4e4f a9ba 087c 19bb 4aa1 083c
000002d0: e3a5 1cbb 38fc 26bb 441a 9cbb 2bbe 803b
000002e0: 97dc 20bc 657a e33a b1b0 853b a954 933b
000002f0: ebfc f43a 0098 fd3b 9516 fdbb 35c0 63bb
00000300: a1a6 25bc 1d9c f6ba c34a 2b3c ea1e f5ba
00000310: 3019 86bb 5f11 28ba 295e c0bb 389c 56bc
00000320: 651a f73b f463 ae3a cf09 3c3c c0f8 48bb
00000330: c8e9 5a39 e74d fbba 277d a73b e2f2 b33a
00000340: 2b3e 0539 5629 01bb cce8 a33b 1d0a bbbb
00000350: 9f77 76ba e3a8 b1bb ea2f 353c 6373 f73b
00000360: f7ca cbba 4b27 1abb 9577 31bb bc20 0abc
00000370: b6ae 27bb 8641 893b 8fec 293c 176a a03b
00000380: 9769 083b 95e3 ba3b bd47 033b 6d3a c23b
00000390: 1db9 55ba 30b6 7e3b 67f8 8cbb 28aa e13a
000003a0: a8f2 473c bb8c b7bb 8579 d73b 6d55 253c
000003b0: 2f68 3e38 92f0 02bb 53bb 0b3c f397 9136
000003c0: 1bb4 8f3a bc86 b83b 8aa8 4ab8 4bc8 22bc
000003d0: 9099 09bb 5549 aa3b 5536 d2ba 680a 38bc
000003e0: aad7 8d3b f8bf dbbb 8561 5c3c e2ac 9cbb
000003f0: c466 0abc 2ead c53b a463 993b cfa3 f3ba

action_model._discrete_distribution.branches.2.bias f4 [10]
-0.06315799 -0.04053774 -0.005541007 0.037398838 0.0350215 0.047698695 0.037978917 -0.005360049
-0.027056547 -0.050642822
00000000: fa58 81bd e70a 26bd 5691 b5bb 862f 193d
00000010: b472 0f3d b55f 433d c88f 1b3d 5aa3 afbb
00000020: b1a5 ddbc d96e 4fbd

action_model._discrete_distribution.branches.2.weight f4 [10, 256]
-0.025431529 0.116951816 0.027450686 -0.01947227 -0.019517766 -0.064694025 0.029052757 -0.07617658
-0.032280784 -0.039612625 -0.03528621 -0.120178275 0.003511185 0.031174742 0.082958676 -0.07410018
0.019232571 0.11281411 0.088208705 -0.03536808 -0.015786294 0.0049991566 -0.071411416 0.034696683
-0.08584992 -0.099718906 -0.06517562 -0.040441144 -0.05328943 0.00659961 -0.088974744 -0.019478366
-0.099230275 -0.02852064 0.027072674 -0.005797822 0.09887563 -0.020358393 -0.030880336 0.025961164
0.08990645 -0.0073945336 -0.06259707 0.048845235 0.06598894 0.030633165 0.015714137 0.053562313
-0.031481825 -0.03852817 -0.0056224586 0.061183125 -0.11362115 0.07150382 0.056290478 -0.068725884
-0.038953338 0.004998842 -0.096583806 0.11705421 -0.10913717 0.026919954 0.0034175387 -0.010999614
-0.014620969 -0.0326827 0.03837688 0.028790575 0.020767335 -0.07688223 -0.09910105 0.066064835
0.029847514 -0.09213408 0.06059983 -0.03593539 -0.007892311 0.016271941 -0.04585619 0.051493473
-0.012196366 0.023181185 0.048811343 -0.021553969 0.030180784 0.048514757 0.053679414 0.046123337
-0.042942796 -0.027985428 0.059814736 -0.039815985 -0.06419995 0.0056106313 0.07676735 7.412232e-05
0.06907276 -0.042835083 0.054797474 0.049127877 0.044244025 -0.02659791 -0.03945749 -0.0020753345
0.008082699 0.06311411 0.040939648 0.02369788 0.037355166 0.012927653 -0.043339908 -0.03042172
-0.10497474 -0.040465273 0.12459766 -0.008300894 -0.07023561 -0.049908318 0.0047183973 0.021746699
-0.031392388 0.045332897 0.0517775 -0.010373181 -0.112059094 -0.08797967 -0.06768677 -0.041082103
-0.015085502 -0.023581032 -0.03948854 -0.014550151 -0.0683235 -0.002130771 0.07922021 0.059251964
-0.1085699 -0.01996056 -0.030594438 -0.0537765 0.080595054 -0.010027647 0.067284144 -0.025336768
0.013709626 -0.02908218 -0.017261663 0.041034978 -0.036787022 0.0032785626 0.050164524 -0.058187287
0.053073082 -0.061909255 -0.0013253121 0.05200635 0.043726016 -0.023878066 -0.08667942 -0.0119883455
0.0230471 0.06522031 0.051854897 -0.046380214 -0.0015220486 0.036470763 0.00622726 -0.0895718
-0.0021317878 -0.030065747 -0.03926832 0.027887497 -0.00025342096 0.052961916 0.048460875 -0.04918728
-0.010586581 -0.0024045208 0.0004961793 0.011799586 -0.026881404 0.045359746 0.09220043 0.010781303
0.06820495 -0.124138676 -0.019477908 -0.058587927 0.04024385 -0.0264148 -0.042079266 0.007572666
0.06845991 -0.1324152 0.05093749 0.032523133 -0.031634137 0.03258907 0.055976167 -0.03175091
0.113608934 -0.07765013 0.045713883 0.1051637 0.04087101 -0.029077047 0.04788973 -0.016391853
0.059525795 0.028656913 0.00022411573 -0.0020819404 -0.001009617 0.02613661 -0.025956543 -0.021705806
0.04637447 -0.12710126 0.07958432 -0.051941775 -0.040460937 0.011374605 0.07794924 0.004941746
-0.022524687 -0.12342766 0.013927042 0.09840569 -0.019761944 -0.035066903 -0.048424453 0.005761471
0.0132920155 -0.035516355 0.06858109 -0.09577438 0.079402685 0.039844748 0.03106808 0.04075446
0.005750569 0.07510965 -0.0435098 0.060435504 0.017388742 0.03362922 0.039576672 0.11138571
0.005655333 0.076310776 0.043407016 -0.03771011 -0.08556035 0.05785774 -0.08830275 -0.032997333
00000000: c855 d0bc 6f84 ef3d 43e0 e03c 4f84 9fbc
00000010: b9e3 9fbc 4d7e 84bd 0c00 ee3c 7702 9cbd
00000020: db38 04bd d940 22bd 4688 10bd 0720 f6bd
00000030: e91b 663b 2c62 ff3c 3de6 a93d d6c1 97bd
00000040: a08d 9d3c 160b e73d c4a6 b43d 1fde 10bd
00000050: 4252 81bc f7cf a33b 2640 92bd 1c1e 0e3d
00000060: 15d2 afbd 6d39 ccbd cc7a 85bd 9da5 25bd
00000070: 0446 5abd 8b41 d83b 6438 b6bd 1891 9fbc
00000080: 3e39 cbbd 1ea4 e9bc 83c7 dd3c a8fb bdbb
00000090: 4e7f ca3d a5c6 a6bc c2f8 fcbc 82ac d43c
000000a0: df20 b83d d84d f2bb e532 80bd f111 483d
000000b0: 3625 873d 67f2 fa3c efba 803c 2864 5b3d
000000c0: 16f3 00bd b7cf 1dbd 9a3c b8bb 289b 7a3d
000000d0: 35b2 e8bd 9870 923d d890 663d 28c0 8cbd
000000e0: 898d 1fbd 53cd a33b bbcd c5bd 1eba ef3d
000000f0: 4f83 dfbd 3c87 dc3c c9f8 5f3b ba37 34bc
00000100: ca8c 6fbc 4bde 05bd 1331 1d3d 36da eb3c
00000110: 4220 aa3c 6e74 9dbd 7ef5 cabd 004d 873d
00000120: c682 f43c cbb0 bcbd 8737 783d fd30 13bd
00000130: c04e 01bc bc4c 853c b3d3 3bbd d2ea 523d
00000140: 44d3 47bc 78e6 bd3c 67ee 473d f391 b0bc
00000150: b13d f73c 69b7 463d f2de 5b3d d3eb 3c3d
00000160: c9e4 2fbd b241 e5bc 4c00 753d 1616 23bd
00000170: 437b 83bd 63d9 b73b 3338 9d3d 1e72 9b38
00000180: 0576 8d3d d773 2fbd 5173 603d 503a 493d
00000190: 3939 353d dce3 d9bc 2d9e 21bd 5602 08bb
000001a0: 4c6d 043c f841 813d 55b0 273d 0e22 c23c
000001b0: bb01 193d 82ce 533c 3085 31bd f936 f9bc
000001c0: fffc d6bd eabe 25bd 0f2d ff3d 7900 08bc
000001d0: b0d7 8fbd aa6c 4cbd c99c 9a3b 2226 b23c
000001e0: 4e95 00bd fdae 393d a514 543d 46f4 29bc
000001f0: 3d7f e5bd af2e b4bd 5c9f 8abd b545 28bd
00000200: 2e29 77bc 022d c1bc bcbe 21bd c263 6ebc
00000210: 31ed 8bbd 68a4 0bbb 353e a23d 30b2 723d
00000220: e559 debd 5484 a3bc 30a1 fabc bf44 5cbd
00000230: 050f a53d 004b 24bc 45cc 893d 0e8f cfbc
00000240: 579e 603c c03d eebc 5568 8dbc 4b14 283d
00000250: fdad 16bd 27dd 563b 5179 4d3d cb55 6ebd
00000260: 2963 593d 8f94 7dbd 18b6 adba 9c04 553d
00000270: 0d1a 333d ef9b c3bc fb84 b1bd c46a 44bc
00000280: 46cd bc3c 3a92 853d cd65 543d 2ef9 3dbd
00000290: 7a7f c7ba 5e62 153d 0b0e cc3b 6b71 b7bd
000002a0: 77b5 0bbb 714c f6bc d1d7 20bd 5274 e43c
000002b0: 96dd 84b9 98ee 583d e97e 463d 9a78 49bd
000002c0: 5773 2dbc 2a95 1dbb 0712 023a 0d53 413c
000002d0: 6436 dcbc 24cb 393d 94d3 bc3d 10a4 303c
000002e0: 09af 8b3d 6b3c febd 2290 9fbc e5f9 6fbd
000002f0: bcd6 243d da63 d8bc 4f5b 2cbd 2024 f83b
00000300: b634 8c3d da97 07be d4a3 503d fa36 053d
00000310: cc92 01bd 1e7c 053d 4447 653d 3e0d 02bd
00000320: cdab e83d 0807 9fbd 7b3e 3b3d 1160 d73d
00000330: 5c68 273d fd32 eebc 0628 443d 3548 86bc
00000340: 52d1 733d e7c1 ea3c 9c00 6b39 2a71 08bb
00000350: 2055 84ba 721c d63c d1a2 d4bc 60d0 b1bc
00000360: 28f3 3d3d d526 02be 1bfd a23d e6c0 54bd
00000370: 5eba 25bd 8d5c 3a3c daa3 9f3d 5fee a13b
00000380: b185 b8bc a4c7 fcbd 3f2e 643c ec88 c93d
00000390: cde3 a1bc 50a2 0fbd b858 46bd b9ca bc3b
000003a0: c1c6 593c 9979 11bd 3e74 8c3d 5c25 c4bd
000003b0: e09d a23d 3f34 233d 7c82 fe3c 26ee 263d
000003c0: 456f bc3b 17d3 993d 5537 32bd 388b 773d
000003d0: d672 8e3c cbbe 093d 261b 223d 311e e43d
000003e0: 5f50 b93b d348 9c3d 8ecb 313d eb75 1abd
000003f0: 443a afbd 3dfc 6c3d 12d8 b4bd 3628 07bd

action_model._discrete_distribution.branches.3.bias f4 [5]
-0.25684837 -0.006736683 0.10295623 0.72547626 0.6491602
00000000: a181 83be 65bf dcbb b7da d23d d0b8 393f
00000010: 5d2f 263f

action_model._discrete_distribution.branches.3.weight f4 [5, 256]
0.06634798 0.07589936 0.047358543 -0.033605933 0.07057456 -0.012377351 -0.111195914 0.0618951
-0.040393192 0.048976067 0.10607298 -0.037497144 -0.022054506 -0.018156491 0.090200536 -0.033305548
0.051059727 0.10351898 0.058311887 0.12749021 -0.0008841115 -0.016107963 0.01487683 0.04644901
0.0526292 0.018947592 0.057183426 -0.08767288 0.052231092 0.05713153 -0.03784142 -0.085105486
0.098731704 -0.15483515 0.07213919 0.057258915 -0.023786785 -0.10864747 -0.07187525 -0.09849475
0.13696407 0.015106565 0.05468129 0.1315597 -0.006850077 -0.0032211752 -0.0051501854 0.018151775
0.0021784748 -0.0151030915 -0.05260645 -0.003016109 -0.031140868 0.035619978 0.16092782 -0.054498505
-0.014160514 -0.017780088 -0.09240093 0.095172204 -0.060908742 -0.0026162248 -0.03767621 0.012818479
-0.04531969 -0.051479325 -0.081011325 0.09492264 -0.018548314 0.10379422 -0.017256562 0.040061347
0.14140299 0.058974236 0.041651797 -0.01587727 0.0032493884 0.012502195 -0.0544995 0.059698682
0.049649738 0.03098572 0.0034923544 -0.015930178 0.015537172 0.019581951 -0.011685494 0.055598795
-0.057590466 -0.09801077 -0.0114393225 0.011615961 0.029212326 0.056225237 0.024228202 0.07282287
0.051916692 -0.10426106 0.040477544 0.017423466 0.010677021 -0.0113155395 -0.025014034 0.056907807
0.026665108 0.010516707 -0.054046396 0.043164384 -0.022072453 -0.0018225481 -0.03804094 0.011946017
-0.063195646 0.012063131 0.07989549 0.1137888 0.010709394 -0.01537859 -0.028490152 -0.087045096
0.018621214 0.054190442 -0.011687421 -0.021384694 0.06486726 -0.036877707 0.044992674 0.06294957
0.034459755 0.028760366 0.062808156 -0.07675177 -0.046438526 0.031053971 0.05208985 0.10458684
-0.057258327 0.060896453 0.040910885 -0.10946631 0.016317125 -0.028677225 0.03597853 0.04254121
0.0022294226 0.075827636 0.061410937 0.087777324 0.10885684 0.057976585 0.039172295 0.038253695
0.045784358 0.14264771 0.069031164 -0.02785501 0.031030955 -0.10305768 -0.020235978 -0.010592601
0.05368124 0.076610886 -0.0082166605 0.0031985398 0.031419177 0.009347086 -0.14875099 -0.051105846
-0.06006739 -0.021348666 0.006029747 0.037678782 0.007435459 -0.09595381 0.15860942 0.032598466
-0.13507321 -0.09887251 0.09529051 -0.023559768 -0.02005584 0.11827738 0.010705705 0.038760237
0.07975264 -0.054702796 -0.037673168 0.018253852 -0.052868247 0.04303239 -0.07017158 -0.020097747
0.08581619 -0.018583255 0.06031761 -0.053076923 0.0043927254 0.039147485 -0.07041902 -0.040453006
0.08963167 0.06675196 0.026411153 0.081585355 -0.093793236 -0.02502743 -0.0054893065 -0.07039922
0.027033841 -0.05672765 0.051933825 0.06384153 -0.011323018 0.09454673 0.030671433 -0.056993943
0.036605015 0.023322506 0.028391656 -0.11712848 -0.022626908 0.00417472 -0.014201641 0.016984532
0.02179021 -0.049182266 0.08434845 0.04149356 -0.015575915 -0.0029638724 -0.17833135 -0.026535252
0.028220156 -0.04332052 0.04315847 -0.032248117 0.05476086 0.023952747 0.07832565 -0.069066115
0.003648441 0.0371033 -0.051319603 0.036172118 -0.036438704 0.021142097 -0.020838419 0.17961343
0.10995691 -0.061007176 -0.039251264 -0.07423508 0.055800118 -0.048158567 -0.058572885 -0.014034805
00000000: 73e1 873d 2071 9b3d 08fb 413d 60a6 09bd
00000010: 6589 903d 5fca 4abc afba e3bd b785 7d3d
00000020: 5573 25bd 219b 483d ca3c d93d 9b96 19bd
00000030: a7ab b4bc ecbc 94bc 0fbb b83d 666b 08bd
00000040: 0124 513d c201 d43d 72d8 6e3d cb8c 023e
00000050: b8c3 67ba d9f4 83bc f3bd 733c 5141 3e3d
00000060: b791 573d fb37 9b3c 2b39 6a3d d78d b3bd
00000070: 45f0 553d c002 6a3d 9bff 1abd c94b aebd
00000080: d933 ca3d 1b8d 1ebe b6bd 933d 5388 6a3d
00000090: 81dc c2bc 9182 debd 5533 93bd 9eb7 c9bd
000000a0: 4f40 0c3e 8781 773c 7df9 5f3d 96b7 063e
000000b0: 9c76 e0bb 5a1a 53bb e3c2 a8bb 08b3 943c
000000c0: bec4 0e3b f572 77bc dc79 57bd eaa9 45bb
000000d0: 221b ffbc 41e6 113d 43ca 243e d339 5fbd
000000e0: 8001 68bc 8ca7 91bc b33c bdbd a5e9 c23d
000000f0: 727b 79bd f874 2bbb 5f52 1abd 9904 523c
00000100: 24a1 39bd fcdb 52bd 44e9 a5bd cd66 c23d
00000110: a2f2 97bc 1092 d43d a25d 8dbc 5e17 243d
00000120: f2cb 103e f88e 713d 139b 2a3d 0c11 82bc
00000130: b1f3 543b 02d6 4c3c de3a 5fbd 9b86 743d
00000140: 865d 4b3d c4d5 fd3c fcdf 643b 0180 82bc
00000150: 9f8f 7e3c 546a a03c 8474 3fbc 90bb 633d
00000160: fbe3 6bbd dfb9 c8bd ff6b 3bbc df50 3e3c
00000170: b04e ef3c 6f4c 663d 397a c63c 2824 953d
00000180: 99a6 543d d386 d5bd c8cb 253d a8bb 8e3c
00000190: acee 2e3c d064 39bc 3bea ccbc 2918 693d
000001a0: c970 da3c 444e 2c3c c15f 5dbd 23cd 303d
000001b0: 4ad1 b4bc 91e2 eeba d1d0 1bbd 3ab9 433c
000001c0: b86c 81bd 70a4 453c 3fa0 a33d 1a0a e93d
000001d0: 7476 2f3c 7bf6 7bbc 2e64 e9bc b344 b2bd
000001e0: 848b 983c ccf6 5d3d 997c 3fbc f42e afbc
000001f0: 20d9 843d 140d 17bd 3d4a 383d b4eb 803d
00000200: ac25 0d3d dc9a eb3c 90a1 803d 0830 9dbd
00000210: 5336 3ebd e664 fe3c 2b5c 553d a031 d63d
00000220: b587 6abd 8f6e 793d 2c92 273d df2f e0bd
00000230: 7eab 853c 80ec eabc 395e 133d b13f 2e3d
00000240: 811b 123b 854b 9b3d 098a 7b3d 99c4 b33d
00000250: 56f0 de3d db78 6d3d 2173 203d e8af 1c3d
00000260: 6188 3b3d 3e12 123e 3660 8d3d 3130 e4bc
00000270: a134 fe3c e80f d3bd ecc5 a5bc 978c 2dbc
00000280: dce0 5b3d 2be6 9c3d 2c9f 06bc 989e 513b
00000290: 65b1 003d 8524 193c 2e52 18be 5d54 51bd
000002a0: 3909 76bd 66e3 aebc 2f95 c53b 1155 1a3d
000002b0: 27a5 f33b 6e83 c4bd 826a 223e f885 053d
000002c0: a250 0abe ac7d cabd ac27 c33d 6a00 c1bc
000002d0: 254c a4bc 693b f23d fb66 2f3c 0ec3 1e3d
000002e0: 5a55 a33d 0a10 60bd 2e4f 1abd 1a89 953c
000002f0: 608c 58bd bb42 303d 1eb6 8fbd 08a4 a4bc
00000300: 66c0 af3d e93b 98bc 990f 773d 3067 59bd
00000310: daf0 8f3b 1d59 203d d937 90bd 0db2 25bd
00000320: cf90 b73d 40b5 883d 345c d83c 3916 a73d
00000330: ab16 c0bd 5306 cdbc a4df b3bb 772d 90bd
00000340: 1376 dd3c 415b 68bd 90b8 543d 59bf 823d
00000350: 2e84 39bc b7a1 c13d a842 fb3c 7b72 69bd
00000360: 24ef 153d d70e bf3c 9e95 e83c 0ee1 efbd
00000370: 115c b9bc 17cc 883b 00ae 68bc 2523 8b3c
00000380: 6281 b23c 5873 49bd e1be ac3d 27f5 293d
00000390: 1f32 7fbc 873d 42bb 7e9c 36be 7560 d9bc
000003a0: f52d e73c dc70 31bd f0c6 303d 9a16 04bd
000003b0: ec4c 603d 8d38 c43c 3369 a03d 8972 8dbd
000003c0: af1a 6f3b a1f9 173d 8134 52bd 3729 143d
000003d0: c040 15bd 3132 ad3c 55b5 aabc 95ec 373e
000003e0: 1731 e13d a9e2 79bd efc5 20bd 9008 98bd
000003f0: aa8e 643d eb41 45bd 1fea 6fbd 3df2 65bc

network_body.linear_encoder.seq_layers.0.bias f4 [256]
0.00085889094 -0.027318522 0.012094019 -0.005619887 0.0034266796 0.02464731 0.004557779 -0.004732583
-0.0035066274 -0.0054178988 0.022663323 -0.029464215 0.00081578025 -0.057756536 0.012285332 -0.077181645
-0.041451436 0.0130290715 -0.00029796455 0.0008414389 -0.001512468 -0.010154623 0.017044367 -0.0064403303
-0.065029405 -0.014682995 -0.018191883 -0.029454913 -0.030629436 -0.008627107 0.037159063 -0.020868408
0.03621896 0.0013495438 -0.0114472285 -0.04563174 -0.018204086 0.02285719 -0.01826131 -0.0029947318
0.013560295 -0.00013508605 -0.010406309 -0.0032035348 -0.04807955 0.009046954 0.0020618453 0.010978182
-0.016236346 -0.0033907113 -0.043384623 0.019835811 0.010202407 0.020268084 -0.00828503 -0.00534243
-0.013022489 -0.0025505614 -0.019535828 0.0014740991 -0.011435972 0.011109976 0.003556842 -0.028657556
0.022537652 -0.021641375 -0.02783157 -0.025272768 -0.0062019154 -0.00508837 -0.008648305 -0.013775382
0.0066405367 -0.021676878 0.0056106653 0.0033978748 0.030078568 0.0009218658 -0.008033153 -0.046432436
0.017371304 0.004832647 0.021310806 0.018567313 0.041183747 0.030096013 -0.028112596 0.016621195
-0.00061810395 0.019401787 -0.010424712 -0.03323822 0.026550446 -0.07502008 -0.010547726 -0.0037816216
-0.00038832202 0.01713794 -0.05847758 -0.005728474 -0.03493645 0.014934289 0.0002606552 -0.009486866
-0.05441388 0.01146626 -0.03344044 -0.010830393 0.00035186444 -0.00041528637 -0.029801125 0.015566644
-0.002976129 0.0011298482 -0.041012865 -0.022082692 -0.01993198 -0.008557674 -0.011996147 0.0061485507
0.014849536 0.0064367875 0.015390834 -0.0035693229 -0.05070136 -0.07143591 0.02480287 0.012094483
-0.025521383 -0.00040364027 -0.004768549 0.011202497 -0.033295006 0.0047372784 0.009688423 0.009644259
-0.062366206 -0.01415432 0.00894548 0.002443688 -0.013179557 -0.02697514 -0.041677825 0.0031221693
0.0047563617 0.036890406 0.0060843164 -0.006756233 -0.016258067 -0.026529832 0.009993057 0.007857907
0.014106248 -0.05392668 -0.1017501 -0.020211333 0.0019730509 -0.005174271 -0.02576824 -0.0015697917
-0.0010808943 -0.028201682 -0.003502233 0.0016582668 -0.06042207 0.01913807 0.021134593 0.0066832923
0.031062448 0.0010204171 0.011334733 -0.0056442367 -0.0038474947 -0.0016443807 0.017032541 0.005112339
-0.06289461 -0.007642203 -0.015083618 -0.02775459 0.0045630913 0.003005841 -0.01645195 0.015162795
-0.026433647 -0.030251592 -0.018510832 -0.046570577 0.021595243 -0.0008107006 -0.005435415 0.016039327
0.028458979 -0.031856555 -0.03702935 -0.016306242 -0.0354901 -0.005268767 -0.008504753 -0.0010932125
0.0058789672 0.011580099 0.014398764 -0.006246751 -0.016567979 -0.0051158657 0.018543635 0.015604436
-0.0001106949 -0.01859518 -0.015599561 -0.0082890745 -0.05252642 0.0077648093 0.0329385 -0.02455673
-0.018146053 -0.013768496 -0.004507182 -0.0017219349 -0.006561812 0.016584793 -0.035324313 -0.0008157734
-0.06273996 0.022173407 -0.006953463 0.0057118936 -0.03442441 0.0044545215 0.004012004 -0.008654397
-0.033694636 -0.03482728 0.003740994 0.015415817 -0.005201867 0.013957116 -0.0055105784 0.008006945
0.0070852246 -0.056221537 0.028375795 -0.01719096 -0.011533023 0.0019025375 -0.031662744 -0.011016404
-0.01020903 -0.057734806 0.0023796286 -0.08852935 0.049293727 0.00881071 -0.0194483 0.011632177
00000000: 3227 613a 18cb dfbc fe25 463c 0727 b8bb
00000010: 2592 603b 28e9 c93c 6c59 953b c913 9bbb
00000020: 72cf 65bb a188 b1bb 6fa8 b93c f05e f1bc
00000030: 16da 553a 1e92 6cbd 6b48 493c 6911 9ebd
00000040: fbc8 29bd e377 553c 2038 9cb9 0294 5c3a
00000050: 013e c6ba 935f 26bc a1a0 8b3c 6809 d3bb
00000060: 232e 85bd f290 70bc 2507 95bc 6e4b f1bc
00000070: 95ea fabc b658 0dbc 1a34 183d 39f4 aabc
00000080: 555a 143d 2de3 b03a 288d 3bbc 59e8 3abd
00000090: bc20 95bc 003f bb3c be98 95bc 4343 44bb
000000a0: 002c 5e3c e3a5 0db9 397f 2abc 65f2 51bb
000000b0: 10ef 44bd ad39 143c 0620 073b d5dd 333c
000000c0: 1602 85bc b236 5ebb 13b4 31bd b67e a23c
000000d0: ff27 273c 4109 a63c efbd 07bc 8d0f afbb
000000e0: 475c 55bc 5227 27bb 9a09 a0bc 8f36 c13a
000000f0: f15d 3bbc 9e06 363c e819 693b 40c3 eabc
00000100: e2a0 b83c 4149 b1bc 08ff e3bc d608 cfbc
00000110: 7039 cbbb 57bc a6bb 9fb1 0dbc 24b2 61bc
00000120: dc98 d93b b593 b1bc acd9 b73b e1ae 5e3b
00000130: 5467 f63c 5ea9 713a 7c9d 03bc f02f 3ebd
00000140: 444e 8e3c 2e5b 9e3b 0094 ae3c 7a1a 983c
00000150: 4ab0 283d ea8b f63c 634c e6bc 2c29 883c
00000160: 4108 22ba 7ff0 9e3c 69cc 2abc cd24 08bd
00000170: 5280 d93c 21a4 99bd 5fd0 2cbc 15d5 77bb
00000180: b397 cbb9 dd64 8c3c 3086 6fbd ecb5 bbbb
00000190: 8619 0fbd f3ae 743c 8ca8 8839 cd6e 1bbc
000001a0: 17e1 5ebd fbdc 3b3c d8f8 08bd f671 31bc
000001b0: 727a b839 cbba d9b9 7d21 f4bc 3d0b 7f3c
000001c0: 290b 43bb 6a17 943a 1bfd 27bd c3e6 b4bc
000001d0: 6448 a3bc 7c35 0cbc 7d8b 44bc c879 c93b
000001e0: 784b 733c b0eb d23b d629 7c3c 4deb 69bb
000001f0: 3bac 4fbd fe4c 92bd 632f cb3c f027 463c
00000200: 3812 d1bc ae9f d3b9 7d41 9cbb ae8a 373c
00000210: 5860 08bd 2c3b 9b3b 31bc 1e3c f402 1e3c
00000220: b573 7fbd 85e7 67bc 1090 123c 4826 203b
00000230: 12ef 57bc f8fa dcbc 5eb6 2abd 4f9d 4c3b
00000240: 41db 9b3b 651a 173d f25e c73b 6463 ddbb
00000250: a32f 85bc 1755 d9bc ebb9 233c 73be 003c
00000260: e41d 673c 39e2 5cbd 5b62 d0bd 3d92 a5bc
00000270: 4d4e 013b ee8c a9bb eb17 d3bc 78c1 cdba
00000280: cbac 8dba 3707 e7bc b885 65bb 335a d93a
00000290: 227d 77bd 71c7 9c3c 7422 ad3c 85ff da3b
000002a0: ad76 fe3c 84bf 853a 51b5 393c 4af3 b8bb
000002b0: 4026 7cbb 4388 d7ba d487 8b3c 6885 a73b
000002c0: e4ce 80bd 726b fabb 4821 77bc 985d e3bc
000002d0: fc85 953b a5fd 443b 3dc6 86bc 5f6d 783c
000002e0: 608b d8bc 30d2 f7bc 07a4 97bc cac0 3ebd
000002f0: 82e8 b03c 3285 54ba 911b b2bb e864 833c
00000300: ce22 e93c 057c 02bd 16ac 17bd ab94 85bc
00000310: 115e 11bd 9fa5 acbb 8557 0bbc 204a 8fba
00000320: 5aa4 c03b 75ba 3d3c cbe8 6b3c 8cb1 ccbb
00000330: 92b9 87bc fea2 a7bb d2e8 973c c0a9 7f3c
00000340: df24 e8b8 eb54 98bc 4d95 7fbc e6ce 07bc
00000350: f225 57bd f16f fe3b 85ea 063d 322b c9bc
00000360: 08a7 94bc 4295 61bc fcb0 93bb 8cb2 e1ba
00000370: 7804 d7bb d5dc 873c 3ab0 10bd a0d9 55ba
00000380: cf7d 80bd 01a5 b53c e0d9 e3bb d62a bb3b
00000390: 9c00 0dbd 3cf7 913b 2177 833b 2ccb 0dbc
000003a0: 6303 0abd 0da7 0ebd 772b 753b 9f92 7c3c
000003b0: 6c74 aabb 63ac 643c 1592 b4bb 902f 033c
000003c0: 2c2b e83b 8e48 66bd 5b74 e83c 0ed4 8cbc
000003d0: 01f5 3cbc 915e f93a cbb0 01bd 267e 34bc
000003e0: c643 27bc 557b 6cbd 8bf3 1b3b e04e b5bd
000003f0: 38e8 493d cc5a 103c 0b52 9fbc e394 3e3c

network_body.linear_encoder.seq_layers.0.weight f4 [256, 602]
0.077660576 -0.026223103 0.08169175 0.04466056 -0.011205847 -0.01851965 0.044299055 -0.02465479
0.17553425 -0.008852009 0.08309663 0.025181178 0.11812791 0.021747524 0.025281588 0.018526126
0.015967542 -0.05301771 0.01485974 -0.047192033 0.05738822 0.011615295 -0.086229354 0.03666029
0.033670846 -0.08993768 -0.003921953 0.0063842232 -0.04943256 0.01958042 0.021808667 -0.010774412
-0.0012059464 0.033339944 0.09876608 0.03364765 0.08536419 -0.011453573 0.087738715 0.006737911
-0.031663947 0.01047332 0.030382883 0.023077551 0.04751817 -0.09282983 0.06366807 0.007944123
-0.017597646 -0.015692096 0.11525001 -0.0024081045 0.009610533 -0.051246602 0.108390786 -0.018205803
0.042026863 0.028410554 0.048441615 0.03211008 -0.06556744 -0.03357778 -0.098977394 -0.035373554
0.067703485 0.007655666 -0.0870252 -0.088921815 -0.05776679 0.027189491 -0.0028611713 0.035040997
-0.09209432 -0.119846106 -0.029681578 0.08192205 0.025512548 0.020565847 -0.016885124 -0.16042097
-0.026227392 -0.03403562 0.047502212 0.0012960866 -0.09964984 -0.105358 -0.0533295 0.023029711
0.043833308 0.03857022 -0.07979188 -0.06118842 -0.0121492 0.03984181 0.007689158 -0.046305712
-0.07208879 -0.078952916 -0.03374822 0.014215742 0.1064638 0.009963258 -0.14876615 -0.066971175
-0.0990647 0.0262671 -0.017768461 0.011111243 -0.045378566 -0.13603319 -0.11470025 -0.022612851
-0.01154959 -0.0021705977 0.0010007635 -0.018531198 -0.008224737 0.022742065 0.08977587 0.08932027
0.08955508 0.052076086 0.012594053 0.031001875 -0.07955799 0.0013903978 0.13546082 0.09253928
-0.04894157 -0.01652776 -0.0074010817 -0.04155279 0.055624723 0.10738225 -0.051817186 0.05916703
-0.048988514 0.044627562 0.10185367 0.030100962 -0.062041596 0.02923364 -0.061286885 0.017055724
0.082858 0.07162145 -0.016629541 0.043338627 -0.0065386835 0.032512028 0.074309066 0.10579962
-0.069116876 0.11144733 -0.042868357 0.05938087 0.041952685 0.05293931 -0.056155525 -0.053883277
-0.01287985 0.040995024 0.051069878 0.052403077 0.015519674 0.040296584 -0.0057401313 0.04374339
0.006259502 0.13038568 -0.075049825 0.01946141 0.02168841 0.049420092 -0.026745275 0.014333843
-0.096007295 -0.0042363084 -0.014432588 0.0015669164 -0.073916204 0.058354497 0.073068194 -0.025535708
0.06574744 0.019495156 -0.11860227 0.02407143 0.0019319376 -0.09364916 0.0071431077 -0.013669119
-0.13883805 0.08007647 0.16973224 0.0049964976 0.06668859 -0.030058518 -0.1478653 0.026604258
0.22334799 0.09264597 0.107687265 -0.075459495 -0.1091834 0.11490375 0.04378844 0.06113503
0.03415651 0.04506992 -0.1828282 0.019156437 0.07307874 -0.043399893 0.08968567 -0.058070607
-0.02371299 0.007092675 0.05758124 -0.045114543 0.059195116 0.0010324271 -0.06710854 0.06304035
0.115477316 -0.010595054 0.050234754 0.019637775 -0.22023419 0.017276067 0.08124549 -0.048733104
0.11412758 0.0013934921 -0.17232004 0.08448425 0.12806809 -0.025126105 0.05444263 -0.06482365
0.081900515 -0.18859816 0.12616615 -0.0045285327 -0.0881779 -0.032640893 0.08919636 -0.18231866
0.10806025 0.0058942623 -0.10080318 0.02620598 0.02364672 -0.21235499 0.12905657 -0.084521405
00000000: 820c 9f3d d5d1 d6bc 014e a73d feed 363d
00000010: bb98 37bc 85b6 97bc ed72 353d d8f8 c9bc
00000020: 40bf 333e 0408 11bc 912e aa3d c248 ce3c
00000030: 0ced f13d dd27 b23c 551b cf3c 1ac4 973c
00000040: 5dce 823c 1929 59bd 4476 733c 6f4c 41bd
00000050: e90f 6b3d 144e 3e3c 0499 b0bd 1a29 163d
00000060: 71ea 093d 3f31 b8bd ba83 80bb bf32 d13b
00000070: cc79 4abd 1e67 a03c 17a8 b23c 2987 30bc
00000080: d910 9eba 778f 083d df45 ca3d 1ed2 093d
00000090: 6cd3 ae3d c4a7 3bbc 5bb0 b33d b2c9 dc3b
000000a0: 0eb2 01bd 4a98 2b3c 86e5 f83c 220d bd3c
000000b0: 6aa2 423d 911d bebd 6864 823d 1128 023c
000000c0: f028 90bc b68c 80bc 3208 ec3d 4ad1 1dbb
000000d0: 7f75 1d3c f5e7 51bd fdfb dd3d 5624 95bc
000000e0: 5c24 2c3d 40bd e83c b76a 463d dc85 033d
000000f0: 3948 86bd db88 09bd a9b4 cabd dce3 10bd
00000100: 20a8 8a3d 62dc fa3b 453a b2bd a41c b6bd
00000110: df9c 6cbd 7fbc de3c 7d82 3bbb 2687 0f3d
00000120: f29b bcbd e071 f5bd c826 f3bc bfc6 a73d
00000130: b1ff d03c b579 a83c ac52 8abc 6545 24be
00000140: d4da d6bc ef68 0bbd ae91 423d 73e1 a93a
00000150: 3715 ccbd efc5 d7bd 0970 5abd cea8 bc3c
00000160: 8e8a 333d cffb 1d3d ed69 a3bd b5a0 7abd
00000170: 700d 47bc 2a31 233d 55f5 fb3b 0fab 3dbd
00000180: 4aa3 93bd 11b2 a1bd 933b 0abd 25e9 683c
00000190: b109 da3d ef3c 233c 2756 18be 2f28 89bd
000001a0: 6fe2 cabd 1a2e d73c 2a8f 91bc ee0b 363c
000001b0: e0de 39bd 494c 0bbe f7e7 eabd 963e b9bc
000001c0: 7e3a 3dbc 9640 0ebb 0d2c 833a bdce 97bc
000001d0: 0cc1 06bc 914d ba3c 69dc b73d 8ced b63d
000001e0: a768 b73d bc4d 553d 4957 4e3c a5f7 fd3c
000001f0: 4def a2bd 023e b63a 3eb6 0a3e 3c85 bd3d
00000200: f576 48bd 3a65 87bc c684 f2bb 4233 2abd
00000210: c0d6 633d 3aeb db3d 423e 54bd 2159 723d
00000220: 2ea8 48bd 64cb 363d a898 d03d 4b96 f63c
00000230: 541f 7ebd 637b ef3c f507 7bbd 72b8 8b3c
00000240: 75b1 a93d 44ae 923d ad3a 88bc d883 313d
00000250: 7442 d6bb 552b 053d 5a2f 983d 79ad d83d
00000260: 268d 8dbd 7f3e e43d bb96 2fbd 5b39 733d
00000270: 94d6 2b3d e4d6 583d 5603 66bd b6b4 5cbd
00000280: 0206 53bc 66ea 273d a62e 513d 9ca4 563d
00000290: 3b46 7e3c 080e 253d b617 bcbb 452c 333d
000002a0: 821c cd3b d383 053e b9b3 99bd 896d 9f3c
000002b0: e4ab b13c b96c 4a3d e818 dbbc 7fd8 6a3c
000002c0: 799f c4bd bbd0 8abb a976 6cbc fd60 cd3a
000002d0: 6161 97bd 2005 6f3d c7a4 953d 4330 d1bc
000002e0: 98a6 863d 4eb4 9f3c bfe5 f2bd 7331 c53c
000002f0: 1239 fd3a 21cb bfbd bb10 ea3b 71f4 5fbc
00000300: 902b 0ebe 22ff a33d 4ace 2d3e a9b9 a33b
00000310: 0794 883d 483d f6bc 006a 17be 2cf1 d93c
00000320: 56b5 643e 2cbd bd3d 248b dc3d 828a 9abd
00000330: 8c9b dfbd a852 eb3d 825b 333d ba68 7a3d
00000340: b2e7 0b3d 3d9b 383d 5137 3bbe f6ed 9c3c
00000350: 4eaa 953d 16c4 31bd 1fad b73d 72db 6dbd
00000360: bf41 c2bc ac69 e83b 4eda 6b3d 07ca 38bd
00000370: 9476 723d 8152 873a 3470 89bd 4d1b 813d
00000380: 5f7f ec3d e196 2dbc f5c2 4d3d 66df a03c
00000390: 1285 61be 8a86 8d3c 0964 a63d 5d9c 47bd
000003a0: b8bb e93d d6a5 b63a aa74 30be 1406 ad3d
000003b0: 4824 033e 43d5 cdbc 3cff 5e3d 43c2 84bd
000003c0: 75bb a73d e01f 41be b331 013e 1664 94bb
000003d0: 9d96 b4bd 75b2 05bd 95ac b63d beb1 3abe
000003e0: b14e dd3d a824 c13b e671 cebd ecad d63c
000003f0: c4b6 c13c 9673 59be 6827 043e 8f19 adbd

network_body.linear_encoder.seq_layers.2.bias f4 [256]
-0.034210116 -0.07435452 -0.06299586 -0.02641086 -0.07639267 -0.017246285 -0.03212271 -0.046324905
-0.04302748 -0.036550857 -0.044933956 -0.046643883 -0.032477286 -0.040960915 -0.044107527 -0.039774913
-0.046087276 -0.07652769 -0.07470048 -0.04443988 -0.008579997 -0.011873613 -0.048422303 -0.031347096
-0.063583665 0.005144563 -0.075545095 -0.022111898 -0.07111329 -0.026632033 -0.017698778 0.0063022748
0.004339297 0.09305974 -0.05124442 -0.03552254 -0.04748396 -0.007501537 -0.042776495 -0.013640358
-0.08046499 -0.13189504 -0.09699139 -0.08570184 -0.015256613 -0.06117578 -0.030641051 -0.06405605
-0.040760957 -0.016583363 -0.026291082 -0.016351422 -0.048312645 -0.034907814 -0.08594342 -0.030098474
-0.07622026 -0.009361515 0.009450564 -0.08040681 -0.017280892 -0.040390342 -0.012146951 -0.03379134
-0.030412767 0.012641726 -0.048540328 -0.100535914 -0.05783059 -0.03088377 -0.03055648 -0.07928236
-0.08531437 -0.03193148 -0.07325876 -0.06124569 -0.04984205 -0.06622165 -0.008265762 -0.044950802
-0.045362636 -0.031876784 -0.027610064 -0.0037433305 -0.06394427 -0.09059419 -0.005559199 -0.009256658
-0.050135214 -0.045034792 -0.051233694 -0.033136655 -0.05990385 -0.08120077 -0.05447867 -0.04408563
-0.020916384 -0.060161166 -0.06267412 -0.09902409 -0.076969564 -0.047753703 -0.016618261 -0.060611248
-0.05682182 -0.057806298 -0.03707365 -0.042639345 -0.011410116 -0.06672335 -0.011892299 -0.037728712
-0.03664476 -0.05699068 -0.03674611 -0.04838568 -0.025987362 -0.038541485 -0.065869585 -0.038974095
-0.042330835 -0.07982241 -0.06271546 0.007867595 -0.037599575 -0.03422178 -0.07909643 -0.037462953
-0.074150436 -0.06560023 -0.08419904 -0.007554883 -0.048995294 -0.05660202 -0.07960889 -0.07642387
-0.026723232 -0.068757296 -0.07019997 -0.005214991 -0.058613822 -0.01535899 -0.03013237 -0.055027407
-0.035099346 -0.034417078 -0.071008325 -0.09554309 -0.08648294 -0.08801315 -0.044354886 -0.030206522
-0.032409813 -0.04920342 -0.08009871 -0.029126547 -0.048053626 -0.04919161 -0.03248395 -0.055620708
-0.05624737 -0.092399515 -0.02326883 -0.037405025 -0.07816448 -0.025756268 -0.008520724 -0.015234321
-0.05428373 -0.024143405 -0.0541024 -0.039546706 -0.06687151 -0.00887377 -0.109283656 -0.039717723
-0.057352785 -0.016022058 -0.07555861 -0.04048104 -0.058234986 -0.069752425 -0.08029762 -0.035609625
-0.07894153 0.015124232 -0.028788995 -0.053391222 -0.03272608 -0.03906974 -0.035031468 0.004122389
-0.069053 -0.033359908 -0.05017036 -0.025885193 -0.008474365 -0.07482215 -0.045979746 -0.018482544
-0.02599598 -0.08525558 -0.006343172 -0.042544972 -0.03632848 -0.00692615 -0.051412355 0.012103798
-0.08209284 -0.093318604 -0.08025418 -0.015468825 -0.026014147 -0.08803763 -0.07275454 -0.018461425
-0.028578041 -0.007032846 -0.050000962 -0.016128581 -0.055823438 -0.023580061 -0.013247559 -0.035066955
-0.03236219 -0.022455823 -0.11017938 -0.014182944 -0.045683686 -0.012218556 0.029195784 -0.046250753
-0.053637885 -0.07113482 -0.07547404 -0.028304243 -0.09483096 -0.03606129 -0.04899575 -0.05977251
-0.0611398 -0.0554143 -0.038915273 -0.07749886 -0.042317815 -0.026882883 -0.048768673 -0.09470416
-0.09784599 -0.036996104 -0.024540009 -0.025329815 -0.08821335 -0.025599567 -0.020201162 -0.022124197
00000000: e81f 0cbd 2f47 98bd f903 81bd 965b d8bc
00000010: c373 9cbd 1548 8dbc 1a93 03bd 2fbf 3dbd
00000020: 953d 30bd 5ab6 15bd ab0c 38bd a80d 3fbd
00000030: e706 05bd a2c6 27bd 18aa 34bd 05eb 22bd
00000040: 03c6 3cbd 8dba 9cbd 91fc 98bd 9706 36bd
00000050: 1e93 0cbc 8b89 42bc 7756 46bd d065 00bd
00000060: 2738 82bd b993 a83b 63b7 9abd 0324 b5bc
00000070: d8a3 91bd 6c2b dabc 07fd 90bc 5083 ce3b
00000080: a930 8e3b 1b96 be3d abe5 51bd 1580 11bd
00000090: 8a7e 42bd 74cf f5bb 6836 2fbd cf7b 5fbc
000000a0: d4ca a4bd 7e0f 07be 6ca3 c6bd 7284 afbd
000000b0: dff6 79bc 7493 7abd f102 fbbc d12f 83bd
000000c0: f6f4 26bd d5d9 87bc 6560 d7bc 6bf3 85bc
000000d0: 7be3 45bd 7ffb 0ebd 1b03 b0bd 1391 f6bc
000000e0: 5e19 9cbd 0a61 19bc 8ad6 1a3c 53ac a4bd
000000f0: a890 8dbc 5870 25bd 0104 47bc ca68 0abd
00000100: 3224 f9bc 3e1f 4f3c 39d2 46bd c6e5 cdbd
00000110: c5df 6cbd f6ff fcbc 9551 fabc ca5e a2bd
00000120: 4db9 aebd 95ca 02bd b008 96bd c3dc 7abd
00000130: 2d27 4cbd 379f 87bd 1e6d 07bc 551e 38bd
00000140: 2cce 39bd 3b91 02bd 802e e2bc aa52 75bb
00000150: 37f5 82bd 7289 b9bd f129 b6bb 3da9 17bc
00000160: 955a 4dbd 6776 38bd 6cda 51bd 4dba 07bd
00000170: bd5d 75bd 974c a6bd 0725 5fbd 2293 34bd
00000180: d658 abbc 8e6b 76bd 4a5b 80bd 24cd cabd
00000190: 38a2 9dbd 6399 43bd 0523 88bc 8043 78bd
000001a0: ffbd 68bd 4cc6 6cbd 8ada 17bd 98a6 2ebd
000001b0: 7ff1 3abc 40a6 88bd ebd7 42bc 6c89 1abd
000001c0: d118 16bd 0f6f 69bd 1783 16bd 1030 46bd
000001d0: 73e3 d4bc addd 1dbd a2e6 86bd 4da3 1fbd
000001e0: 1963 2dbd ef79 a3bd f770 80bd 16e7 003c
000001f0: 0302 1abd 232c 0cbd 4ffd a1bd c172 19bd
00000200: 2fdc 97bd 6a59 86bd 8c70 acbd f48e f7bb
00000210: 4aaf 48bd 85d7 67bd fc09 a3bd 1e84 9cbd
00000220: aeea dabc a0d0 8cbd 00c5 8fbd 84e2 aabb
00000230: 0c15 70bd 46a4 7bbc 29d8 f6bc 6b64 61bd
00000240: 55c4 0fbd ecf8 0cbd d06c 91bd 18ac c3bd
00000250: f81d b1bd 3d40 b4bd 78ad 35bd ab73 f7bc
00000260: 27c0 04bd 8689 49bd cb0a a4bd cc9a eebc
00000270: e1d3 44bd 247d 49bd e40d 05bd 8ad2 63bd
00000280: a463 66bd f53b bdbd 469e bebc 0336 19bd
00000290: b314 a0bd cffe d2bc 829a 0bbc 6099 79bc
000002a0: 9e58 5ebd 64c8 c5bc 7a9a 5dbd bafb 21bd
000002b0: eef3 88bd 4a63 11bc 1cd0 dfbd 0daf 22bd
000002c0: c1ea 6abd b140 83bc 79be 9abd 72cf 25bd
000002d0: cf87 6ebd 5cda 8ebd 1473 a4bd 66db 11bd
000002e0: 19ac a1bd a0cb 773c e6d6 ebbc c1b0 5abd
000002f0: c80b 06bd 9707 20bd 287d 0fbd 1b15 873b
00000300: a96b 8dbd 66a4 08bd 6f7f 4dbd 2f0d d4bc
00000310: 10d8 0abc 5b3c 99bd 4255 3cbd b468 97bc
00000320: 85f5 d4bc 7a9a aebd 62da cfbb a343 2ebd
00000330: 2ccd 14bd c2f4 e2bb c395 52bd 024f 463c
00000340: 4a20 a8bd d31d bfbd 4e5c a4bd f470 7dbc
00000350: 9f1b d5bc 134d b4bd 5500 95bd 6a3c 97bc
00000360: 7f1c eabc ca73 e6bb cfcd 4cbd 1620 84bc
00000370: 1ea7 64bd f92a c1bc 4a0c 59bc 5ea2 0fbd
00000380: 378e 04bd 46f5 b7bc baa5 e1bd 945f 68bc
00000390: d11e 3bbd 5730 48bc ff2b ef3c 6e71 3dbd
000003a0: 66b3 5bbd 22af 91bd 2292 9abd 4dde e7bc
000003b0: bc36 c2bd 01b5 13bd c4af 48bd 05d4 74bd
000003c0: ba6d 7abd 1bfa 62bd 9f65 1fbd b9b7 9ebd
000003d0: 7255 2dbd 7e39 dcbc a9c1 47bd 41f4 c1bd
000003e0: 7a63 c8bd 3a89 17bd 2108 c9bc 7980 cfbc
000003f0: 33a9 b4bd 2fb6 d1bc e87c a5bc ce3d b5bc
