Config/results/Env_PPO_17/EnvironmentAgentBehavior/EnvironmentAgentBehavior-499928.onnx (onnx, 620757 bytes, 204 tensors)

action_model._discrete_distribution.branches.0.bias f4 [2]
00000000: e845 813a e445 81ba
0.0009862753 -0.0009862748

action_model._discrete_distribution.branches.0.weight f4 [2, 128]
00000000: 5ef9 153b 1a03 703c 5eb6 e93b 8b88 acbc
00000010: 3618 5bbc d70b 073b d93a b93b 27fa 1c3c
00000020: 345d f73a 7301 b23a 47d6 a7bb 1e16 5ebc
00000030: 7dc5 bd3b 3e77 3abb 7093 c23c 7913 dd3a
00000040: b114 933b 73f5 bdbb ce41 a1bc 18da 843c
00000050: 2ff7 c83b 759d 3e3c 08b5 13bc ee1b a4bb
00000060: c43e 583c 9d63 4a3c c691 47bb b3d6 04bc
00000070: c5ee 953c b10a b03a 7a62 c1bb 4cd1 86bb
00000080: 8754 a73c 6eb2 86bb 980a 9dbb 9503 ea3b
00000090: 409a 023c 37d5 31bc d055 bebb 57b6 e6bb
000000a0: 7890 983c a66b 3ab8 2aa1 bfbc c532 c3bc
000000b0: 87ec 66bb cf6b ecbb a800 c73c bc1e a8bb
000000c0: 9e90 e8bb 14e7 c9bb 72db 1cbd bbfd 533c
000000d0: 2602 983c 20c9 253b 7876 0ebb 02e6 233c
000000e0: 84e8 6dbc cf56 38bc 0f88 fa3a f4eb 073c
000000f0: 005f 7fbc 9224 5bbc 6a16 ac3b e82b c739
00000100: f768 7739 c8a2 773b 4f86 6c3c 4641 16bc
00000110: 84bd 7ebc 74bd e3ba 3e32 babb 7e33 35bc
00000120: 6867 653c 805b 69bb 03da 183c 8b1e 933c
00000130: dd4e 903c 8000 0c3b ce4e 7d3c 5e74 43bc
00000140: 26f9 9c3c 3d2c c63a 205a 333c a612 36bb
00000150: 6300 27bc a323 fc3c 8e6d 803b a211 823c
00000160: 6819 163a 649c 9d3c e432 59bc c22e ac3c
00000170: 7cbd 67bb 649c 193c 22ba 7dbb b058 1e3c
00000180: 0fef 15bc f76f 0bbc 6352 03bc 5e68 7e39
00000190: a609 293c 0275 f43b 3870 bbbc c026 99bb
000001a0: 0c0f 38ba 324e eabc 6fb3 03ba 6c5b a1bb
000001b0: 8cf1 c83b 6f3c 5f3c b5b4 aabb c91b 4d3b
000001c0: f162 093c 05b8 b1bb 38e8 113c aba7 8d3c
000001d0: b5e2 cb3b 5b49 f7bb 201e 003c 475f 70bc
000001e0: 2f42 bdbb cc97 9ebb d6cc 1ebb e45e 99bc
000001f0: c838 d43b a52e a2bb 1d5b 05bb dd15 223c
00000200: f049 6dbb de9f 75bc db39 be3b c30c cb3c
00000210: 1a1c 5cbb 4431 8ebb 12d0 4f3b e365 81bc
00000220: 25cf b73c 0ced c33b a5b4 e03a 3f92 0ebc
00000230: 905a 433c 7342 12bc bdf3 82bc 312e c33b
00000240: a861 423b fa45 c43c eb5e 813b be50 24bc
00000250: 639c 9c3b 89bc 70ba 7952 1bbc ea3f 96bb
00000260: 4235 7a3b 8516 9139 feb9 20bc ea04 443b
00000270: 67cc 6d3b 6d52 4d3c 04bb f13b 8eed b83b
00000280: bb0e 66bb fc53 b5bc 837e 39bb b9b2 85bc
00000290: e2a2 cabc 0666 023d 432f 9d3b 1b57 abbc
000002a0: eb0d c4bc e0e7 6bbc 0f27 5d3c 8b02 bf3c
000002b0: 3e27 9fbc 6bf1 2a3c 94fd a0bc 449f 2b3b
000002c0: d4e8 b2bb c7d9 313c 4b1a 8f3c 2ad1 10bc
000002d0: e4fc a13b 2973 6cbc 4ce8 173c c9ed 313b
000002e0: 34b5 173c defb 903c d7c7 b93c 51f1 7fbc
000002f0: 751e c0bb 876a b7ba 1d34 f8bb bb8d cd3b
00000300: 24f7 86bc d521 6ebc a55e 65bc cca5 a6bb
00000310: 8587 b83b a58c 1c3c 93e2 4fbc 29e8 073b
00000320: 5574 c7bc c000 bebb 7820 1cbc 0aa7 2abc
00000330: b9e9 5cbc cb1b 8f3a d72a 55bc 7aaf 333c
00000340: 25d2 b2bc 6e46 c63a ee6d b53a 0086 8abb
00000350: 611f 8f3c 2206 22bc 3fc7 99bc 580c 75bb
00000360: 4613 82bb bb02 c03a 47a5 823c 3999 90bc
00000370: 35e8 4dbb 37b1 c8bb 7be5 e83b 949f ccbb
00000380: bfef 07bb e8b7 223b a630 983b 5f25 46bb
00000390: a529 0cbc d555 85bb 6868 533b b40c f93b
000003a0: 9385 59bc 19ff 0e3c 72dd 073b 38ae 9c3c
000003b0: 33b5 923a 5781 e0bb 84a8 9eb9 e0ef 5abb
000003c0: 9e7a 823b 9616 3b3c d1e9 0d3c e601 1dbb
000003d0: fd2b cf3b 1d09 263b a832 3cbc 203b 8a3c
000003e0: eb28 743c 13a3 a23b 8806 69bb e1d1 423a
000003f0: 8dd4 273a 8c0d 0f3b 1bcc 77bc 02ad 7dbb
0.002288423 0.014649177 0.0071323356 -0.021061203 -0.013372472 0.0020606422 0.005652767 0.009581125
0.0018872381 0.0013580754 -0.0051219794 -0.013555078 0.0057913647 -0.0028452422 0.023751944 0.0016866765
0.0044885506 -0.005797082 -0.019684698 0.016217276 0.006132982 0.01163422 -0.009015329 -0.0050082123
0.013198558 0.012352851 -0.0030451878 -0.008107829 0.01830233 0.0013430921 -0.005901632 -0.0041143056
0.020426048 -0.004110626 -0.0047925226 0.0071415403 0.007971346 -0.010854057 -0.0058085695 -0.0070407796
0.018623576 -4.444611e-05 -0.023392279 -0.02382792 -0.0035236196 -0.007215 0.024292305 -0.005130617
-0.007097318 -0.00616158 -0.038295217 0.012938912 0.018555712 0.0025296882 -0.0021738093 0.010003569
-0.014520768 -0.0112511655 0.0019114035 0.008296002 -0.015586615 -0.013375418 0.0052516954 0.0003798895
0.00023594858 0.0037786234 0.014436319 -0.009170836 -0.015548114 -0.0017375187 -0.005682259 -0.01105964
0.014001705 -0.0035607517 0.009329322 0.0179589 0.01761573 0.0021362603 0.015460683 -0.0119296
0.019161772 0.0015119385 0.01094678 -0.0027782111 -0.010192963 0.030778712 0.00391931 0.015877549
0.0005725832 0.019239612 -0.013256762 0.02101839 -0.0035360744 0.009375665 -0.003871568 0.009664699
-0.009151234 -0.008510581 -0.008015248 0.00024262207 0.010317242 0.0074602375 -0.022880659 -0.004673809
-0.0007021285 -0.02860174 -0.0005023991 -0.0049242284 0.0061323103 0.013625248 -0.0052095302 0.0031297079
0.008385406 -0.005423548 0.008905463 0.017291864 0.006222094 -0.0075465865 0.007819682 -0.014671153
-0.005775712 -0.004839873 -0.0024230978 -0.018722005 0.0064764954 -0.004949408 -0.0020348497 0.009892908
-0.00362074 -0.014991729 0.0058052368 0.024786359 -0.0033586086 -0.004339369 0.0031709713 -0.015795654
0.022437641 0.005979186 0.001714368 -0.00870186 0.011923447 -0.008926976 -0.015985364 0.005956434
0.0029660258 0.023959149 0.0039480827 -0.010029016 0.004779385 -0.00091833674 -0.009480112 -0.004585256
0.0038178717 0.00027673334 -0.009809969 0.0029910156 0.0036285163 0.012531859 0.0073770303 0.005643553
-0.0035103995 -0.022134773 -0.0028304167 -0.016320573 -0.024735872 0.03183558 0.004796894 -0.020915559
-0.023932418 -0.014398545 0.013498082 0.023316642 -0.019427892 0.010433535 -0.019652165 0.002618746
-0.005459884 0.010855145 0.017468592 -0.008838931 0.004943477 -0.014431753 0.0092716925 0.0027149788
0.009259511 0.017698225 0.022678299 -0.015621499 -0.0058630058 -0.001399354 -0.0075745718 0.006272999
-0.016475268 -0.014534433 -0.013999616 -0.0050856825 0.0056313896 0.009555017 -0.012688297 0.0020737743
-0.024347464 -0.0057984293 -0.0095292255 -0.010415802 -0.013483458 0.0010918317 -0.013010702 0.01096713
-0.02182872 0.0015127191 0.0013841966 -0.0042274 0.017471017 -0.0098891575 -0.018771766 -0.003739139
-0.0039695827 0.0014649251 0.015947951 -0.017651187 -0.0031418924 -0.0061246413 0.0071074343 -0.006244609
-0.0020742265 0.0024828855 0.004644471 -0.0030234677 -0.008554851 -0.00406907 0.0032258276 0.0076003913
-0.0132764755 0.008727812 0.0020731357 0.019126043 0.0011192918 -0.006851356 -0.00030261662 -0.0033407137
0.0039819023 0.011418959 0.008661703 -0.002395743 0.0063223825 0.0025335022 -0.011486687 0.016873896
0.014902334 0.0049632876 -0.0035556871 0.0007431787 0.0006402217 0.0021828143 -0.015124346 -0.0038707857

action_model._discrete_distribution.branches.1.bias f4 [2]
00000000: bb72 bebb be72 be3b
-0.005812017 0.005812018

action_model._discrete_distribution.branches.1.weight f4 [2, 128]
00000000: dba7 73ba 9c9d b2bb 7490 45bc d67b 7bbc
00000010: 8ac5 e83b 2775 adbb f38a 08bc 3072 66bb
00000020: 83de 623a 07ae 2d3c 88e5 9f3c 572d acbc
00000030: 6085 c3bc d781 08bc 1b60 5039 eb77 2bbc
00000040: 4a73 e2bb e50c dc3b b0b4 9fbc 1a40 823c
00000050: de1b 263c a7ce a53b 9ed9 953b f452 b6bb
00000060: 35aa 683c a8c5 b03b e351 9f3c 0740 23ba
00000070: 42e8 fbbb 2f0d 6c3c db98 083c 8823 c83b
00000080: 4230 943c eda6 1c3b 3478 7d3c 9b87 a039
00000090: bdea 3d3b 0c4b 483b 9c87 863b 0a44 433c
000000a0: a624 a63c bf16 203b b024 e6bb 5678 90bc
000000b0: f557 c53b f1ca a1bc 7eb7 113c ef83 e73b
000000c0: 4e40 323b 835b 0abc dc80 a53b d52b 32bb
000000d0: 124d 04bc 5003 423c 599e e13b 1249 04bc
000000e0: 1c6c 9c3b 84aa 173c 3a3f 1abc 0659 3b3c
000000f0: 56f0 08bd 1a3a b23a 3cc2 8fba cfe4 8b3b
00000100: ca98 50bb eba7 dc3b a3cd 84bb 7e4d 073b
00000110: fbac 483c de7a e83b cfaa 503c 49f2 f43b
00000120: 1703 0bbc 7187 333c 7c4b a0bb 5f24 92bb
00000130: fece cdba 015f 8c3a 6b16 98bc bb39 bbbb
00000140: 0667 e53a 1c07 a3bb b10b b83b 6b46 c73b
00000150: 72f2 233c a772 3ab9 3362 313b 0a4e 60bc
00000160: b2bc aabc fba0 6bbb 0937 24bc 2463 26bc
00000170: ad06 633c fca2 d5bb 7dcf 21bb 1b1d f4bb
00000180: 98ca 0c3b 9c73 8dbc 2eb4 48bc daf2 44bc
00000190: 9b32 ec3b eaf3 153a 9348 993b f36d c2bb
000001a0: 9433 55bb 3ed7 893c a066 3dbc d077 47bb
000001b0: a988 9dbb 77ef 24bc a7fa e4bb aa4f bfbc
000001c0: c35c 173c 06a1 2fbb 63e2 a93b 5bbf 08bc
000001d0: 7aa7 233c 77ee e2bb 9385 893c af02 e43b
000001e0: b8c5 4d3a 30d3 6d3c 42ca 903b 2cec 853c
000001f0: 8bf4 a8bb 4e48 c73b 687f 9ebc 851b a2bc
00000200: 5a4b 71bc ad8b 0a39 cd01 373c f956 133c
00000210: dddd 3c3c 4b48 973b e322 09bc 6d99 8d3b
00000220: cc22 773c add6 8fbb ffda 2fbb cc5f 5c3c
00000230: 0e30 4e3c f144 5f3c f93d d33b 51b5 cdbb
00000240: e685 ccba 6ed0 ee3a e8a1 953c b8c8 0cbc
00000250: ff33 f63b 6dcf cd3b ad19 703c b9b7 7d3c
00000260: b099 f2bb ac42 25bc eebe 48bc 8173 6c3a
00000270: e33f e83a e0ce 98bc c6fa dbbb 57bc c4bb
00000280: 1b68 043a 354c 9ebb 7596 27bc ac07 eaba
00000290: 958f 23bc 4662 993b 039c 363b 05ce f3bb
000002a0: f24c 2abc f9ef 75bc f49e 0cbc 8e3d 6d3c
000002b0: 6da4 84bb f019 243c 56a7 23bb ccb7 d73b
000002c0: 8797 80bc 14ad 893c 4211 64bc 7c0d 263b
000002d0: 48ab 6cbc 5970 3cbc b7bd b039 d2d5 1a3b
000002e0: e448 efbb ff29 9b3b 3cfb c93b be84 64bb
000002f0: 9d2c 893c 561a 493c 1cc2 4abc 6d6b 303b
00000300: 95ce 5b3b f682 37bc d617 413b 6740 e73b
00000310: 4a96 a2bb 732b 18bb 5fb3 74bc 80d5 913b
00000320: afa6 d33c ad6a 0cbc dfcc 7a3c a8db 8f3c
00000330: d315 2f3c d932 953a 1faf a03c 70df a0bb
00000340: a207 e2bb 0ffa 2b3c 95e2 efba 1a21 af3b
00000350: 40d5 8bbc fc19 9a3c bc53 13bc a405 79bb
00000360: 55fc b33c 5181 c63a ffa6 aabb 7c2b eb3c
00000370: 7e12 13bc 74fc 7c3b b080 fbbb 0b40 7cbb
00000380: ad7b 5c3c b42c fabb 8db1 91ba 5326 c33c
00000390: 033e b9bb ddcb 62bc 0236 e93b 8fa2 823c
000003a0: fdd3 463c 65b0 17bc cc09 8e3c d014 433c
000003b0: 53ac 5dbc de0d cf3b 3275 d53b cac5 1f3b
000003c0: e976 3b3c 4a5a f13a 8605 1cbb 80ff 693c
000003d0: 0450 28bb 9f39 bb3c 34ff e53b a19a 53bb
000003e0: 2b95 d63b ab8d 18bc 3aa7 1dbc 4b1a 63bb
000003f0: 25a9 133b babd 533c 51db 2d38 f134 08bc
-0.0009294727 -0.0054509174 -0.012058366 -0.015349349 0.0071036266 -0.0052935067 -0.008333909 -0.0035163276
0.00086543727 0.010600573 0.019518629 -0.021017713 -0.02386731 -0.0083317375 0.00019872228 -0.010465602
-0.006910716 0.0067154043 -0.019495338 0.015899707 0.01013848 0.0050600353 0.004573061 -0.005564088
0.014200737 0.005394656 0.019448226 -0.00062274974 -0.0076875994 0.01440744 0.008337225 0.0061077513
0.018089417 0.0023903206 0.015470553 0.00030618612 0.0028979026 0.003056231 0.0041055214 0.011918077
0.020281147 0.002442762 -0.0070234165 -0.017635506 0.006022448 -0.01975009 0.008893846 0.0070652883
0.0027198973 -0.00844467 0.0050507616 -0.002718677 -0.008075016 0.01184161 0.0068853316 -0.008074062
0.00477363 0.009256963 -0.009414488 0.011434799 -0.033432327 0.0013597638 -0.001096792 0.0042692195
-0.003182935 0.0067338846 -0.004052834 0.0020645554 0.012248273 0.007094725 0.012736036 0.0074751717
-0.008484623 0.010957585 -0.004891811 -0.004459902 -0.0015701947 0.0010709466 -0.018565377 -0.005713669
0.0017502017 -0.0049752127 0.005616628 0.0060813925 0.010006534 -0.00017781054 0.0027066588 -0.013690481
-0.02084193 -0.0035954106 -0.010022887 -0.010155473 0.013856572 -0.0065196734 -0.0024690323 -0.0074497587
0.002148306 -0.01726704 -0.012249989 -0.012020791 0.007208181 0.0005720245 0.004677841 -0.005933517
-0.0032531964 0.016826268 -0.011560112 -0.0030436404 -0.004807551 -0.0100668585 -0.006987888 -0.023353416
0.009238425 -0.0026798858 0.005184458 -0.008346404 0.00998866 -0.0069254 0.016787326 0.0069583277
0.0007849592 0.014515683 0.0044186423 0.016347967 -0.005156105 0.0060816174 -0.019347861 -0.019788513
-0.014727438 0.00013212739 0.011169863 0.008992904 0.011527506 0.0046167723 -0.008370134 0.0043212683
0.01508398 -0.004389605 -0.0026833413 0.013450574 0.012584699 0.013627277 0.0064465967 -0.006277718
-0.001560387 0.0018220076 0.01826568 -0.008592777 0.0075135226 0.0062808306 0.014654559 0.015485697
-0.007403575 -0.010086697 -0.012252552 0.0009019897 0.0017719235 -0.018653333 -0.006713244 -0.006003897
0.00050509133 -0.004830862 -0.010228743 -0.001785507 -0.009982963 0.0046809046 0.0027863986 -0.007440331
-0.010394322 -0.015010827 -0.008582819 0.014480008 -0.0040479214 0.01001595 -0.0024971566 0.0065831896
-0.015697254 0.016806163 -0.01392013 0.0025337627 -0.0144451335 -0.011501395 0.00033710685 0.0023625982
-0.0073023904 0.004735231 0.0061639827 -0.003486916 0.016744906 0.012274345 -0.012375381 0.00269195
0.003353988 -0.011200657 0.002946367 0.007057238 -0.0049617635 -0.0023219257 -0.0149353435 0.0044505
0.025836317 -0.008570355 0.015307634 0.017560795 0.010686356 0.0011382952 0.019614754 -0.0049094483
-0.0068978826 0.01049663 -0.001830178 0.005344522 -0.017069459 0.018811218 -0.008992132 -0.0037997747
0.021970907 0.001514474 -0.0052078958 0.028707258 -0.008976577 0.0038602622 -0.007675253 -0.003849032
0.013457221 -0.0076347236 -0.0011115536 0.023821985 -0.0056531443 -0.01384255 0.007117034 0.015946655
0.012135503 -0.009258364 0.017338656 0.011906818 -0.013529855 0.006318792 0.006514215 0.0024379366
0.011441925 0.0018413749 -0.0023807003 0.014282107 -0.0025682459 0.022854624 0.007018948 -0.003228821
0.006548544 -0.00931112 -0.009622389 -0.0034653123 0.0022531238 0.012923652 4.145067e-05 -0.008313403

action_model._discrete_distribution.branches.10.bias f4 [2]
00000000: da4f 18ba e44f 183a
-0.00058102387 0.00058102445

action_model._discrete_distribution.branches.10.weight f4 [2, 128]
00000000: 7733 9ebc f34b 3abc ce3b 9d3b 7b17 e43a
00000010: bfc5 883c 240a 78bc b27d 02bc 06f6 e33b
00000020: a377 c1bb bb67 263c e080 483b 9bf9 c2bb
00000030: 1101 9e3c 04c7 1b3c f048 a43b 5d1a 1e3c
00000040: 1274 2e3c 7d0c 1d3c b99c 563b 55ab 46bc
00000050: 26a8 b0bc e112 3dbc d6d5 8b3c 767d 8a3c
00000060: 6212 b1bc 7eee cb3b 6afc 8a3c d490 1fbb
00000070: 763b c23b 88f0 ffbb 3f12 d9bc 4015 003c
00000080: c32a f3bb 5efd debc 1cab 203b 3ba4 27bb
00000090: bbe5 633c 4bc1 f63b 8c9d b83a 1813 f2bb
000000a0: 15fa 3ebb cb35 d1bc 0fec b1bb 2422 21bc
000000b0: bddf 3f3b 587b 92bc 82e2 4fbb fc0f 89bb
000000c0: 3e69 c83c d00d cb3b 0d2e b63b 0bf4 2c3b
000000d0: 9862 4b3c 6384 7f3a a48b 8bbc dee3 8bbb
000000e0: 069f 63bb fe1c 22bb cc29 43bc 1331 1dba
000000f0: d467 9e3c 9980 e43a 0d3a d03a 21ae ea3c
00000100: 8f77 8e3a 1347 4cbc cb7e a538 d440 d23b
00000110: fb2d 823c c45f 273c c4ce c8bc 59a1 32bc
00000120: c5c5 b1bb 2094 f5bb c2c9 54bc 55dd 58bc
00000130: fe9c 93bb ce80 c0ba e92d f3bb 425e c0bc
00000140: 597d 303b 8741 c33b 2aab 03bb c5be 2a3b
00000150: 5317 ac3a ca85 1e3c b075 fa3b 8657 e83b
00000160: d4b4 2f3c b38d d4bc d986 c2bb cd13 9f3b
00000170: 4a41 013c 865d 91ba 29e4 0d3c 386c 5bbb
00000180: bbbd 323c b779 823c 2e63 39bc 178c e1bb
00000190: 4e9a e33b fcf1 cdbb 997a 32bc 78dd 4bbc
000001a0: edef c5bb cc5a dcbb 6263 30bc ab69 813b
000001b0: f42a 3ebc 32f4 90bc a407 823a b58b 12ba
000001c0: 165f f7bb 041b 8fbb b7dc 493c 282d 78bb
000001d0: 6074 b73a 3308 ea3b 65ad 1c3b 4602 bfbc
000001e0: 583d 97bb 6535 73bc e8b4 da3b fbe7 a73b
000001f0: f3b7 50bb a980 20bb f679 24bc a8f1 a03c
00000200: a41a c63b 818d 2f3c 1c10 3dbb 1863 63bc
00000210: c509 3cbc 8ca0 a93b 5b80 233c 6ddf b7bc
00000220: ae68 1d3a 96ed ffbb 10b6 7a3c 7451 963b
00000230: 4540 1e3c 28b9 19bb 0f9c d4ba 7f64 9dba
00000240: 3118 b83b 94ea d8bb 7558 9b3b d0bc 9f3c
00000250: ecf8 793c 7fd7 6dbb dd9c 273c 6c45 27bc
00000260: b2d0 003c 2dbb 913b 4a77 cbbb 08fc 1abc
00000270: 0086 43bb d83c 2dbb 55d0 f5bb 8455 5fbc
00000280: ab41 c23b 40eb f0bb 8ddf ba39 a5e2 30bb
00000290: ef2f 8439 c26a 98bc 89da afb8 79b7 433c
000002a0: 1180 b5bb bb76 253c d5f3 5339 fbbe 9cbb
000002b0: a680 5bbc b140 913c e0c7 b73a 1f68 f2ba
000002c0: e64c 8fbc 6adb 4d3c a634 8c3b def9 203b
000002d0: 1eef 08bb 1542 1ebc e289 bbba 2ed6 d03c
000002e0: 3c7a 693c d1a4 ba3b d112 a53b 28c4 6c3b
000002f0: ea3f dcbc d235 d4bb 70c0 59bc f995 233c
00000300: f42a 953b d126 babb 4e18 673c fd50 233c
00000310: 179f 6fbc 404d 5abb 9265 a33c 0326 0dbc
00000320: b645 b53c cc07 833b 13f0 bd3a 138a a13c
00000330: 2c97 15bc e9d1 b1bb fff4 f9bb 3ac6 803c
00000340: 4297 85bb 87f2 0dbc 404b d5bb 3d2d 53bc
00000350: 34c7 793b e1c8 11bc 3f4c 0dbb c9ca f1bb
00000360: 67ba 03bd 3cc4 8eba 8683 5b39 e473 78bc
00000370: ab17 0cbb 1ddd 503b c7cb 1f3c 5897 083c
00000380: ca2e bebc de71 083b 2adb 4f3c 2454 c83a
00000390: bd12 773c ff43 f2bb 97de afba 9951 f33b
000003a0: 8397 29bc f36c 863c 8d33 be3c f0e1 58bc
000003b0: 207a 0a3c cb09 5f3c 96fd 7a3c 8e72 dabb
000003c0: 36c1 0dbc daf4 9bbc 6344 87bc c2b2 2b3c
000003d0: 23ae 93bb 67ff 8cbc 4b8f 79bc 383a db3b
000003e0: e2cb 00bc 3fd9 9b3c 9d88 11bc b852 44bc
000003f0: 968f 013b 2f87 e6bb b4f8 01bc a63e 9c3a
-0.01931165 -0.011370647 0.004798389 0.0017402017 0.016695855 -0.015139136 -0.007964538 0.0069568185
-0.0059041544 0.010156567 0.0030594394 -0.0059501654 0.019287618 0.009507898 0.0050135776 0.00964984
0.0106477905 0.009585497 0.0032747223 -0.01212581 -0.021564554 -0.011540146 0.017069738 0.016905528
-0.02161521 0.006223499 0.016966064 -0.00243478 0.0059274985 -0.007810656 -0.026497958 0.007817566
-0.007420869 -0.027220424 0.0024516052 -0.0025580067 0.0139097525 0.0075303665 0.0014085039 -0.00738753
-0.002914076 -0.025538346 -0.0054297517 -0.0098348 0.0029277646 -0.01788108 -0.0031720703 -0.0041828137
0.024464246 0.006196715 0.005559689 0.0026390578 0.012413643 0.0009747205 -0.01703436 -0.0042691072
-0.0034732237 -0.002473652 -0.011911821 -0.00059963873 0.019336618 0.0017433345 0.0015886441 0.028647484
0.0010869371 -0.012468117 7.89143e-05 0.0064164195 0.015891066 0.010215703 -0.024512656 -0.010902726
-0.0054251873 -0.0074944645 -0.012987556 -0.013236363 -0.004504799 -0.0014686824 -0.0074212444 -0.023482446
0.0026930182 0.005958739 -0.0020091035 0.002605365 0.001312951 0.0096754525 0.007643424 0.0070905117
0.010724265 -0.025946474 -0.0059364852 0.0048546554 0.007889101 -0.0011090494 0.008660355 -0.0033481251
0.010909493 0.015927179 -0.01131515 -0.006883155 0.006945885 -0.0062849503 -0.010893487 -0.012442939
-0.0060405643 -0.006724691 -0.010765882 0.003949364 -0.0116069205 -0.017694566 0.000992049 -0.0005590276
-0.007549177 -0.004367234 0.012320689 -0.0037868712 0.0013996474 0.0071420907 0.0023907062 -0.023316514
-0.004615467 -0.014844273 0.0066743977 0.00512409 -0.0031847924 -0.002449075 -0.010038843 0.01964648
0.0060456563 0.0107148895 -0.0028848713 -0.013878606 -0.011476939 0.0051766094 0.009979333 -0.022445405
0.0006004673 -0.007810305 0.015302196 0.0045873467 0.009658878 -0.002345631 -0.0016220825 -0.00120081
0.005618118 -0.0066197608 0.0047407695 0.019499213 0.0152571015 -0.0036291776 0.01023027 -0.010209423
0.007862257 0.004447362 -0.0062092887 -0.009459503 -0.002983451 -0.002643397 -0.0075016418 -0.013631228
0.0059282384 -0.0073522627 0.00035643243 -0.002699056 0.00025212715 -0.018605594 -8.3853556e-05 0.011945599
-0.0055389483 0.010099108 0.00020213363 -0.004783509 -0.013397371 0.017731043 0.0014021359 -0.0018494165
-0.017492723 0.012564519 0.004278737 0.0024562995 -0.0020894478 -0.00965931 -0.001430806 0.025492754
0.014250334 0.005695917 0.0050376435 0.003612766 -0.026885945 -0.0064761424 -0.01329051 0.009984487
0.0045522396 -0.005680897 0.014104916 0.00996804 -0.014625332 -0.0033310205 0.019945893 -0.00861502
0.022127967 0.003998732 0.0014491103 0.01971916 -0.00913028 -0.0054266346 -0.0076280828 0.015719522
-0.004076869 -0.00866378 -0.0065092146 -0.012889204 0.003811312 -0.008897991 -0.0021560339 -0.00737891
-0.03216019 -0.0010892223 0.00020934464 -0.015164349 -0.0021376412 0.0031870075 0.009753174 0.008336864
-0.02321567 0.0020819823 0.01268653 0.0015283865 0.015080151 -0.0073933597 -0.0013417777 0.0074254987
-0.010351065 0.016409373 0.02321794 -0.013237461 0.008451968 0.013613175 0.015319249 -0.006666488
-0.008652022 -0.019037653 -0.016512102 0.010479631 -0.0045068427 -0.01721163 -0.015231918 0.00669029
-0.007861109 0.01902449 -0.008882669 -0.011982612 0.0019769422 -0.007035158 -0.007932831 0.0011920526

action_model._discrete_distribution.branches.11.bias f4 [2]
00000000: d49f 07bc d49f 073c
-0.008277852 0.008277852

action_model._discrete_distribution.branches.11.weight f4 [2, 128]
00000000: 6ab8 1f3c d6b2 74bc 412b 1eba 3f76 9ebb
00000010: 0b5f b43c cc00 2e3c c9fc c63b 48a6 89bb
00000020: 0fb8 293b b7d3 a93c c4d1 60bc 026c 803c
00000030: 4f58 b2bc d5a2 0939 e4ff fdbb b54a 583c
00000040: b4fd 483c a536 00bc 8bef 4dbc 93ca 9f3b
00000050: b092 593c 5ac8 4abb bd70 1e3b 0a73 973b
00000060: d1ee 623c a421 87bc 4e40 8cb9 a427 303c
00000070: ca3c 15bc 0d31 fa3a 9917 2abc 4eb0 1db9
00000080: 5b2e bbbb 897b 95bb fa6f 90bb d485 013a
00000090: f5ab 86bb e1d6 e3bb ef26 35bc 542d e4ba
000000a0: 0e0e 863b 617d acbc 5c93 b43b 494a 40bb
000000b0: f37e f7ba 8943 ac3c 2baf 0bbb 3277 763c
000000c0: e050 5e3b c252 a83b 537b 05bc 81ed 253a
000000d0: baf9 213c 7787 52bb d6e3 2b3b 6399 353c
000000e0: a41d 843c 5da7 813c ae1c 43bc 60e1 50bb
000000f0: 964b 37bc 6ab2 26bb 7a2b bbba 68f9 953b
00000100: 9b9a 3fba ea15 39bb fc03 d43b 2903 25bc
00000110: a31e d23b c21e 663c 49c3 aebc 2452 ed3a
00000120: 44d2 083c 3741 9bbc 16d9 85bc 63c7 9abb
00000130: 677a 3a3c 521f 67bc c526 3ebc 2c9a bbbc
00000140: b243 933b aa6d ba3c bd98 54bb 46e0 aeba
00000150: a691 e539 2583 76bb a04c 17bc 1617 9cbb
00000160: 3e13 19bb 76f3 16bc 8e58 7f3b 6346 3cbc
00000170: 46ba 76bc cae6 143c bbd1 57bc 9f7b c0bb
00000180: 9a52 cd3b 7c7b 0f3c 4b0e c63b 39ef acbc
00000190: 1360 ca3b 918e 2fbb 9b5b b4ba cdf4 223b
000001a0: be81 b83b 35b2 16bb 8632 7d3b 2416 a63b
000001b0: da91 8bbc 8c8e c73b b8d7 083b fb67 c2bb
000001c0: 0094 ee3c 7ec4 18bb c870 e7bb 7174 f13b
000001d0: 7ff7 09bc 8273 eb3b 70c7 55b8 57ce 363c
000001e0: 1421 23bd d8af 563a e5d2 883c be5e 6e3c
000001f0: 9ef3 923c b1dc cbbb a4bb f538 bae2 47bc
00000200: a8dd 89bc 64bf 7bbc 410d 893b 265f 2eba
00000210: fb8d 61bc 1f45 1fbc 36b8 443c 7585 ddba
00000220: 6398 4b3c 8a75 46bc 3aa1 22bc f6d6 5fbc
00000230: 1acf 68bc bdb3 3ebc f219 ba3c 319f 69bb
00000240: f24c 76bc 3864 0f3c f039 c1bb 4eca 523c
00000250: 62da 5f3c 6665 a73c c411 44bc 8f90 08bc
00000260: 203e 213c eb81 d9ba 483e 7f3a 60a8 edbb
00000270: 414e acbb 48c0 d1bb 74d0 0c3b 552a b03c
00000280: 9135 1e3a 4918 81bc 01c6 c33b 1b5a b93b
00000290: 4c74 f53b 9c68 543c c15f 5cbb d75e 7d3c
000002a0: bf82 c7bb 59fa f43b f8af 78ba 5186 3d3c
000002b0: 0510 7abb ac79 933b df1f eaba fd59 76b9
000002c0: 638a ef3b fcaf 9f3c 93ad a23a 8b82 5cba
000002d0: b57e 82bc 282e 54bc 3ff3 043c 84be 8ebc
000002e0: c5e9 073b 67cf 71bc 6780 123b 39c4 a63c
000002f0: 4b50 fe3b 8a28 e4bb 4902 dd3b 922d 4abc
00000300: d5a6 463b e13f 573b 7fdc 363c 0f6d 8f3c
00000310: 2090 4cbc cf67 20bc e78a 9d3c 7130 0d3b
00000320: 4aa3 a23a d488 84bb 7cdb 2dbb c6b0 aabc
00000330: 6468 ef3b fd66 5438 12d1 7f3b 4090 873c
00000340: 09e4 afbc 73ee 7c3c fae0 1bbc 36ca 5d3c
00000350: 92c7 9dbc 3780 b03b 3ffe 1dbb 9ca8 903c
00000360: 51d6 45bb 09fe 20bc 335e 7fbc 689b 62bc
00000370: 921f cfbb ef8f 17bc 4b66 0fbc 2613 cd3b
00000380: dc21 f538 3997 69bb 315f 8dba ae62 113c
00000390: 6039 0dbc be9f 7f3c 64e3 f4bb 6525 f2ba
000003a0: 0720 69bc 6869 8b3c 27d0 963b 058b 243b
000003b0: f0c2 d53b b2d7 ea3b 1b09 2e3c f586 8fb9
000003c0: 3903 74bc ed51 733c c478 123c 2901 25bc
000003d0: e579 18bc e4e0 493c 2f39 c1bb a779 97bb
000003e0: 942f c5bb 2115 8abc 552b 4ebc 9fa8 07bc
000003f0: 58bb c0bb 1510 d2ba d2e5 87bb 5688 25bb
0.009748558 -0.014935216 -0.0006033667 -0.0048358734 0.022017976 0.010620307 0.006072615 -0.0042007305
0.002589706 0.020730836 -0.013721887 0.015676502 -0.021770624 0.00013125998 -0.007751452 0.013201405
0.012267519 -0.007825528 -0.0125693185 0.0048764437 0.013279602 -0.0030942173 0.0024176084 0.004621868
0.013850884 -0.016495533 -0.00026750792 0.010751639 -0.0091087315 0.0019088105 -0.010381603 -0.00015038365
-0.005712313 -0.0045618457 -0.00440788 0.00049409014 -0.0041098543 -0.006953106 -0.011056646 -0.0017408528
0.004091031 -0.02105588 0.0055107307 -0.0029341152 -0.0018882438 0.021028297 -0.0021314125 0.015043067
0.0033922717 0.0051368186 -0.008147079 0.00063296413 0.0098862 -0.00321242 0.002622833 0.0110839335
0.016127415 0.015826875 -0.011908693 -0.0031872615 -0.011187455 -0.0025435933 -0.0014279925 0.0045768507
-0.000730911 -0.0028241822 0.0064702015 -0.010071554 0.0064123436 0.014045419 -0.021333354 0.0018106145
0.0083509125 -0.018951995 -0.016338866 -0.004723476 0.011381722 -0.014106588 -0.011605923 -0.022900663
0.004494154 0.02275737 -0.0032439672 -0.0013341985 0.000437868 -0.003761479 -0.009234577 -0.0047634942
-0.0023357417 -0.009213319 0.0038962695 -0.011491391 -0.0150590595 0.0090882275 -0.013172562 -0.005874112
0.0062659504 0.008757468 0.0060441843 -0.021110164 0.0061760037 -0.0026787857 -0.0013760211 0.002486515
0.005630701 -0.0022994403 0.003863485 0.0050685573 -0.01703732 0.006089991 0.0020880532 -0.0059328056
0.029123306 -0.0023310478 -0.007063005 0.007368617 -0.008420824 0.0071854005 -5.0968898e-05 0.011157594
-0.039826468 0.0008189655 0.016702125 0.0145489555 0.017938431 -0.006221377 0.00011717461 -0.012200052
-0.016829327 -0.015365455 0.004182488 -0.00066517515 -0.013766761 -0.00972107 0.01200681 -0.0016900735
0.012426469 -0.012112984 -0.009926135 -0.0136620905 -0.014209533 -0.011639533 0.02271745 -0.0035647864
-0.015032994 0.008751921 -0.0058967993 0.012865616 0.013662906 0.020434093 -0.011967126 -0.008335247
0.009841472 -0.0016594505 0.00097367587 -0.007252738 -0.005258352 -0.0064010955 0.0021486552 0.02150456
0.00060352037 -0.01575865 0.0059745316 0.0056564934 0.0074906703 0.012964394 -0.003362641 0.015464506
-0.006088584 0.007476133 -0.00094866706 0.011567668 -0.003815652 0.0045005884 -0.0017862282 -0.00023493911
0.007310198 0.019493096 0.0012411348 -0.00084117864 -0.01592956 -0.012950458 0.008114635 -0.01742483
0.0020738703 -0.014758921 0.0022354366 0.020357238 0.0077610365 -0.0069628404 0.006744657 -0.012339966
0.0030311842 0.0032844471 0.011160969 0.017508058 -0.012485534 -0.009790375 0.019231273 0.0021543766
0.0012408283 -0.0040446315 -0.0026528528 -0.020836245 0.0073061455 5.0640654e-05 0.0039034528 0.016548276
-0.02147104 0.01543771 -0.009514088 0.01353698 -0.019260202 0.005386378 -0.0024107841 0.017658524
-0.0030187557 -0.009826192 -0.015586424 -0.013830997 -0.006320902 -0.009250625 -0.008752416 0.006258386
0.00011688817 -0.0035643114 -0.0010785816 0.008873625 -0.008619636 0.01560205 -0.007473396 -0.0018474279
-0.014228827 0.017018035 0.0046024504 0.0025107276 0.0065234825 0.007166826 0.010622288 -0.00027375636
-0.0148933465 0.014851076 0.008939926 -0.010071077 -0.009306406 0.0123216845 -0.0058967094 -0.0046226564
-0.0060176346 -0.016855778 -0.012583573 -0.0082799485 -0.005881708 -0.0016026521 -0.0041472698 -0.0025258265

action_model._discrete_distribution.branches.12.bias f4 [2]
00000000: fdcd 973a f1cd 97ba
0.0011581775 -0.0011581761

action_model._discrete_distribution.branches.12.weight f4 [2, 128]
00000000: 991d 65bc 9acb 3dbb 7d6b 253c e0cb d63b
00000010: eeea fb3a 3f07 4bbc d18d c33c a68c 22ba
00000020: 9c47 3fbc 3f63 2f3b 403b 15bb fec1 deba
00000030: 2213 e3bc 70ba c2bb 5fc1 7abc bc16 19bc
00000040: 566c 3c3b 1645 ce3c ef3d 0e3c baf8 353c
00000050: 8b52 a73b b44e 91bc 93da a63a 9cce c03b
00000060: e519 5c3c f4c3 8e3c 087f b0bb 5fb6 43bb
00000070: b2ec 9f3b 46e7 01bc b69b 7fbc 0f64 7f3a
00000080: 4b9d 533c a76b 61bc e4a8 f63b cd97 593b
00000090: 9dae 94ba aa8b 443c f71a 823c 0dc4 0fbc
000000a0: 4ea8 01bb 3f69 59bc 8ff2 31bb 11e5 0c3b
000000b0: c018 b83c 1479 efbb 0cd9 093c 95a8 593b
000000c0: 1edf e1ba 05e5 28bc b02f 90bc 4fa5 19bb
000000d0: f3b0 7a3b 2fb9 89ba 1a60 f5bb 174d c73b
000000e0: eabf e33c a9ec 05bc 8712 083c 6c8f 3ebc
000000f0: fad1 cc3a 7961 843c fa77 36bc ce56 da3b
00000100: 1cd2 89bc 0a1f 8b3c f877 7c3c dde1 9c3c
00000110: 4918 c4bb fc0d 703c 658a 68bc 8a4a 89bc
00000120: 282f 83bc 9cda 56bb d216 453c 5a2b 9b3a
00000130: 84cf 46bc 6fd9 2b3c 9a19 b93b b995 893a
00000140: 8888 8f3a 562e ddbc 7b94 933c 8ca6 aabb
00000150: 644b c33c 44e9 03bc d839 5abc 9849 393b
00000160: 8cbb e6bb 43b5 1ebb 5945 aa3b 87ac 3c3c
00000170: 1821 40bc a519 e13b f4bd 82bb 7fe7 fcbb
00000180: ca99 623c f074 293a 255c 40bc 05e3 01bc
00000190: f76e c43b e159 563c d409 8a39 f76a a3bc
000001a0: b984 87bc 0e03 1a3c e081 123c 65e7 933c
000001b0: 5324 683a 48c4 833b 95c1 363c 00e9 14b8
000001c0: b671 debc 0126 9b3c 6cec 53bb 0831 213b
000001d0: b7b5 12bc b1d2 ee3a 1c54 db3b 7d3d e13a
000001e0: 6067 733b 91b5 30bc 070a d33c c987 ad3b
000001f0: 59ab 44bc 7b22 a5bb 47d3 0dbc 7d9f e93c
00000200: 5605 66bb 3ee3 8b3a 51ef 463c 5a52 8c3b
00000210: 7fe7 5d3b bf92 643c c7b1 17bc 360a 90bc
00000220: 7c58 10bc eea9 5d3c 01e7 b63a fdfe b5bc
00000230: 02db 343c 604d a8bb 5296 a83b 8c53 6f3c
00000240: c4e1 18bc 9ed9 20bd f009 463a 7337 933a
00000250: a0d1 0c3b ee06 3d3c df47 a6bb 8402 5dbc
00000260: fa6d 75bc 1744 5dbb f56b 7c3c 180b 3dbc
00000270: 870b 1eba af3d aebb 2932 00bb a5d7 ec3b
00000280: 13c0 a3ba f040 ce3c 09b6 5bbc a56d 953b
00000290: 5fef 3c3c 1f2b a239 36de 4fbc 958e 98bc
000002a0: 90de d4bb 4864 30bc 766d 8cba 0857 343c
000002b0: efe0 bfbc 5e8e e03b 3679 333a 140b 4f3a
000002c0: e90e f53b a95b a13b e00a 48bb e64e 5ebc
000002d0: 8cd6 58bb 3297 88bb 15a7 6a3c 21e9 86bc
000002e0: a8cd b1bc 2cff 6fba cad5 b8bc fd1d 33bb
000002f0: 66d6 09bc cb3e 2dbc 09d2 e43b 0a91 353c
00000300: 3242 103c 2fc2 9ebb 2213 543b abaa ddbb
00000310: 803d 99b9 812e f0bb 88e3 653c 4633 3cbb
00000320: aed2 803b 1ecc 353a 0c11 003c 126a 0b3c
00000330: e43e c53c 70bb c0bb 9747 b8b9 7f89 e33a
00000340: bfdb 1abc cac7 103d 1d06 71bb 003b ddbb
00000350: 4780 73bc 9033 203c e05a 013c 451b a8bb
00000360: 8806 d83c 84ed a33c beeb 883c b5e2 1eba
00000370: 4f3f 563c 121d 243b ca0f 22bb 26f3 913c
00000380: 389e 39bc 605e 8abc 579e 003a 5fea a9bb
00000390: c331 83bb ea77 0bbc 22ed 13ba 9f2a bf3b
000003a0: 885f 753c 143a 67bc 4517 61bc 90ab 583b
000003b0: e293 fdbb bafb 04bb e473 223c 93ee 23bc
000003c0: c088 903c 7c8e a4bb 806a 5dbc 19e9 0a3c
000003d0: 2109 5bbb 6ac8 abba e720 7dbc 7880 65bc
000003e0: c0c8 8cba 94b9 6d3c e168 0ebc 1fad 92bb
000003f0: f613 cfbb 1d30 e33b 3d31 f33a fc35 65bb
-0.013984107 -0.0028960467 0.010096428 0.0065550655 0.0019219795 -0.012391864 0.023871334 -0.0006200768
-0.011674788 0.0026762036 -0.0022770911 -0.001699507 -0.027719084 -0.0059426352 -0.015304892 -0.009343799
0.0028751097 0.025179427 0.008681758 0.011106664 0.0051062754 -0.017737724 0.0012729935 0.0058840048
0.013433908 0.017427422 -0.005386237 -0.002986334 0.004880511 -0.007928675 -0.015601089 0.0009742388
0.01291592 -0.0137585765 0.0075274576 0.0033202053 -0.0011343543 0.011996189 0.015881998 -0.0087747695
-0.0019784155 -0.0132697215 -0.0027152633 0.002149884 0.02247274 -0.007308135 0.008413564 0.0033212055
-0.0017232632 -0.010308509 -0.017600864 -0.002344448 0.0038252443 -0.001050746 -0.007488263 0.006082188
0.027801473 -0.0081741 0.0083051985 -0.011630874 0.0015626543 0.01615976 -0.011137003 0.00666318
-0.01682382 0.016982574 0.015409462 0.019150669 -0.0059843403 0.014651772 -0.014193152 -0.016759176
-0.016013697 -0.003278411 0.012029367 0.0011838481 -0.0121344365 0.010488852 0.005648804 0.0010496891
0.0010950724 -0.026999634 0.018015137 -0.005207842 0.02383966 -0.00805122 -0.013319455 0.0028272625
-0.0070414003 -0.0024216927 0.005196255 0.011515743 -0.01172664 0.006869512 -0.0039899293 -0.007718026
0.0138306115 0.00064642634 -0.011740719 -0.007927661 0.0059946734 0.013082952 0.00026328734 -0.019948466
-0.01654278 0.009400142 0.008942097 0.018054673 0.00088555104 0.0040212013 0.011154552 -3.5502948e-05
-0.027153831 0.01893902 -0.0032336963 0.0024595875 -0.008954457 0.001822075 0.006693376 0.0017184463
0.0037140474 -0.010785476 0.025761617 0.005295728 -0.012003743 -0.005039511 -0.0086563295 0.028518433
-0.0035098395 0.0010672582 0.012142018 0.004282278 0.0033859906 0.013951003 -0.009258694 -0.017582994
-0.008810159 0.013529284 0.0013954343 -0.022216314 0.011038544 -0.005136177 0.0051448727 0.0146073215
-0.0093311705 -0.039270036 0.00075545814 0.0011231735 0.002148725 0.011537297 -0.0050744857 -0.013489369
-0.014979834 -0.0033762509 0.015406598 -0.0115382895 -0.00060289394 -0.005317412 -0.0019561148 0.0072278553
-0.0012493156 0.025177449 -0.0134101 0.00456019 0.01153168 0.00030931176 -0.012687257 -0.018622676
-0.006496258 -0.010766096 -0.0010713774 0.011007078 -0.023422686 0.006852909 0.000684637 0.0007898074
0.007478584 0.004924257 -0.003052406 -0.013568616 -0.0033086864 -0.0041684145 0.014322062 -0.016468586
-0.02170451 -0.000915515 -0.02256288 -0.0027331107 -0.008412933 -0.010574053 0.006983046 0.011081943
0.008804845 -0.004844926 0.0032360037 -0.00676473 -0.00029228255 -0.0073297624 0.014031298 -0.0028717085
0.003931365 0.0006935018 0.007816564 0.008509176 0.02407784 -0.0058817193 -0.00035148553 0.0017359703
-0.009451806 0.035346784 -0.0036777325 -0.006751418 -0.014862127 0.009777918 0.007895201 -0.005130204
0.026370302 0.020010717 0.016713973 -0.00060610037 0.013076617 0.0025041741 -0.002472865 0.017816138
-0.011329226 -0.016890705 0.0004906407 -0.00518541 -0.004003735 -0.008512476 -0.00056429405 0.0058339383
0.01497639 -0.014112968 -0.013738458 0.0033061244 -0.0077385763 -0.0020291642 0.009915326 -0.010005611
0.017643332 -0.0050218683 -0.013514161 0.008478426 -0.003342219 -0.0013105993 -0.015449739 -0.01400768
-0.001074098 0.014509577 -0.008691997 -0.004476204 -0.006319518 0.006933226 0.0018554103 -0.0034974804

action_model._discrete_distribution.branches.13.bias f4 [2]
00000000: 0951 2bba f350 2b3a
-0.00065352075 0.00065351947

action_model._discrete_distribution.branches.13.weight f4 [2, 128]
00000000: d113 353c 4f1e cbb9 3dea 77bb ff95 b03c
00000010: 22dd 613a 5ee8 a93b e307 c5bc 0cd8 163c
00000020: 10b8 433c f3ce 183c 07d0 99bc 7b6a 443c
00000030: 9978 a03c 074e b2bb 1333 b9bc 488b 233b
00000040: 4784 a1bc 4f2e 033c 58ea 053c 928d 84bc
00000050: 13bc e3bb c353 1a3c aa68 c8bb e60a 2639
00000060: b1cc abbc 7c07 94bb 25b7 dd3b 0a17 26bc
00000070: daf3 a23a 119e 1a3b 3591 633c cad0 75bc
00000080: ad8c 0abc 763b 663c 0d7d c03b aad1 5dba
00000090: 6866 36bb 0646 1eba aa3a 3d3c 64be c83b
000000a0: 1385 08bc 70bb 8c3b d286 843b 0027 e13b
000000b0: 5854 823c eda1 353c ea16 67bb 11b4 bd3c
000000c0: 31ec 903b 437a ddba 8399 14ba 8f34 bc39
000000d0: 5a65 ecbb fd72 de3a 692a 24bc 6224 b9bb
000000e0: f210 72bc 94e2 a53c cf95 73bb ae03 913b
000000f0: dd0d 74bc f585 1a3c a7bf 873b dede 88bc
00000100: c7b3 d5bb 17c0 bf3c 0f1c d03b 1be9 c7ba
00000110: dcce 91bc 749a 40ba c8c5 8bbb 644a fdba
00000120: 7762 b5b8 6295 2dbb 2af9 143c c91a 893a
00000130: d0a5 aa3b 1d63 8f3b 4933 c7bb 8192 23ba
00000140: c7b1 69bc 5857 24bc be49 32bc 0211 acbb
00000150: cc0f 6e3c f973 5bbb 76b8 aeba 80e5 73bc
00000160: 04a9 683c ed0d 413b 73d8 1d3c 8836 82bc
00000170: 99bd c5bb a559 4a3c 77f8 853c f391 77bc
00000180: 7644 cbbc 7f51 53bc e897 6ebc ae79 483a
00000190: 86f4 b33b 0862 943b 1434 433c c829 813c
000001a0: 8e05 663c 5a96 8b3c e3fb 5bbc cd42 153c
000001b0: e378 a1bb b074 8b3b 3453 9fbc e2d1 c23b
000001c0: 8d86 56bb a973 ef3b 4bcb ddbb 3ab1 c23b
000001d0: c2f9 cbbc 129b 803b e47e aaba d88e 80bc
000001e0: b4b8 d33a 01b6 34b9 55f6 f13b b7f0 00bc
000001f0: 4b70 61bc 53c2 093c 9130 e5bb cbcc bdbc
00000200: 43e0 823c 8c40 50bc 3c7b af3b a2db 1fbc
00000210: 31ab 9b3c dc88 4cbb e409 7a3c c4e4 59bb
00000220: 3e1a eabb ff7d 693b 0dcb f33c 1741 053c
00000230: 52e9 fbb9 1a27 b23c 7e10 213c bfe1 10bc
00000240: 2d2c b63c 3a23 ddb9 2240 85bb 2b26 70ba
00000250: d8d5 923a 2084 513c 99c0 b73b 8507 1cbb
00000260: e971 243c 5ca0 37ba 6f8b dfbb c7f0 f3ba
00000270: 70fa 84bb d052 5c3c e651 83bc cc65 84bb
00000280: 12f9 483c f5bd 8bbc d907 06bc 3c2e 0bbc
00000290: 7405 aa3a ef58 273c e315 8db9 f41a b4bb
000002a0: 7c1f 4a3c 83da 8bbc 82be 2bbc 1c9a 223b
000002b0: b597 883b 09cf ae3b 4a25 c23c 52a0 823c
000002c0: 7aeb 1e39 2bb7 3bbb db53 fdbb bae8 ad3a
000002d0: cb5a 1cbc 81f4 1cbc c4e8 bf3b 80d2 c7bb
000002e0: a606 86bc 476c 22bc c4cb 933c cfb4 25bc
000002f0: 73ff 573b 782c 8abc 9b4d 91bc 589c b53c
00000300: f8fa 2f3b f6ce 2abc c499 553b 9a22 8136
00000310: 46e8 3c3a 8da4 0e3c d0a7 8fbb a97b c9bb
00000320: 1f92 95bc 200d dc3c bc04 4b3b ff64 50bc
00000330: 7d2b 09bc 8c47 b63b 78dd c5bb 7836 b3bc
00000340: 0e6d 15bc c181 053c 38ad 543c 5a8c 6bbb
00000350: eb0d 903b c4fd 293c b3d3 ad3c 66eb 0abc
00000360: bd20 d83c 3e47 243c 23cb 30bc 8160 f13a
00000370: 4881 223c 1d27 8a3b ae1c b73a 55c3 193c
00000380: 7f21 fd3b c947 9f3b 496e 213c c7d3 d6bb
00000390: 2f8e f03b d414 b2bb 8208 873b 251b 0b3c
000003a0: 0322 8ebc 66c8 c63a 057a 97bb d4e3 c8ba
000003b0: 545f 01bb 265f ee3b 5df8 cd3c 99ec ef3a
000003c0: 392d 37bb 4e7e 0a3b 82aa 09bc 85ea 6abb
000003d0: 689f 6f3c 9988 213b a203 713a c8fd e239
000003e0: 1c6a ed3b 52af 1c3c fb30 b1ba c50a bb3b
000003f0: cedc 6ebc 6122 5fbc 95fd a23b a627 8939
0.011052088 -0.0003874176 -0.0037828826 0.021555899 0.000861602 0.005185171 -0.024051612 0.009206783
0.011945739 0.009326684 -0.018775953 0.011988278 0.019588755 -0.0054414305 -0.022607362 0.0024954844
-0.019716395 0.008006646 0.008173548 -0.016180787 -0.0069499104 0.009419384 -0.0061159926 0.00015835054
-0.020971628 -0.004517494 0.0067662173 -0.010137329 0.0012432293 0.002359275 0.0138896005 -0.0150033925
-0.008456391 0.0140522625 0.005874282 -0.00084617233 -0.0027832035 -0.0006037656 0.011549631 0.006126212
-0.008332509 0.004294805 0.004044392 0.0068711042 0.015909359 0.011085969 -0.003526146 0.023157151
0.0044226875 -0.0016897399 -0.0005668627 0.00035897314 -0.0072142305 0.0016971525 -0.010019877 -0.005650089
-0.014774548 0.020249642 -0.003716815 0.0044254875 -0.014895883 0.009431352 0.00414272 -0.016707834
-0.0065216753 0.023407025 0.006351001 -0.0015251966 -0.017798834 -0.0007347234 -0.0042655207 -0.0019324538
-8.649093e-05 -0.0026486744 0.0090926085 0.0010460253 0.0052077547 0.004375829 -0.0060791117 -0.00062397873
-0.014263577 -0.01003059 -0.010881839 -0.005251051 0.014530133 -0.0033485873 -0.001333012 -0.01488626
0.014200453 0.0029457763 0.009634125 -0.015895143 -0.0060345647 0.0123504745 0.016353829 -0.015110481
-0.024812918 -0.012897848 -0.014562584 0.0007647526 0.005491796 0.004528288 0.011914272 0.015766993
0.01403941 0.017039467 -0.013426754 0.009110165 -0.004927741 0.0042558536 -0.019448854 0.00594543
-0.0032734007 0.007307489 -0.006768619 0.005941537 -0.024899367 0.003924736 -0.0013007787 -0.015693113
0.0016153068 -0.0001723394 0.0073841014 -0.007869891 -0.013759683 0.008408147 -0.006994315 -0.023168942
0.015976077 -0.012710702 0.005355267 -0.009756954 0.019002529 -0.0031209504 0.015261147 -0.0033247927
-0.0071442416 0.0035628078 0.029759908 0.008133194 -0.00048048288 0.02174716 0.009830592 -0.008842885
0.022237862 -0.0004217865 -0.004066483 -0.0009160961 0.0011202646 0.012787849 0.005607676 -0.0023808193
0.010036924 -0.00070047914 -0.0068220417 -0.0018611186 -0.004058175 0.013447478 -0.016030263 -0.0040404554
0.012266414 -0.017058352 -0.008180582 -0.00849491 0.0012971596 0.0102140745 -0.00026909923 -0.005496377
0.012336608 -0.017071968 -0.010482432 0.0024811095 0.0041684755 0.005334739 0.023699421 0.015945587
0.00015155776 -0.0028643112 -0.0077309436 0.001326821 -0.009543131 -0.009579779 0.0058566052 -0.0060980916
-0.016360592 -0.009913511 0.018041499 -0.010113909 0.0032958656 -0.016866907 -0.0177372 0.022169277
0.002685247 -0.01042532 0.0032592872 3.8485277e-06 0.00072062423 0.008706224 -0.0043840185 -0.0061487746
-0.018258153 0.026861727 0.0030978164 -0.012719392 -0.008372185 0.0055627283 -0.006038364 -0.021876559
-0.009120239 0.0081486115 0.012980752 -0.003594181 0.0043961904 0.010375444 0.02121911 -0.008478975
0.026382798 0.010026751 -0.010790619 0.0018415601 0.009918518 0.0042160884 0.0013970339 0.00938495
0.0077249403 0.0048608524 0.009852954 -0.0065560075 0.0073411684 -0.005434612 0.0041208873 0.0084903585
-0.017350202 0.0015165925 -0.0046227 -0.0015326687 -0.0019740658 0.007274526 0.025142843 0.0018304765
-0.0027950539 0.0021132412 -0.008402469 -0.003584535 0.014625408 0.002464807 0.0009193962 0.0004329516
0.0072453152 0.009563284 -0.0013518626 0.005708071 -0.014579011 -0.013619036 0.004974077 0.00026160217

action_model._discrete_distribution.branches.14.bias f4 [2]
00000000: 485a 9fbb 4c5a 9f3b
-0.0048630573 0.004863059

action_model._discrete_distribution.branches.14.weight f4 [2, 128]
00000000: 8d63 b4bb 41e9 dbbb d10a 08bc 9984 3abc
00000010: f4a3 99bc de81 9dbc d2f8 b5ba 5805 83bb
00000020: ecb6 80bc 99cc 52bc 0dba 2abc 1a27 273c
00000030: f021 08bc 7db0 3ebc 79ae 75bb de37 6fba
00000040: d6b6 b8ba 402f 263c 60af 8b3c b463 793b
00000050: 55b6 83b9 5e20 90bb 5f66 9c3b b96f 023c
00000060: 2379 81bb aea6 1f3b 7ff1 273c 5939 b9b8
00000070: e749 8fbc 9ce0 023c c0e9 8abb d5b3 d0bb
00000080: 2e14 81bb 584d 5ebc 1962 d6bb 92b2 8f3c
00000090: eba7 8a3b a2ac e1bb 2741 f73b 5136 5dbc
000000a0: 1c03 57bc 9972 a8bc 1d37 1e3c 5c67 1c3b
000000b0: a33d 74bb c0b7 acbc 5a67 8bba 31c7 103c
000000c0: 42c8 823a b1c5 453c dec1 3c3c b282 99bb
000000d0: 7b6d c8bb c682 363b 31e2 a9bb 5d22 6c38
000000e0: 40fd a53a a297 20bb 8f82 053c f78b f83b
000000f0: 6cdf 233c 0a2c e4bb 0f5c f5ba f652 863c
00000100: f7f7 ef3b ef85 84bc 3518 043c 41ba ca3a
00000110: 0e0c 05bb 65a9 75bb 5e1d b23b 0e76 3c3c
00000120: 0582 383c 07b3 ea3b db15 823c 94d1 f7ba
00000130: 39fa 95bc 7f62 c4ba 54c2 3739 29c6 53bb
00000140: b149 0e3c f066 9e3b 09e8 0bbc 5427 54bc
00000150: 55fb fa3b adfd 8f3b 4152 323c ff42 953a
00000160: f30b 6bb8 5730 9dbb 54d9 4abc 3fbb 5c3b
00000170: 1dc1 f23b 0b1c 3a3c a24f 523b 1705 9a3b
00000180: 9954 0b3b 0df0 0ebc 3c34 8dbc f102 733b
00000190: dafd 00bc 8c4b da39 0ca6 723c b680 7e3b
000001a0: e1db a8bb cbdb e4bb c892 0a3c 3a92 ae3c
000001b0: c4ae 253c 714b 803b 4883 60bc ac11 a73c
000001c0: 35ec c8bc e35b fb3b dc59 e23b f1a6 a53b
000001d0: 6b47 cabb e873 f9bb 94f3 203c e696 873c
000001e0: 1f8b d93c cd09 80bc 06bc 09bb cce4 46bb
000001f0: 08d5 3d3c 0222 543c 51b6 663c bf0c 903c
00000200: 8425 a83b d070 a43b 02c1 813a 3d0b 613c
00000210: d3b2 2f3b 28ab 293b 8f25 9a3c 391a 5b3c
00000220: 4ca3 aebb c7b4 f93b 60d4 71bb f182 eab9
00000230: a2f0 823b c453 6e3c 82b6 d13b c9df 883b
00000240: a818 bc3a dc35 0bbc 6934 efbb 0460 e2bb
00000250: e7f0 c3bb 2bb1 263c 8344 173b a63c 46bc
00000260: 76cb 573c d2c0 c93a cf9b 8fbb 0de7 9ebc
00000270: 68f7 ab3a 1e03 1abc 69c0 58bb f58d 6bbc
00000280: 830d 343c 20ad 9c3b 12d8 9cba 0e25 95bc
00000290: e33a c1bc 4927 f4bb 4f66 343c d82b 9cba
000002a0: f181 423c f9ee 6e3c 2d93 3ebc c9a6 933c
000002b0: 5cfd 583b b263 fa3a 8f23 9a3b a9fc a73c
000002c0: 7f10 34bc 10e4 893c 8590 b73c 48a0 6a3c
000002d0: 402b 27bc 7287 a03b 0d16 91ba 677f a5bb
000002e0: e9fa 08bc aaeb 19b9 f7ba 2cb8 fc30 343c
000002f0: 0434 c5bc dbaa 603c 3bd4 363c 365c 1bbc
00000300: ba8c 6f3c 3d9a 8a3b 0f89 39ba 32e3 f2bb
00000310: 58be 8abc 4dc7 41bc 5efe 653c 83d2 403c
00000320: b9da aebc beb1 a5bb a00a a4bb 6461 863c
00000330: 1663 883b f370 78bb e6bc 3abb b8ee 85bc
00000340: 8cc0 72bc a055 bbbb 0911 2e3b de95 dab7
00000350: db62 053c 84ff 2ebb 851b f8bb 98e0 99bb
00000360: b794 45bb f6e4 353b 8a23 06bc b33f 6d3c
00000370: 0542 b6bc 6e38 823b 4e6f 3abc a428 613b
00000380: 4c36 8e3a 9bb8 8f3c 38dc 98bb 9757 db3b
00000390: 7847 c13b d4f7 383c 1ac6 44bc b52a a53a
000003a0: 9e92 473b bfe7 85bc 353f 0dbc b02f 34bc
000003b0: 3dd7 4a3c b34f 5fbc a6c3 e0bb c138 3fbc
000003c0: bfd5 c83c 96e4 c33a 7077 6ebb 899a 323c
000003d0: a473 183c 163c b8ba 0a32 86bc b83b bcbc
000003e0: 7168 4fbb a950 e13b cb6a b439 557c c9bc
000003f0: ce69 23bc 827b 36bc 7d11 71bc fc8d 383c
-0.0055050314 -0.0067111556 -0.00830336 -0.011384153 -0.018754937 -0.019226965 -0.0013883358 -0.0039984398
-0.015712224 -0.012866163 -0.0104203345 0.010202194 -0.008308873 -0.011638758 -0.0037488027 -0.00091254513
-0.0014092575 0.010143101 0.017051399 0.0038053812 -0.00025122115 -0.0043983897 0.004772946 0.007961207
-0.003951208 0.0024360823 0.010250448 -8.832169e-05 -0.017491294 0.007988121 -0.004239291 -0.006369094
-0.003939173 -0.013568245 -0.006542456 0.017541204 0.004231443 -0.0068870345 0.0075456086 -0.01350172
-0.0131233 -0.020562457 0.009656695 0.0023865318 -0.0037268184 -0.021083713 -0.001063566 0.008836553
0.0009977894 0.012071059 0.011520831 -0.0046847695 -0.0061165667 0.0027848943 -0.005184435 5.6298788e-05
0.0012663975 -0.0024504443 0.008148803 0.0075850445 0.010001998 -0.0069632577 -0.0018719452 0.01639698
0.007323261 -0.016177146 0.008062412 0.0015466885 -0.0020301375 -0.0037485 0.0054356297 0.011502756
0.011261468 0.007162455 0.015879562 -0.0018907064 -0.018307792 -0.0014982967 0.00017524633 -0.0032314158
0.008684562 0.0048340484 -0.008539208 -0.01294883 0.0076593556 0.004394254 0.010883869 0.0011387764
-5.6039495e-05 -0.0047970223 -0.012380917 0.0033680943 0.007408275 0.011359225 0.0032090922 0.004700314
0.002126014 -0.008724225 -0.017236821 0.003708061 -0.007873023 0.00041636487 0.0148100965 0.0038834042
-0.0051531647 -0.006984209 0.008457847 0.02130996 0.010112468 0.0039152433 -0.013703175 0.020394169
-0.024526695 0.007670866 0.0069076847 0.0050553014 -0.0061730645 -0.007612694 0.009823699 0.016551446
0.026555596 -0.015629673 -0.0021016612 -0.0030348776 0.011586435 0.012947561 0.014081554 0.017584203
0.0051314253 0.005018331 0.000989944 0.01373559 0.0026809468 0.002588937 0.018816737 0.013372951
-0.005329525 0.0076204273 -0.0036900267 -0.00044729517 0.003995971 0.0145463385 0.0063999305 0.004177068
0.001435061 -0.008496728 -0.007299949 -0.0069084186 -0.0059796455 0.010174076 0.0023081608 -0.012099421
0.013171067 0.0015392548 -0.0043825875 -0.019397283 0.0013119997 -0.009400157 -0.003307367 -0.014377107
0.01098955 0.0047813803 -0.001196625 -0.018206146 -0.02358765 -0.007450972 0.01101072 -0.0011914922
0.011871801 0.014583343 -0.011631769 0.018023865 0.0033109998 0.0019103198 0.004703946 0.02050622
-0.010990261 0.016832381 0.02240778 0.014320441 -0.010203183 0.004898959 -0.0011069194 -0.005050588
-0.008360603 -0.00014679009 -4.118212e-05 0.010998007 -0.024072655 0.01371261 0.011158998 -0.009482434
0.014620954 0.0042298124 -0.0007077613 -0.0074123377 -0.016936466 -0.011827302 0.014037697 0.01176894
-0.02134453 -0.005056589 -0.0050061494 0.016403861 0.0041622026 -0.003790912 -0.002849394 -0.016349182
-0.014816415 -0.0057169944 0.0026560447 -2.6057412e-05 0.008141245 -0.0026702592 -0.00757164 -0.004695963
-0.0030148455 0.002775488 -0.008187184 0.014480519 -0.022248277 0.003974012 -0.011379076 0.00343565
0.0010849922 0.017544081 -0.004664924 0.006693791 0.0058984123 0.011289556 -0.012010122 0.0012601229
0.003045238 -0.016345857 -0.008621027 -0.010997698 0.012380418 -0.013629842 -0.0068592606 -0.011671246
0.024515985 0.0014945443 -0.0036387108 0.010901102 0.009304915 -0.0014055993 -0.016381282 -0.022977695
-0.0031647945 0.0068760705 0.00034411842 -0.024595419 -0.009973956 -0.011137845 -0.014713642 0.01126432

action_model._discrete_distribution.branches.15.bias f4 [2]
00000000: b98a 113a 978a 11ba
0.00055519823 -0.00055519625
